models/mlp/v1/best_model_mse_deep.pth (torch, 179232 bytes, 9 tensors)

layers.0.weight f4 [256, 1]
0	0x3fd48e29	1.6605884
1	0x3f3ded48	0.7419019
2	0x3f0ca620	0.54940987
3	0x3ee296c0	0.44255638
4	0xbfb01657	-1.3756818
5	0x3f830205	1.0234991
6	0x3f8c06e3	1.0939602
7	0x3f568fc4	0.8381312
8	0x3f4acb56	0.79216516
9	0x3fa5dc0b	1.2957777
10	0xbfb03534	-1.3766236
11	0x3f0bd6f5	0.54624873
12	0xbebd3e68	-0.36961675
13	0xbfe0e972	-1.7571242
14	0xbe67daf8	-0.22642124
15	0xbf9da636	-1.2316349
16	0xbf730d90	-0.9494257
17	0x3f13f905	0.5780185
18	0x3e4f8920	0.20267153
19	0xbfc3adfd	-1.5287472
20	0xbfc335ea	-1.5250828
21	0x3e6eb300	0.2331047
22	0xbeffeee8	-0.49986959
23	0x3f8d68ce	1.1047609
24	0xbfe21484	-1.7662511
25	0x3fe6bdef	1.8026713
26	0x3ff0f436	1.8824527
27	0xbf8f478a	-1.1193707
28	0xbfba7702	-1.4567568
29	0xbfe6361f	-1.7985266
30	0xbfa1ecf1	-1.2650434
31	0xbe0c9818	-0.13729894
32	0xbde26858	-0.11055058
33	0x3f9da4c4	1.2315907
34	0x3fe666bc	1.8000102
35	0x3e7aef98	0.2450546
36	0x3f6114d0	0.8792238
37	0xbf9abb0c	-1.2088332
38	0xbf0a0e78	-0.5392833
39	0x3e7a48b8	0.24441803
40	0xbf3ba0d8	-0.73292303
41	0x3fd01c85	1.6258703
42	0x3ed3fecc	0.41405332
43	0x3f88b60b	1.0680555
44	0x3f6e979c	0.9320009
45	0x3edb1c1c	0.42794883
46	0xbff27ae6	-1.8943756
47	0x3f0acb98	0.5421691
48	0x3faf2a04	1.3684697
49	0x3fb2873a	1.3947518
50	0x3f508492	0.81452286
51	0xbfd72d08	-1.6810617
52	0x3fd8a04c	1.6923919
53	0xbfb57aba	-1.4178078
54	0x3fceda4e	1.6160371
55	0xbfa902ee	-1.3204019
56	0xbf41133e	-0.75419986
57	0xbf1c7526	-0.61116254
58	0xbf06dd4a	-0.5268141
59	0x3ee6aa7c	0.45051944
60	0xbed337b0	-0.41253424
61	0x3fea10d0	1.8286381
62	0x3f288e68	0.65842295
63	0xbf59bd10	-0.8505411
64	0x3f7d8c92	0.9904262
65	0xbf2210f2	-0.63307106
66	0xbe9d11f4	-0.3067776
67	0xbff47707	-1.9098824
68	0xbf14d8e6	-0.5814346
69	0xbf37df94	-0.7182553
70	0x3eb4f740	0.35344887
71	0x3f8a955d	1.0826832
72	0xbf1640c6	-0.58692586
73	0xbe7425f0	-0.23842597
74	0xbfb11787	-1.3835305
75	0xbf2bef76	-0.67162263
76	0x3f90d592	1.1315176
77	0x3e029910	0.12753701
78	0x3f87aec0	1.0600204
79	0x3f4bc53b	0.79597825
80	0xbf4703d2	-0.77740204
81	0xbfd55a34	-1.6668153
82	0x3fda292f	1.7043818
83	0xbfb2db5f	-1.3973197
84	0xbfd251d1	-1.6431218
85	0xbe88f608	-0.26750207
86	0x3eeee767	0.4666092
87	0xbfe819e7	-1.8132905
88	0x3eb12664	0.34599602
89	0x3f40e424	0.75348115
90	0xbedf2464	-0.4358245
91	0x3eb5d428	0.35513425
92	0x3fa22831	1.2668515
93	0x3eb08644	0.34477437
94	0x3f7a3137	0.97731346
95	0x3fd988e8	1.6994905
96	0x3fbf9ec3	1.4970325
97	0x3fd62b14	1.6731896
98	0xbfd9265f	-1.6964835
99	0xbff04846	-1.8772056
100	0xbe949194	-0.29017317
101	0x3ff0ae89	1.8803264
102	0x3f68d393	0.90947837
103	0x3f791672	0.97299874
104	0xbf9690a5	-1.1762892
105	0x3fe08380	1.7540131
106	0xbf3a719a	-0.7282959
107	0xbd9d8ae5	-0.07692508
108	0x3fa09827	1.2546433
109	0x3f50fe7e	0.81638324
110	0x3f7539bc	0.9579122
111	0x3f9fe25c	1.2490954
112	0x3f8cc262	1.0996821
113	0xbe27a268	-0.16370547
114	0x3fd07651	1.6286107
115	0xbd0abe60	-0.033872962
116	0xbfd64824	-1.6740766
117	0xbfa11fc5	-1.258782
118	0xbfe4e728	-1.7883043
119	0xbf75b7d4	-0.95983624
120	0x3fed5250	1.8540745
121	0xbfc0da34	-1.506659
122	0x3fc15a73	1.5105728
123	0xbd842ff0	-0.06454456
124	0xbef7819c	-0.48341072
125	0x3fcfdd36	1.6239383
126	0xbfd4c0fe	-1.6621397
127	0x3f0d695a	0.5523888
128	0x3f689698	0.9085479
129	0x3f54f122	0.8318044
130	0x3eb374fc	0.3505019
131	0xbfd8c6b8	-1.6935644
132	0xbf67df14	-0.90574765
133	0x3e95a960	0.29230785
134	0x3ff48c2d	1.9105278
135	0x3fa2e6f3	1.272673
136	0x3fbd2c47	1.4779137
137	0x3f85726b	1.0425543
138	0xbfe0d6d3	-1.7565559
139	0xbf0fce8a	-0.5617453
140	0xbf1b2722	-0.60606587
141	0xbf8db996	-1.1072261
142	0x3f841637	1.031928
143	0x3fe02b02	1.7513125
144	0x3f2a88b6	0.66614854
145	0x3f3967de	0.72424114
146	0xbdc8dbe0	-0.09807563
147	0xbf98967d	-1.1920925
148	0x3f157aea	0.58390677
149	0x3ddc6470	0.107613444
150	0xbf23875c	-0.63878417
151	0xbeac767c	-0.33684146
152	0x3fd72f89	1.6811382
153	0xbeba533f	-0.36391637
154	0xbfcfc8c1	-1.623314
155	0xbf7ce216	-0.9878248
156	0x3fda3a78	1.7049093
157	0x3f903b5b	1.1268114
158	0x3fe1109d	1.7583195
159	0x3ee5a4a8	0.44852185
160	0xbf0721b3	-0.52785796
161	0x3f7b7ca8	0.98237085
162	0x3f17ca0e	0.59292686
163	0xbf7a7fd4	-0.978513
164	0xbf7f9918	-0.9984298
165	0x3f419ae8	0.75626993
166	0x3eba16f4	0.36345637
167	0xbfbc07d6	-1.4689891
168	0xbf0530f6	-0.52027833
169	0xbf3004ec	-0.6875751
170	0xbf3db568	-0.7410493
171	0xbf6463e2	-0.8921491
172	0xbfb7d786	-1.4362648
173	0x3f0d7616	0.5525831
174	0x3ff28b8b	1.8948835
175	0xbef22668	-0.47294927
176	0xbf30026e	-0.6875371
177	0x3f041811	0.5159922
178	0xbf8c9fc5	-1.0986258
179	0xbf9e223d	-1.2354199
180	0x3f45da84	0.77286553
181	0x3f5286c4	0.82236886
182	0xbf244674	-0.6417
183	0xbed8cf48	-0.42345643
184	0xbe88cf64	-0.26720726
185	0xbee12a58	-0.43977618
186	0xbf643441	-0.89142233
187	0x3f8b0ae2	1.0862696
188	0xbdcaeecd	-0.09908829
189	0xbf007726	-0.50181806
190	0x3eac9ef8	0.33715034
191	0x3fa4c4c1	1.2872545
192	0x3ec0e558	0.37674975
193	0x3e886cb0	0.26645422
194	0x3fdcd641	1.7252885
195	0x3fb2fa80	1.3982697
196	0x3ff0ff1b	1.8827852
197	0x3f7ad842	0.97986233
198	0xbfb97297	-1.4488095
199	0x3f6c77a0	0.92370033
200	0xbe71a4b0	-0.2359798
201	0x3ed89038	0.4229753
202	0x3fe21410	1.7662373
203	0x3faa40a5	1.3300978
204	0x3f4fff0a	0.81248534
205	0x3f6845b2	0.90731347
206	0x3f86b69a	1.0524476
207	0xbfe5899f	-1.7932624
208	0xbfb61477	-1.4224995
209	0xbfe3279c	-1.7746463
210	0xbfd7860f	-1.6837786
211	0x3ef4729c	0.4774369
212	0x3f2c6108	0.6733556
213	0xbfb126c4	-1.3839955
214	0xbf218dcc	-0.6310699
215	0x3f95a1fb	1.1690058
216	0xbf9e5131	-1.2368528
217	0x3feeeffa	1.8666985
218	0xbea64db0	-0.32481146
219	0x3f0729fa	0.52798426
220	0xbf59b4aa	-0.85041296
221	0x3eb5b02c	0.3548597
222	0xbf8515c9	-1.0397273
223	0x3f7de5c0	0.99178696
224	0x3efc1e60	0.49241924
225	0x3f9fe95e	1.2493093
226	0xbf66ef72	-0.90209115
227	0x3ec72398	0.38894343
228	0x3fb8735d	1.4410206
229	0xbe2d4558	-0.16920984
230	0x3f6ea508	0.9322057
231	0x3f8c6da9	1.0970966
232	0xbe6358eb	-0.22201888
233	0x3f9e7ad8	1.2381239
234	0x3fe53178	1.7905722
235	0xbfd828b6	-1.6887424
236	0xbfd0f4d3	-1.6324714
237	0x3efe1700	0.49626923
238	0xbf95f54b	-1.1715482
239	0x3eaaae3c	0.33336055
240	0xbe9fc84c	-0.31207502
241	0xbfd3c691	-1.6544973
242	0x3f88a43e	1.0675123
243	0xbfb30b9c	-1.3987918
244	0xbec3df1c	-0.38256156
245	0xbf7266fc	-0.9468839
246	0x3fe92262	1.8213618
247	0xbdbfdfe0	-0.09368873
248	0x3fa9b8f0	1.3259563
249	0x3e4fba50	0.20285916
250	0xbf2e59c0	-0.681057
251	0x3f498a16	0.7872633
252	0xbce39380	-0.027780294
253	0xbfd32185	-1.6494604
254	0x3e3a08a8	0.18167365
255	0xbf9f074d	-1.2424103

layers.0.bias f4 [256]
0	0x3eeb8ec6	0.46007365
1	0xbf1286ca	-0.5723692
2	0xbf0f1f64	-0.55907273
3	0xbf2df5c0	-0.6795311
4	0x3d151cb2	0.03640432
5	0x3e8b611e	0.27222532
6	0x3e8c5d2a	0.2741483
7	0xbf642bae	-0.8912915
8	0xbf5d5e9e	-0.864725
9	0x3eaf379f	0.34222123
10	0x3f1de1db	0.61672753
11	0x3c39c275	0.011337866
12	0x3f08d98a	0.5345694
13	0x3e1aa9fd	0.15103908
14	0xbf3e80a2	-0.7441503
15	0x3f348701	0.705185
16	0x3f054c39	0.5206943
17	0x3e8bf269	0.27333382
18	0xbf0585e2	-0.52157414
19	0x3f0ec9d7	0.55776733
20	0x3d2ea233	0.042635154
21	0xbebefdcc	-0.37303007
22	0xbea0dff4	-0.31420863
23	0x3e3f2288	0.18665516
24	0x3e435df8	0.19078815
25	0x3e49d843	0.19711404
26	0x3e20a293	0.15687017
27	0x3e8f2013	0.27954158
28	0x3f6a91cb	0.9162871
29	0x3dc6df6b	0.09710582
30	0x3e782cf4	0.24235898
31	0xbf142e34	-0.57883
32	0x3f1868b4	0.59534764
33	0x3eae926b	0.34096083
34	0x3f29dc2b	0.66351575
35	0xbe255230	-0.16144633
36	0xbf5e2722	-0.8677846
37	0x3e1b106a	0.1514298
38	0xbf432e6c	-0.7624271
39	0xbf6a9748	-0.91637087
40	0xbf0875a8	-0.5330453
41	0x3eb16b3a	0.3465212
42	0xbdc0e220	-0.0941813
43	0x3e977dae	0.29588073
44	0xbf09aae4	-0.53776383
45	0xbea0b4b4	-0.31387866
46	0x3d1b9985	0.037988205
47	0xbea321cc	-0.31861722
48	0x3ecd7e7c	0.40135562
49	0x3f0b8786	0.5450367
50	0xbf735bb4	-0.950618
51	0x3ca93828	0.02065666
52	0x3f033828	0.5125756
53	0x3f487939	0.7830997
54	0x3ed9ad2b	0.4251493
55	0x3d212dee	0.039350443
56	0xbf60ed14	-0.8786175
57	0xbf1c9384	-0.6116259
58	0xbf15e316	-0.5854963
59	0xbeb3786c	-0.35052812
60	0xbf50f2e4	-0.8162062
61	0x3f5ac372	0.85454476
62	0xbee8951c	-0.4542626
63	0xbf771b9a	-0.9652649
64	0x3f25251d	0.64509755
65	0xbf1b6976	-0.60707796
66	0xbf64e718	-0.8941512
67	0x3cc0802d	0.023498619
68	0xbf7f37f4	-0.9969475
69	0xbefa5384	-0.48891842
70	0xbf6b4fb0	-0.9191847
71	0x3e5389fd	0.20658107
72	0xbe9b351c	-0.30313957
73	0xbe9854c4	-0.2975217
74	0x3e89d31a	0.2691887
75	0xbeb3aff4	-0.3509518
76	0x3d3cd676	0.046102963
77	0xbf04966c	-0.51792026
78	0x3e11dcc3	0.1424437
79	0x3eb8d524	0.36100113
80	0xbf3a1afa	-0.7269741
81	0x3d28da0a	0.041223563
82	0x3e2bd07c	0.16778749
83	0x3f6b74cc	0.9197509
84	0x3dc8ac27	0.097984605
85	0xbf582154	-0.84425855
86	0x3e948d43	0.29014024
87	0x3cb8d043	0.022560244
88	0x3dc39f76	0.09551899
89	0xbf4518ca	-0.7699095
90	0xbf628c58	-0.884954
91	0xbf08c5be	-0.5342673
92	0x3f3df50a	0.74202025
93	0xbf00f4b6	-0.503734
94	0x3f01a4ca	0.50642073
95	0x3e6778c8	0.22604668
96	0x3f30c016	0.690431
97	0x3f69fe3a	0.91403544
98	0x3e9e7141	0.3094578
99	0x3d0e6c44	0.03477122
100	0xbf77ebec	-0.96844363
101	0x3f6d09fb	0.92593354
102	0xbc7d2daa	-0.015452782
103	0xbe8b5484	-0.27212918
104	0x3f382a4a	0.7193953
105	0x3eba35e0	0.36369228
106	0xbed68e04	-0.41905224
107	0x3ee91406	0.4552309
108	0x3e720825	0.2363592
109	0xbcb90600	-0.022585869
110	0x3d0e4266	0.03473129
111	0x3f0eae00	0.5573425
112	0x3f0024b7	0.5005602
113	0xbe980104	-0.29688275
114	0x3de8559a	0.11344452
115	0xbf049c80	-0.518013
116	0x3f08cb06	0.5343479
117	0x3ed37f57	0.4130809
118	0x3d8d7b04	0.06908229
119	0xbf6a9b26	-0.9164299
120	0x3ef8fd0e	0.48630565
121	0x3ea02f43	0.31286058
122	0x3f3d15ab	0.7386119
123	0xbf7a209c	-0.9770601
124	0xbeb87484	-0.36026394
125	0x3e5aa30b	0.21351258
126	0x3f0ec71c	0.55772567
127	0xbee59dd4	-0.44846976
128	0xbf78f98e	-0.9725579
129	0xbf14d778	-0.5814128
130	0xbf0bb378	-0.5457072
131	0x3ea4178a	0.3204921
132	0xbf677f4c	-0.90428615
133	0xbf4b93e6	-0.7952255
134	0x3ec2bee0	0.3803625
135	0x3f3347be	0.70031345
136	0x3f14fafc	0.5819547
137	0x3ea8ab68	0.32943273
138	0x3eb1082f	0.34576556
139	0xbed73bf0	-0.42037916
140	0xbf55acb4	-0.8346665
141	0x3e059904	0.13046652
142	0x3f08e56b	0.53475064
143	0x3eb571db	0.35438427
144	0xbf538846	-0.8262981
145	0xbf65220c	-0.89505076
146	0xbece8c50	-0.40341425
147	0x3d8ceca2	0.068810716
148	0xbf4525fe	-0.77011096
149	0xbf3ebf8c	-0.7451103
150	0xbf68479a	-0.90734255
151	0xbeec4d38	-0.46152663
152	0x3ec96689	0.3933604
153	0x3f0e6712	0.5562602
154	0x3d2bdcd9	0.041958664
155	0xbf636ea6	-0.8884071
156	0x3ee9f135	0.4569184
157	0x3da9d984	0.08293441
158	0x3df5982c	0.11991915
159	0xbe8963cc	-0.2683395
160	0x3ed1287c	0.408512
161	0x3ef5fb92	0.48043495
162	0x3e0591d0	0.13043904
163	0xbf71d3c6	-0.94463766
164	0xbf33833c	-0.7012212
165	0xbe819d64	-0.25315392
166	0xbeffbfac	-0.49950922
167	0x3ecfc13e	0.4057712
168	0xbf3bba90	-0.73331547
169	0xbf2f74ec	-0.68537784
170	0xbf0e8486	-0.55670965
171	0xbf25a1b4	-0.64699864
172	0x3eb33a12	0.35005242
173	0xbf7c159a	-0.9847046
174	0x3e901fb0	0.28149176
175	0xbf50b46a	-0.8152529
176	0x3ec560c2	0.38550383
177	0x3b0bf928	0.0021358225
178	0x3e32fe8b	0.17479913
179	0x3de1656b	0.11005672
180	0xbebf175c	-0.3732251
181	0x3f4868e2	0.7828504
182	0x3ea61c14	0.32443297
183	0xbf330578	-0.6993022
184	0xbf43113e	-0.76198184
185	0xbed764e4	-0.4206916
186	0x3ecc722f	0.39930865
187	0x3d2f0c4a	0.04273633
188	0x3eeed173	0.46644172
189	0xbf0529d6	-0.5201696
190	0xbf281c2a	-0.65667975
191	0x3e899931	0.26874688
192	0xbea72350	-0.3264413
193	0xbdbaec00	-0.09127045
194	0x3f642ff3	0.89135665
195	0x3de90ed9	0.11379785
196	0x3e125256	0.14289221
197	0xbf73ef5c	-0.9528711
198	0x3f18b30e	0.59648216
199	0xbf31a65c	-0.6939447
200	0xbf697b94	-0.9120419
201	0xbf3216ee	-0.6956624
202	0x3f4bbb47	0.7958264
203	0x3ee437f6	0.44573945
204	0xbf29e0fc	-0.66358924
205	0x3d059265	0.032610316
206	0x3f4a63c9	0.7905851
207	0x3cb9bd07	0.022673143
208	0x3e9ab669	0.30217293
209	0x3d42872f	0.047492202
210	0x3e62964c	0.22127646
211	0xbf7e6434	-0.9937165
212	0xbdba8ff0	-0.09109485
213	0x3f65b6ef	0.8973226
214	0xbf2f1932	-0.6839782
215	0x3f20c3c7	0.6279873
216	0x3ebc0fe9	0.36730888
217	0x3e159c99	0.14610519
218	0xbed078f0	-0.40717268
219	0xbf3aa194	-0.729028
220	0xbf6cbd8c	-0.92476726
221	0xbf3ec2fe	-0.74516284
222	0x3f3ba4c6	0.732983
223	0x3ecc33f7	0.39883396
224	0xbf080094	-0.5312588
225	0x3e006438	0.1253823
226	0x3f29e5a4	0.6636603
227	0xbe8f363c	-0.27971065
228	0x3da066b6	0.078320906
229	0xbf4ee0d6	-0.8081182
230	0xbec942e4	-0.39308846
231	0x3f439589	0.7640005
232	0x3e86693e	0.26252168
233	0x3f138f93	0.5764095
234	0x3e00927b	0.12555878
235	0x3f1050b1	0.56373125
236	0x3d1a85a2	0.0377251
237	0xbf54f62c	-0.8318813
238	0x3e7f9efb	0.2496299
239	0xbf6e0da6	-0.92989576
240	0x3ebc2522	0.3674708
241	0x3cbf976e	0.023387637
242	0x3ed230e0	0.41052914
243	0x3d653d16	0.05596646
244	0x3f377ebd	0.7167776
245	0xbf2ff61e	-0.6873492
246	0x3f01596f	0.5052709
247	0xbefcb88c	-0.49359548
248	0x3d9e202b	0.07720979
249	0xbdecc630	-0.11561239
250	0xbf09116c	-0.5354221
251	0xbf7293b2	-0.94756615
252	0xbf0db09a	-0.553476
253	0x3d3c3920	0.045952916
254	0xbf4e4b26	-0.8058342
255	0x3f12cfff	0.57348627

layers.2.weight f4 [128, 256]
0	0x3ddff388	0.10935122
1	0x3c2f1c40	0.010687888
2	0x3d07ddc8	0.03317049
3	0xbcbc5120	-0.022987902
4	0xbf073681	-0.5281754
5	0x3da14f83	0.07876494
6	0x3dcb6a8b	0.09932431
7	0xbd3af124	-0.045640126
8	0x3d301f0a	0.04299835
9	0x3e02be95	0.12768014
10	0xbca68501	-0.020327093
11	0xbd4bf024	-0.049789563
12	0xbd4d6f90	-0.050155222
13	0xbe8d3977	-0.27582905
14	0x3d00e072	0.031464048
15	0xbd9c2f30	-0.07626188
16	0xbd33c943	-0.04389311
17	0xbcef6c2d	-0.029226387
18	0xbbcf0500	-0.0063177347
19	0xbd1ffaa4	-0.03905739
20	0xbf039f48	-0.5141492
21	0x3b8a2620	0.0042159706
22	0x3c2209c0	0.00989002
23	0x3dd2c899	0.10292167
24	0xbe1558ac	-0.14584607
25	0x3e860dce	0.26182407
26	0x3eb5d7be	0.3551616
27	0xbda169c5	-0.07881502
28	0x3bc42027	0.005985278
29	0xbe9f2a3d	-0.31086913
30	0xbcefd1d3	-0.029274857
31	0xbd06a2a8	-0.032869965
32	0xbcb5e3e9	-0.022203403
33	0x3d6d07a6	0.057868622
34	0x3dd6e4b7	0.10492843
35	0xbd188c0c	-0.037242934
36	0x3ba33ee0	0.0049818605
37	0xbd91abff	-0.07112884
38	0xb94a0600	-0.00019266456
39	0x3d541cca	0.051785268
40	0x3c4fa0d8	0.0126726255
41	0x3dc957b6	0.09831183
42	0x3d49ab98	0.04923591
43	0x3ac7b430	0.0015236195
44	0xbb16d360	-0.0023014173
45	0xbd5e4148	-0.054261476
46	0xbf0b1655	-0.5433095
47	0x3b71ea60	0.003691338
48	0x3de9c706	0.11414914
49	0x3b33ad3d	0.002741649
50	0xbb8436e0	-0.004034862
51	0xbf16c01f	-0.58886904
52	0x3e02866e	0.12746593
53	0xbdc37bc1	-0.095450886
54	0x3e1ab04f	0.15106319
55	0xbed7d50e	-0.42154735
56	0x3d158952	0.036507912
57	0x3d056324	0.03256525
58	0xbd66f670	-0.056387365
59	0x3c32e268	0.010918237
60	0xbd1fff0a	-0.039061584
61	0x3cd1c657	0.025607271
62	0x3cc6adac	0.024252735
63	0x3d13432c	0.035952732
64	0x3d44acb6	0.048016272
65	0x3c866ecc	0.016410254
66	0xbd3bc3f8	-0.045841187
67	0xbf3d21b9	-0.7387958
68	0x3ccc6e88	0.02495505
69	0x3d09ab6a	0.03361074
70	0x3d232c32	0.03983707
71	0x3d19f75c	0.037589416
72	0x3d5705dc	0.052495822
73	0xbd213bd0	-0.039363682
74	0xbd8ae215	-0.06781403
75	0xbc8b32b0	-0.016991943
76	0x3ee33526	0.44376487
77	0x3ac90e80	0.0015339404
78	0x3dcf7cb3	0.10131206
79	0x3c2382d2	0.00997992
80	0xbd79ff42	-0.06103445
81	0xbed6165b	-0.4181393
82	0x3e9467ae	0.2898535
83	0xbba869e6	-0.005139577
84	0xbe566e9d	-0.20940633
85	0xbcc6525c	-0.024209194
86	0x3d03314d	0.03202944
87	0xbe6611c7	-0.22467719
88	0x3caf5b8e	0.021405961
89	0xbc7f60b8	-0.015587024
90	0xbd48a7d6	-0.048988186
91	0x3d1e2ace	0.03861504
92	0x3dc49c6d	0.09600148
93	0xbcdc8bcc	-0.02692213
94	0xbca6f220	-0.020379126
95	0x3e3be70f	0.1834986
96	0x3db33aea	0.08751471
97	0x3d8492ad	0.06473289
98	0xbdb686a3	-0.08912399
99	0xbf0e943e	-0.5569495
100	0xbd7eb390	-0.062182963
101	0x3c8e23ee	0.017351117
102	0xbcf1314a	-0.029442448
103	0xbd261b42	-0.04055334
104	0xbd23ade8	-0.03996077
105	0x3e337fe7	0.1752926
106	0xbc2cc528	-0.010545053
107	0xbb93f631	-0.0045154323
108	0x3cfe10ae	0.031013813
109	0x3cb173e4	0.021661706
110	0x3ee8b5f9	0.45451334
111	0x390b26c9	0.00013270522
112	0x3d7e6691	0.062109534
113	0x3c1cf858	0.009580694
114	0x3eac8ada	0.33699685
115	0x3be61840	0.007021934
116	0xbd512f94	-0.051070765
117	0xbda3cd8d	-0.0799819
118	0xbeaf39f1	-0.34223893
119	0xbd37fd22	-0.04491914
120	0x3e197805	0.1498719
121	0xbe1fb379	-0.15595807
122	0x3cffcd70	0.03122589
123	0x3d7e2c36	0.06205388
124	0xbb8e5390	-0.0043434575
125	0x3e81cf8d	0.2535366
126	0xbd1ed95d	-0.038781513
127	0xbcfb3f24	-0.030669756
128	0x3c514220	0.012772113
129	0xbd2601a8	-0.040528923
130	0x3c8d232c	0.017228685
131	0xbdf1ba5b	-0.118031226
132	0x3d61bfc6	0.05511453
133	0xbd5fcaca	-0.054636754
134	0x3dec1f2a	0.115293816
135	0x3d4813eb	0.04884712
136	0x3b895bba	0.004191843
137	0x3dc68df0	0.09695041
138	0xbe12e494	-0.14345008
139	0x3d4b4cb4	0.049633697
140	0xbc5ad2b0	-0.013355896
141	0xbdff2402	-0.1245804
142	0x3c13df90	0.009025469
143	0x3e3ada46	0.18247327
144	0x3d7827f8	0.060584992
145	0x3d5ab27a	0.053392865
146	0x3d3171f6	0.043321572
147	0xbe388800	-0.1802063
148	0xbbee1170	-0.0072652623
149	0xbb74e5e0	-0.0037368461
150	0xbc7a2158	-0.015266739
151	0x3d6cef9c	0.057845697
152	0x3e261dde	0.16222331
153	0xbd247245	-0.04014804
154	0xbed41d00	-0.41428375
155	0xbd17f6ca	-0.03710059
156	0x3e1775ff	0.14791106
157	0x3e33c19e	0.17554328
158	0x3ed736bb	0.42033944
159	0x3d5d0e90	0.053968966
160	0x3d1a0b30	0.037608325
161	0x3d0fb199	0.03508148
162	0xbbca8a84	-0.006181063
163	0x3d3be89e	0.045876138
164	0x3d420cd0	0.0473755
165	0x3c031370	0.00800024
166	0x3d0995de	0.03359019
167	0xbdbce69b	-0.09223672
168	0x3c5b1c60	0.013373464
169	0x3d550d24	0.052014485
170	0x3d5432e0	0.05180633
171	0x3d2f9004	0.042861953
172	0xbd7bc120	-0.061463475
173	0x3c139c40	0.009009421
174	0x3e79c8a2	0.24392942
175	0xbcdce97c	-0.026966803
176	0xbd78ac0c	-0.06071095
177	0x3d434d9f	0.047681447
178	0xbd61a60c	-0.055089995
179	0xbe62fb65	-0.22166212
180	0x3d231ec6	0.03982427
181	0x3c82b5bf	0.015955804
182	0x3d1cd3ae	0.03828781
183	0x3d7beac4	0.061503187
184	0x3c98bde0	0.018645227
185	0xbd004b00	-0.031321526
186	0xbc8be914	-0.017078914
187	0x3eb9d13b	0.36292443
188	0xbd58db6f	-0.052943643
189	0xbd676b5c	-0.05649887
190	0x3c574208	0.013138302
191	0x3d10c044	0.03533961
192	0x3d1828a4	0.037148133
193	0x3c126d78	0.008937232
194	0x3df24ac6	0.11830668
195	0x3e56657b	0.20937149
196	0x3eb63005	0.3558351
197	0x3c299520	0.010350496
198	0xbd9e572f	-0.07731473
199	0x3babbc70	0.0052409694
200	0x3c9dde98	0.01927118
201	0xbce4fd04	-0.027952679
202	0x3da9e113	0.082948826
203	0x3d83f27e	0.06442736
204	0x3d19c466	0.037540816
205	0x3e99cd16	0.3003928
206	0x3d76c9f7	0.060251202
207	0xbe9a2049	-0.30102757
208	0xbd8aca3a	-0.06776853
209	0xbec51d1b	-0.38498768
210	0xbe5ff267	-0.21869813
211	0x3d7d225e	0.061800353
212	0x3d1589c6	0.036508344
213	0xbd732e1c	-0.059370145
214	0x3d217626	0.039419316
215	0x3cfb16ee	0.030650582
216	0xbdf8b33c	-0.12143561
217	0x3e8c7112	0.27430016
218	0xbcde0a6c	-0.027104579
219	0xbd0ae024	-0.033905163
220	0x3c4eab60	0.012614101
221	0x3cbb53c4	0.022867091
222	0xbdb32aa5	-0.08748368
223	0xbcd460cb	-0.02592506
224	0x3d46590c	0.048424765
225	0x3e150d40	0.14555836
226	0xbb47e8fb	-0.0030503857
227	0xbd264748	-0.040595323
228	0x3ec6d76c	0.3883623
229	0xbbecbae0	-0.0072244257
230	0xbd114fac	-0.03547637
231	0xbd16422b	-0.036684196
232	0x3d4a4615	0.04938324
233	0x3c6cc232	0.014450597
234	0x3ea7497a	0.32673246
235	0xbdd06bfc	-0.101768464
236	0xbee826d9	-0.45342138
237	0x3cd13ef4	0.025542714
238	0xbcb05a21	-0.021527352
239	0x3d274810	0.04084021
240	0xbb837b3e	-0.0040124943
241	0xbf2912a6	-0.6604408
242	0x3d83c29a	0.06433602
243	0xbea752ec	-0.32680452
244	0x3d53d4db	0.051716667
245	0xbc1c1fe8	-0.009529091
246	0x3e161481	0.14656259
247	0x3d797b90	0.060908854
248	0x3e803c9b	0.25046238
249	0xbd417228	-0.04722801
250	0x3ba715b0	0.005099021
251	0x3be414f0	0.0069605038
252	0xbd3307c0	-0.043708563
253	0xbedaf207	-0.42762777
254	0x3cfbf618	0.030756995
255	0xbd88e295	-0.06683842

layers.2.bias f4 [128]
0	0xbd0dc649	-0.034612928
1	0x3cadea34	0.02122984
2	0x3c843cf0	0.016142339
3	0x3cb56250	0.022141606
4	0xbd1d6c55	-0.03843339
5	0x3d2be3a4	0.041965142
6	0x3d5a9f64	0.053374663
7	0xbd8a728b	-0.067601286
8	0x3c0a4e88	0.008441575
9	0x3d715058	0.058914512
10	0x3d625b8c	0.055263087
11	0x3d4773b0	0.048694313
12	0xbc0ce659	-0.008599841
13	0xbd4799db	-0.048730712
14	0xbc4447a8	-0.011979975
15	0x3d41cb97	0.0473133
16	0xbd2ad104	-0.04170324
17	0xbd567944	-0.05236174
18	0x3c00a2d1	0.007851318
19	0x3aedef66	0.0018153011
20	0xbbc50a80	-0.0060132146
21	0xbcdd9278	-0.02704738
22	0xbd0fad98	-0.03507766
23	0x3c972090	0.018448144
24	0xbd036f59	-0.03208861
25	0x3d62b6a2	0.055349953
26	0xbd5ab54e	-0.053395562
27	0xbd1cc93e	-0.038277857
28	0xbc8a6e4d	-0.016898299
29	0x3ce415c5	0.027842412
30	0xbd4f5bb4	-0.050624564
31	0xbd11d0d8	-0.03559956
32	0x3b189b40	0.0023285896
33	0x3c7b988e	0.015356196
34	0xbd6a382e	-0.057182483
35	0x3c7f6fde	0.015590636
36	0xbd1346e6	-0.035956286
37	0x3d4a0853	0.049324345
38	0x3c4965d8	0.012292348
39	0x3cd20fad	0.02564224
40	0x3d3fda96	0.04683932
41	0x3ba16d32	0.004926347
42	0xbce0a1f0	-0.027420968
43	0x3bb1bacd	0.0054238797
44	0xb8f19c00	-0.00011520833
45	0x3d21ae3e	0.03947281
46	0x3ccf8ede	0.02533668
47	0xbb14ceb1	-0.0022706205
48	0x3ceb730d	0.028741384
49	0x3d05ed60	0.03269708
50	0xbc7457d0	-0.014913514
51	0xbd7658d6	-0.060143314
52	0xbd1eb26c	-0.038744375
53	0x3d38da54	0.04513009
54	0xbd75f1c4	-0.06004502
55	0xbd2682b2	-0.040651985
56	0x3cb990c5	0.02265204
57	0xbcb3f5d2	-0.021967802
58	0xbccc30d1	-0.024925621
59	0x3d02940c	0.03187947
60	0xbbc3fd60	-0.0059811324
61	0x3c7c5103	0.015400174
62	0xbda5a8e2	-0.080888525
63	0x3a643e6c	0.00087068113
64	0x3cc54862	0.024082366
65	0xbd2f6c84	-0.042828098
66	0xbd6be130	-0.057587802
67	0xbdb3f74b	-0.08787402
68	0x3d55bd3c	0.05218242
69	0xbbda0620	-0.006653562
70	0x3bb0ad9f	0.005391791
71	0xbbaa56ed	-0.0051983506
72	0x3c939f54	0.01802031
73	0xbd156016	-0.036468588
74	0xbdb207a2	-0.08692862
75	0x3cfaaa08	0.030598655
76	0xbd213350	-0.039355576
77	0x3bd5c9b0	0.006524287
78	0xbd3b03e6	-0.045658015
79	0xbd3d11bf	-0.046159502
80	0xbd0a7121	-0.033799294
81	0x3d7e5ae4	0.0620984
82	0xbd074616	-0.033025824
83	0xbd09e25e	-0.033663146
84	0xbd21a978	-0.03946826
85	0x3d14b6d6	0.03630718
86	0x3c0053c5	0.007832472
87	0x3d24d36f	0.0402407
88	0xbcba597e	-0.022747751
89	0x3d275bf2	0.04085917
90	0x3c0ae857	0.008478246
91	0x3d7d804a	0.061889924
92	0xbd7d73b4	-0.06187792
93	0xbd55362b	-0.05205361
94	0xbc7241f7	-0.014786235
95	0x3c9e3bbc	0.019315593
96	0xbd39e5d8	-0.04538521
97	0x3d8e57b4	0.06950322
98	0xbd3032c2	-0.043017156
99	0x3c3b8e00	0.01144743
100	0xbcd93e47	-0.026518954
101	0x3d26698f	0.040628012
102	0xbcf0a0f0	-0.029373616
103	0xbc54bf21	-0.012985022
104	0x3d74a2da	0.05972562
105	0xbce0e9a6	-0.027455162
106	0x3bd01cde	0.0063510975
107	0x3cef6d40	0.0292269
108	0xbcc2747c	-0.023737185
109	0xbd1139ba	-0.035455443
110	0x3d54fd31	0.051999275
111	0xbcc24cd4	-0.023718275
112	0xbc9487e2	-0.0181312
113	0xbcec4530	-0.028841585
114	0x3d2b1c5a	0.041775085
115	0xbd5ad6f0	-0.053427637
116	0x3d333bc3	0.043758165
117	0xbd91bded	-0.071163036
118	0x3cad968f	0.021189956
119	0xbc065198	-0.008198164
120	0xbd0bfe94	-0.03417833
121	0x3cac8884	0.02106119
122	0x3cf69941	0.030102374
123	0x3d88ad62	0.06673695
124	0x3cbe3c2a	0.023222048
125	0x3c6bee00	0.014400005
126	0xbd7ec600	-0.062200546
127	0x3bf10d95	0.0073563554

layers.4.weight f4 [64, 128]
0	0x3e87bedc	0.26512802
1	0x3d171c30	0.036892116
2	0xbd63c83c	-0.05561088
3	0xbc2a308f	-0.010387554
4	0xbd586b0a	-0.052836455
5	0x3def87d8	0.11695832
6	0xbdaa8a98	-0.08327216
7	0x3c9e85d3	0.019350922
8	0xbda216df	-0.079145186
9	0xbbac1f72	-0.005252772
10	0xbd9d9d0e	-0.076959714
11	0xbd64b3d6	-0.055835567
12	0x3e10e415	0.14149506
13	0x3d6f696b	0.058450144
14	0xbd963120	-0.073335886
15	0x3d003043	0.031296026
16	0x3d6e8232	0.058229633
17	0xbd7393a6	-0.05946698
18	0x3d69c343	0.05707098
19	0x3e724a43	0.23661141
20	0xbd8319c0	-0.06401396
21	0xbd0a4525	-0.033757348
22	0x3daecf5e	0.08535646
23	0x3ea122d1	0.31471875
24	0x3e4ceeb0	0.20012927
25	0xbd535f6f	-0.051604684
26	0x3d996dbe	0.07491635
27	0x3d9ea845	0.077469386
28	0x3c36b5d5	0.011151751
29	0x3de80dc1	0.11330748
30	0x3db3f2d6	0.08786552
31	0x3cf0ef4c	0.02941098
32	0xbcfda335	-0.030961612
33	0x3cd0e11e	0.02549797
34	0xbd3fe2e3	-0.046847235
35	0x3d3bd30d	0.04585557
36	0x3e37c4f0	0.1794622
37	0x3b81f925	0.003966468
38	0xbc797d05	-0.015227561
39	0xbc1447ef	-0.009050353
40	0x3d65f0f9	0.056138013
41	0x3d13efb6	0.036117278
42	0x3e2b1f5b	0.1671118
43	0x3e48523d	0.19562621
44	0x3d19f0a1	0.037582997
45	0x3d253003	0.04032899
46	0xbd949f4e	-0.072569475
47	0x3e15a038	0.146119
48	0x3e8061ce	0.2507462
49	0x3cf73200	0.030175209
50	0x3db30b10	0.087423444
51	0xbd8a2ae1	-0.0674646
52	0x3d1fb5bb	0.03899167
53	0x3daf9b68	0.08574563
54	0x3d3ad2ec	0.045611307
55	0x3c22a01b	0.009925867
56	0x3b01cde0	0.001980655
57	0xbcb4e98d	-0.022084022
58	0xbd2312c4	-0.03981282
59	0xbd98985e	-0.07450937
60	0x3d5f61e4	0.054536715
61	0x3b6c1b44	0.0036026994
62	0xbd2cf446	-0.042225145
63	0xba2f54b2	-0.0006688341
64	0x3e8b8627	0.27250788
65	0x3d2dee50	0.0424636
66	0x3d8e64b2	0.069528
67	0xbdaea58d	-0.0852767
68	0x3dcce9c1	0.100055225
69	0x3d9cf1a0	0.07663274
70	0xbd030f6c	-0.03199713
71	0x3e4f858a	0.20265785
72	0x3b882d9a	0.0041558268
73	0xbd008ce7	-0.031384375
74	0xbd1afe8d	-0.037840415
75	0xbda54edc	-0.08071682
76	0x3d147abf	0.036249872
77	0x3c661040	0.01404196
78	0xbccdf09f	-0.025139151
79	0x3d9f9791	0.07792581
80	0x3ea7f7be	0.328062
81	0x3dda64be	0.10663746
82	0x3d2aac2c	0.041668102
83	0x3e84366e	0.25822777
84	0x3cea6114	0.028610744
85	0xbd678d6f	-0.056531366
86	0x3d02b702	0.03191281
87	0x3db4f6bb	0.088361226
88	0x3dd77151	0.1051966
89	0x3cbec705	0.02328826
90	0x3e7698d5	0.24081738
91	0x3d8d397f	0.06895732
92	0xbd0926fa	-0.033484437
93	0xbbf0ccae	-0.0073486185
94	0x3c92f630	0.017939657
95	0xbba0dbc7	-0.004909012
96	0x3d904e27	0.070461564
97	0x3dbbd206	0.09170918
98	0xbd47735a	-0.048693992
99	0xbda6a89e	-0.0813763
100	0x3e07b84f	0.13253902
101	0xbd94b7e4	-0.07261637
102	0x3cf2f7e5	0.029659221
103	0xbd002794	-0.031287745
104	0x3d2aafad	0.041671444
105	0xbd61ebcf	-0.055156525
106	0x3e99d215	0.30043092
107	0x3d29b89f	0.041435834
108	0x3d2bdbc9	0.04195765
109	0x3dae64c4	0.08515313
110	0x3e3eca0f	0.18631767
111	0x3d0b2e0a	0.033979453
112	0x3e418cf4	0.18901426
113	0xbd226f6f	-0.039657053
114	0x3e56c447	0.20973311
115	0xbda5a3e2	-0.08087899
116	0x3e298e34	0.16558152
117	0x3cf2efc6	0.029655349
118	0x3e86e1fb	0.26344284
119	0x3d38b16c	0.045091078
120	0x3d54f19f	0.05198824
121	0x3c1a4ccc	0.009417724
122	0x3e253da6	0.16136798
123	0xbdb4f931	-0.08836592
124	0x3db7c930	0.0897392
125	0x3d4fd68c	0.050741717
126	0x3d0bc7bb	0.034126025
127	0x3df67521	0.12034059
128	0xbe421303	-0.18952565
129	0xbda96064	-0.08270338
130	0xbd2588e0	-0.040413737
131	0xbc77ad8f	-0.015117063
132	0x3d0fd5d3	0.035116028
133	0xbeb36bc2	-0.3504315
134	0x3d2b2a20	0.04178822
135	0xbda5c9a4	-0.080951005
136	0x3d79969f	0.06093466
137	0x3d9c2931	0.07625044
138	0x3c909839	0.01765071
139	0x3d122a77	0.03568503
140	0xbd9bfe43	-0.07616856
141	0xbdb71629	-0.089397736
142	0xbda158ba	-0.078782514
143	0x3e781a6a	0.24228826
144	0x3c8c11bd	0.017098302
145	0xbc5184d5	-0.012788017
146	0xbcb5cb01	-0.022191526
147	0xbe63ea66	-0.22257385
148	0x3d787893	0.060661864
149	0x3d69d9f2	0.057092614
150	0x3d15d466	0.036579512
151	0xbebe7af6	-0.37203187
152	0xbe4c8d02	-0.19975665
153	0x3d9fde4c	0.07806072
154	0x3d9f3a26	0.07774763
155	0xbb15eac8	-0.0022875536
156	0x3d9920b2	0.07476939
157	0x3db20d37	0.08693927
158	0xbd1a8aec	-0.037730142
159	0x3db12fef	0.08651721
160	0x3da970aa	0.08273442
161	0x3ccce6c0	0.025012374
162	0x3d2b21e5	0.04178037
163	0xbd273db9	-0.040830348
164	0xbe9b9e67	-0.3039429
165	0x3d4ca91f	0.049965974
166	0xbd0587dd	-0.032600272
167	0x3d28b108	0.041184455
168	0x3d8ec9e0	0.06972098
169	0xbd156b10	-0.036479056
170	0x3dba5b0e	0.090993986
171	0x3ca813c1	0.020517232
172	0xbda5aa85	-0.08089165
173	0xbc6b48d0	-0.014360622
174	0xbd865259	-0.06558675
175	0x3af75f2e	0.001887297
176	0xbe85358a	-0.2601741
177	0xbd65946d	-0.056049753
178	0x3cc9dbdf	0.024640976
179	0x3d42fca0	0.047604203
180	0x3c2c17e4	0.010503743
181	0x3c0777be	0.008268295
182	0xbd12220f	-0.035677012
183	0x3c393766	0.011304712
184	0xbd3e6dd7	-0.04649147
185	0xbd8f6e32	-0.0700344
186	0x3c62a0c9	0.0138322795
187	0xbda06ae3	-0.07832887
188	0x3d23d6a8	0.039999634
189	0x3d3d5374	0.046222165
190	0x3c50eb5c	0.012751427
191	0xbc546505	-0.012963538
192	0xbe6324eb	-0.22182052
193	0xbd6f1647	-0.058370855
194	0x3d981c6d	0.07427297
195	0xbc8584f3	-0.016298747
196	0xbdb1d540	-0.08683252
197	0x3d9bb985	0.076037444
198	0x3cacce4d	0.021094466
199	0xbec99e45	-0.39378563
200	0xbc993b58	-0.018705055
201	0xbd8a50f6	-0.06753723
202	0xbd501924	-0.050805226
203	0x3d38c5a7	0.04511037
204	0xbcb25971	-0.021771165
205	0x3cd3ff27	0.025878502
206	0x3d79f51e	0.061024778
207	0x3de6d216	0.112705395
208	0xbecfc69e	-0.4058122
209	0xbd4c73eb	-0.049915235
210	0x3d4c4489	0.049870048
211	0xbeca1ac8	-0.39473557
212	0xbd649af6	-0.055811845
213	0xbced56d6	-0.02897207
214	0x3d20dc62	0.039272673
215	0xbc220be1	-0.009890527
216	0x3e012bf1	0.12614419
217	0xbd53d73c	-0.051718935
218	0xbe9dd9eb	-0.3083032
219	0x3b9d5bdf	0.0048022117
220	0xbd6d056b	-0.057866495
221	0xbdad0bba	-0.08449502
222	0xbcb14299	-0.021638202
223	0x3c9dbd1a	0.01925521
224	0xbd89e16b	-0.06732448
225	0x3dad0750	0.084486604
226	0xbce8a9ae	-0.028401222
227	0xbc5159f7	-0.012777797
228	0xbe4ffcec	-0.20311326
229	0x3d9fcf19	0.078031726
230	0x3d41a8bc	0.04728006
231	0xbad92cf8	-0.0016569188
232	0xbc28affc	-0.010295864
233	0x3d5fdb95	0.05465277
234	0xbea7701b	-0.32702717
235	0x3e704901	0.23465349
236	0xbdaa1ac9	-0.0830589
237	0x3c890e81	0.016730549
238	0x3da1957b	0.07889839
239	0x3d3bcfa3	0.045852315
240	0x3d38c80a	0.045112647
241	0x3be0ebb4	0.0068640355
242	0xbd5271c9	-0.051378045
243	0x3cc02a97	0.023457808
244	0xbdbbb9b1	-0.09166277
245	0xbcedb5e7	-0.029017402
246	0xbecbb308	-0.39785028
247	0xbd765c77	-0.060146775
248	0x3bfe7064	0.007764863
249	0xbc8f7dab	-0.017515978
250	0x3d627cbf	0.05529475
251	0x3e347789	0.17623724
252	0xbe219ab1	-0.15781666
253	0x3ca7f192	0.020500932
254	0x3daa6d4e	0.083216295
255	0xbea79474	-0.32730448

layers.4.bias f4 [64]
0	0x3d6e1e3c	0.058134302
1	0x3e389b77	0.18028055
2	0x3d8b9424	0.06815365
3	0xbddc8a24	-0.10768536
4	0xbd38a4d3	-0.045079064
5	0x3c34cca5	0.011035119
6	0xbd972033	-0.073791884
7	0xbd94fd18	-0.07274836
8	0xbcceaff7	-0.025230391
9	0x3e09d18c	0.13458842
10	0x3d924fae	0.07144104
11	0xbcc31b6d	-0.023816789
12	0x3dfa5c82	0.12224676
13	0x3dec7fb8	0.11547798
14	0x3dbeec78	0.093224466
15	0x3e17c853	0.14822511
16	0x3e1b8baa	0.15189996
17	0x3d829930	0.063768744
18	0x3c3e76b9	0.011624985
19	0x3c4abfc2	0.01237482
20	0xbda3c3c4	-0.07996324
21	0x3dac24a5	0.08405427
22	0x3cbe874c	0.023257874
23	0x3baffc78	0.005370673
24	0xbda1b22e	-0.07895313
25	0x3e157fe2	0.14599565
26	0x3e1693c3	0.14704804
27	0x3d498f59	0.049208973
28	0xbcac90c7	-0.021065129
29	0xbda557c4	-0.080733806
30	0x3d6367fc	0.05551909
31	0xbc02924e	-0.007969452
32	0x3e1e61cf	0.15466999
33	0x3dbec7cd	0.09315453
34	0x3daa1253	0.08304276
35	0x3e0a4a5d	0.1350493
36	0x3d243992	0.040093966
37	0xbd923dcb	-0.07140692
38	0x3e1f122b	0.15534274
39	0x3d74eb80	0.059794903
40	0x3e8ad9a2	0.27119166
41	0x39ebd53f	0.00044981574
42	0x3e32e13b	0.17468731
43	0x3bb7053a	0.00558534
44	0x3e1d89b9	0.15384568
45	0xbd3ea0ff	-0.046540257
46	0xbd4b5e02	-0.0496502
47	0x3c25dd65	0.010123585
48	0x3d8c55b8	0.06852287
49	0xbd8c9ad3	-0.06865468
50	0x3d98bdba	0.074580625
51	0x3e085da2	0.13316968
52	0x3e1866d0	0.1488297
53	0x3d9ee63b	0.07758757
54	0xbdb2b6cb	-0.08726271
55	0xbce1cf68	-0.02756472
56	0x3cb5e39d	0.022203261
57	0x3db326ff	0.08747672
58	0x3da0ec85	0.078576125
59	0x3e06f31a	0.13178673
60	0x3d931a31	0.0718273
61	0x3d857c54	0.06517854
62	0x3e03d2c1	0.12873365
63	0x3de27991	0.11058343

layers.6.weight f4 [32, 64]
0	0x3e0da7a5	0.13833483
1	0xbda01cc8	-0.078179896
2	0xbcbcca89	-0.023045795
3	0x3d9c7fc8	0.0764156
4	0x3e8f1c8b	0.27951464
5	0x3abd4d80	0.0014442652
6	0x3dfbc129	0.12292702
7	0x3d96d951	0.073656686
8	0x3e5ea6a8	0.21743262
9	0xbda5747e	-0.0807886
10	0xbe6540eb	-0.22388045
11	0xbdecd206	-0.11563496
12	0x3e937eb0	0.28807592
13	0x3e909706	0.28240222
14	0x3e8400ff	0.2578201
15	0xbc7452cc	-0.014912318
16	0xbe264c52	-0.16240051
17	0x3c4aad53	0.012370425
18	0xbdd16299	-0.10223884
19	0x3cd53e70	0.02603075
20	0x3dff2d06	0.124597594
21	0x3e7d49c1	0.24735166
22	0xbdeaa926	-0.11458044
23	0x3d151dbd	0.036405314
24	0xbcdd45f8	-0.027010903
25	0xbe0465ce	-0.1292946
26	0x3e8b3202	0.2718659
27	0x3e765721	0.24056675
28	0x3da63958	0.08116406
29	0x3c7b22da	0.0153281335
30	0xbce422d0	-0.027848631
31	0x3dbff9db	0.09373828
32	0xbd3ef7af	-0.04662293
33	0xbdb2ba56	-0.08726947
34	0x3e8ab38c	0.27090108
35	0xbdb3bb5f	-0.087759726
36	0xbc558db4	-0.013034273
37	0x3d2b26f2	0.041785188
38	0xbe4a4712	-0.19753674
39	0x3daf781b	0.0856783
40	0xbd94e3a3	-0.07269981
41	0xbde1dccc	-0.11028442
42	0xbcdc36a0	-0.026881516
43	0x3d227f1c	0.039672002
44	0xbd927ebf	-0.07153081
45	0xbcdb4db8	-0.026770458
46	0x3d2a67e8	0.041603
47	0xbd320ee8	-0.043471247
48	0x3e03397d	0.12814899
49	0x3e9a639f	0.3015413
50	0x3e14405f	0.1447768
51	0xbe07901a	-0.13238564
52	0x3db493f8	0.08817285
53	0x3e31cc29	0.17363037
54	0xbc028290	-0.007965699
55	0x3db5e465	0.088814534
56	0x3e25da83	0.16196637
57	0x3dcf72c0	0.10129309
58	0x3de3aad8	0.1111657
59	0xbe15f3ee	-0.14643833
60	0xbd1e92e6	-0.038714312
61	0x3dca7cd6	0.09887092
62	0xbe3198c7	-0.17343436
63	0x3dc7d8fc	0.09758183
64	0x3e954ce2	0.2916022
65	0x3e41c637	0.18923269
66	0x3de2ee91	0.11080659
67	0x3e127737	0.1430329
68	0x3e7eccec	0.24882859
69	0xba1d9d00	-0.00060124695
70	0xbcea6b1b	-0.028615525
71	0x3e9c32b2	0.30507427
72	0x3e207b35	0.15672
73	0x3e118b5b	0.14213316
74	0xbdb4abca	-0.08821829
75	0x3d5f9422	0.05458463
76	0x3e5d8edc	0.21636528
77	0x3e3df24b	0.18549459
78	0x3e71714b	0.23578374
79	0x3db0ad08	0.08626753
80	0xbe2e36be	-0.1701307
81	0xbddea36d	-0.10871015
82	0xbde3f231	-0.11130179
83	0x3d478e4c	0.04871969
84	0xbd5bfa08	-0.053705245
85	0x3e2ba3d2	0.16761711
86	0xbd53b5b4	-0.051686957
87	0xbde82000	-0.113342285
88	0x3df85c60	0.12126994
89	0xbdd90b47	-0.10597854
90	0x3e49315e	0.19647738
91	0x3e30f58d	0.1728117
92	0xbd574cda	-0.052563526
93	0xbdb5acd5	-0.08870856
94	0x3d2ec012	0.04266364
95	0xbd6f8081	-0.05847216
96	0xbcf3ed28	-0.02977617
97	0x3d42549e	0.04744398
98	0x3e5cd34a	0.21564975
99	0xbd81474d	-0.06312428
100	0xbdc55689	-0.09635646
101	0x3df8bbc2	0.12145187
102	0xbde3617c	-0.11102578
103	0x3e47e21f	0.19519852
104	0x3e4c4f16	0.19952044
105	0xba82cf4f	-0.0009979996
106	0xbc28cdc0	-0.010302961
107	0x3d97ec7a	0.07418151
108	0xbd50e972	-0.05100388
109	0x3cb54208	0.022126213
110	0x3be72d79	0.0070549813
111	0x3d79f517	0.06102475
112	0x3e7335d1	0.23750998
113	0x3e441df4	0.19152051
114	0x3e9a3c50	0.3012414
115	0x3d941e01	0.07232285
116	0x3ea6f464	0.3260833
117	0x3e368286	0.17823228
118	0x3dfb198c	0.12260732
119	0x3c9c354e	0.019068386
120	0x3dd449db	0.10365649
121	0x3e40aeb3	0.18816642
122	0x3def95b4	0.116984755
123	0xbdcb38d7	-0.09922951
124	0x3daf6047	0.08563285
125	0x3e04c875	0.12967093
126	0xbe06c84e	-0.13162348
127	0x3e8686c5	0.26274696
128	0xbdc96970	-0.09834564
129	0xb684ac45	-3.9539614e-06
130	0x3d607416	0.05479821
131	0xbdf1ce01	-0.1180687
132	0xbde6fd3e	-0.11278771
133	0xbd52a88c	-0.05143027
134	0xbdc8146a	-0.09769519
135	0x3defe394	0.11713329
136	0xbd7b562a	-0.06136147
137	0x3da8cd6d	0.08242307
138	0xbc60cbc7	-0.013720459
139	0x3d9ecf4c	0.077543825
140	0xbd55fb87	-0.05224183
141	0xbc86dd00	-0.016462803
142	0xbd9a83a3	-0.07544639
143	0xbd71f14e	-0.059068017
144	0xbd88db36	-0.06682436
145	0xbdb9597e	-0.090502724
146	0xbcfc106b	-0.030769547
147	0xbd939fe2	-0.072082296
148	0x3d6a70dc	0.057236537
149	0xbd8152ea	-0.06314643
150	0x3da6c748	0.08143479
151	0x3d19f578	0.037587613
152	0x3da3363c	0.07969329
153	0x3ca2625d	0.019822294
154	0xbaf0bcce	-0.0018366815
155	0xbdfd7c90	-0.12377274
156	0xbde3c71f	-0.11121964
157	0x3d838f22	0.06423785
158	0xbda55553	-0.08072915
159	0x3c60d1a1	0.013721854
160	0xbdebd0d7	-0.115144424
161	0xbdff9eef	-0.12481486
162	0x3d79b4ed	0.06096356
163	0x3dcd0785	0.100112
164	0x3dd78c16	0.10524766
165	0x3c7b4320	0.015335828
166	0x3bb722ff	0.0055888887
167	0xbc6257f7	-0.013814918
168	0xbd719402	-0.058979042
169	0xbe3d50a6	-0.18487796
170	0x3b1c7b9e	0.0023877393
171	0x3d417821	0.047233704
172	0xbde92843	-0.113846324
173	0xbdad54f0	-0.08463466
174	0x3d5e2649	0.05423573
175	0xbd95040c	-0.072761625
176	0x3c605836	0.013692906
177	0x3d16d7ed	0.036827017
178	0x3c97c4dc	0.018526487
179	0x3dad5c51	0.084648736
180	0x3d855ebd	0.065122105
181	0x3b3809e1	0.002808206
182	0xbdfcb798	-0.12339705
183	0x3cf869ca	0.030323882
184	0xbda3e896	-0.080033466
185	0xbd9056a7	-0.070477776
186	0xbdd5ba8c	-0.104359716
187	0x3c9d2de6	0.019186925
188	0xbd3d88c0	-0.046272993
189	0x3d90377d	0.070418335
190	0x3d34f9bc	0.044183478
191	0xbd9509eb	-0.07277282
192	0x3e454103	0.19263081
193	0xbec9a685	-0.39384857
194	0xbe8fe673	-0.28105506
195	0x3d9b7078	0.07589811
196	0x3e2b82ec	0.16749161
197	0x3d876c54	0.06612459
198	0x3d8f210a	0.069887236
199	0x3e2927a6	0.16519031
200	0x3e86afc7	0.26305982
201	0xbeb24b6e	-0.34823173
202	0xbe8d24a7	-0.27567026
203	0x3dc6a4b6	0.09699385
204	0x3d5e9483	0.05434085
205	0x3db29dc8	0.08721501
206	0x3c159dad	0.009131831
207	0xbea3b36b	-0.31972823
208	0xbee505c8	-0.44730973
209	0x3c5d5190	0.013508216
210	0xbc3e7040	-0.011623442
211	0x3da36d60	0.07979846
212	0x3dc3b260	0.09555507
213	0xbc2117ae	-0.009832306
214	0x3d45ce78	0.048292607
215	0x3c67e020	0.014152557
216	0x3dc703c2	0.097175136
217	0xbe99b1a7	-0.3001835
218	0x3d1513ff	0.036396023
219	0x3e33fdbe	0.17577264
220	0xbe049390	-0.12946916
221	0xbd90c3de	-0.07068609
222	0x3d9056fc	0.07047841
223	0xbd8e2f16	-0.06942575
224	0xbee62195	-0.44947496
225	0xbea974b2	-0.33096844
226	0x3e2e399d	0.17014165
227	0xbeaadd4c	-0.3337196
228	0xbdfb3cc8	-0.122674525
229	0xbde49d6c	-0.11162838
230	0xbeb35f56	-0.35033673
231	0x3e1355cf	0.14388202
232	0xbed66b66	-0.41878814
233	0xbe671344	-0.22565943
234	0xbee4d42c	-0.44693124
235	0xbd68aa80	-0.056803226
236	0xbeb45d84	-0.35227597
237	0x3d821658	0.06351918
238	0x3dde4cd3	0.10854497
239	0x3ddb5aae	0.10710655
240	0x3e629b4d	0.22129555
241	0x3eadabfd	0.3392028
242	0x3e1e39bc	0.15451711
243	0xbe3420e4	-0.17590672
244	0x3e2591e7	0.16168939
245	0x3e3e7591	0.18599536
246	0xbd8ba356	-0.06818263
247	0xbd1342e4	-0.035952464
248	0x3becd78e	0.0072278446
249	0x3e48c625	0.19606836
250	0x3d570680	0.052496433
251	0xbe8ecf7a	-0.27892667
252	0xbe01c83d	-0.12674041
253	0x3e2fd4ec	0.17171067
254	0xbee55152	-0.44788605
255	0x3e2fdefa	0.17174903

layers.6.bias f4 [32]
0	0x3ddf9aad	0.10918174
1	0x3e447b14	0.19187576
2	0x3d10ed13	0.03538234
3	0xbe41574c	-0.18880957
4	0x3df85067	0.121247105
5	0x3d0adecd	0.033903886
6	0xbbc63e5e	-0.006049915
7	0xbe06a7ad	-0.131499
8	0x3dbe852a	0.09302743
9	0x3c83b860	0.016079128
10	0x3d97e0be	0.07415913
11	0x3e1fb7ca	0.15597454
12	0x3dd8f94f	0.10594427
13	0xbcd7ddf9	-0.026350962
14	0x3ce5955a	0.028025318
15	0x3e2c7198	0.16840208
16	0x3db6df62	0.08929326
17	0x3d95e0a7	0.0731824
18	0xb9bb9626	-0.0003577929
19	0xbe12615a	-0.14294949
20	0x3e3d1e52	0.18468598
21	0xbe138873	-0.1440752
22	0xbdbcee6b	-0.09225162
23	0x3dacc7aa	0.084365204
24	0xbdfee9b3	-0.12446918
25	0xbdb02c95	-0.08602253
26	0xbd6f6856	-0.058449112
27	0x3d87063f	0.06592988
28	0x3ce7326c	0.028222285
29	0xbd5ece4f	-0.05439597
30	0x3d27e4a1	0.040989522
31	0x3ddf6511	0.10907949

layers.8.weight f4 [1, 32]
0	0x3e7a316c	0.24432915
1	0x3e685c65	0.22691496
2	0xbc6097ed	-0.013708097
3	0x3e84bd4f	0.2592568
4	0x3e7516d4	0.2393449
5	0xbd048257	-0.032350864
6	0x3e5d2932	0.21597746
7	0x3ef20e11	0.47276357
8	0x3e667994	0.22507316
9	0xbe286b37	-0.16447149
10	0x3eabe277	0.33571216
11	0x3e5bdf19	0.21471824
12	0x3e80676e	0.2507891
13	0xbda22629	-0.07917435
14	0xbdb8d643	-0.09025242
15	0x3e4fc158	0.20288599
16	0xbbb0c244	-0.005394252
17	0xbda6e5e7	-0.08149319
18	0xbd81cfe7	-0.06338482
19	0xbcfeb4fa	-0.031092156
20	0x3e9c7914	0.30561125
21	0xbe6d9bbb	-0.23203938
22	0xbe0994fd	-0.13435741
23	0x3e5188f8	0.20462406
24	0x3ed238aa	0.41058856
25	0x3ef7456e	0.48295158
26	0x3ecff005	0.40612808
27	0xbd54b285	-0.051928062
28	0x3d66214d	0.0561841
29	0xba81d3bc	-0.0009905021
30	0x3e59cabd	0.21268745
31	0x3eb5b8be	0.3549251
