models/mlp/v1/best_model_lin_mae.pth (torch, 11830 bytes, 5 tensors)

layers.0.weight f4 [64, 1]
000000 01 ce 00 bf 14 5e 2a be 2b 91 ba be 59 4f c8 3e
       -0.50314337 -0.1663745 -0.3643888 0.39123037
000010 a5 cb e0 be 45 8a 7e 3e d5 14 65 be 50 0b e6 3e
       -0.43905368 0.24857433 -0.22371228 0.44930506
000020 45 72 71 3f 9f d8 7d 3f e9 75 59 3f 5d 99 08 bf
       0.94314986 0.9915866 0.8494554 -0.53359014
000030 a2 b7 5f bf bf f1 6e bf 79 1b 8d 3d 91 75 c8 be
       -0.87389576 -0.93337625 0.068900056 -0.39152196
000040 78 52 42 be 7d 66 6b 3f 74 2a 64 3f 11 4a d5 be
       -0.18976772 0.9195326 0.8912728 -0.4165807
000050 1a 3a 8c be 54 c8 6b be e5 03 81 3f 17 94 4c bf
       -0.27388078 -0.23025638 1.0079314 -0.7991347
000060 2c 17 81 3f f0 51 38 be cb 11 86 bf 21 94 3e bf
       1.0085196 -0.18000007 -1.047418 -0.74444777
000070 8a d2 27 3d ad 2a a3 3f 00 3e 23 bf 9b 28 96 bf
       0.04097227 1.2747399 -0.6376648 -1.1731142
000080 81 b6 a9 3d 69 a8 81 bf 37 e6 e4 be 6b bb bc bd
       0.08286763 -1.012952 -0.4470689 -0.09215435
000090 82 9e 28 3f 5c eb 4d bf 39 fb e3 bd 4a cb 7d bf
       0.65866864 -0.80437255 -0.11131901 -0.9913832
0000a0 36 e3 d9 3e 71 13 8c 3f cd 28 fb 3e 71 53 ab 3e
       0.4255616 1.0943433 0.49054566 0.33462098
0000b0 04 5f 43 3e 2a f2 7f 3e 75 e5 8e 3f 4b ff 37 3f
       0.19079214 0.24994722 1.1163775 0.7187392
0000c0 db 8f 75 3f 50 8c 06 3f 7a 94 87 bf 28 a1 8d 3f
       0.9592263 0.5255785 -1.0592186 1.1064806
0000d0 07 21 8e 3f 43 09 a9 bd 11 2c 28 bf 03 01 bf 3e
       1.1103829 -0.0825372 -0.6569224 0.3730546
0000e0 ff e0 35 3f e5 d5 fd bc f2 e8 99 3d 76 b4 6f 3e
       0.7104644 -0.030985782 0.07515134 0.23408684
0000f0 40 7d 75 3e e4 fe 96 bf a4 34 a6 bd 5c b0 4f 3f
       0.2397356 -1.1796536 -0.08115509 0.8112848

layers.0.bias f4 [64]
000000 fb 53 7a be bc cd 83 bd 61 d9 d0 3e 84 69 50 be
       -0.24446099 -0.06435725 0.40790847 -0.20352751
000010 5f e1 5d bf 3f 7a a4 be 16 83 72 3f 2d 77 b9 3e
       -0.86672014 -0.32124516 0.9473127 0.36223736
000020 a3 c3 fa 3e 8c a1 09 3f da 7e 33 bf 14 c2 1c be
       0.48977384 0.53762126 -0.70115435 -0.1530841
000030 9e 49 db 3e 46 ed 13 bf bc f9 5d 3f 0a 6f 33 3f
       0.42829603 -0.57783926 0.8670919 0.7009131
000040 cf 6a 16 bf fb 09 e8 3e 87 be 23 3d 04 b0 0f bd
       -0.58756727 0.45320114 0.039976623 -0.03507997
000050 d5 8b e5 3e da d8 01 be 4c 10 c4 3e 9d 1f 59 3e
       0.44833246 -0.12680379 0.38293684 0.21203466
000060 08 9d 8b be 2a b6 96 bc c4 95 3f bf 9c 9d 44 3f
       -0.27268243 -0.01839741 -0.748379 0.7680299
000070 2e d8 c1 be b8 b2 3b 3f 1e c9 3e bf 7f df 02 bf
       -0.37860245 0.7331958 -0.7452563 -0.5112228
000080 0d 3d 31 bf c8 eb 23 3f 29 af 02 bf 25 3b db 3e
       -0.6923378 0.6403165 -0.51048523 0.4281856
000090 94 d7 a6 3e 50 7a 34 3d f3 c0 a6 3e b6 4e 58 be
       0.32586348 0.04406196 0.32569084 -0.21123776
0000a0 43 8d bb be 39 b0 92 3d 04 ca c0 be ba 9c 30 bf
       -0.36631212 0.07162518 -0.37654126 -0.68989146
0000b0 00 15 97 3c c9 5d ac 3e df a2 59 3e b4 ff c7 bc
       0.01844263 0.33665302 0.21253537 -0.024413921
0000c0 33 fa 36 3e 57 5f 15 bf 16 61 0d bf 4a 06 13 bf
       0.17868881 -0.583486 -0.55226266 -0.5743147
0000d0 f5 d0 a6 3e 1d 7a 11 bf c0 6a b3 3e 78 6f 12 bf
       0.32581297 -0.56826955 0.3504238 -0.5720134
0000e0 92 ea 00 3f 7e b2 fe 3e c0 3e ab 3d 15 36 30 be
       0.50357926 0.49745554 0.08361578 -0.1720813
0000f0 d6 6a 43 3c 8a b1 cd be a6 e8 4d 3f a3 da 54 3c
       0.011927327 -0.40174514 0.8043312 0.01299158

layers.2.weight f4 [32, 64]
000000 cc 1a c2 3d ac f6 5d bc d4 45 c0 bd 29 fe c4 3d
       0.09477767 -0.013547581 -0.09388319 0.0961879
000010 a1 8c 58 bc 2c 2f 9a 3d 92 da 7f bd fa cf 75 3c
       -0.013217122 0.075285286 -0.062464304 0.015003199
000020 ca 73 1c 3e ea da 9b 3d a5 c0 62 bd 66 17 6e 3c
       0.15278545 0.07610114 -0.0553595 0.014531946
000030 82 f7 cc bd 55 62 a3 3c 67 50 52 bd aa 59 9f bd
       -0.10008146 0.01994435 -0.05134621 -0.07780774
000040 e2 89 7b bc ab 29 6f 3d 05 b0 64 3e ea 92 2a bb
       -0.015352698 0.058389347 0.22332771 -0.002602751
000050 30 c1 56 3c 39 f2 c8 3d f8 e3 1a 3e d0 8c 47 3d
       0.013107583 0.09811825 0.15126026 0.048718274
000060 d0 a8 99 bc e9 bb b7 3d c9 fa fc bb 8d 0e d8 bc
       -0.018757254 0.08971388 -0.0077203256 -0.026374126
000070 eb a2 53 3c d2 85 12 3e 39 15 a4 3d 2a 6c ea bc
       0.012917261 0.14308861 0.080118604 -0.02861603
000080 2e 97 08 bc 32 4b 96 3d c5 0e 81 bd c2 1d da 3d
       -0.008336825 0.07338561 -0.06301645 0.10650207
000090 27 cc cd 3d 40 02 45 be 4d 5d 82 3d 74 58 03 be
       0.100487046 -0.1923914 0.06365452 -0.12826711
0000a0 03 d0 13 bc 0e 48 98 3e 51 b4 d8 3c 10 35 01 bd
       -0.009021762 0.29742473 0.026453169 -0.031544745
0000b0 71 c3 e8 bd d3 31 0c 3d 1e e0 73 3e d5 c3 b7 3d
       -0.113654025 0.034227204 0.23815963 0.08972899
0000c0 18 ff a2 3d 58 11 e6 3d 50 38 1f be d5 04 0c 3e
       0.079588115 0.11233777 -0.15548825 0.13673718
0000d0 69 aa 2d 3e a7 69 68 3d b4 d1 5f bd c7 3e 08 bd
       0.16959538 0.056741383 -0.054643348 -0.033262994
0000e0 b2 e3 aa 3c ca c6 f4 3d 32 15 27 bd 85 ee bc 3d
       0.020860527 0.119519785 -0.040791698 0.092251815
0000f0 d7 f0 7e bd f8 c5 e8 3c 7b ee 4e bb 3b 2b 51 3e
       -0.0622414 0.028414711 -0.003157525 0.20426647
000100 19 6a c2 bc 87 e9 6c 3d 5f e6 51 bc 9e 7d 96 3b
       -0.023732232 0.057839897 -0.012811272 0.0045926115
000110 a6 23 98 3d 9c 61 60 3b 75 02 e1 3d de 17 cb bd
       0.074286744 0.0034237867 0.10986797 -0.09916662
000120 4b 8a 10 3d db 64 84 ba ad 17 46 3d b9 62 c6 bd
       0.035288136 -0.0010100858 0.048362423 -0.096867986
000130 23 3c 67 bd b1 ba a2 bc 22 30 5e 3c 89 21 fe 3d
       -0.056453835 -0.019864412 0.01356128 0.1240874
000140 58 46 c8 3d 2e 6f 0c 3c 5d 84 68 3d a2 25 15 bd
       0.09779042 0.008571429 0.056766856 -0.036412843
000150 1d 67 58 bd d7 1e 7f bd 3c f4 a8 3d 18 2e 57 3d
       -0.05283271 -0.06228527 0.08249709 0.052534193
000160 26 89 9b 3d 49 71 9e 3d 19 9e a3 3d d0 e3 70 bd
       0.07594518 0.07736451 0.07989139 -0.05881101
000170 84 bc a2 3c bd 01 06 bd 10 0e bc 3d fe ec af bd
       0.019865282 -0.0327165 0.0918237 -0.085901245
000180 54 20 38 bd 90 73 69 3d 27 05 96 bd 0a d2 f6 3d
       -0.044952706 0.056994975 -0.073252015 0.120517805
000190 b2 9e e8 bc 7f 5a b0 bd 34 0c 90 3d 2c 16 10 bd
       -0.028395984 -0.08611011 0.070335776 -0.035177395
0001a0 74 57 84 3c 70 7d 0a be e2 f3 e1 3c 6a e1 17 bd
       0.016154982 -0.13524413 0.027582113 -0.037080206
0001b0 ec b7 51 3d 9c 13 98 bd b1 04 20 bd c1 aa 58 bd
       0.051200792 -0.07425615 -0.039066974 -0.05289722
0001c0 37 3c fd bd 42 0f 5f 3c 5e 35 91 bc 60 b3 50 3d
       -0.12365001 0.013614478 -0.017725643 0.050952315
0001d0 1e aa 7f 3d d5 cc e9 bd 35 0b 62 3d 7b bc c0 bd
       0.062418096 -0.11416022 0.05518647 -0.0941095
0001e0 92 73 e3 3d a1 ac d7 bd 98 c1 a7 3d 5b 45 96 bc
       0.11106028 -0.10530973 0.08191222 -0.018343618
0001f0 33 6d 92 3d 66 72 c4 3d e3 99 57 bd 94 dd 05 be
       0.07149734 0.09592132 -0.052636992 -0.13072807
000200 55 fc bf 3d 1f b7 0b be 7f 97 45 bd e6 88 87 3d
       0.093743004 -0.13644074 -0.04824018 0.06617908
000210 e4 74 30 bc f8 97 92 3d 35 9a 66 bd 7d e5 a8 bd
       -0.010770056 0.07157892 -0.056299407 -0.082468964
000220 9c d7 9d bd 01 b4 93 bd 08 ff c7 bc 41 28 f7 3d
       -0.0770714 -0.072120674 -0.0244136 0.12068225
000230 2d a1 ca bc af f4 37 bc a6 28 e7 3d 6d 66 6d bd
       -0.024735058 -0.011227771 0.1128705 -0.05795901
000240 47 af a9 3d 1a 86 66 3b a8 9c c7 be a0 4b 56 3d
       0.082853846 0.0035175146 -0.38986707 0.052318215
000250 e2 e8 9d bd 30 a6 01 b9 5c d2 98 3c 20 d4 0d 3e
       -0.077104345 -0.00012364308 0.018654995 0.1385045
000260 91 b8 47 bd dd 20 c0 bc 92 88 1e 3d 5f 1c af bc
       -0.04876 -0.02345317 0.038704462 -0.021375833
000270 a4 84 69 3c f9 a3 1c bd 22 81 a8 3d ed cb 3f 3d
       0.014252815 -0.038242314 0.08227755 0.04682534
000280 c8 d0 ab bd 5d bb af 3c 0b 00 1c bd bf 7f 36 3d
       -0.08389431 0.021451646 -0.03808598 0.044555422
000290 66 23 11 be dd 47 82 3e be f6 9d 3d 48 d2 33 3e
       -0.1417366 0.25445452 0.07713078 0.17560685
0002a0 fd 61 0a be 27 cb bb be af 41 5c 3d d9 09 9e 3c
       -0.13513942 -0.3667843 0.05377358 0.019291805
0002b0 4b 33 b1 3c 28 a0 bb bd 99 06 73 be 46 48 85 be
       0.021630904 -0.09161407 -0.23732986 -0.26031703
0002c0 09 69 07 be 72 20 18 3d ac 53 a0 bd 4f 42 08 bc
       -0.13223661 0.037140317 -0.07828459 -0.00831659
0002d0 93 69 2c 3c e5 de 88 3c ad a4 57 bd 07 70 8c 3d
       0.010523218 0.016707847 -0.05264728 0.06857305
0002e0 55 0b 59 3d 3a 65 b5 bd 51 fa bb 3d 3b b3 a0 3c
       0.052989323 -0.08857198 0.091786034 0.019616714
0002f0 ea eb a2 3c 7f e5 2b 3e 4c 95 c7 bc 09 ed a4 be
       0.019887883 0.16786765 -0.024363182 -0.32212093
000300 30 fe 9c 3d 8b 8c 77 b9 37 1b a7 3a 52 21 f4 3d
       0.0766567 -0.00023608112 0.00127492 0.11920418
000310 de a7 0a bd 2d 2b df 3c 94 00 33 3c ad 86 9e 3d
       -0.033851497 0.027242268 0.010925431 0.07740531
000320 6f 9b 40 bd 1b 00 9f 3d 1b a6 d8 bd 06 d8 b3 bd
       -0.047023233 0.07763692 -0.10578557 -0.087814376
000330 00 a9 26 bd 06 df 6a 3d 7e bc 9a bd 89 ea a8 3c
       -0.040688515 0.057341598 -0.07555483 0.020619648
000340 6a ba ca 3c 8f 54 0c bd bd 0e 0f bd 4b ba 8d bd
       0.024747092 -0.03426033 -0.034926165 -0.06920298
000350 ea 94 d3 3d 18 1f 51 3d cc 15 8a 3c 86 7a e8 3d
       0.103311375 0.051055044 0.016856097 0.113514945
000360 0b 70 02 3e d8 d1 86 3d 69 e7 d1 bc 85 76 a6 3d
       0.12738054 0.06582993 -0.02562304 0.081280746
000370 0a e7 6c bd 76 68 65 3d 36 00 a3 bb eb fb bd 3c
       -0.057837524 0.056007825 -0.0049743904 0.023191413
000380 b1 8b 06 3d c7 23 ec bd 73 f1 9a 3c 95 b7 af 3d
       0.032848064 -0.115302615 0.01891396 0.08579937
000390 e0 89 3e bd 9d a4 ad 3d ca 4a c5 3d d5 2b 80 3c
       -0.046518207 0.08478663 0.096334055 0.0156459
0003a0 cf 82 a8 bd af 6d 11 bd 6c b1 65 bd fd 6d 95 bd
       -0.08228075 -0.035504993 -0.056077406 -0.07296369
0003b0 d5 28 3b bd 83 31 67 bc c7 73 cb bd 01 f5 43 bd
       -0.045693237 -0.014110926 -0.09934192 -0.047841076
0003c0 f2 94 a0 3c d4 62 49 3d 8e 52 65 bb 99 f1 a0 3d
       0.019602273 0.049166515 -0.0034991833 0.07858581
0003d0 f1 a5 e4 ba 0c 0a ec 3d 9b 29 da bd d0 56 b6 3d
       -0.0017444474 0.11525354 -0.10652467 0.08903277
0003e0 14 d8 91 3d b0 c1 42 bd 0d 23 69 bd 20 56 cf bd
       0.07121292 -0.047547996 -0.056918193 -0.10123849
0003f0 08 fc a7 bc 9c 05 70 bc 7b 36 3c bd 8f 81 3a 3d
       -0.02050592 -0.014649775 -0.045950394 0.045533713

layers.2.bias f4 [32]
000000 20 b8 af bc 5c 64 93 bd 70 8c 9f 3d 13 81 30 3d
       -0.021450102 -0.071968764 0.07790458 0.043091845
000010 df 9b e6 3d fb bf 01 3c f8 b6 ae 3d 11 59 26 3d
       0.11260199 0.007919307 0.08530992 0.040612284
000020 9f fd 4f bd f4 64 78 bd 04 02 81 bd fc 8f 55 3d
       -0.05077898 -0.06064315 -0.062992126 0.052139267
000030 27 ba 08 bd 8b c6 a1 3d e4 cd e6 bd b1 eb f6 bd
       -0.033380654 0.07899197 -0.11269739 -0.12056673
000040 63 c2 f3 bd 31 aa a8 bd 0c d8 d0 3d de 32 d9 bd
       -0.11902311 -0.082355864 0.10197458 -0.10605405
000050 84 a8 ab 3d e3 56 f3 bd 0c d5 e2 bd 0c a6 43 bd
       0.08381751 -0.11881807 -0.11075792 -0.047765777
000060 1b 49 6f 3c c3 4b d9 bb 37 c2 86 3d 1c f9 a4 bc
       0.014604832 -0.006631346 0.06580012 -0.020138316
000070 4e 81 e7 3c 10 8b 93 3c 5a 83 9e bd ac 04 f5 bd
       0.0282599 0.018010646 -0.07739897 -0.11963782

layers.4.weight f4 [1, 32]
000000 ef 35 dc 3c 80 95 ff b9 d7 bb 57 bd 4f 95 da b8
       0.026881186 -0.00048748776 -0.052669372 -0.00010422861
000010 48 1d 27 38 b2 cf b1 bb e8 4b e8 bc 65 3d fd bc
       3.9843173e-05 -0.0054263705 -0.028356507 -0.030913064
000020 61 50 bb 3d 6b cf 1b bc 6b 0b 2d 39 1b ff 8b bb
       0.091461904 -0.0095099015 0.00016502819 -0.0042723543
000030 10 73 56 38 f4 f7 18 be 67 a5 6e ba bc 56 c0 b9
       5.1128736e-05 -0.14938337 -0.00091036264 -0.00036685716
000040 92 85 b7 39 6b d2 f4 b8 44 5a 6b bd 98 f7 a3 3c
       0.00035003998 -0.0001167402 -0.05745913 0.020015523
000050 91 c2 6c ba 03 a6 70 39 b4 e7 3f 3c 90 56 87 38
       -0.0009031678 0.00022950028 0.011712957 6.453425e-05
000060 44 40 10 3d 11 d9 df bb 15 51 85 39 c5 ac 85 bb
       0.03521754 -0.0068312963 0.00025428148 -0.0040794336
000070 64 43 83 3c e3 3b fb 37 09 bc 97 bd ab 53 51 3c
       0.016023345 2.9949419e-05 -0.07408912 0.012776296
