models/mlp/v1/best_model_mse_medium_log.pth (torch, 46168 bytes, 7 tensors)

layers.0.weight f4 [128, 1]
000000 90 28 4f 3e c7 07 92 3f 6c cb 93 be e0 9a ac be
       0.20230317 1.1408623 -0.28866136 -0.3371191
000010 4e 62 9b 3f 4c ff b4 3f 24 b1 51 bf f0 64 77 3f
       1.2139375 1.414041 -0.8191092 0.96638393
000020 38 19 b9 3e 7c 7d f0 3e 24 46 21 3f 60 2a 9e bf
       0.36152053 0.46970737 0.6299765 -1.2356682
000030 eb 69 2d bf 18 66 89 3e e0 b5 e2 3d e0 c6 7c be
       -0.67739743 0.26835704 0.11069846 -0.2468524
000040 bc c7 ad 3f 40 6a bd 3e 1c 3b e3 3e 5e f1 be bf
       1.3576579 0.36995125 0.44381034 -1.491741
000050 de ad 53 3f 04 cc f8 3e 78 65 da 3e cc 1a 9f be
       0.82687175 0.48593152 0.4265554 -0.31075132
000060 51 7f 97 3e 80 6f 67 bf 4c 14 a2 be dc 55 2b 3f
       0.29589322 -0.9040451 -0.3165611 0.66927886
000070 df 98 b9 3f 6f 99 b0 3f 8c b3 ba 3e 98 f0 61 be
       1.4499778 1.3796824 0.36465108 -0.22064435
000080 45 6b 91 bf f2 0f 13 3f de 96 07 3f 78 a4 e7 be
       -1.1360861 0.57446206 0.5296458 -0.45242667
000090 6c 08 b1 bf 7f 6e 5f bf 74 a0 17 bf c0 58 d3 3d
       -1.3830695 -0.8727798 -0.5922921 0.10319662
0000a0 13 80 9a bf 68 20 22 3e e0 7f 6b 3e b2 a2 24 bf
       -1.2070335 0.15832675 0.22997999 -0.64310753
0000b0 70 cf a2 3d de f1 23 bf 70 34 d8 3e 1c e9 19 bf
       0.07949722 -0.64040935 0.42227507 -0.6012132
0000c0 01 eb 9b 3f 7e f3 4c 3f 98 d3 37 bf 2b 9f 42 3f
       1.2181093 0.8005904 -0.7180724 0.7602412
0000d0 60 94 c1 bf 40 ef b1 3c d0 7b 7f 3f 87 09 ac 3e
       -1.5123405 0.021720529 0.997983 0.3360102
0000e0 aa c3 a5 bf f6 84 32 3f af 3b a6 3e ca 14 20 bf
       -1.2950337 0.6973413 0.3246741 -0.6253172
0000f0 44 48 09 bf 02 5b b4 3f f8 d9 54 bf b0 0f 3a bf
       -0.53625894 1.4090273 -0.83145094 -0.7268019
000100 95 a0 05 bf da 95 0e 3f 1c 61 91 bf 18 a6 28 3e
       -0.52198154 0.55697405 -1.135776 0.1646961
000110 40 7b a1 bd c8 9b 19 3e c7 ac 4a be dd f5 76 3f
       -0.07884836 0.15000832 -0.19792472 0.9646891
000120 72 18 7c bf f0 f1 d2 bd e5 c4 87 bf be a8 92 3f
       -0.984748 -0.10300052 -1.0606962 1.1457746
000130 d0 11 1b 3f 79 8a 8b 3f 8f c8 6e bf 6b 0f c0 be
       0.60574055 1.0901634 -0.9327478 -0.37511763
000140 62 ad 49 3f 27 8c 99 3f 48 34 5c 3f e7 81 82 3f
       0.78780186 1.1995896 0.86017275 1.0195893
000150 08 a0 7f bf 5b b2 07 be ff 14 f2 3e 00 d5 df bd
       -0.99853563 -0.13251631 0.47281644 -0.109292984
000160 74 82 70 bf 88 e0 65 bf aa 69 ae 3f 9a ab 42 bf
       -0.93949056 -0.8979573 1.3625996 -0.76043093
000170 68 05 46 be 94 68 e9 3e c0 21 cf 3d 5e b9 11 3f
       -0.19338 0.455876 0.10113859 0.5692347
000180 4a 08 a9 bf 6c d6 d5 be a8 61 f1 be fb 94 95 3e
       -1.3205655 -0.41765153 -0.47144818 0.29215226
000190 80 7b 43 bc 23 3f 30 be cd 56 b7 3f a3 f8 f1 be
       -0.0119313 -0.17211585 1.4323364 -0.47260007
0001a0 6b 10 8a 3f 25 c7 89 3f 97 7c 16 3f 40 e9 e8 3e
       1.078626 1.0763899 0.5878386 0.45490456
0001b0 0f 16 7f bf df 36 a1 3f e0 f1 19 3f f1 5f 54 be
       -0.99643034 1.259487 0.60134697 -0.20739724
0001c0 4a 6f 32 3f 88 aa 30 3e 00 2e fb 3b 6c 52 65 bf
       0.69701064 0.17252553 0.0076653957 -0.8957889
0001d0 3d fa 9c bf 40 9b 8f bc 5a 6b 6d bf e7 1f 92 bf
       -1.2263867 -0.017530084 -0.9274193 -1.1415986
0001e0 6e 8c d9 3d f0 1d 3f bf 78 37 35 bf df 58 1c bf
       0.10622488 -0.74655056 -0.70787764 -0.61073107
0001f0 1e 2a 36 bf 15 51 97 bf 9e e5 85 3f f5 a0 2e bf
       -0.71158016 -1.1821619 1.0460699 -0.6821435

layers.0.bias f4 [128]
000000 f8 3e 9a be 7b c8 5e 3f 34 ab 87 be be 06 3b bf
       -0.30126166 0.8702466 -0.26497805 -0.7305716
000010 64 a7 72 3f 51 8d fe 3d 81 f4 4e 3e 1e cc 01 bf
       0.9478667 0.12429298 0.20210458 -0.50702083
000020 8a d0 39 bf 60 73 69 bd ee 1f 6b bf 0b b8 05 3f
       -0.7258383 -0.056994796 -0.91845596 0.5223395
000030 d9 1f 41 3f d4 58 25 bf 28 a1 4d bf b2 c6 6d bf
       0.7543922 -0.64588666 -0.8032403 -0.9288131
000040 dc 2b 12 3e 52 50 6a bf 80 88 a6 bd 10 c4 56 3c
       0.14274544 -0.9152881 -0.08131504 0.013108268
000050 10 9a 81 be 42 90 41 bf 1a 42 08 bf 10 90 53 be
       -0.25312853 -0.75610745 -0.5322586 -0.20660424
000060 9a a4 f9 3e 54 70 53 bf 4a 6b 46 bf 20 05 8a bd
       0.48758394 -0.82593274 -0.7750746 -0.06739259
000070 06 f1 3c 3f 33 08 c9 3d 34 6e 3d bf 14 84 98 be
       0.7380527 0.09816017 -0.7399628 -0.29788268
000080 79 36 6b 3c 2c a6 cd be 00 8c ff bc dc f2 cb be
       0.014356249 -0.40165842 -0.031194687 -0.39833724
000090 c8 ed 5e 3e e7 2b 7c 3d a6 61 1d 3f 48 19 8e be
       0.21770394 0.061565306 0.61477125 -0.27753663
0000a0 0b f7 64 3c ac e9 cb be c0 c9 00 bf 71 a3 23 3f
       0.013974915 -0.39826715 -0.50307846 0.63921267
0000b0 c6 29 04 bf 34 47 b6 be 18 2d 3f be 5c 1a 1e bf
       -0.5162624 -0.356012 -0.18669546 -0.6175897
0000c0 d5 87 5f 3f 66 72 01 bf e0 15 54 bf 11 60 01 3f
       0.8731664 -0.50565183 -0.8284588 0.5053721
0000d0 c4 9b 3f 3d 2c 36 61 bf a8 aa 8f 3d d5 b7 1b 3d
       0.04677941 -0.87973285 0.07014972 0.038017113
0000e0 6b 04 34 3f e0 eb 6e bd ee 82 79 3e 4a 2e 1c bf
       0.7031924 -0.058330417 0.24366352 -0.6100813
0000f0 d8 58 c8 be a5 62 24 3f 7a 61 33 bf 8c 19 91 3e
       -0.39130282 0.6421302 -0.7007061 0.28339803
000100 e7 01 ad 3e b4 a4 03 bf 3a 43 eb 3e 48 02 4e bf
       0.33790514 -0.5142319 0.45949727 -0.8047223
000110 f0 ac c1 bd 7c ba d5 be e7 ab d0 bd 03 69 02 3f
       -0.09456813 -0.4174384 -0.10189038 0.50941485
000120 88 b0 23 bf 84 7d 09 bf 76 08 df 3e e0 0e ec 3d
       -0.6394124 -0.53707147 0.43561143 0.11526275
000130 3d e1 68 bc 9f f7 31 3f 10 ef 45 3e b6 0b 31 3e
       -0.014213857 0.69518465 0.19329476 0.17289624
000140 ee 4a 12 bf 27 58 c8 3e 73 c8 3e 3f 35 0e 9c 3d
       -0.57145584 0.39129755 0.7452461 0.07619897
000150 a8 e0 7d bf 8f 69 ae 3e 6c e8 18 3e 10 71 e8 be
       -0.99170923 0.3406491 0.14932412 -0.4539876
000160 ca 79 09 bf 8e a3 01 bf 6e 27 47 3f 7a 6f 0a bf
       -0.5370146 -0.5064019 0.7779454 -0.5407635
000170 f8 a0 21 bf 4d 3d 15 3e 38 65 20 be aa 40 15 bf
       -0.63136244 0.14574166 -0.15663612 -0.58301795
000180 12 e6 67 3c 1e 98 30 bf 94 08 8d be 03 b7 39 3f
       0.014153974 -0.6898211 -0.27545607 0.7254488
000190 e0 83 6c bf 55 84 09 3f 76 b1 b3 3e 97 ef 05 3f
       -0.92388725 0.5371755 0.3509633 0.5231871
0001a0 13 ea 6d 3e c9 26 d3 3e 5b 00 08 3f d2 df 5c bf
       0.23233823 0.41240528 0.5312554 -0.8627902
0001b0 1a f5 83 3e f2 7b 65 3f cc 40 61 bf f1 37 d2 3e
       0.25772935 0.8964225 -0.879895 0.41058305
0001c0 7e 02 3c bf 8c 51 92 be e8 a1 74 be 24 42 37 bf
       -0.734413 -0.2857784 -0.23889887 -0.715853
0001d0 16 3f a7 3c b0 9e b6 bd 20 46 64 bf b6 f0 80 3e
       0.020415824 -0.08916986 -0.891695 0.25183648
0001e0 64 b9 3b 3f 5a 98 09 bf 20 c6 49 bf e6 3a 76 3f
       0.7332976 -0.53748095 -0.7881794 0.9618362
0001f0 c3 2b 0c 3f 23 06 5f 3f bc 08 7d 3f bc b9 55 3f
       0.54754275 0.8711874 0.9884145 0.83486533

layers.2.weight f4 [64, 128]
000000 e6 1b 5d bc 33 8c 38 3d 89 ea a8 3d 26 64 77 bc
       -0.013495421 0.04505558 0.08247859 -0.015099561
000010 67 8e 54 3d df 7b b2 3d 17 8b 8e bd c6 21 80 bd
       0.051893618 0.08715033 -0.06960123 -0.06256442
000020 e6 dc 58 bb a7 9f 91 3d 20 85 f6 bc ee ae 64 bd
       -0.003309065 0.071105294 -0.030092776 -0.05583089
000030 c7 58 37 3d f3 65 25 3c d7 89 35 bc df c7 f8 3b
       0.0447624 0.010095107 -0.011080227 0.007592186
000040 72 d2 f4 3c 27 31 3c 3d ce ef 4f bd 5a 0a 8c bd
       0.029885504 0.045945313 -0.050765805 -0.06837912
000050 bc da 3a 3d ca a4 3b 3d 31 33 84 3b 5c ac f8 3c
       0.045618758 0.045811452 0.004034423 0.030355625
000060 b5 94 d3 ba 2e bb 8b bd 6e 32 82 3c f8 1e 9e 3d
       -0.0016142341 -0.06822811 0.015893187 0.077207506
000070 b1 55 7f bd 3d ef 5c 3d 51 b8 ad 3d c8 1f a1 3d
       -0.06233758 0.053939093 0.08482421 0.0786739
000080 3f a6 3f bd c6 f2 08 3d 29 0f 39 bd ec 25 81 bd
       -0.046789404 0.03343465 -0.045180473 -0.06306061
000090 27 38 cb bc 85 cd 72 3d a0 5e 7c 3d 5e 3c 5f 3a
       -0.024807049 0.05927803 0.06161368 0.00085157703
0000a0 65 bb 69 bd 7e f9 3c bd a8 18 25 3b d7 48 9a 3d
       -0.05706348 -0.04613637 0.0025191698 0.07533424
0000b0 ee c1 81 bd ce 20 8d 3c 28 fb f8 bc 85 b2 44 bd
       -0.06335817 0.017227557 -0.030393198 -0.048021812
0000c0 04 a2 a6 bd d4 16 6b 3c d8 85 8e bd d6 50 a6 3d
       -0.08136371 0.014348704 -0.069591224 0.08120887
0000d0 65 5f a6 bc dc dc 0b bd 6d 0b 70 3c 8c 89 63 bc
       -0.02030916 -0.034146175 0.014651162 -0.013887774
0000e0 06 ee 95 3d a1 37 b3 bc cf 1b d1 bc 46 9f 82 bd
       0.0732079 -0.021877112 -0.025525955 -0.06378035
0000f0 2f 7c 16 3d c7 f5 ad bd c0 0b 9d bd e5 16 a7 3d
       0.036739524 -0.08494144 -0.07668257 0.08158664
000100 9c 5b 41 bd 65 c6 16 bd d7 f7 88 3d 78 4a 1b bc
       -0.047206506 -0.036810298 0.06687897 -0.009478204
000110 29 81 a7 bd f1 f9 17 3c 19 31 a0 3d e3 53 e0 3c
       -0.08178932 0.009275899 0.07821865 0.02738375
000120 a0 28 44 bd aa 73 31 3d fe 6e 20 bd 79 62 72 3c
       -0.047890306 0.043323196 -0.03916835 0.0147939855
000130 2b fa 80 3d 35 48 9f bd 3c c7 d8 3c 8b 89 89 3d
       0.06297716 -0.07777444 0.02646219 0.06715687
000140 06 7d 89 3d 47 a0 5f bd 1b 63 82 bd 81 91 bc bd
       0.067132995 -0.05459621 -0.06366559 -0.0920744
000150 c0 37 1c bd fc b6 9f bd 41 87 80 bd 0f 8d 93 bd
       -0.038139105 -0.077985734 -0.06275798 -0.07204639
000160 e5 03 9e bd 23 71 20 bc 68 90 fd bc 72 22 2d 3d
       -0.077155866 -0.009792599 -0.030952647 0.042269178
000170 cd f2 46 bd d9 29 33 3c ad 38 79 bd ea 0e 5f bd
       -0.048571397 0.01093527 -0.060845066 -0.054457583
000180 e5 21 b4 3c a5 fb 67 bd 07 ff 56 bd 47 8e 16 3d
       0.021988818 -0.05663647 -0.052489307 0.03675678
000190 33 2f b5 bc 99 b0 99 3b d3 f3 40 3d 0e a1 ea bc
       -0.022117233 0.0046902415 0.04710753 -0.02864125
0001a0 d4 4a 88 3d df b1 a2 bd e5 e3 66 3d f2 ff cb bc
       0.06654897 -0.079440825 0.05636968 -0.024902318
0001b0 09 8d 5e 3d 82 09 79 3d 19 03 ab 3d e1 47 9f 3c
       0.05433372 0.060800083 0.083502 0.019443454
0001c0 42 c6 45 3b 91 dd 11 bd d6 ef 8a bd d1 f1 9b bd
       0.0030177985 -0.035611693 -0.06784026 -0.07614482
0001d0 8f 0d 80 3c 8d 21 ab 3c ba b7 48 bd 06 be 8d 3c
       0.015631465 0.020890022 -0.04900334 0.017302524
0001e0 4d f2 4f 3b 0b d6 09 3a 32 43 b1 3c 5b 04 a3 bd
       0.0031730116 0.000525803 0.021638487 -0.07959815
0001f0 71 e6 68 3d c2 05 48 bd 0d 7a 8e bd 7e a3 81 bc
       0.05686039 -0.048833616 -0.06956873 -0.01582503
000200 7b 53 be bc 57 ec c8 bc 8c 70 34 3c 77 94 a9 3b
       -0.023233166 -0.024526758 0.011013161 0.005175169
000210 7a df ad bd 75 f4 a9 3c a0 1f c5 3c 86 3b 6d bd
       -0.084898904 0.020746449 0.024062932 -0.057918094
000220 c7 c2 99 3d b6 fc 09 3d 4f b5 af bd 9a 7e ac bd
       0.07507854 0.03368827 -0.08579504 -0.08422585
000230 64 11 24 bc af 69 19 bd dc 6d 71 3d 09 41 1f 3c
       -0.010013912 -0.037454303 0.05894266 0.009720095
000240 79 31 9a 3d 73 e0 a9 3d 33 f7 31 3d 35 76 ab 3d
       0.075289674 0.082947634 0.04344864 0.083721556
000250 3d 42 1d 3b af 3e 10 bd 00 2e 43 3d 32 4d dd bc
       0.002399578 -0.03521603 0.04765129 -0.027014349
000260 8e 96 a7 bb db 4c 86 3b 58 d3 38 bc 86 42 88 bd
       -0.005114383 0.0040985174 -0.011280857 -0.06653313
000270 63 60 af 3d ca 6a 32 3d ad 12 85 3d 6c a6 95 bd
       0.08563306 0.043558873 0.06497703 -0.07307133
000280 b4 03 ac bd e7 ac 36 bd 90 3e 71 bd 42 57 29 bc
       -0.08399144 -0.044598486 -0.058897555 -0.010335745
000290 53 85 26 bd 2e 6a 96 3d 97 f2 6e 3d e1 21 38 bd
       -0.04065449 0.07344471 0.05833682 -0.044954184
0002a0 81 f1 27 bc 2f a9 6e bd 27 9e 58 bd c2 df 3d 3b
       -0.01025045 -0.058266815 -0.0528852 0.0028972481
0002b0 3f 0c f3 3c 9a 7b e9 bc a6 a4 08 bd f5 8a d9 bc
       0.029668925 -0.02850132 -0.033360146 -0.026555518
0002c0 a3 16 74 bd 82 b8 09 bd 99 dd 3a bd 61 e1 20 3d
       -0.0595919 -0.033623226 -0.04562149 0.039277438
0002d0 bf 36 d4 3c 63 50 03 3b c0 77 81 bd 71 a2 66 3c
       0.025905011 0.0020036928 -0.063216686 0.014076815
0002e0 f0 f3 85 bb 50 3d 5c 3d 72 45 8c bc 48 e7 92 3d
       -0.0040879175 0.05376941 -0.017122958 0.0717302
0002f0 56 56 9f 3b 64 9c 42 bd e4 e0 b1 3d a0 c8 8b 3d
       0.004862587 -0.047512427 0.086854726 0.068253756
000300 ed be 85 3d 40 11 d4 bc 16 3f 44 3d 09 c6 f4 3a
       0.06530557 -0.025887132 0.047911726 0.0018674742
000310 e8 35 8a bd 91 42 6c 3d a1 d8 5b bd 5d b2 ba bc
       -0.06748563 0.05768067 -0.05367339 -0.022790128
000320 ac 23 03 3d f4 e6 9f bd 93 2b 59 bd 53 bb a3 3c
       0.03201644 -0.07807723 -0.05302007 0.019986784
000330 ac 2a c1 3c c0 b2 4d bd 8c 26 98 3d 8c 3b ab bd
       0.023579918 -0.050219297 0.07429227 -0.08360967
000340 27 bd 84 3d 73 d0 82 bd 57 96 a6 3c 2e 55 66 3d
       0.064813904 -0.06387415 0.02033536 0.056233577
000350 5f 44 d2 3c 2d 97 f2 bc 52 ba ad bd 2c c8 6f 3d
       0.025667368 -0.029613102 -0.084828034 0.05854051
000360 9d fa 89 3c 0c ad 75 bd b8 b5 9a bd ef 3c 78 3d
       0.016843135 -0.059979483 -0.07554191 0.060604986
000370 38 dc 90 bd ba 1a ee bc d8 63 03 3d 06 41 d0 3b
       -0.070732534 -0.029065479 0.03207764 0.0063554076
000380 75 34 83 3c 5b 8d 7c 3d fb 52 0c bd 73 4c 7e 3c
       0.016016224 0.061658245 -0.034258824 0.015521157
000390 9d af 81 bc 3b d3 41 3c 26 80 af 3a 2d cf cb bc
       -0.01583081 0.011830146 0.0013389632 -0.024879063
0003a0 29 41 16 bd f4 bb 73 3d f0 f0 08 bc b3 74 c9 3c
       -0.036683235 0.059505418 -0.008358225 0.02459178
0003b0 51 ec 72 bd 66 82 0a 3c 45 e6 99 bd 62 8b 49 bd
       -0.0593074 0.008453941 -0.075146236 -0.04920519
0003c0 18 41 84 3d a6 d5 2c 3d 61 c8 13 3c 49 34 8a 3c
       0.06457728 0.04219594 0.009019942 0.016870635
0003d0 0f f0 84 3d 1b b7 b1 bd 12 c9 e6 3b 14 5a 86 bd
       0.064911 -0.08677503 0.0070430124 -0.0656015
0003e0 fc fc 36 3c 37 a6 94 bd 8b 7b 9b 3d dd f2 9d 3c
       0.011168715 -0.072582655 0.07591923 0.019280845
0003f0 68 c8 a5 bd 87 eb 8a bd 64 58 fc 3b e3 67 96 bd
       -0.08094865 -0.067832045 0.0077009667 -0.073440336

layers.2.bias f4 [64]
000000 87 a6 91 bd 01 99 d6 bc 8a 68 77 3c 2a 0c a6 3d
       -0.07111841 -0.026196005 0.015100608 0.08107789
000010 37 4f 79 bd f5 c4 3b 3b c4 de af bd 85 09 86 bc
       -0.06086656 0.002865133 -0.08587411 -0.016361961
000020 ec 55 04 bc 3a ae 1a bd 09 8c eb 3d 41 f1 80 bd
       -0.008077126 -0.03776381 0.11501319 -0.062960155
000030 05 2d d5 bc 1c e3 a5 bd d4 4d 4b 3d 1e 03 fa 3d
       -0.026022444 -0.08099958 0.04963477 0.12207626
000040 e2 33 41 3c 42 80 c9 3c 2f fd c3 bc 9b 02 b2 3c
       0.011792155 0.02459729 -0.023924438 0.021729758
000050 4d 84 c3 3c 56 65 06 3b 71 5a 99 bd d4 48 bb bc
       0.023866797 0.0020507178 -0.074879535 -0.022861876
000060 74 8f 07 3c b8 d4 15 3d 8f 51 99 bd 7f 37 60 bd
       0.008273948 0.036579818 -0.07486259 -0.054740425
000070 04 a3 f1 3c 8c 12 93 3d bf f8 31 bc 48 92 88 bc
       0.029496677 0.07181272 -0.010862528 -0.016671315
000080 29 df 61 bd 88 33 09 3e b7 4b a2 3c 5c 67 01 3e
       -0.055144463 0.13398564 0.019811494 0.12637085
000090 4e ee de 3c 89 08 6f bd e9 5c 5e 3d 39 15 eb bc
       0.027213242 -0.05835775 0.054287825 -0.028696643
0000a0 0f 48 a2 3d 3e 05 1d 3d 2a 75 a8 3c 89 0b 92 3d
       0.079239 0.038335077 0.02056368 0.071311064
0000b0 57 46 08 3d 07 77 2e bc ed ce 0c bd 12 fb 2c 3d
       0.033270206 -0.0106484955 -0.034377027 0.042231627
0000c0 71 d0 4e bc b3 dd 2b bc 72 ef 25 bd e4 a4 13 3d
       -0.0126229385 -0.010489869 -0.040511556 0.036045924
0000d0 55 c2 50 bd bb e9 61 3c 7e f2 ad bd ae cb 65 bd
       -0.05096658 0.013788636 -0.08493517 -0.056102447
0000e0 4c cc bd bd 85 12 5e bd ee e9 29 bc 85 9e a3 bd
       -0.09267482 -0.05421688 -0.010370715 -0.079892196
0000f0 c8 87 1e 3d 86 69 77 3d d7 3c 0d 3d 61 5f 89 b8
       0.03870371 0.06040337 0.03448185 -6.550435e-05

layers.4.weight f4 [32, 64]
000000 c1 08 f5 3d a8 91 a8 bd bf 05 29 bd a8 1c 28 3d
       0.1196456 -0.08230907 -0.041265246 0.041042954
000010 1c 6e ca bd a7 7a e5 bd d2 2c d4 3c 96 20 e7 3d
       -0.09884283 -0.11205035 0.025900278 0.11285512
000020 9c be 7f bd ed fc ce 3c b8 9d c9 3d 24 1d f7 bc
       -0.06243764 0.025267089 0.098445356 -0.030165263
000030 88 88 8e 3c 38 7c cd 3d e5 d2 cc bd 43 65 2c 3e
       0.017399088 0.100334585 -0.100011624 0.16835503
000040 5c 5c e5 be 48 69 35 3d fa d9 b5 3d 35 1f 9c 3d
       -0.44797027 0.044289857 0.08879466 0.0762314
000050 88 b7 fb bd f0 74 02 bd 61 9c a4 bd 6c 34 bb 3e
       -0.12290865 -0.0318498 -0.080376394 0.36563432
000060 07 6e 21 3c c2 b2 58 3e 84 09 2f 3d a9 fd 1e 3e
       0.009852893 0.2116194 0.042733684 0.15526451
000070 b8 34 a8 bd 20 31 24 bd e8 61 1a bd 5f 20 17 bd
       -0.0821318 -0.04008591 -0.037691027 -0.036896106
000080 53 4e 95 3c ea e4 80 bd 09 40 b4 3c 91 f4 47 3d
       0.018225824 -0.06293662 0.02200319 0.04881722
000090 0b 46 f2 bc f1 b3 2a 3d a4 d3 51 3e 0e b3 b0 bb
       -0.029574415 0.04167551 0.2049089 -0.0053924387
0000a0 fe c3 a7 3d de 13 81 3d 65 9a dd bd 10 6a 76 3d
       0.081916794 0.063026175 -0.10820464 0.060159743
0000b0 d0 64 14 3c e0 6d c9 bc 46 e1 d5 3d d4 2f d7 bd
       0.009057239 -0.024588525 0.10443358 -0.10507169
0000c0 18 0d 04 bd 2e 95 c2 3d 87 cb fe 3c 00 e6 69 bd
       -0.03223905 0.0950111 0.031102909 -0.05710411
0000d0 4c 36 ce 3d dc 76 fc 3d 96 88 98 bd 60 43 b0 bd
       0.1006895 0.12327358 -0.07447927 -0.08606601
0000e0 87 3d 0c 3c 4a 61 2f bd a4 a5 b1 3d f6 0f cf bd
       0.008559591 -0.04281739 0.086741716 -0.10110466
0000f0 96 30 00 bd 7e c2 52 3d ff 36 80 3e 30 45 05 3e
       -0.031296335 0.051455013 0.2504196 0.13014674
000100 b3 ad f1 3d b0 17 5b bd dd cc bf 3d 54 67 f3 3d
       0.118007086 -0.053489387 0.093652464 0.11884943
000110 8a 68 92 bd d2 78 a5 3d 92 10 0e bd 59 43 d7 bd
       -0.071488455 0.08079685 -0.03468377 -0.105108924
000120 c0 e2 a7 3d f5 64 cf bb 90 32 b9 3a b8 9e 34 bd
       0.08197546 -0.0063291737 0.0014129449 -0.04409668
000130 94 10 bf 3d 98 87 83 bd d8 dd ac bb 7a ab 7c 3d
       0.09329334 -0.06422347 -0.0052754693 0.06168697
000140 bd a6 a2 bd 18 69 a2 bd 7c 2f f1 bd 0d 78 57 3c
       -0.07941959 -0.07930201 -0.11776635 0.013151181
000150 4e 33 c3 bd 0a bd eb bd f4 ee 1b 3d 5d 37 c9 3d
       -0.0953127 -0.11510666 0.03806968 0.09825013
000160 2d 70 98 3d 48 01 15 be 6a 92 be 3d c6 a1 1a be
       0.07443271 -0.1455127 0.0930527 -0.15100774
000170 10 f8 cb 3b 10 57 70 bc a0 87 ba 3d d7 72 d8 3d
       0.0062246397 -0.014669195 0.091079 0.10568779
000180 15 ef 95 bd 1c fd ea bc 62 c9 df bd 6f 9e 51 bd
       -0.07320992 -0.028685145 -0.109270826 -0.051176485
000190 4d ce 23 bd 2e b8 bd 3d 4a 5a 15 bc bf 35 32 3c
       -0.039991666 0.09263645 -0.009115765 0.010877072
0001a0 4c ff 3b bd 78 a8 f3 3d e2 bc 25 bc d0 41 67 3c
       -0.045897767 0.11897367 -0.010115834 0.014114812
0001b0 54 fd ee bd 40 6f e1 3b 06 15 fb bd c4 ea 7c bd
       -0.11669412 0.006879717 -0.12259869 -0.061747327
0001c0 10 b7 ea 3c 0a db e6 bd 1e da 6b bd c0 ff 1e bc
       0.028651744 -0.11272247 -0.05758106 -0.00970453
0001d0 fb e4 22 3d a1 8f 88 bd d1 67 6f bd 20 b0 60 3d
       0.039769154 -0.0666802 -0.058448616 0.054855466
0001e0 d7 ce e3 bd 85 3a 14 bd 8a a6 9a 3b d8 c0 de 3c
       -0.11123436 -0.03618862 0.00471956 0.027191564
0001f0 c3 a8 be 3d 83 b9 ac 3c 67 e2 3a 3d 3d 06 3a bd
       0.093095325 0.021084553 0.04562607 -0.045416106
000200 6e 76 ee bd 24 51 38 bd 7e 33 d2 3d 58 0f e7 3c
       -0.116436824 -0.044999257 0.102637276 0.028205559
000210 88 3a 53 3d 44 c0 ec 3d 50 2b a2 bc a0 0a 9d bb
       0.05156949 0.11560109 -0.019796044 -0.0047925264
000220 74 ef b7 3d c0 f6 94 3b 6f 18 aa 3d 96 7b d9 3d
       0.08981219 0.0045460165 0.083054416 0.10619275
000230 b4 00 85 3d e0 f5 e3 bd a4 c9 38 3d a8 31 f0 3d
       0.06494275 -0.11130881 0.045114174 0.11728221
000240 2d 0d 36 3e 9c 88 c5 3d e8 56 da 3c ee 70 84 3d
       0.17778464 0.09645197 0.026652768 0.06466852
000250 33 b2 c8 3d 37 4a f0 3d 58 75 cc bd 5c 12 8a be
       0.09799614 0.11732905 -0.09983319 -0.26967132
000260 6c 99 ab 3d ee 5e 8d be c8 b1 d5 3d d8 ec 26 3e
       0.08378872 -0.27611488 0.104343 0.16301286
000270 b4 5c f2 3d 88 1a d2 bc 50 11 d4 bc 58 5e f3 bd
       0.11834088 -0.025647417 -0.025887161 -0.11883229
000280 62 60 b6 bd 1b 95 9e 3d 74 58 87 bd eb 2b 91 bd
       -0.08905102 0.07743283 -0.06608668 -0.07088455
000290 9e 38 cb 3d c0 1f c6 bd 2e ba 19 bd c4 cb 21 3d
       0.09922908 -0.096740246 -0.03753107 0.039500967
0002a0 74 82 3c 3d 0c 41 e4 3d 1a 8b ba 3d e8 80 23 3d
       0.046022847 0.11145219 0.09108563 0.039917856
0002b0 d0 68 6d 3d 4e fc f5 bd f2 2c 87 bd 84 4a 22 bd
       0.057961285 -0.12011014 -0.066003695 -0.039621845
0002c0 7a c1 92 bd 6e 8b d0 3d 98 66 cc bc 28 13 b0 bd
       -0.07165809 0.10182844 -0.024951264 -0.08597404
0002d0 80 35 3e 3d 57 ae 54 3d 30 ed 61 bc c0 41 98 bb
       0.04643774 0.051924076 -0.01378946 -0.00464651
0002e0 60 72 9a 3c 60 d0 c1 3d 6c b5 3e 3c c8 b3 ac bc
       0.018853366 0.094635725 0.011639934 -0.02108182
0002f0 68 92 4b 3d 30 74 47 bd b2 45 af be 73 87 a3 be
       0.04970017 -0.04869479 -0.3423286 -0.31939277
000300 b7 1d c4 bc 28 fd e9 bd 72 80 55 3d 04 a7 22 3d
       -0.02393995 -0.11425239 0.052124448 0.03971006
000310 d0 a1 4d bd ce f2 de 3d 9b 02 be bd 2b fb 1c 3c
       -0.050203145 0.10886155 -0.09277841 0.0095813675
000320 80 a6 3c bb 0c 45 09 3d ef 25 2c 3e 6a 04 85 bb
       -0.0028785765 0.033513114 0.16811346 -0.004059364
000330 0c 4e 94 3d d4 62 eb bd 69 f9 57 bd 0f 25 cd 3c
       0.07241449 -0.11493459 -0.05272809 0.025042085
000340 fc f7 63 be e0 33 8b bd 26 93 40 bd 43 0c 5e 3e
       -0.22262567 -0.06797004 -0.04701533 0.21684365
000350 10 c4 42 bc 70 50 9c bd 2f 95 39 bd 09 a8 ce 3e
       -0.011887565 -0.0763253 -0.04530829 0.40362576
000360 1c 34 3c bd 4c 1c 30 3e c0 d6 d0 bb c8 c4 bc 3d
       -0.045948133 0.17198294 -0.0063732564 0.092172205
000370 6a d1 d5 bd 9c 51 1c 3d 50 46 14 3d fb 9e e0 bd
       -0.10440333 0.038163766 0.036199868 -0.10967823
000380 f5 3d c1 3c 4a 87 9f 3d 5a 31 c1 3d fc e8 0f 3e
       0.023589114 0.07789476 0.09433241 0.1405372
000390 d4 6e b6 3b 0a 96 4d 3d 5c c6 3b 3c de e9 fa 3d
       0.005567411 0.050191917 0.011460867 0.12251638
0003a0 aa 1d f0 3d 6e 5b dc bd 98 60 ba bc 10 14 0a bc
       0.11724408 -0.10759626 -0.022751138 -0.008427635
0003b0 38 95 de bc 50 a2 d0 3c 94 1c d7 bd 00 cc 4b ba
       -0.027170762 0.025468022 -0.10503498 -0.0007774234
0003c0 90 17 18 bd 78 99 82 3c 22 5a 54 3d 64 19 24 bd
       -0.037131846 0.01594232 0.05184377 -0.040063277
0003d0 3a 0b 12 3d a0 39 2e 3e 3a 44 7d bc 00 05 80 bc
       0.035655238 0.1701417 -0.015458161 -0.015627384
0003e0 f1 5b d0 bd 7b b7 bb bd bb 25 57 3e 38 3c 60 bd
       -0.101737864 -0.091658555 0.21010487 -0.05474493
0003f0 16 78 2e bd 6c f9 5f bd 1a d0 29 3e bf 4f 93 3e
       -0.04259499 -0.054681227 0.1658329 0.2877178

layers.4.bias f4 [32]
000000 01 47 b0 3d 1a 1e c1 3d bd 97 b1 bc c8 f7 bd 3d
       0.08607293 0.094295695 -0.0216788 0.09275776
000010 c4 7d 68 bd 26 41 59 bc e4 28 22 3e 68 b0 b5 3d
       -0.056760564 -0.0132601615 0.15835911 0.088715374
000020 05 73 29 3e cf 6b d1 3d 64 2d fd bc 4e 48 c3 3d
       0.16547783 0.10225641 -0.030905433 0.095352754
000030 e1 67 4f bc 15 38 09 bd 3f f7 d4 3b fa 0e d0 bd
       -0.012659044 -0.03350075 0.0064992006 -0.101591066
000040 fd a3 09 be 13 a9 1e 3c fe e8 e0 bd 46 0b 9c 3d
       -0.13441463 0.009683865 -0.1098194 0.07619338
000050 c4 2b 27 3d 86 c3 fb 3d 82 1a 50 bd 5e 60 2d 3e
       0.040813223 0.122931525 -0.05080653 0.16931292
000060 9d b0 9e bc a4 9e d5 bd ee 81 a6 3c 0c 43 07 be
       -0.019371325 -0.10430649 0.020325627 -0.1320917
000070 8a 3f ec bd a5 2f 77 3d 14 af 94 bd bc 42 8e bd
       -0.115355566 0.06034817 -0.07259956 -0.06946322

layers.6.weight f4 [1, 32]
000000 aa 53 92 3e 1b 1e d2 bd de 97 c6 be 61 64 92 3e
       0.28579456 -0.102596484 -0.3878774 0.28592208
000010 b6 dd be 3b 1d d8 d5 be ad 32 1a 3e 27 d0 91 3e
       0.00582477 -0.41766444 0.15058394 0.2847912
000020 11 ab 0c 3f 52 05 a8 3e a5 79 03 bc d0 46 18 be
       0.54948527 0.3281656 -0.008024608 -0.14870763
000030 09 c9 d5 be 3f d9 9e be f2 35 29 bd 39 cc e1 3d
       -0.4175494 -0.3102512 -0.041311212 0.110252805
000040 fe 8d cc bd 23 c5 4a bc 21 42 58 bd 01 79 a7 be
       -0.0998802 -0.012376103 -0.05279744 -0.32709506
000050 72 93 fa bc 13 3c 8f 3e 1b 0a f1 bb 77 f4 94 3e
       -0.030587886 0.2797552 -0.007355941 0.29092762
000060 3e 53 b1 bd db 77 88 bc f4 5c c6 bd 68 ec e3 bd
       -0.08658455 -0.016658714 -0.09685698 -0.11129075
000070 93 2f 1c bd eb 4c 43 bd e4 24 48 3d 90 1f 35 3e
       -0.038131308 -0.047680777 0.048863307 0.17687821
