models/nn/exp_6_best.pth (torch, 224034 bytes, 25 tensors)

0.weight f4 [256, 32]
0	0xbc2a5151	-0.010395364
1	0x3d659346	0.056048654
2	0x3d4089f1	0.04700655
3	0x3e2d847f	0.16945074
4	0x3e24c5bf	0.16091059
5	0x3deaa0a6	0.114564225
6	0x3d88ebb9	0.066855855
7	0x3dca0c4e	0.09865628
8	0xbd0122a0	-0.03152716
9	0xb9a18dea	-0.00030814047
10	0x3bb8e9bd	0.005643098
11	0xbd20aab5	-0.0392253
12	0x3de87088	0.11349589
13	0xbdd4ea36	-0.10396235
14	0xbe34b42e	-0.17646858
15	0xbdd6bfa3	-0.104857706
16	0x3da31c69	0.07964403
17	0x3d3b61fa	0.045747735
18	0xbe144ee8	-0.14483225
19	0xbc2baa34	-0.010477591
20	0x3e311580	0.17293358
21	0xbe185d49	-0.14879335
22	0x3e1b0fd9	0.15142764
23	0xbe0991e7	-0.13434564
24	0x3dccbdc0	0.099971294
25	0xbdf8a0ef	-0.12140071
26	0xbd53abe7	-0.05167761
27	0x3d191ff8	0.037384003
28	0x3dca303a	0.0987248
29	0x3d98fb46	0.074698016
30	0xbde574a8	-0.11203891
31	0x3e03a1f5	0.1285475
32	0x3aec96fe	0.001805037
33	0x3c2f41ab	0.010696809
34	0x3bad87aa	0.0052957134
35	0xbe59763c	-0.21236509
36	0x3db5164e	0.08842145
37	0xbe11d9af	-0.14243196
38	0x3dccaf32	0.09994353
39	0x3c5b6961	0.0133918235
40	0xbdbd0796	-0.092299625
41	0xbd633cfc	-0.05547808
42	0xbdee41b9	-0.11633629
43	0xbe2085f5	-0.156761
44	0xbdd1866d	-0.10230718
45	0x3df15c98	0.11785239
46	0xbb3e9c34	-0.0029084804
47	0xbd197771	-0.037467424
48	0xbe09b968	-0.13449633
49	0xbdc4cf4c	-0.09609851
50	0xbdc21c98	-0.0947811
51	0x3c1e92c4	0.009678546
52	0xbd969a54	-0.073536545
53	0xbd67258d	-0.056432296
54	0x3da6d433	0.081459425
55	0xbde7c79c	-0.11317369
56	0xbe3474ce	-0.17622682
57	0xbdf165e8	-0.11787015
58	0x3d3f178f	0.046653327
59	0x3df627f4	0.12019339
60	0x3e3f65af	0.18691133
61	0xbe290599	-0.16506042
62	0x3d833859	0.06407232
63	0x3b9a389d	0.004706456
64	0xbde61bd3	-0.11235776
65	0x3e093f21	0.13402988
66	0x3d4a0143	0.04931761
67	0x3e072424	0.1319738
68	0xbd4e7662	-0.050405867
69	0x3e10db07	0.14146052
70	0x3e014fd8	0.12628114
71	0xbd4881d0	-0.048951924
72	0xbde609a0	-0.112323046
73	0xbdce9de6	-0.100887105
74	0x3e046109	0.12927641
75	0x3ddc7c64	0.10765913
76	0xbe1613b5	-0.14655955
77	0xbdc31817	-0.09526079
78	0xbe2e46da	-0.17019215
79	0x3cb39578	0.021921858
80	0xbe2cb5fb	-0.16866295
81	0x3d78ed64	0.06077327
82	0x3de1f3bd	0.110328175
83	0xbe20ec6a	-0.15715185
84	0xbdadcc1e	-0.08486198
85	0x3dd334d3	0.1031281
86	0x3ce5d683	0.028056389
87	0xbdce2f62	-0.10067631
88	0xbc959024	-0.018257208
89	0x3ddffc08	0.10936743
90	0x3d6f568d	0.05843215
91	0x3e0dbaaf	0.13840745
92	0x3d4a5c6e	0.049404554
93	0x3ad23a39	0.001603908
94	0xbe178bab	-0.14799373
95	0xbe1cb9c1	-0.15305234
96	0xbcd5380f	-0.026027707
97	0xbd028335	-0.03186341
98	0x3d9d92e6	0.07694034
99	0x3ae99926	0.0017822131
100	0x3e13f542	0.14449027
101	0xbdf230ec	-0.11825737
102	0x3c84c808	0.016208664
103	0x3e06f042	0.13177589
104	0xbdb8e83d	-0.09028671
105	0x3d81b3e4	0.063331395
106	0x3df515ee	0.119670734
107	0xbda4cf03	-0.08047297
108	0x3d68b089	0.056808982
109	0x3dc736fb	0.097272836
110	0xbe415717	-0.18880878
111	0xbd0e6a54	-0.03476937
112	0xbd35fc38	-0.044429988
113	0x3d382064	0.044952765
114	0x3d9b0fb2	0.07571353
115	0x3deafc99	0.114739604
116	0xbe21a80d	-0.15786763
117	0x3de98a3a	0.11403318
118	0xbe0c041b	-0.13673441
119	0x3cade5a7	0.02122767
120	0x3d5cbb75	0.05388971
121	0x3da86e40	0.082241535
122	0xbcee803c	-0.029113881
123	0x3c7c6d8b	0.015406976
124	0x3dc821ef	0.09772097
125	0x3ddf748d	0.10910902
126	0xbe20303f	-0.15643404
127	0x3c947978	0.018124327
128	0xbe07e291	-0.13270022
129	0x3e0d72c0	0.13813305
130	0xbd5f3a48	-0.05449894
131	0x3e093a8b	0.13401239
132	0x3de12059	0.10992498
133	0xbd76b212	-0.060228415
134	0x3e0eb500	0.13936234
135	0x3c99adc3	0.018759614
136	0xbbe5ba90	-0.0070107654
137	0x3e139e99	0.14415969
138	0x3e01aeda	0.12664357
139	0x3e0023dc	0.1251368
140	0x3dc8357d	0.09775827
141	0x3c18b43d	0.009320316
142	0x3d199c77	0.037502732
143	0x3d834dcd	0.06411324
144	0x3cb2d377	0.02182935
145	0x3dcb1c26	0.09917478
146	0xbdd61cb5	-0.10454694
147	0x3d5ee010	0.0544129
148	0xbd427723	-0.0474769
149	0xbdd17c29	-0.1022876
150	0xbdb802d5	-0.08984915
151	0x3df11412	0.11771406
152	0x3d6ea605	0.058263797
153	0xbe3f8d09	-0.18706144
154	0x3e15cc97	0.14628826
155	0x3dbd38e8	0.0923937
156	0xbda35e7d	-0.079770066
157	0xbca93f06	-0.020659935
158	0x3ddd19eb	0.10795959
159	0xbdeaec93	-0.11470904
160	0x3da664bb	0.081246816
161	0x3d91565e	0.07096551
162	0xbccd8b29	-0.02509077
163	0xbe2c2590	-0.16811204
164	0x3d8954ff	0.06705665
165	0x3c95851f	0.018251954
166	0x3dece2d8	0.115667045
167	0xbd19eb55	-0.037577946
168	0x3e02047f	0.12697028
169	0xbd228c18	-0.039684385
170	0x3c8e1b6e	0.017347064
171	0xbd243723	-0.040091645
172	0xbdf5802c	-0.119873375
173	0xbdbaa8cf	-0.09114229
174	0x3dbae06e	0.09124838
175	0x3e1040ec	0.14087266
176	0x3da51896	0.0806133
177	0xbe2777bd	-0.1635427
178	0xbdf8818b	-0.12134083
179	0xbe08ee2c	-0.13372105
180	0xbd5cbd49	-0.053891454
181	0xbe168011	-0.14697291
182	0x3df68221	0.12036539
183	0xbe032786	-0.12808046
184	0xbc496209	-0.01229144
185	0xbd0b89ac	-0.03406684
186	0xbce14228	-0.027497366
187	0xbe22a0e6	-0.1588169
188	0x3d2682d0	0.040652096
189	0xbd83fef5	-0.064451136
190	0x3cc607fa	0.024173725
191	0xbd6e5ce0	-0.05819404
192	0x3d00871a	0.031378843
193	0x3e59c4c2	0.21266463
194	0x3beea079	0.0072823134
195	0xbc86d2da	-0.016457964
196	0x3dc965b8	0.098338544
197	0xbdd36df6	-0.10323708
198	0xbd3222f6	-0.043490373
199	0xbd5be65f	-0.053686496
200	0x3cccf4f1	0.02501914
201	0xbe20bc0f	-0.15696739
202	0xbe250486	-0.16115007
203	0x3bc3b495	0.005972455
204	0x3d01a8ea	0.03165523
205	0x3d9e3958	0.07725781
206	0xbcea3b5b	-0.028592756
207	0x3dee44ad	0.116341926
208	0xbe38c730	-0.18044734
209	0x3e20b89d	0.15695424
210	0x3d658c8d	0.056042243
211	0xbd49b50c	-0.049244925
212	0x3a00afc9	0.00049090065
213	0x3df17a74	0.11790934
214	0xbdb3b197	-0.08774107
215	0x3c587524	0.013211522
216	0x3d69a4cf	0.05704194
217	0xbdd63823	-0.10459926
218	0xbca68290	-0.020325929
219	0xbd3d541b	-0.046222787
220	0xbd1811af	-0.03712624
221	0x3d1c131e	0.03810417
222	0xbd4fc6bb	-0.050726634
223	0x3dc4b5cb	0.09604987
224	0x3d58fdd3	0.05297644
225	0xbe23894a	-0.1597034
226	0xbdee5bc5	-0.116385974
227	0xbe4cdf10	-0.20006967
228	0xbddbd2f2	-0.10733594
229	0x3db39159	0.08767957
230	0x3cfc7aa8	0.030820206
231	0xbdf140cd	-0.11779938
232	0xbda11d39	-0.07866902
233	0xbe0d4fae	-0.13799927
234	0xbe1d9f91	-0.15392901
235	0xbe08144a	-0.1328899
236	0xbd270707	-0.040778186
237	0x3e13a6d6	0.14419112
238	0xbc152243	-0.009102407
239	0x3d5a8b8b	0.053355735
240	0x3cf3b899	0.029751109
241	0xbd2925eb	-0.041295927
242	0x3d072bcb	0.03300075
243	0xbdd1e755	-0.10249201
244	0xbc0df978	-0.008665435
245	0x3ca8f1b9	0.020623075
246	0x3dccb7d4	0.09996
247	0xbe1d913a	-0.15387431
248	0x3e2096ca	0.15682521
249	0x3df19bab	0.117972694
250	0x3df04d7b	0.11733528
251	0x39f6f0d9	0.00047100222
252	0xbb9a7f91	-0.004714914
253	0xbdf91e43	-0.12163975
254	0x3cdb294e	0.026753094
255	0x3e37345e	0.1789107

0.bias f4 [256]
0	0x3e02459d	0.12721868
1	0x3c10a0cb	0.0088273985
2	0xbdb8e021	-0.09027124
3	0xbc959f7d	-0.018264527
4	0x3df9b1fe	0.121921524
5	0x3ce3cfd4	0.027809061
6	0x3d0798f1	0.03310484
7	0xbe1bf84c	-0.15231436
8	0x3decbf7f	0.115599625
9	0x3e106f42	0.14104941
10	0x3c967ac5	0.018369088
11	0xbc6faf58	-0.014629208
12	0xbd5943b5	-0.053043086
13	0xbd937259	-0.071995445
14	0xbe042fe0	-0.12908888
15	0x3d0c35c4	0.034230962
16	0x3cb36e08	0.021903053
17	0x3dc17faf	0.09448182
18	0xbdf411f6	-0.11917488
19	0xbe338829	-0.1753241
20	0xbe311003	-0.17291264
21	0x3d88fd40	0.066889286
22	0xbe1b361b	-0.15157358
23	0xbe039d6a	-0.12853017
24	0xbdb475a7	-0.08811503
25	0xbe33cd6a	-0.17558828
26	0x3ccb4d1d	0.024817044
27	0xbe32b570	-0.17452025
28	0xbb993834	-0.0046758894
29	0xbd44f968	-0.048089415
30	0x3d59264e	0.053015046
31	0x3e200cc8	0.15629876
32	0xbdd21a3f	-0.10258912
33	0x3e393b4f	0.1808903
34	0x3e100e87	0.14068042
35	0xbe046723	-0.12929969
36	0x3dbad14d	0.09121952
37	0xbc1547ba	-0.009111339
38	0xbe2faa5d	-0.17154832
39	0x3e2bcb94	0.16776878
40	0x3e2fbf39	0.1716279
41	0x3e01009a	0.12597886
42	0xbe1d2353	-0.15345506
43	0x3d0dd23c	0.034624323
44	0xbe18defe	-0.14928815
45	0xbd99b168	-0.07504541
46	0xbda568b2	-0.0807661
47	0xbe0b2f97	-0.13592373
48	0x3d174b60	0.036937118
49	0xbd969e15	-0.073543705
50	0xbc9591b7	-0.018257959
51	0x3ded3ab0	0.115834594
52	0xbdefee2e	-0.11715351
53	0x3dcfde43	0.10149815
54	0x3a07846f	0.00051695755
55	0xbe2e4e83	-0.17022137
56	0xbe336868	-0.17520297
57	0x3d9fec17	0.078087024
58	0x3db149b5	0.086566366
59	0x3cf420c5	0.029800782
60	0x3db6f35d	0.089331366
61	0xbe37ae77	-0.17937647
62	0xbd50b6cf	-0.05095559
63	0x3e07b563	0.13252787
64	0xbd9cfb73	-0.07665148
65	0x3d367d07	0.04455283
66	0x3d8fb0c5	0.07016138
67	0x3d355311	0.04426867
68	0xbdb2c7cd	-0.08729515
69	0x3dfcf14e	0.12350713
70	0xbdb1b3a1	-0.086768396
71	0xbdd81cad	-0.105523445
72	0xbe24a0aa	-0.16076913
73	0x3dbc3105	0.09189037
74	0xbe23aeb7	-0.15984617
75	0x3dd4f1fc	0.10397717
76	0x3df84ec3	0.121243976
77	0x3d7f327c	0.062304005
78	0x3c673e54	0.014113981
79	0xbd906f19	-0.0705244
80	0xbc54f27a	-0.012997264
81	0x3cf13f77	0.029449208
82	0xbe0cd8b6	-0.13754544
83	0x3d32e695	0.04367693
84	0xbda1c20a	-0.07898338
85	0x3e0b66a4	0.13613373
86	0x3e296ade	0.16544673
87	0x3de340ac	0.110963196
88	0xbdfa18ec	-0.12211785
89	0xbe301d43	-0.17198662
90	0x3ddbee2b	0.10738786
91	0x3ddb8883	0.10719397
92	0xbe0eca87	-0.13944446
93	0xbe33b6c6	-0.17550191
94	0x3d74b81e	0.0597459
95	0x3d1c2b2c	0.03812711
96	0x3dfc4bbe	0.12319134
97	0x3d8bfbc6	0.06835131
98	0xbe2569cb	-0.16153638
99	0xbd807af3	-0.06273451
100	0x3e12f2f5	0.14350493
101	0xbc30ea10	-0.010797992
102	0x3dca4986	0.09877305
103	0x3d2ddd46	0.04244735
104	0x3d9bcad5	0.076070465
105	0x3db6e360	0.08930087
106	0x3dae7721	0.08518816
107	0x3d0d6d68	0.034528166
108	0xbe10d1c9	-0.14142527
109	0xbcdd65d5	-0.027026096
110	0xbd5f2455	-0.05447801
111	0x3e18be13	0.14916258
112	0xbe065699	-0.13118972
113	0x3d8dfdf9	0.06933207
114	0x3e19fe35	0.15038379
115	0x3b9833fd	0.0046448694
116	0x3dc017fa	0.09379573
117	0xbd109c61	-0.035305385
118	0xbdedf80c	-0.11619577
119	0x3ddd5cd5	0.10808722
120	0xbcad782e	-0.02117547
121	0x3d192cb8	0.037396163
122	0xbdcba18e	-0.099429235
123	0x3dfb441d	0.12268851
124	0x3dae1d48	0.08501679
125	0x3e361fd3	0.17785577
126	0xbc7ac0dd	-0.015304771
127	0xbdf8ac6f	-0.12142264
128	0x3dc28b9d	0.09499285
129	0x3dcc483d	0.09974716
130	0xbcef8825	-0.029239723
131	0x3e177cd8	0.14793718
132	0xbe0d2c19	-0.13786353
133	0x3d87b8e4	0.06627062
134	0x3d251aea	0.04030887
135	0xbdfdcd06	-0.12392621
136	0xbddaaa9d	-0.10677073
137	0xbe1bb69f	-0.15206383
138	0xbcbf4737	-0.023349388
139	0x3e1dd6a8	0.15413916
140	0xbe1c3322	-0.1525388
141	0xbe120283	-0.1425877
142	0x3a85b0a8	0.0010199742
143	0xbd9e59e1	-0.07731987
144	0xbd178cc0	-0.036999464
145	0xbdcc08b2	-0.09962596
146	0xbd282421	-0.04105008
147	0xbcb4ccce	-0.022070315
148	0xbe22ff15	-0.15917619
149	0x3cde5bd6	0.0271434
150	0xbd91dd12	-0.07122244
151	0xbd4292c7	-0.04750326
152	0xbdedd28f	-0.116124265
153	0xbdba2155	-0.09088389
154	0xbd2ee9e4	-0.042703524
155	0x3d95e693	0.07319369
156	0x3e0f9158	0.14020288
157	0x3d4753dd	0.048663963
158	0xbdd5e545	-0.1044412
159	0x3e179a10	0.14804864
160	0x3d54c292	0.05194337
161	0xbd79e133	-0.061005782
162	0x3e168af0	0.14701438
163	0xbe05655d	-0.13026948
164	0xbc912f5b	-0.017722776
165	0xbe1b321c	-0.15155834
166	0x3dd55410	0.10416424
167	0xbdcc6512	-0.09980215
168	0x3dcd51e3	0.10025384
169	0x3e2e8218	0.17041814
170	0x3e307ae8	0.17234385
171	0x3e23a2d5	0.15980084
172	0xbdc73612	-0.0972711
173	0x3e1c2747	0.15249358
174	0x3c3e9f66	0.011634683
175	0xbe153901	-0.14572527
176	0xbe2ec794	-0.1706832
177	0xbcb492fa	-0.02204274
178	0xbc739078	-0.014865987
179	0x3da6b418	0.08139819
180	0x3d79ae77	0.0609574
181	0x3d0463b5	0.03232165
182	0x3d21c89f	0.039497968
183	0xbe2205c4	-0.15822512
184	0x3d98da48	0.07463509
185	0x3e0a3deb	0.13500182
186	0x3b93c709	0.004509811
187	0xbcd9f55a	-0.02660625
188	0xbdf18fc0	-0.11794996
189	0xbcfa6efa	-0.030570496
190	0xbdb3ad0b	-0.0877324
191	0x3e13fe10	0.14452386
192	0xbe314938	-0.17313087
193	0x3e18aa90	0.14908814
194	0x3d74f5b0	0.05980462
195	0x3e1f6f3c	0.15569776
196	0xbd8d8892	-0.06910814
197	0x3d41a64a	0.047277726
198	0x3e0aa618	0.13539922
199	0xbdaa1331	-0.08304442
200	0x3cbc25c0	0.02296722
201	0xbd49b91b	-0.049248796
202	0x3df01343	0.11722424
203	0x3e0ae771	0.1356485
204	0x3c3566d0	0.011071876
205	0x3d5715b5	0.052510936
206	0x3e2f52f4	0.17121488
207	0xbdd5070e	-0.10401736
208	0xbe332804	-0.17495733
209	0x3ce103b3	0.027467584
210	0xbe340801	-0.17581178
211	0x3d4313fd	0.047626484
212	0xbd93699e	-0.07197879
213	0xbda0a369	-0.07843668
214	0x3d37fdb0	0.04491967
215	0xbe24c10d	-0.16089268
216	0xbd9c2c33	-0.07625618
217	0xbe16adc8	-0.1471473
218	0xbc7f162a	-0.015569249
219	0xbe141bcc	-0.14463729
220	0x3d0f7957	0.035027828
221	0x3e3621e1	0.17786361
222	0x3de843ec	0.1134108
223	0xbd770504	-0.060307518
224	0x3da35279	0.07974715
225	0x3b4b0844	0.0030980268
226	0x3e27eb34	0.16398317
227	0x3db43995	0.088000454
228	0xbdf7d6dc	-0.12101528
229	0xbdb713c9	-0.089393206
230	0xbe17bebf	-0.14818858
231	0x3dcbe1d2	0.09955181
232	0xbd8addad	-0.067805625
233	0xbd434128	-0.04766956
234	0xbe39b1f3	-0.18134288
235	0x3ca84f80	0.020545721
236	0xbcbcad97	-0.023031993
237	0x3c6a23da	0.014290774
238	0xbe1d6796	-0.15371546
239	0xbd1c0dda	-0.038099147
240	0x3dc00636	0.09376185
241	0x3e2b6b55	0.16740163
242	0xbdb25169	-0.08706934
243	0xbd29fc19	-0.041500185
244	0xbd3503a8	-0.04419294
245	0xbdb3dbf6	-0.087821886
246	0x3e0e9f6d	0.13928004
247	0xbe2919e9	-0.1651379
248	0xbe12a5e0	-0.14321089
249	0xbdd66b85	-0.104697265
250	0xbd93a0a5	-0.07208375
251	0xbc20bc37	-0.009810499
252	0xbe143239	-0.14472283
253	0x3c4ce0c5	0.012504761
254	0xbd455009	-0.04817203
255	0xbdb21cc5	-0.086968936

1.weight f4 [256]
0	0x3f8244e8	1.0177279
1	0x3f80ea20	1.0071449
2	0x3f855c6c	1.041883
3	0x3f81f0af	1.0151576
4	0x3f7d0640	0.9883766
5	0x3f7dda72	0.99161446
6	0x3f84b65e	1.0368154
7	0x3f83bee3	1.0292629
8	0x3f8115e7	1.0084809
9	0x3f7eecf0	0.9958029
10	0x3f7f8762	0.9981595
11	0x3f7bdd31	0.98384386
12	0x3f8357c3	1.0261158
13	0x3f768be1	0.9630719
14	0x3f81d33c	1.0142589
15	0x3f8732eb	1.0562414
16	0x3f89d928	1.0769396
17	0x3f8061b6	1.0029819
18	0x3f82fbd8	1.0233107
19	0x3f741006	0.9533695
20	0x3f80a0ed	1.0049111
21	0x3f7a698a	0.9781729
22	0x3f7cb3a4	0.9871161
23	0x3f7d5a87	0.9896626
24	0x3f79053e	0.97273624
25	0x3f8417c7	1.0319756
26	0x3f741d27	0.9535698
27	0x3f7a909e	0.9787692
28	0x3f785bec	0.9701526
29	0x3f82536c	1.0181708
30	0x3f811f54	1.0087686
31	0x3f82ae7d	1.02095
32	0x3f7aa1ad	0.9790295
33	0x3f864620	1.049015
34	0x3f7d554a	0.98958266
35	0x3f8031d1	1.0015203
36	0x3f80c900	1.006134
37	0x3f818931	1.0119992
38	0x3f82c8bf	1.0217513
39	0x3f7cb3f3	0.9871208
40	0x3f8633ad	1.048452
41	0x3f7feaff	0.9996795
42	0x3f7b65a5	0.9820197
43	0x3f8093b6	1.0045078
44	0x3f7e9779	0.9944988
45	0x3f8201e7	1.015683
46	0x3f78a439	0.97125584
47	0x3f86f191	1.054247
48	0x3f7eb5d6	0.9949621
49	0x3f7f47ed	0.99719125
50	0x3f8318e7	1.0241975
51	0x3f8164cb	1.0108885
52	0x3f794e85	0.97385436
53	0x3f8146f9	1.0099784
54	0x3f809e7c	1.0048366
55	0x3f7aecda	0.98017657
56	0x3f7d61ac	0.9897716
57	0x3f7f4f5e	0.9973048
58	0x3f81ab9e	1.0130498
59	0x3f802c36	1.0013492
60	0x3f712eb3	0.9421188
61	0x3f839101	1.0278627
62	0x3f791ef1	0.9731284
63	0x3f7db8a3	0.9910986
64	0x3f8699ac	1.0515647
65	0x3f864531	1.0489866
66	0x3f7cb4eb	0.9871356
67	0x3f834d47	1.0257958
68	0x3f7ca135	0.9868348
69	0x3f73077a	0.94933283
70	0x3f83a064	1.0283322
71	0x3f80e5ec	1.0070167
72	0x3f7ef2c6	0.9958919
73	0x3f85d4ad	1.0455528
74	0x3f80b21e	1.0054357
75	0x3f8045ef	1.0021342
76	0x3f82111c	1.0161471
77	0x3f7f6054	0.9975636
78	0x3f80ff37	1.0077885
79	0x3f7afe83	0.98044604
80	0x3f7ceb99	0.98796993
81	0x3f7932d0	0.9734316
82	0x3f807f5b	1.0038866
83	0x3f7ce1c4	0.9878199
84	0x3f8009b2	1.0002959
85	0x3f7b695a	0.9820763
86	0x3f76e916	0.9644941
87	0x3f828e5a	1.0199692
88	0x3f7a8701	0.9786225
89	0x3f80c0e6	1.0058868
90	0x3f7c681c	0.9859636
91	0x3f73a9ed	0.9518116
92	0x3f8461aa	1.0342305
93	0x3f7ffeb8	0.99998045
94	0x3f7bb8c3	0.983288
95	0x3f85d5a5	1.0455824
96	0x3f8add3d	1.0848767
97	0x3f80664e	1.0031221
98	0x3f7ec392	0.99517167
99	0x3f788921	0.9708424
100	0x3f7c8a1b	0.9864823
101	0x3f83071d	1.0236546
102	0x3f8309c4	1.0237355
103	0x3f7df24d	0.99197847
104	0x3f7c8690	0.98642826
105	0x3f85eedc	1.0463519
106	0x3f80f7b6	1.0075595
107	0x3f80ac85	1.0052649
108	0x3f7e59a7	0.9935555
109	0x3f7fd5cd	0.9993561
110	0x3f8b9529	1.0904895
111	0x3f806081	1.0029451
112	0x3f7e5ad9	0.9935737
113	0x3f7cbaf5	0.98722774
114	0x3f7f2b0a	0.9967505
115	0x3f7cbd75	0.9872659
116	0x3f7f55b9	0.9974018
117	0x3f8656c8	1.0495234
118	0x3f813b46	1.0096214
119	0x3f805eeb	1.0028967
120	0x3f7cd01b	0.98755044
121	0x3f82ab98	1.0208616
122	0x3f82e4d5	1.0226084
123	0x3f7d13de	0.9885844
124	0x3f83e14f	1.0303134
125	0x3f827893	1.0193046
126	0x3f81f34d	1.0152375
127	0x3f82f613	1.0231346
128	0x3f7a47c1	0.9776574
129	0x3f7aeba3	0.98015803
130	0x3f80c4ae	1.0060022
131	0x3f80005b	1.0000108
132	0x3f768180	0.9629135
133	0x3f7edb12	0.99553025
134	0x3f82ba96	1.0213192
135	0x3f827182	1.019089
136	0x3f8029c5	1.0012747
137	0x3f739f3b	0.9516484
138	0x3f81a834	1.0129457
139	0x3f8151fc	1.0103145
140	0x3f7d04c1	0.9883538
141	0x3f811bd3	1.0086616
142	0x3f7dde60	0.9916744
143	0x3f8139f0	1.0095806
144	0x3f7d873f	0.99034494
145	0x3f850093	1.03908
146	0x3f7d34ac	0.98908496
147	0x3f80d5fc	1.0065303
148	0x3f807cb2	1.0038054
149	0x3f844ba4	1.0335584
150	0x3f78a4a8	0.97126245
151	0x3f7fc31d	0.99907094
152	0x3f88ff1f	1.0702857
153	0x3f7e67fe	0.9937743
154	0x3f8092ea	1.0044835
155	0x3f821edf	1.0165671
156	0x3f84881e	1.035404
157	0x3f77436b	0.96587247
158	0x3f8338b1	1.0251676
159	0x3f7b3d83	0.98140734
160	0x3f85ba5a	1.0447495
161	0x3f7b2ece	0.98118293
162	0x3f84c3b6	1.0372226
163	0x3f803352	1.0015662
164	0x3f7effc2	0.99609005
165	0x3f824bcc	1.0179381
166	0x3f7f7ea1	0.99802595
167	0x3f80725e	1.0034902
168	0x3f7a86b6	0.978618
169	0x3f814d98	1.0101805
170	0x3f80cbaa	1.0062153
171	0x3f8249ad	1.0178734
172	0x3f7b1230	0.98074627
173	0x3f7b144d	0.9807785
174	0x3f782fbd	0.9694784
175	0x3f7d8a3b	0.9903905
176	0x3f8292a3	1.0201
177	0x3f7c4504	0.9854281
178	0x3f7e2491	0.99274546
179	0x3f8077e5	1.0036589
180	0x3f79d007	0.9758305
181	0x3f798d8e	0.9748162
182	0x3f816a53	1.0110573
183	0x3f820669	1.0158206
184	0x3f819ef9	1.012664
185	0x3f76f11e	0.96461666
186	0x3f796d46	0.97432363
187	0x3f840d78	1.031661
188	0x3f838c14	1.0277123
189	0x3f7b2b1c	0.98112655
190	0x3f810214	1.0078759
191	0x3f7c94ac	0.98664355
192	0x3f786a88	0.97037554
193	0x3f7a681d	0.97815114
194	0x3f830ae8	1.0237703
195	0x3f7c6fc4	0.9860804
196	0x3f77eb28	0.96843195
197	0x3f84552d	1.0338494
198	0x3f73a7c7	0.9517788
199	0x3f84d231	1.0376645
200	0x3f7d7061	0.989996
201	0x3f838b0e	1.0276811
202	0x3f80ae35	1.0053164
203	0x3f81a34d	1.012796
204	0x3f7493cb	0.95538014
205	0x3f7c3df6	0.98532045
206	0x3f847d3c	1.0350718
207	0x3f7db2ab	0.9910075
208	0x3f828ea8	1.0199785
209	0x3f82466c	1.0177741
210	0x3f8017dd	1.0007282
211	0x3f895555	1.0729166
212	0x3f85b8c5	1.0447012
213	0x3f80473b	1.0021738
214	0x3f7c2784	0.98497796
215	0x3f8217ee	1.0163553
216	0x3f7c12f2	0.9846641
217	0x3f83a389	1.0284282
218	0x3f7241f0	0.9463186
219	0x3f79b368	0.9753938
220	0x3f80e4ed	1.0069863
221	0x3f8436f3	1.0329269
222	0x3f81cc8c	1.0140548
223	0x3f80edd3	1.0072578
224	0x3f831110	1.0239582
225	0x3f7cf256	0.98807275
226	0x3f823a47	1.0174035
227	0x3f7d9e96	0.9907011
228	0x3f804890	1.0022144
229	0x3f839b98	1.0281858
230	0x3f7db64c	0.9910629
231	0x3f819dfc	1.0126338
232	0x3f81578f	1.0104846
233	0x3f7cf061	0.9880429
234	0x3f8057a0	1.0026741
235	0x3f81571b	1.0104707
236	0x3f865647	1.049508
237	0x3f7325d9	0.94979626
238	0x3f7afe87	0.9804463
239	0x3f805417	1.0025662
240	0x3f7e71bf	0.9939231
241	0x3f76291b	0.9615647
242	0x3f81be1b	1.013614
243	0x3f8362bb	1.0264505
244	0x3f8151a4	1.010304
245	0x3f848178	1.0352011
246	0x3f83b75b	1.0290331
247	0x3f776d8c	0.9665153
248	0x3f805905	1.0027167
249	0x3f80a0aa	1.0049031
250	0x3f835da1	1.0262948
251	0x3f7b5039	0.98169285
252	0x3f7f0199	0.9961181
253	0x3f8026c3	1.0011829
254	0x3f7fa4a8	0.9986062
255	0x3f80bb22	1.0057108

1.bias f4 [256]
0	0xbca07876	-0.01958869
1	0xbbe7dbd0	-0.0070757642
2	0x3ccd982f	0.02509698
3	0x3d2c3d58	0.04205069
4	0x3b8f1537	0.0043665427
5	0x3b8f4d49	0.004373227
6	0xbc04b7c7	-0.008100457
7	0xbc54a243	-0.012978139
8	0x3c3793f3	0.011204707
9	0x37088126	8.136301e-06
10	0xbca16753	-0.01970259
11	0xbc796d1e	-0.0152237695
12	0x3c1b646d	0.009484393
13	0x3d46ad55	0.048505146
14	0x3daca5f5	0.08430091
15	0x3b0e2c5f	0.0021693928
16	0x3d4cc774	0.0499949
17	0xbcf59471	-0.029978009
18	0xb9c91402	-0.00038352615
19	0xbd132241	-0.03592134
20	0xbc5b1d0b	-0.013373624
21	0xbcfadf45	-0.030624041
22	0xbc72b839	-0.01481443
23	0xbd0612c3	-0.032732736
24	0x3c0c2779	0.008554333
25	0xbd1ca833	-0.038246345
26	0x3aebb915	0.0017984236
27	0xbcd0465b	-0.025424173
28	0xbc897601	-0.016779901
29	0x3d07f00e	0.03318792
30	0xbc8b84d2	-0.017031107
31	0x3b822c9f	0.0039726044
32	0x3a40c8e1	0.0007354152
33	0xbbcba1e7	-0.0062143686
34	0x3c5d053b	0.013490017
35	0xbbac3623	-0.005255477
36	0xbcd424fe	-0.025896545
37	0xbc35c7c0	-0.011094987
38	0xbc322041	-0.010871948
39	0x3d27d377	0.040973153
40	0xbd51034c	-0.051028535
41	0xbc5d8418	-0.013520263
42	0xbca985d6	-0.0206937
43	0xbced981d	-0.029003197
44	0x3bd5cf2d	0.0065249414
45	0x3a5a5fed	0.0008330334
46	0x3c50e2e6	0.012749409
47	0x3ced3ff8	0.028961167
48	0xbb9fe44f	-0.0048795114
49	0x3c2d3f89	0.01057423
50	0x3c5595c9	0.0130362
51	0x3c5afaf8	0.0133655
52	0xbc947236	-0.018120866
53	0xbc14d04e	-0.009082867
54	0xbd45a701	-0.04825497
55	0xbc4adf73	-0.012382376
56	0x3c327e5d	0.010894385
57	0x3c9fd341	0.019509913
58	0x3c1cd487	0.009572155
59	0xbd4b06fd	-0.04956721
60	0x3c457ce7	0.012053705
61	0x3c43a01a	0.011940027
62	0xbd25fa9b	-0.0405222
63	0xbcf0b58d	-0.029383445
64	0x3d1cf0b5	0.038315494
65	0x3b82610f	0.0039788554
66	0xbcae1962	-0.021252338
67	0x3cc2bfa4	0.023773022
68	0x3a7d5d78	0.0009665112
69	0x3c053579	0.008130425
70	0xbc28a287	-0.010292656
71	0xbd3f2d07	-0.0466738
72	0xbc859606	-0.016306888
73	0xbcbd2930	-0.023090929
74	0xbca34794	-0.019931592
75	0xbc10dd81	-0.008841873
76	0x3cbbbe32	0.02291784
77	0x3c5474b4	0.012967277
78	0xbc95b71f	-0.018275796
79	0xbc9d2368	-0.019181922
80	0x3c665f82	0.014060857
81	0xbc1a7123	-0.009426388
82	0xbbd828f2	-0.006596678
83	0xbc8464cf	-0.01616135
84	0xbcfe2e76	-0.031028014
85	0x3bf19af8	0.00737321
86	0x3c6c2513	0.014413136
87	0x3c40aa9f	0.011759429
88	0x3c2e4463	0.010636422
89	0xbcf4e206	-0.029892933
90	0xbce12534	-0.02748356
91	0xbcec3bf3	-0.02883718
92	0xba690ed5	-0.0008890455
93	0x3c03374e	0.008008791
94	0xbc5a2e0e	-0.013316644
95	0x3c89cd6d	0.016821587
96	0x3c5593f4	0.013035763
97	0xbd2fc23f	-0.042909857
98	0xbc98cc62	-0.018652145
99	0xbbe96817	-0.007123004
100	0xbcdba5d3	-0.02681247
101	0x3c93adbd	0.01802718
102	0xbc8242d8	-0.015901014
103	0x3c46a470	0.012124166
104	0x3d278b4c	0.04090433
105	0xbd588a26	-0.052866124
106	0xbd9fbc8d	-0.07799635
107	0xbc6466e2	-0.013940545
108	0xbc84612f	-0.016159622
109	0xbc6b08cd	-0.01434536
110	0x3ce33013	0.027732885
111	0x3ce11c04	0.02747918
112	0x3b95c18f	0.004570193
113	0x3a0f7db9	0.0005473751
114	0x3ac93be0	0.0015352927
115	0x3c407ad9	0.011748039
116	0xbd4680e8	-0.04846278
117	0x3bfd5d6b	0.0077320836
118	0x3a5726d6	0.0008207386
119	0xb990b7f1	-0.00027602867
120	0x3c82059f	0.015871821
121	0xbd154d21	-0.03645051
122	0x3c946fff	0.01811981
123	0xbc78a53c	-0.015176114
124	0xbc018501	-0.007905246
125	0x3b8a762c	0.004225513
126	0xbc11e4ae	-0.008904619
127	0x3d63b110	0.05558878
128	0xbd0241c3	-0.031800997
129	0xbd2fd8ec	-0.042931482
130	0x3a7af2f0	0.00095729437
131	0xbbcf11eb	-0.0063192747
132	0x3c6da978	0.0145057365
133	0x3c518735	0.0127885835
134	0xbabaffc6	-0.00142669
135	0x3c4e43b4	0.012589384
136	0xbbcb6967	-0.0062076333
137	0x3c66a89b	0.014078285
138	0xbc0a9374	-0.008458007
139	0x3d1edddf	0.03878581
140	0xbbd592a9	-0.0065177274
141	0x3c822589	0.015887039
142	0xbc00b6ae	-0.007856054
143	0x3ca89447	0.020578517
144	0xbd6a02c2	-0.057131536
145	0xbc60cfca	-0.013721416
146	0xbd01b8c9	-0.031670365
147	0xbc0dae2d	-0.008647484
148	0x3c72b6fc	0.014814135
149	0xbb0f8720	-0.002190061
150	0xbca32e45	-0.019919524
151	0xbb411f4c	-0.0029468117
152	0x3c960314	0.018312015
153	0xbbb0170a	-0.00537384
154	0x3c6522d6	0.013985356
155	0xbc8edb33	-0.017438507
156	0x3d1deb05	0.03855421
157	0xbc3c91f2	-0.011509405
158	0xbc4b439b	-0.012406255
159	0xbc5cb2ad	-0.013470334
160	0xbc8045e1	-0.01565832
161	0xbc46c8e7	-0.01213286
162	0xbca3a924	-0.019978113
163	0x3d356fe7	0.04429617
164	0x3c805c02	0.015668873
165	0xbad76c66	-0.0016435503
166	0x3bfec565	0.007774996
167	0xbd170d7c	-0.036878094
168	0xbbcc61f0	-0.006237261
169	0xbbc8e680	-0.0061309934
170	0xbc3d2219	-0.011543774
171	0xbb8122f5	-0.003940935
172	0xbd0590f3	-0.032608937
173	0x3c4faf7d	0.012676117
174	0xbc74cc11	-0.014941231
175	0x3bcddf2b	0.006282707
176	0x3d12b662	0.035818465
177	0xbc8b3658	-0.016993687
178	0xbbf1d333	-0.0073799132
179	0x3c239596	0.009984395
180	0x3b080582	0.0020755236
181	0x3a3fe2de	0.00073198776
182	0xbbff8af0	-0.007798545
183	0x3c20c634	0.00981288
184	0x39a50979	0.0003147831
185	0xbd0efb33	-0.03490753
186	0xbc582fef	-0.013195022
187	0xbbc72b36	-0.006078149
188	0x3c666d44	0.014064137
189	0xbcc53b6c	-0.024076186
190	0xbc9c6082	-0.019088987
191	0x3c98619a	0.018601228
192	0x3cccb027	0.02498634
193	0x396f58da	0.00022825916
194	0x3c3957ce	0.011312438
195	0xbc3c7753	-0.0115030585
196	0x3d4e6ecb	0.05039863
197	0xbbad1ac7	-0.005282733
198	0x3c5de28b	0.013542782
199	0xbce9020e	-0.028443363
200	0x3aa178b0	0.0012319293
201	0xbc4bc287	-0.012436516
202	0x3d324686	0.043524288
203	0xbb9d378e	-0.0047978824
204	0x3d3beccd	0.045880128
205	0xbd1d33fa	-0.038379647
206	0xbcddb099	-0.027061747
207	0xba440654	-0.00074777496
208	0xbb722008	-0.0036945362
209	0xba1936c4	-0.00058446475
210	0xba047815	-0.0005053294
211	0xbca57369	-0.020196633
212	0x3b8c0186	0.0042726425
213	0xbba41227	-0.0050070467
214	0x3b68ff38	0.0035552513
215	0x3ad71ecb	0.0016412375
216	0xbb874220	-0.0041277558
217	0xbc6ee23e	-0.0145803075
218	0x3c3686d6	0.011140546
219	0xbcb9f8e4	-0.022701688
220	0xbc4f4bb3	-0.012652325
221	0xbc58aa6c	-0.0132242255
222	0xbc0e7c55	-0.008696635
223	0x3ae00b8e	0.0017093287
224	0xbc068a37	-0.008211664
225	0xbcf862de	-0.030320581
226	0x3bdcf084	0.006742539
227	0xbc6b2240	-0.014351428
228	0xbc77d395	-0.015126129
229	0xbc7bfbae	-0.015379829
230	0xbd0abe61	-0.033872966
231	0x3c7f5a34	0.015585471
232	0xbcfb32a5	-0.030663798
233	0x3d1fffdd	0.03906237
234	0x3a226dac	0.0006196152
235	0x3bed6833	0.0072450875
236	0x3bc4014a	0.005981599
237	0x3b5cc3db	0.0033686075
238	0x39abf922	0.0003280128
239	0xbc5d435d	-0.01350483
240	0x3b153679	0.0022768064
241	0x3c698904	0.0142538585
242	0x3c8a822c	0.016907774
243	0x3c3344ea	0.010941723
244	0xbc7b3a2d	-0.015333694
245	0x3a2d05fd	0.00066003186
246	0x3c46ff25	0.012145792
247	0xbc2a9875	-0.010412325
248	0xbd06e2ea	-0.032931246
249	0x3c81b8b3	0.015835142
250	0xbcdbf6b6	-0.02685104
251	0x3cb3765e	0.021907028
252	0xba4f6a66	-0.0007912278
253	0xbc17c93d	-0.009264288
254	0xbd3b087a	-0.04566238
255	0x3d034ef9	0.032057736

1.running_mean f4 [256]
0	0xbefc108c	-0.49231374
1	0x3ef9debc	0.48802745
2	0xbf134221	-0.5752278
3	0xbe3c1e0b	-0.18370835
4	0x3ef0812e	0.46973556
5	0x3e433de4	0.19066578
6	0xbea2ac85	-0.31772247
7	0x3f06677b	0.5250165
8	0x3ede5a02	0.43428046
9	0xbf33b926	-0.7020439
10	0xbdbd6487	-0.0924769
11	0xbdc21760	-0.09477115
12	0x3d069094	0.032852724
13	0x3f2fe7d6	0.6871313
14	0x3f07e588	0.5308461
15	0xbf056578	-0.52107954
16	0x3e838e20	0.2569437
17	0xbf8393cb	-1.0279478
18	0x3e2e0903	0.16995625
19	0x3f0f4f37	0.5598025
20	0xbf81101a	-1.0083039
21	0xbe9c3dbd	-0.30515853
22	0xbe3b9196	-0.18317255
23	0xbeca7766	-0.3954422
24	0xbf24c725	-0.6436637
25	0xbecb6fda	-0.39733773
26	0xbe5c77c1	-0.21530057
27	0xbf50cc2e	-0.81561553
28	0x3cdbbc44	0.02682317
29	0x3eb85760	0.36004162
30	0xbf6dc77d	-0.9288252
31	0x3e2f9b5f	0.17149113
32	0xbf02be5b	-0.5107171
33	0x3ede6567	0.4343674
34	0x3ed3ba8c	0.4135326
35	0x3e9b8ccb	0.30380854
36	0x3f636dbe	0.8883933
37	0xbe66173a	-0.22469798
38	0xbe2097b4	-0.1568287
39	0x3e9496d4	0.29021323
40	0x3ef168c3	0.4715024
41	0x3dd651bc	0.10464808
42	0x3e2baa59	0.16764201
43	0xbca954e8	-0.02067037
44	0xbf0e9809	-0.5570074
45	0x3f55b789	0.8348318
46	0xbeacc398	-0.33742976
47	0xbf13af42	-0.576893
48	0xbf945567	-1.1588563
49	0x3ebfbc02	0.37448126
50	0x3dd76038	0.10516399
51	0x3f3d97e3	0.74059886
52	0x3f3eb527	0.74495167
53	0x3f3a4997	0.7276854
54	0x3f322d00	0.69599915
55	0x3f46756a	0.7752291
56	0xbe7487d8	-0.23879945
57	0x3f3cbc8f	0.7372522
58	0x3f6ce904	0.92543054
59	0xbe7a0dad	-0.2441928
60	0xbefa7b50	-0.48922205
61	0xbed55ec9	-0.41673878
62	0x3f9120ad	1.1338097
63	0x3e580f23	0.21099524
64	0xbf0f7de0	-0.56051445
65	0xbe8ccb0a	-0.27498657
66	0xbf6ba988	-0.9205556
67	0x3ed16b6e	0.40902275
68	0x3eb43a7c	0.3520087
69	0x3f016bb0	0.50554943
70	0xbe8432b9	-0.25819948
71	0xbf594e6b	-0.8488528
72	0xbfab9440	-1.3404617
73	0xbe0e4c25	-0.13896234
74	0x3e1b9314	0.15192825
75	0x3ef486c1	0.4775906
76	0x3e698e06	0.22808084
77	0x3ef5a404	0.47976696
78	0x3be493ed	0.006975642
79	0x3ca646af	0.020297376
80	0xbea9a038	-0.3313005
81	0xbf648664	-0.89267564
82	0x3f624ec8	0.8840146
83	0xbfa7ef48	-1.3119898
84	0x3e82614b	0.25464854
85	0x3f94b6ec	1.1618323
86	0x3f2e4f2d	0.6808956
87	0x3ceef938	0.029171571
88	0xbf7fb01f	-0.99878114
89	0xbe356282	-0.17713359
90	0x3d6f80fa	0.05847261
91	0x3dd3c9ba	0.10341211
92	0x3f1598f5	0.5843652
93	0xbcdb269a	-0.026751805
94	0xbe705a20	-0.2347188
95	0x3eb26802	0.34844977
96	0xbf8d8ddc	-1.1058917
97	0x3e9692c5	0.2940885
98	0xbea3ec6f	-0.32016322
99	0x3e681a2a	0.22666231
100	0xbe99a518	-0.3000877
101	0xbe9135ad	-0.28361264
102	0x3f6c4dbd	0.9230612
103	0x3d08fbbb	0.033443194
104	0xbe9796d6	-0.29607266
105	0xbd37ea93	-0.04490144
106	0xbd0bfb12	-0.034174986
107	0x3f097c32	0.5370513
108	0xbe7e7b8e	-0.2485182
109	0xbee74b94	-0.4517485
110	0xbea87497	-0.3290145
111	0x3f5bc260	0.8584347
112	0xbf0f4dfe	-0.5597838
113	0x3e2d52fd	0.16926189
114	0x3d9f2aee	0.0777186
115	0x3e33a063	0.17541651
116	0x3e980777	0.29693195
117	0xbe707683	-0.23482709
118	0xbe85c938	-0.2613008
119	0x3ed3ebd9	0.41390875
120	0xbe91003e	-0.28320497
121	0xbf403f7e	-0.7509688
122	0x3edc2679	0.42998102
123	0x3f13c5c9	0.5772367
124	0x3f1aab8b	0.60418004
125	0xbe354b70	-0.17704558
126	0x3f84777d	1.0348965
127	0xbe6ae108	-0.22937405
128	0x3fee5417	1.8619412
129	0x3eafb60b	0.34318575
130	0x3e001b45	0.12510403
131	0xbf1077ff	-0.564331
132	0xbee36e45	-0.44420066
133	0x3e8b3ac0	0.2719326
134	0x3f1978f1	0.59950167
135	0xbe226af3	-0.1586111
136	0xbc476629	-0.012170353
137	0x3e577582	0.2104092
138	0x3ed461e6	0.4148094
139	0x3f94f539	1.1637336
140	0xbefdcbbc	-0.495695
141	0xbeb1c9b2	-0.34724194
142	0x3ef196fe	0.4718551
143	0x3e050f04	0.1299401
144	0xbe51c8f2	-0.20486811
145	0xbf106526	-0.5640434
146	0xbeae761f	-0.34074494
147	0x3e907dae	0.28220886
148	0x3e94e18b	0.29078326
149	0x3eb53829	0.3539441
150	0xbbf54491	-0.0074849804
151	0x3f068620	0.5254841
152	0xbf9aa3a9	-1.2081195
153	0xbeabde0c	-0.33567846
154	0xbecb586f	-0.39715907
155	0xbe1a078a	-0.15041938
156	0x3faf0268	1.3672609
157	0xbd734e88	-0.059401065
158	0xbb76590f	-0.0037589704
159	0xbeefc5d8	-0.4683063
160	0x3ebde861	0.37091354
161	0xbeafd2d1	-0.34340528
162	0x3f74774f	0.9549455
163	0xbe162671	-0.14663102
164	0x3ea2a8d9	0.31769446
165	0xbec76dd9	-0.38950995
166	0x3ead261d	0.3381814
167	0xbedb1765	-0.42791286
168	0xbd9792e1	-0.07401062
169	0xbdb65496	-0.08902852
170	0x3f3a6f0e	0.72825706
171	0x3f1aee96	0.60520303
172	0xbe054709	-0.13015379
173	0x3f691bb8	0.9105792
174	0xbdf2e12d	-0.11859355
175	0x3f570cc6	0.84003866
176	0x3ed7915e	0.42103094
177	0xbe2d5c38	-0.1692971
178	0x3f4eb1f9	0.80740315
179	0xbf285847	-0.657597
180	0x3ec5bd6f	0.3862109
181	0x3ede7a18	0.43452525
182	0xbe26fd1f	-0.16307496
183	0x3eb0f9c9	0.3456557
184	0x3ef663c0	0.48122978
185	0xbb719f0d	-0.0036868483
186	0x3f2603c7	0.64849514
187	0xbdd94079	-0.10608
188	0x3bfb3782	0.007666529
189	0xbfb413f2	-1.4068587
190	0xbf4b1af2	-0.7933799
191	0x3ed0953b	0.40738854
192	0xbf751c7e	-0.957466
193	0x3e850272	0.25978428
194	0x3db91bf2	0.09038533
195	0xbe6a5912	-0.2288554
196	0xbef1a24c	-0.47194135
197	0x3fa7e72a	1.3117421
198	0x3f508a8d	0.8146141
199	0xbf0bd2dd	-0.54618627
200	0xbecbda24	-0.39814866
201	0x3f8ab5f5	1.0836779
202	0xbea8628c	-0.32887685
203	0x3f894f2b	1.0727285
204	0x3f6ed62e	0.9329556
205	0xbeae2fda	-0.34020883
206	0x3ebda32d	0.37038556
207	0xbe651641	-0.2237177
208	0x3f8093f6	1.0045154
209	0x3d0d1614	0.034444883
210	0x3e58eec0	0.21184826
211	0xbe78e446	-0.2430583
212	0xbeae39cf	-0.3402848
213	0x3f218c1b	0.6310441
214	0x3e04c444	0.12965494
215	0xbf51d27e	-0.8196181
216	0x3ebaa330	0.36452627
217	0xbe194313	-0.14966993
218	0x3eb610d6	0.3555972
219	0xbefa4fe4	-0.48889077
220	0xbee9eedb	-0.45690045
221	0x3f07367f	0.5281753
222	0x3e3a0862	0.1816726
223	0x3e2edc7f	0.170763
224	0x3eaff505	0.34366623
225	0x3e67c20d	0.22632618
226	0x3f287305	0.65800506
227	0x3f32cc97	0.6984343
228	0x3d93f9c1	0.07225371
229	0x3f2cb53c	0.6746404
230	0xbf05b5c1	-0.5223046
231	0x3daf9e88	0.08575159
232	0x3f06bcee	0.52632034
233	0x3f09522d	0.53641015
234	0xbf405d5f	-0.75142473
235	0xbdedfc28	-0.116203606
236	0xbcf5fa3e	-0.030026551
237	0xbe9acbe0	-0.3023367
238	0x3e3ee706	0.18642816
239	0xbda37496	-0.079812214
240	0x3f5fa4b8	0.87360716
241	0xbea161ea	-0.31520015
242	0x3e6101b7	0.2197331
243	0x3f22d9fe	0.6361388
244	0x3eb7bc00	0.3588562
245	0xbda75715	-0.081709065
246	0x3e4cc112	0.19995525
247	0xbe1c24a7	-0.15248357
248	0xbe983ba4	-0.29733002
249	0x3efdd02e	0.4957289
250	0xbd367e78	-0.044554204
251	0x3ea8db5c	0.32979858
252	0x3eacac15	0.33725038
253	0xbefa1cbb	-0.48850045
254	0xbe91dffd	-0.28491202
255	0x3dfa2f89	0.12216098

1.running_var f4 [256]
0	0x3cb8a57d	0.022539848
1	0x3d820319	0.06348247
2	0x3c8a4f9b	0.016883662
3	0x3c1c1bc8	0.009528108
4	0x3d147e4f	0.03625327
5	0x3dbd0bd8	0.09230775
6	0x3bb1424e	0.0054095155
7	0x3d5c7aff	0.053828236
8	0x3daf9517	0.085733585
9	0x3c2ef764	0.0106791
10	0x3c4d6d9a	0.012538338
11	0x3dccd8c1	0.1000228
12	0x3cb0da1e	0.021588381
13	0x3c8683e6	0.016420316
14	0x3c081437	0.008305601
15	0x3c5a17d0	0.013311341
16	0x3c2ade89	0.010429033
17	0x3ca7e59a	0.020495225
18	0x3c05f803	0.008176806
19	0x3c0186a8	0.00790564
20	0x3dea41a3	0.114383005
21	0x3cf67a2c	0.030087553
22	0x3d0cc0a0	0.03436339
23	0x3c7288c3	0.014803114
24	0x3c34294f	0.010996177
25	0x3ccd8843	0.025089389
26	0x3c5fa3b8	0.013649873
27	0x3d94c02f	0.072632186
28	0x3d38b758	0.045096725
29	0x3c5bb457	0.013409696
30	0x3d001797	0.031272497
31	0x3cc986fc	0.024600498
32	0x3d36d11d	0.04463302
33	0x3beab6b1	0.007162892
34	0x3d2696b2	0.040671058
35	0x3ce45f72	0.027877543
36	0x3d44da67	0.048059847
37	0x3d0df79e	0.034659974
38	0x3cebf032	0.028801057
39	0x3bf2f952	0.007414975
40	0x3c2ed7da	0.01067158
41	0x3d3a4ef7	0.045485463
42	0x3dab5610	0.083660245
43	0x3ca215dc	0.019785814
44	0x3c827a38	0.015927419
45	0x3db25907	0.08708387
46	0x3cd7460a	0.026278514
47	0x3c664253	0.014053899
48	0x3d4d6e7e	0.0501542
49	0x3dfffbd0	0.12499201
50	0x3d5374d2	0.05162508
51	0x3cfe387d	0.031032795
52	0x3cf7e077	0.0302584
53	0x3ce9f1c1	0.02855766
54	0x3d465f3a	0.04843066
55	0x3cca6bab	0.024709543
56	0x3e11d8f5	0.14242919
57	0x3ca10274	0.01965449
58	0x3cabc0fb	0.020966044
59	0x3ced932a	0.029000837
60	0x3ce05212	0.027382884
61	0x3b521660	0.0032056794
62	0x3d99626c	0.074894756
63	0x3c2d55f6	0.010579577
64	0x3c3bacfb	0.011454816
65	0x3c069a92	0.008215563
66	0x3d047041	0.032333616
67	0x3bd9896a	0.0066386955
68	0x3d427a19	0.047479723
69	0x3e26eace	0.16300508
70	0x3c5ceaa8	0.013483681
71	0x3d215cff	0.03939533
72	0x3cd95d07	0.026533617
73	0x3c496078	0.012291066
74	0x3d8920e9	0.0669573
75	0x3d4ab21e	0.049486272
76	0x3cf560c0	0.02995336
77	0x3c94a92c	0.018147074
78	0x3c3c8f3b	0.011508758
79	0x3cb31e11	0.021864923
80	0x3d29853b	0.041386824
81	0x3c0bf4c1	0.008542241
82	0x3cf59bbe	0.02998149
83	0x3c9f2b78	0.019429907
84	0x3c2a4ab6	0.010393789
85	0x3cc1d14b	0.023659369
86	0x3e1c6a14	0.1527484
87	0x3bc64492	0.0060506547
88	0x3ca3c237	0.01999007
89	0x3c58fba4	0.01324359
90	0x3df2bf0f	0.11852848
91	0x3dfe926f	0.12430274
92	0x3c948e4f	0.018134264
93	0x3cbdd794	0.023174085
94	0x3d77ee94	0.06053026
95	0x3c0d9eba	0.0086438
96	0x3c241fe9	0.010017374
97	0x3be1fc6a	0.006896545
98	0x3d5bf281	0.053698067
99	0x3c878f51	0.01654783
100	0x3c56c57a	0.0131086055
101	0x3d85b95b	0.065294944
102	0x3c80a198	0.015702054
103	0x3c03d213	0.008045691
104	0x3cf3e418	0.02977185
105	0x3c1e294c	0.009653401
106	0x3c017d81	0.007903458
107	0x3db19f8e	0.08673011
108	0x3d65d39f	0.05611002
109	0x3cbf173b	0.023326507
110	0x3d343dbb	0.044004183
111	0x3cdaa5a6	0.026690315
112	0x3d8fd157	0.0702235
113	0x3c0dc191	0.008652107
114	0x3cf38950	0.029728562
115	0x3d410e41	0.047132734
116	0x3cf10420	0.029420912
117	0x3c71cc88	0.014758237
118	0x3cd27d14	0.025694408
119	0x3d4ada3e	0.04952454
120	0x3cbe00bf	0.023193715
121	0x3c33a5df	0.01096484
122	0x3cc81ad5	0.024426857
123	0x3c5dbd42	0.013533892
124	0x3c989de2	0.018629972
125	0x3d34adcc	0.044111058
126	0x3cee4510	0.029085666
127	0x3bf56466	0.007488775
128	0x3c736b02	0.014857056
129	0x3cc6d4d6	0.02427141
130	0x3be01a5e	0.0068390807
131	0x3c9f419f	0.01944047
132	0x3c3190a6	0.0108377095
133	0x3d75723d	0.0599234
134	0x3d32d4b1	0.04365987
135	0x3c60bcfe	0.013716934
136	0x3c895ce8	0.016767934
137	0x3c9fc59a	0.019503403
138	0x3cad3838	0.021144971
139	0x3d917d72	0.07104005
140	0x3e16de16	0.14733157
141	0x3d9f9af2	0.07793225
142	0x3dbc2336	0.091864035
143	0x3c49beb8	0.012313537
144	0x3ccb1d87	0.024794353
145	0x3d0717f4	0.032981828
146	0x3c0af5c9	0.008481451
147	0x3c455538	0.0120442435
148	0x3d8c4f7a	0.068510965
149	0x3ce2a484	0.027666338
150	0x3cd415a8	0.025889233
151	0x3d33eb07	0.04392531
152	0x3cbe93d8	0.023263857
153	0x3d373e09	0.044736896
154	0x3beae43a	0.00716832
155	0x3c3d2b16	0.011545917
156	0x3c9965e9	0.018725352
157	0x3d838072	0.064209834
158	0x3cc32e6c	0.023825847
159	0x3c47a69b	0.012185718
160	0x3c61966a	0.013768772
161	0x3dbc7911	0.09202779
162	0x3d2c3a11	0.042047564
163	0x3d0f2ca9	0.0349547
164	0x3d10a412	0.03531272
165	0x3cdf5892	0.027263913
166	0x3c991a6a	0.018689353
167	0x3d69c464	0.05707206
168	0x3c775f2f	0.015098377
169	0x3ca0b68e	0.019618299
170	0x3c84a4e9	0.016191917
171	0x3cdf194b	0.02723374
172	0x3d4215cc	0.04738407
173	0x3dcc6a73	0.09981241
174	0x3ce110bd	0.027473802
175	0x3d077bba	0.03307698
176	0x3ccd4734	0.025058366
177	0x3e0351e7	0.12824212
178	0x3c14a980	0.009073615
179	0x3d5ec6a7	0.05438867
180	0x3d26d8bb	0.040734034
181	0x3e15c02a	0.14624086
182	0x3d912375	0.07086841
183	0x3ca42faa	0.02004226
184	0x3c47f338	0.012203984
185	0x3c201ca9	0.009772458
186	0x3d65c50c	0.05609612
187	0x3d876da2	0.06612708
188	0x3d482949	0.048867498
189	0x3c4cee0a	0.012507925
190	0x3c8d79b8	0.017269954
191	0x3da6bda9	0.081416436
192	0x3d700f79	0.058608506
193	0x3c51eeb2	0.012813257
194	0x3c96c6eb	0.018405398
195	0x3d21cd53	0.039502453
196	0x3caeb553	0.021326697
197	0x3cf1fb23	0.029538697
198	0x3c81fb91	0.015867027
199	0x3c6dca75	0.014513602
200	0x3d098858	0.033577293
201	0x3d29f0db	0.041489463
202	0x3d08dff5	0.033416707
203	0x3d8161e9	0.06317503
204	0x3c8daeb6	0.017295223
205	0x3c0d3b35	0.008620073
206	0x3dbabc06	0.09117894
207	0x3d065896	0.032799326
208	0x3d2cea6c	0.04221575
209	0x3ce4b964	0.027920432
210	0x3d12cb8e	0.035838656
211	0x3bf996b0	0.0076168403
212	0x3d6c06c8	0.057623655
213	0x3bdf2c16	0.0068106754
214	0x3d902241	0.070377834
215	0x3c863972	0.016384814
216	0x3ca82b86	0.020528566
217	0x3c54e9c2	0.012995185
218	0x3b7dc41d	0.003872163
219	0x3d1d3136	0.03837701
220	0x3d2f3b40	0.042781115
221	0x3ba4fd26	0.0050350605
222	0x3c931062	0.017952148
223	0x3d22096e	0.039559774
224	0x3d078efa	0.033095337
225	0x3d021e0c	0.031766936
226	0x3d1db7ed	0.038505483
227	0x3d655639	0.05599043
228	0x3e0821fe	0.13294217
229	0x3cc5ea04	0.024159439
230	0x3c867c2d	0.016416634
231	0x3cbc443b	0.022981754
232	0x3cb5928b	0.022164604
233	0x3c910ac6	0.017705332
234	0x3c245569	0.010030129
235	0x3d612190	0.05496365
236	0x3c18c430	0.0093241185
237	0x3c5793da	0.013157809
238	0x3d730f80	0.059340954
239	0x3cb5dff2	0.022201512
240	0x3d6695b6	0.05629512
241	0x3c8c2297	0.017106337
242	0x3cb15798	0.021648213
243	0x3c446ea3	0.0119892685
244	0x3c9135be	0.017725822
245	0x3d3724ac	0.044712707
246	0x3c0c55c4	0.00856537
247	0x3d3966a8	0.045263916
248	0x3c8077c6	0.015682112
249	0x3c4367f3	0.011926639
250	0x3cb9e044	0.022689946
251	0x3d9ac3fd	0.07556913
252	0x3d67d7bd	0.05660223
253	0x3c663c3a	0.014052445
254	0x3d216400	0.039402008
255	0x3c315dee	0.010825617

3.weight f4 [128, 256]
0	0x3d0c21ea	0.03421203
1	0xbc26909c	-0.0101663135
2	0x3d59f846	0.053215288
3	0x3d07b147	0.03312805
4	0x3a74b498	0.0009334772
5	0x3d032ac6	0.032023214
6	0xbba10806	-0.0049142865
7	0x3b94921c	0.004534019
8	0xbbea4fd3	-0.007150629
9	0x3d080085	0.03320362
10	0xbd2cbd56	-0.042172752
11	0x3d12bd96	0.035825334
12	0xbcc121c0	-0.023575664
13	0x3b544676	0.003239063
14	0xbd5c2304	-0.05374433
15	0x3cb9cd8d	0.022681022
16	0x3d8f66f7	0.07002061
17	0x3d41c25b	0.047304492
18	0x3b72cece	0.0037049535
19	0xbb6a2be1	-0.003573172
20	0xbb8ab022	-0.0042324224
21	0xbd406295	-0.046969015
22	0xbc585ba0	-0.013205439
23	0x3cb8345a	0.0224859
24	0x3b83f09a	0.0040264847
25	0xbd2dc9b8	-0.042428702
26	0xbce9cd52	-0.028540287
27	0xbd4fe9ca	-0.050760068
28	0xbd3200f1	-0.04345793
29	0x3c71ce18	0.014758609
30	0xbd886176	-0.06659214
31	0xbd2ed122	-0.042679913
32	0x3cb1cb9d	0.021703536
33	0xbd42c623	-0.04755224
34	0xbc011d29	-0.0078804875
35	0x3cd12e35	0.025534729
36	0xbcaa1e3e	-0.020766374
37	0xbc093ce6	-0.008376336
38	0xbab9c87b	-0.0014174128
39	0x3cd3636e	0.025804248
40	0xbbe24e36	-0.006906296
41	0x3d150eb3	0.03639097
42	0x3d3f43be	0.046695463
43	0x3c34dc8f	0.011038913
44	0xbcd4e205	-0.02598668
45	0xbd7c163d	-0.061544646
46	0x3b6c94f3	0.0036099523
47	0x3d37eeca	0.04490546
48	0x3d91d2c3	0.07120278
49	0xbcb506c5	-0.022097955
50	0xbc9c2e37	-0.019065006
51	0x3d73095c	0.059335098
52	0xba6f5e8e	-0.0009131216
53	0xbd05d501	-0.03267384
54	0x3d1df77b	0.038566094
55	0x3cd5c8cf	0.02609673
56	0xbcb7d55e	-0.022440609
57	0xbd9ce56e	-0.07660948
58	0x3d69896f	0.057015833
59	0xbb9152e9	-0.0044349325
60	0xbc0e5d03	-0.008689168
61	0xbcf9c58a	-0.030489702
62	0xbcb7d860	-0.022442043
63	0xbd1fdd7c	-0.039029583
64	0x3d13b18b	0.03605799
65	0x3cad0e0b	0.02112486
66	0xba925357	-0.0011163753
67	0xbcaaf7b8	-0.020870075
68	0x3b9dd085	0.004816117
69	0x3d5990da	0.053116657
70	0xba91f896	-0.0011136706
71	0x3c74d3e8	0.0149431005
72	0x3d2cca53	0.04218514
73	0x3d88b8f1	0.066759
74	0x3c13bc8b	0.00901712
75	0x3d7b21df	0.0613116
76	0xbcd218ff	-0.025646685
77	0xbd8843b8	-0.06653541
78	0x3d3a61fa	0.045503594
79	0x3d4b0e9d	0.049574483
80	0xbd89f057	-0.06735294
81	0xbd8106ff	-0.063001625
82	0x3a0ae6f7	0.00052986987
83	0x3d9435b4	0.072368056
84	0xbd6f3aca	-0.058405675
85	0x3b4cf34c	0.0031272946
86	0xbd84b12f	-0.064791076
87	0x3cea8bfc	0.028631203
88	0x3d294e3a	0.04133437
89	0x3bbbce23	0.0057313605
90	0xbc8e7c6b	-0.017393311
91	0x3c89e490	0.01683262
92	0xbbc9605c	-0.00614552
93	0xbcb3822c	-0.021912657
94	0xbd25ce11	-0.040479723
95	0x3d41788c	0.047234103
96	0xbcdd6a28	-0.027028158
97	0xbd127af1	-0.035761777
98	0x3d482f80	0.048873425
99	0x3d5bc082	0.053650387
100	0x3a89cc33	0.0010513127
101	0x3cfd860e	0.030947711
102	0x3d5b1332	0.053485103
103	0xbcd8b007	-0.026451124
104	0xbd70e1e2	-0.05880917
105	0x3ca32fde	0.019920286
106	0xbd02a27a	-0.03189323
107	0xbc58c4fb	-0.013230558
108	0xbc35d099	-0.011097097
109	0x3c898fb5	0.016792158
110	0x3d08ffde	0.03344714
111	0x3d0ede9c	0.034880266
112	0xbd6a9bd6	-0.057277523
113	0x3d2368e8	0.03989497
114	0xbcd0959d	-0.025461966
115	0x3ca5106b	0.02014943
116	0xbcdb3407	-0.026758207
117	0xbced8e3f	-0.028998492
118	0x3c087a0c	0.0083298795
119	0x3bbf0d9e	0.0058304807
120	0x3c3e3a93	0.011610645
121	0x3d00f512	0.031483717
122	0x3d622bf6	0.055217706
123	0xbd8c1c1c	-0.06841299
124	0xbcd813d0	-0.026376635
125	0x3d48142d	0.048847366
126	0xbd700490	-0.0585981
127	0xbc3c4eec	-0.011493426
128	0x3cef0917	0.029179139
129	0xbceed994	-0.029156484
130	0x3cf0e95c	0.02940815
131	0x3cb225a7	0.02174647
132	0x3ca183d4	0.01971618
133	0x3d45e79b	0.04831658
134	0xbc89a9f3	-0.01680467
135	0xbcd5a5e2	-0.026080076
136	0x3b349939	0.0027557148
137	0xbdac9e94	-0.08428684
138	0xbdd0f434	-0.10202828
139	0x3d062d99	0.03275833
140	0xbc23cef5	-0.009998073
141	0x3d5c3e31	0.053770248
142	0x3d1a3d41	0.037656073
143	0xbc2471f3	-0.010036933
144	0x3d8167fe	0.06318663
145	0xbcc5656c	-0.024096213
146	0x3c2d427a	0.010574931
147	0x3d049d23	0.03237642
148	0xbd702001	-0.05862427
149	0x3cac4efc	0.021033756
150	0xbd265ec5	-0.040617723
151	0xbbd29819	-0.006426823
152	0xbd1d4eaa	-0.038405098
153	0xbda44e93	-0.08022799
154	0xbcbbe4da	-0.022936273
155	0xbd755fce	-0.05990582
156	0xbb3dd50d	-0.00289661
157	0x3cfd96f2	0.030955765
158	0x3d0863ee	0.033298425
159	0xbd46981f	-0.048484918
160	0xbd008e0f	-0.031385478
161	0x3c0a9d31	0.008460329
162	0xbd080d56	-0.033215843
163	0x3cae298d	0.021260047
164	0x3c8f7613	0.017512357
165	0xbc8030ec	-0.015648328
166	0xbd73bea3	-0.059507977
167	0x3c194633	0.009355116
168	0x3d4bd64b	0.049764913
169	0x3d844ae0	0.06459594
170	0x3c79b91b	0.0152418865
171	0xbcae229c	-0.021256737
172	0x3cf4c59b	0.029879382
173	0xbd9bc35d	-0.07605622
174	0x3d426e66	0.047468565
175	0x3c01bf41	0.007919134
176	0x3d8f7133	0.07004013
177	0x3d50892f	0.05091208
178	0xbc325fe7	-0.010887123
179	0xbd195057	-0.037430134
180	0x3d53b49d	0.051685918
181	0xbd8174aa	-0.0632108
182	0xbc32e6c8	-0.01091928
183	0x3d33ca27	0.04389396
184	0x3afccdc0	0.0019287392
185	0x3cbfa353	0.023393309
186	0x3c56e187	0.013115293
187	0xbbaeb7fd	-0.0053319917
188	0x3d2d4405	0.042301197
189	0xbbfd1e87	-0.0077245864
190	0xbd2f6ed9	-0.042830322
191	0xbd8ea17f	-0.06964397
192	0x3b8126c3	0.0039413883
193	0xbbc3ae7b	-0.0059717274
194	0xbd418ee3	-0.047255408
195	0xbd4def70	-0.050277174
196	0xbb1fc5e5	-0.002437943
197	0xbd6dfc14	-0.05810173
198	0xbd19242b	-0.037388008
199	0x3c5cd797	0.013479135
200	0xbb2c52ea	-0.0026294538
201	0xbd674a48	-0.056467324
202	0xbd25bfe3	-0.0404662
203	0x3d10f7d6	0.035392605
204	0x3c975ea0	0.018477738
205	0xbcde59fe	-0.027142521
206	0x3c18d787	0.0093287295
207	0xbc7b510d	-0.015339148
208	0xbbcc00b9	-0.006225672
209	0xbc80cf79	-0.01572393
210	0x3d14d23a	0.0363333
211	0xbce6d80f	-0.028179197
212	0x3caa3ced	0.020781005
213	0x3b874732	0.00412836
214	0x3d6272c9	0.05528525
215	0x3d06efc1	0.03294349
216	0x3d16633a	0.036715724
217	0x3d131bc3	0.035915148
218	0x3ca8b451	0.020593794
219	0x3b86e837	0.0041170376
220	0xbd21f2d9	-0.03953824
221	0x3d21a01c	0.039459333
222	0xbd57ede8	-0.05271712
223	0xbc19ceed	-0.009387714
224	0xbc42925f	-0.011875718
225	0xbd2cdf6c	-0.04220526
226	0x3d767070	0.060165823
227	0xbc0f9a04	-0.0087647475
228	0xbd2a8802	-0.041633613
229	0xbd3c397b	-0.045953255
230	0x3cce4d0b	0.025183221
231	0xbd3d0570	-0.046147764
232	0x3c2d8eee	0.010593159
233	0x3d7a4864	0.061104193
234	0xbcf36631	-0.029711815
235	0xbc4fe2c2	-0.012688341
236	0x3bbd01cd	0.005768037
237	0x3d93ca56	0.07216327
238	0xbd90018b	-0.07031544
239	0x3cfa999e	0.030590829
240	0x3c0790e6	0.008274293
241	0xbd8b68b7	-0.06807082
242	0x3d7c5041	0.061599974
243	0xbc75ffa3	-0.015014562
244	0x3d26ed6d	0.04075377
245	0xbcceb586	-0.025233041
246	0xbd05487e	-0.032539837
247	0x3caf38fb	0.021389475
248	0x3d0de016	0.034637533
249	0xbc236732	-0.009973334
250	0xbd194c5b	-0.037426334
251	0xbc9e6c18	-0.019338652
252	0xbd5f3118	-0.05449018
253	0x3a505b41	0.0007948168
254	0xbd875592	-0.06608118
255	0x3c94085a	0.018070389
