models/nn/exp_2_best_normtarget_NEW.pth (torch, 180276 bytes, 9 tensors)

0.weight f4 [256, 2]
-0.10608985 0.73474723 0.39417946 -0.44371775 -0.10353021 -0.309563 -0.25839877 -0.34175247
-0.07768317 -0.7045457 -0.5763536 -0.70656127 -0.3163309 0.51739365 -0.36259124 -0.67604375
-0.11437215 -0.57681614 0.035558995 0.3250888 -0.40317678 -0.6667946 -0.5576061 -0.36368868
0.14676544 0.60469425 0.5042669 0.0017658313 -0.6063552 -0.29633823 0.1196846 -0.6451726
-0.28317425 -0.31303608 0.022648694 -0.11450225 -0.16191237 -0.52874345 -0.36984083 0.38888067
-0.08539563 -0.012587477 -0.40922448 -0.16448629 -0.6042141 -0.40107322 -0.41960308 0.09780323
0.62449896 0.47657463 -0.63510877 -0.21952973 0.6037324 -0.33864656 0.44669768 0.38604003
-0.36038172 -0.2699118 0.16228639 0.4565042 -0.12635653 -0.5184112 0.58693177 -0.111789204
0.1684963 0.6434137 0.50540274 0.21257587 -0.7004489 -0.4854379 -0.17050533 0.043642323
-0.45365584 0.05091572 -0.36100537 0.42909005 0.7744734 -0.013276874 0.09669206 -0.13846937
-0.28275406 0.28807998 0.4415721 0.6508789 -0.13182981 0.06023545 0.41300932 -0.1439329
-0.5402058 0.3228446 -0.6816223 0.3926157 -0.5425115 0.71094567 0.76083595 0.66899484
0.48904827 -0.21225375 -0.4283936 0.34290975 0.47330213 -0.6067931 -0.56846386 0.009656003
0.64578706 -0.20275304 0.52621865 -0.38179612 0.48466533 -0.6419728 0.36229402 0.23472646
0.55862737 0.1473479 0.19984144 0.6147181 -0.0033720864 0.3988728 0.11276063 0.05458752
0.39833012 0.19148125 -0.14725864 0.36648417 -0.40787008 0.5356642 0.5689727 -0.18115072
-0.23092748 -0.6229469 0.058349412 0.43853727 0.595672 -0.4555966 0.15234211 0.058456223
-0.41938943 0.6294526 -0.08242499 0.5681365 0.5922975 0.13873392 -0.1478677 -0.4437141
-0.6732436 0.4924933 0.5218645 -0.011964982 0.5447844 -0.6586734 -0.42070207 -0.04321204
0.5415939 0.49041137 0.6483622 0.11394437 0.54518497 0.24127196 -0.38772872 -0.5741688
-0.2757509 0.32896537 -0.21638335 0.37753412 0.25883985 0.11583947 -0.67318726 -0.18162334
-0.45025164 -0.08494976 -0.55865717 0.46404722 0.45457348 0.301021 0.27459335 0.3242741
0.2822468 -0.26161066 -0.6123845 -0.38975132 0.6010906 0.3148568 -0.68691397 -0.29003996
0.44260058 -0.31163198 -0.07148651 0.5766029 -0.25112772 0.50291085 -0.46840185 0.10161617
-0.5918617 -0.21865028 0.29125285 -0.579319 0.25867295 -0.265975 0.46020132 0.25529653
0.16907474 -0.37141195 -0.7846752 0.09197867 -0.43775085 -0.6323016 0.19979507 -0.3047551
0.7373201 0.54322547 -0.43461365 -0.23638806 -0.5168616 0.4379946 -0.12972125 0.19501086
0.70168644 0.6732194 0.55650866 -0.54247004 0.43287873 0.17221753 -0.7055089 0.7057242
-0.064781696 0.6510009 -0.05080868 -0.49682483 -0.073421456 0.6374707 0.28610265 -0.620221
0.54307854 0.42566124 -0.23115921 -0.42937794 0.48308602 -0.66686225 0.35510883 -0.38293844
-0.25219077 0.3940031 0.38158253 0.6852772 -0.37907162 0.75560874 0.5397403 -0.6360478
0.10834965 0.09884729 0.11511806 0.21263073 -0.4359565 0.507424 -0.41991544 0.5046887
00000000: a345 d9bd 6518 3c3f e4d1 c93e f92e e3be
00000010: a607 d4bd 0b7f 9ebe d84c 84be 2efa aebe
00000020: 5b18 9fbd 1b5d 34bf e98b 13bf 33e1 34bf
00000030: 20f6 a1be e973 043f 8fa5 b9be 3411 2dbf
00000040: f23b eabd 39aa 13bf 4fa6 113d 0a72 a63e
00000050: 306d cebe 0db3 2abf 46bf 0ebf 6735 babe
00000060: ae49 163e 3ecd 1a3f a317 013f 7773 e73a
00000070: 183a 1bbf a5b9 97be 331d f53d 082a 25bf
00000080: 37fc 90be 4446 a0be c189 b93c 2880 eabd
00000090: 5bcc 25be bb5b 07bf c75b bdbe 5e1b c73e
000000a0: e7e3 aebd b53b 4ebc df85 d1be 186f 28be
000000b0: c6ad 1abf 7859 cdbe 37d6 d6be 0f4d c83d
000000c0: 2adf 1f3f 9701 f43e 7d96 22bf 67cc 60be
000000d0: 358e 1a3f 1563 adbe 8fb5 e43e 0aa7 c53e
000000e0: f483 b8be e131 8abe 672e 263e ebba e93e
000000f0: 9b63 01be 99b6 04bf 2941 163f bdf1 e4bd
00000100: 4b8a 2c3e c3b6 243f 1362 013f 7dad 593e
00000110: 9e50 33bf 518b f8be f398 2ebe 4bc2 323d
00000120: 9445 e8be 018d 503d b2d5 b8be b1b1 db3e
00000130: e443 463f 3f87 59bc 7d06 c63d eaca 0dbe
00000140: 24c5 90be 387f 933e bd15 e23e 00a0 263f
00000150: 65fe 06be 72b9 763d f575 d33e 2563 13be
00000160: ed4a 0abf e34b a53e cd7e 2ebf ed04 c93e
00000170: 09e2 0abf 8900 363f 25c6 423f 3f43 2b3f
00000180: 8964 fa3e 0c59 59be 6856 dbbe de91 af3e
00000190: a854 f23e cb56 1bbf d986 11bf 3634 1e3c
000001a0: 4d52 253f 7e9e 4fbe 44b6 063f c87a c3be
000001b0: 0e26 f83e 5458 24bf 9a7e b93e 225c 703e
000001c0: 3402 0f3f 5ee2 163e 3ca3 4c3e 2a5e 1d3f
000001d0: 39fe 5cbb 0e39 cc3e 0cef e63d 2a97 5f3d
000001e0: edf1 cb3e a913 443e f8ca 16be d0a3 bb3e
000001f0: 59d4 d0be 4a21 093f 32a8 113f 937f 39be
00000200: 4178 6cbe 7379 1fbf cbff 6e3d f587 e03e
00000210: f67d 183f f543 e9be 92ff 1b3e cb6f 6f3d
00000220: 36ba d6be ce23 213f 6fce a8bd 6571 113f
00000230: cfa0 173f 4410 0e3e a16a 17be 7f2e e3be
00000240: b159 2cbf 1528 fc3e e998 053f c608 44bc
00000250: fe76 0b3f d29e 28bf 4366 d7be 1cff 30bd
00000260: e6a5 0a3f 3317 fb3e 11fb 253f aa5b e93d
00000270: 3e91 0b3f ff0f 773e 6184 c6be bafc 12bf
00000280: 392f 8dbe 266e a83e 9993 5dbe 274c c13e
00000290: a886 843e 3e3d ed3d 0056 2cbf 78fb 39be
000002a0: 6287 e6be 24fa adbd 2804 0fbf 9997 ed3e
000002b0: dbbd e83e 6d1f 9a3e 8097 8c3e 4107 a63e
000002c0: a782 903e d5f1 85be 3bc5 1cbf 7c8d c7be
000002d0: 13e1 193f e934 a13e 98d9 2fbf 1e80 94be
000002e0: 8b9c e23e 3a8e 9fbe 8567 92bd 3f9c 133f
000002f0: d093 80be c4be 003f 5ed2 efbe 231c d03d
00000300: 4084 17bf dce5 5fbe 181f 953e 404e 14bf
00000310: c870 843e e02d 88be 829f eb3e 3ab6 823e
00000320: ee21 2d3e b529 bebe 79e0 48bf 505f bc3d
00000330: e120 e0be 85de 21bf 1497 4c3e dc08 9cbe
00000340: 03c1 3c3f d310 0b3f ae85 debe b60f 72be
00000350: 0b51 04bf d440 e03e a6d5 04be edb0 473e
00000360: b9a1 333f 1b58 2c3f 5a77 0e3f 51df 0abf
00000370: 48a2 dd3e cb59 303e 3b9c 34bf 57aa 343f
00000380: 44ac 84bd ffa7 263f c31c 50bd d35f febe
00000390: fd5d 96bd 4831 233f 0c7c 923e cec6 1ebf
000003a0: 3207 0b3f 45f0 d93e 00b5 6cbe 6dd7 dbbe
000003b0: 0d57 f73e 7cb7 2abf d3d0 b53e 8210 c4be
000003c0: 261f 81be c6ba c93e c95e c33e 546e 2f3f
000003d0: ad15 c2be 936f 413f 6c2c 0a3f 07d4 22bf
000003e0: 6ce6 dd3d 7370 ca3d 04c3 eb3d dfbb 593e
000003f0: b135 dfbe 8ae6 013f 28ff d6be 4733 013f

0.bias f4 [256]
-0.31825718 -0.34826967 -0.55846995 -0.024504468 0.1942592 -0.5323747 0.63768953 0.32017168
-0.4066569 0.028898183 0.34227774 -0.31588563 0.5759153 0.52133536 0.5452491 0.42386448
-0.26757568 -0.3249408 -0.12705062 0.32763883 -0.624673 -0.044267762 0.02178924 0.20233288
0.15778582 0.44784117 0.5237388 0.0036637373 -0.12480084 -0.6364765 -0.31694236 -0.49955294
-0.677738 0.47041303 0.15276952 0.22106327 0.49732956 0.5859541 -0.6057526 0.059983682
-0.5484328 0.07159545 0.053316034 0.32979676 0.26316598 -0.69907194 -0.51959294 -0.0149251195
0.1455344 0.60820496 0.37117723 0.6437338 0.041031573 -0.1623072 0.32167047 -0.11148821
0.2958255 0.25698066 0.22669736 -0.017589016 0.047468737 0.06674416 -0.64240247 0.08491436
-0.5045825 0.22714321 0.09631684 0.6296834 -0.2946948 0.47251606 0.11086764 0.28844753
-0.14671487 -0.21536909 -0.07297501 0.16960044 0.113720074 -0.5163447 0.35811538 -0.463561
-0.6888354 0.21823177 0.6069142 -0.46559316 -0.6806699 0.5013769 0.51579636 -0.10728107
0.58052737 -0.31482252 0.09084371 0.25795832 -0.27783042 0.35920486 -0.6201898 0.12934744
-0.3551712 0.49321374 0.3047996 -0.5968419 -0.2097437 -0.64827764 -0.29078588 -0.60851616
-0.3430724 0.5077872 -0.024478437 -0.14604855 -0.090787485 0.15305889 -0.15518272 -0.5740677
-0.10163658 -0.401266 -0.4704745 -0.45645243 0.076815784 0.13695015 -0.28504556 -0.19519652
-0.4763584 0.30076215 0.027078452 0.10718863 -0.52561504 0.014041807 0.7426967 -0.49778977
0.6645262 0.3153919 -0.0022560477 0.07237861 -0.41327003 -0.20679423 0.495147 -0.55587804
0.3410663 0.63550586 0.66254044 -0.073352434 -0.0026860612 0.3381213 -0.46865797 0.61430866
0.65230316 0.4292224 0.36304596 -0.237443 0.7650554 0.45301846 -0.62848145 0.41838813
-0.34235448 0.011521707 0.16391607 -0.32135236 0.15020885 -0.23002896 0.5575547 -0.5120502
-0.4077047 -0.64313585 -0.00825586 0.2944246 0.3178928 -0.22469674 -0.6600178 0.6836305
-0.07510298 0.34948048 -0.04691261 0.49653935 -0.20939107 0.1328076 0.4772699 0.37808824
0.6014464 0.6370867 0.03459301 0.43075237 -0.1324278 0.272321 0.6982494 0.5599928
0.28585517 -0.013497324 -0.012820137 0.5923917 0.32208613 -0.15268952 0.3532297 0.3347258
0.11710421 0.31047097 0.075912274 -0.08394709 0.26570183 -0.33142912 0.32950807 0.17229849
0.010752217 -0.3498125 0.24744055 -0.5010586 -0.6511072 0.3893374 0.020007156 0.36375654
0.08592043 0.42515907 -0.66296893 0.27571338 -0.45493007 0.1640413 -0.20351139 0.0942421
0.33956248 -0.09171426 0.071448766 -0.090823315 0.61257905 0.5471579 0.7078478 0.28525913
-0.2848894 0.44479692 0.5555822 -0.5814506 0.36612543 -0.5020566 -0.5625078 -0.37450776
0.4821952 0.37128484 -0.42093307 0.1821521 0.68759006 -0.5228272 0.1647142 0.41778898
-0.27892682 0.72909486 0.030089514 0.025010174 0.106229424 0.2607914 0.38902712 0.7159469
0.6191506 0.21275443 -0.21490316 0.34687266 -0.54881227 0.14990284 0.2631688 -0.05436528
00000000: 9bf2 a2be 6750 b2be e3f7 0ebf 98bd c8bc
00000010: e2eb 463e b549 08bf 9f3f 233f 8bed a33e
00000020: 5535 d0be e2bb ec3c 073f af3e c3bb a1be
00000030: 2f6f 133f 3c76 053f 7295 0b3f c404 d93e
00000040: aeff 88be a45e a6be 8f19 02be 47c0 a73e
00000050: 92ea 1fbf 1d52 35bd 597f b23c 5a30 4f3e
00000060: 9b92 213e 704b e53e bf13 063f 501b 703b
00000070: 9597 ffbd 20f0 22bf 4546 a2be 67c5 ffbe
00000080: 3d80 2dbf fad9 f03e 9d6f 1c3e 695e 623e
00000090: fba1 fe3e 1701 163f 9a12 1bbf 73b1 753d
000000a0: 1866 0cbf a3a0 923d ea61 5a3d 1fdb a83e
000000b0: b1bd 863e 61f6 32bf 0b04 05bf 7d88 74bc
000000c0: f806 153e 52b3 1b3f f10a be3e bdcb 243f
000000d0: b910 283d dc33 26be feb1 a43e ee53 e4bd
000000e0: 7176 973e f892 833e 5a23 683e d716 90bc
000000f0: 946e 423d 2ab1 883d 7d74 24bf 94e7 ad3d
00000100: 522c 01bf 3b98 683e c341 c53d ee32 213f
00000110: 3de2 96be a0ed f13e 930e e33d 65af 933e
00000120: 6c3c 16be b789 5cbe ec73 95bd bdab 2d3e
00000130: 12e6 e83d 2b2f 04bf e65a b73e de57 edbe
00000140: 8457 30bf 2678 5f3e bb5e 1b3f 3a62 eebe
00000150: 6240 2ebf 3d5a 003f 3b0b 043f 2db6 dbbd
00000160: 719d 143f 6b30 a1be 440c ba3d 1d13 843e
00000170: ca3f 8ebe b3e9 b73e c2c4 1ebf a873 043e
00000180: 00d9 b5be 8386 fc3e b10e 9c3e a1ca 18bf
00000190: 0dc7 56be 86f5 25bf e3e1 94be b7c7 1bbf
000001a0: 30a7 afbe 58fe 013f 0187 c8bc c08d 15be
000001b0: caee b9bd 78bb 1c3e 38e8 1ebe 1af6 12bf
000001c0: d726 d0bd bd72 cdbe 09e2 f0be 22b4 e9be
000001d0: 9851 9d3d a93c 0c3e 7ef1 91be 99e1 47be
000001e0: 40e5 f3be 7ffd 993e a1d3 dd3c b685 db3d
000001f0: b58e 06bf 9b0f 663c 5f21 3e3f 4dde febe
00000200: 641e 2a3f 0c7b a13e 33da 13bb 3d3b 943d
00000210: 2198 d3be dec1 53be e883 fd3e 064e 0ebf
00000220: 3ea0 ae3e 83b0 223f 409c 293f cd39 96bd
00000230: a108 30bb 3c1e ad3e f0f3 efbe 5543 1d3f
00000240: 57fd 263f 0ac3 db3e 29e1 b93e 4224 73be
00000250: acda 433f 09f2 e73e 29e4 20bf f836 d63e
00000260: 1649 afbe 8bc5 3c3c 9dd9 273e 4c88 a4be
00000270: 59d0 193e b68c 6bbe e8bb 0e3f b915 03bf
00000280: acbe d0be 8da4 24bf 9643 07bc d2be 963e
00000290: d8c2 a23e e716 66be edf6 28bf 6902 2f3f
000002a0: 97cf 99bd 1bef b23e 7027 40bd 683a fe3e
000002b0: 9d6a 56be b7fe 073e b85c f43e c894 c13e
000002c0: 64f8 193f 1d18 233f 66b1 0d3d 938b dc3e
000002d0: 279b 07be a86d 8b3e 79c0 323f b05b 0f3f
000002e0: 9c5b 923e e123 5dbc 8d0b 52bc fca6 173f
000002f0: 79e8 a43e a45a 1cbe 86da b43e 2e61 ab3e
00000300: 55d4 ef3d 0df6 9e3e e577 9b3d 74ec abbd
00000310: 120a 883e 14b1 a9be 48b5 a83e 046f 303e
00000320: 112a 303c a01a b3be 0e61 7d3e 6045 00bf
00000330: f6ae 26bf 3b57 c73e 0ce6 a33c 4c3e ba3e
00000340: 0df7 af3d 73ae d93e 55b8 29bf 4e2a 8d3e
00000350: 98ec e8be 71fa 273e 4a65 50be 0102 c13d
00000360: 22db ad3e b0d4 bbbd bb53 923d 9301 babd
00000370: fbd1 1c3f 8a12 0c3f 8335 353f 7c0d 923e
00000380: 06dd 91be 6cbc e33e a33a 0e3f f2d9 14bf
00000390: cb74 bb3e c886 00bf 8300 10bf 7bbf bfbe
000003a0: 4ae2 f63e 0c19 be3e 8a84 d7be 1586 3a3e
000003b0: e705 303f 01d8 05bf d7aa 283e 70e8 d53e
000003c0: 7fcf 8ebe f6a5 3a3f 497e f63c 23e2 cc3c
000003d0: d08e d93d 7386 853e 902e c73e 4c48 373f
000003e0: a780 1e3f 4cdc 593e 930f 5cbe 4b99 b13e
000003f0: f67e 0cbf 2180 193e 10be 863e 21ae 5ebd

2.weight f4 [128, 256]
0.094095744 0.07437349 0.03819991 -0.0026162504 -0.025252014 0.12591556 -0.044677768 0.056452014
0.119972914 -0.026319847 -0.037417054 0.1090191 0.014608809 -0.043408997 -0.042512394 0.0404253
0.10677327 -0.016926382 -0.033536818 0.020165445 -0.024584185 -0.009766035 0.018912556 0.0015337272
0.06870837 -0.05122791 0.034229588 -0.014862988 0.0076533924 0.03635998 0.038571686 0.09916121
0.10657783 -0.0693915 0.030205932 -0.08683227 0.011825316 0.012002939 0.0985958 0.016736275
0.048499122 -0.040036432 -0.043403447 -0.044302233 0.0148837585 0.06616036 0.082095705 0.061149295
-0.03013459 -0.09905791 0.0034650678 -0.099143334 0.064951256 0.04792491 0.041149173 -0.02635722
0.040345814 -0.02425134 -0.04499699 -0.008311125 0.018496543 -0.044979803 0.0031736665 -0.016683532
0.10551349 0.043174323 -0.022894468 -0.06786293 0.09052855 0.049659703 0.021428796 -0.027024113
0.07713136 0.09210048 0.044795375 -0.080295324 -0.0053275437 0.10096585 -0.0150583135 0.15247633
0.037460525 -0.014647753 -0.00502091 -0.012012159 0.04640927 -0.039370872 -0.057363763 0.07387741
-0.015612673 0.016552348 0.04990944 -0.059102505 0.053685874 -0.030129343 -0.015119405 -0.006031594
0.016944885 0.0045525944 -0.05568288 -0.0064227143 -0.024533872 -0.02034208 0.006346972 0.022455374
0.07079169 0.008536406 0.038449895 -0.024458174 -0.04639432 -0.042423178 0.079810515 0.017731609
-0.03283158 0.0896659 -0.01723507 0.051937338 0.03972532 -0.013041832 0.06497654 0.03417181
0.024447724 -0.005646044 0.086295106 -0.044347886 0.05328326 -0.02601453 -0.0651667 0.08677477
0.010779547 0.015878 0.037211176 0.05984096 0.06611546 0.0033302025 -0.04475296 0.116114795
-0.024794888 -0.014104152 -0.0712423 -0.027154554 0.034533136 4.020788e-05 0.123047926 -0.054183032
0.005737394 -0.019075125 -0.014403972 0.06561811 -0.030676635 -0.06001207 0.10411762 -0.0680426
0.07928805 0.06853322 0.0019506388 0.042513847 0.07623345 0.016707957 -0.034619156 -0.021114124
0.04212212 0.029659217 -0.00612193 0.03175066 0.042020902 0.047244616 0.12323505 -0.06298371
-0.01872758 0.044013064 0.01946603 -0.101184495 0.006390598 0.023017911 -0.063315496 -0.071822025
-0.017889129 0.029408736 -0.042481057 -0.040631015 0.010759101 -0.007708863 -0.04205952 0.041010983
-0.073708564 0.028975762 0.05513805 -0.056805905 -0.014656274 0.002945682 -0.033034593 0.026881112
0.039456423 0.018209998 0.04303755 -0.011843058 -0.01750724 0.0736873 -0.025550975 -0.038396157
0.027491886 0.092667155 -0.08213645 0.110837355 0.008119497 0.027764998 -0.04061672 0.03014281
0.022629762 -0.05102589 0.025987862 -0.009878475 -0.022303475 -0.0045602215 0.011002589 0.06314327
0.007726031 0.06567113 0.06479696 0.06984332 -0.06664712 -0.057470083 -0.025003023 -0.007199176
-0.02835487 -0.018918108 0.0071405037 0.08941496 -0.0012458639 0.05426903 0.06861421 0.030390024
-0.095086314 0.057548586 0.018865261 0.0541547 -0.0040807906 0.11732419 0.03798513 -0.042076092
0.10894925 -0.058268823 0.010196508 0.07466941 -0.022913497 0.019548787 0.041409153 -0.02702245
-0.081766635 -0.047668103 0.047225256 -0.03539785 0.039070103 -0.020368304 -0.04603319 0.016782742
00000000: 45b5 c03d 2151 983d 8277 1c3d 6675 2bbb
00000010: 50dd cebc 02f0 003e 0900 37bd 3a3a 673d
00000020: 5cb4 f53d b89c d7bc a042 19bd 6845 df3d
00000030: c959 6f3c a2cd 31bd 7a21 2ebd 0095 253d
00000040: f2ab da3d 32a9 8abc e75d 09bd 0132 a53c
00000050: c664 c9bc b801 20bc 81ee 9a3c 5807 c93a
00000060: f9b6 8c3d 5bd4 51bd 5334 0c3d e483 73bc
00000070: 4fc9 fa3b 34ee 143d 58fd 1d3d 0815 cb3d
00000080: 7a45 da3d 211d 8ebd 6e72 f73c 1ed5 b1bd
00000090: f8be 413c faa7 443c 98ec c93d 831a 893c
000000a0: 04a7 463d 3efd 23bd d0c7 31bd 4276 35bd
000000b0: 02db 733c 157f 873d cb21 a83d af77 7a3d
000000c0: d1dc f6bc e0de cabd 3116 633b a90b cbbd
000000d0: 2a05 853d e94c 443d 098c 283d 19eb d7bc
000000e0: a741 253d bfaa c6bc c44e 38bd 632b 08bc
000000f0: 1086 973c be3c 38bd 4afd 4f3b e7ab 88bc
00000100: 7517 d83d 8fd7 303d 2e8d bbbc b8fb 8abd
00000110: 0867 b93d f967 4b3d 718b af3c ac61 ddbc
00000120: 0cf7 9d3d 2d9f bc3d 5b7b 373d e071 a4bd
00000130: ad92 aebb 2fc7 ce3d 25b7 76bc c122 1c3e
00000140: 3570 193d 21fd 6fbc 7286 a4bb a6ce 44bc
00000150: a617 3e3d 5a43 21bd 44f6 6abd 0a4d 973d
00000160: 4ccc 7fbc ca98 873c d76d 4c3d 7815 72bd
00000170: b8e5 5b3d d0d1 f6bc 62b7 77bc ada4 c5bb
00000180: 00d0 8a3c ee2d 953b bb13 64bd a275 d2bb
00000190: 42fb c8bc 6fa4 a6bc 43fa cf3b 55f4 b73c
000001a0: 3cfb 903d 48dc 0b3c a37d 1d3d 825c c8bc
000001b0: f807 3ebd edc3 2dbd b273 a33d e141 913c
000001c0: 687a 06bd c1a2 b73d 9030 8dbc 3fbc 543d
000001d0: 04b7 223d 68ad 55bc 6c12 853d bdf7 0b3d
000001e0: 9846 c83c 7302 b9bb 7dbb b03d 21a6 35bd
000001f0: 8c3f 5a3d 6c1c d5bc 1e76 85bd f8b6 b13d
00000200: b29c 303c 9412 823c bf6a 183d cb1b 753d
00000210: 8b67 873d 873f 5a3b e14e 37bd 98cd ed3d
00000220: a61e cbbc 1a15 67bc 7ce7 91bd 3a73 debc
00000230: 9e72 0d3d e2a4 2838 8d00 fc3d 07ef 5dbd
00000240: c000 bc3b 7043 9cbc a3fe 6bbc ca62 863d
00000250: 914d fbbc 37cf 75bd 9e3b d53d eb59 8bbd
00000260: c661 a23d 255b 8c3d 94ac ff3a 0023 2e3d
00000270: 4820 9c3d 20df 883c d1cc 0dbd 87f7 acbc
00000280: 3e88 2c3d e3f7 f23c 799a c8bb fb0c 023d
00000290: 1c1e 2c3d 9283 413d a862 fc3d 9afd 80bd
000002a0: 956a 99bc 0b47 343d 3977 9f3c d139 cfbd
000002b0: 3968 d13b 0f90 bc3c 8eab 81bd 6d17 93bd
000002c0: 398c 92bc 97ea f03c 9e00 2ebd b56c 26bd
000002d0: f146 303c a19a fcbb 9a46 2cbd 22fb 273d
000002e0: 84f4 96bd 945e ed3c 70d8 613d 4fad 68bd
000002f0: de20 70bc 580c 413b 484f 07bd c735 dc3c
00000300: 0f9d 213d 222d 953c 2448 303d 6309 42bc
00000310: 586b 8fbc 5ee9 963d 4750 d1bc 4a45 1dbd
00000320: aa36 e13c 47c8 bd3d 2837 a8bd b2fe e23d
00000330: a407 053c 6c73 e33c b85d 26bd 0eee f63c
00000340: 0d62 b93c 8600 51bd 7fe4 d43c 54d9 21bc
00000350: c7b5 b6bc e96d 95bb 3444 343c 4251 813d
00000360: a52a fd3b 967e 863d 45b4 843d 040a 8f3d
00000370: 497e 88bd c065 6bbd 24d3 ccbc 11e7 ebbb
00000380: 7948 e8bc 26fa 9abc e3fa e93b 311f b73d
00000390: 414c a3ba 3449 5e3d 9b85 8c3d 80f4 f83c
000003a0: 9dbc c2bd 11b8 6b3d 528b 9a3c 52d1 5d3d
000003b0: 27b8 85bb aa47 f03d 4c96 1b3d fb57 2cbd
000003c0: c920 df3d 4aab 6ebd 410f 273c 47ec 983d
000003d0: 16b5 bbbc c724 a03c a59c 293d 2f5e ddbc
000003e0: 4475 a7bd a13f 43bd 456f 413d 56fd 10bd
000003f0: f907 203d 6edb a6bc 4c8d 3cbd f67b 893c

2.bias f4 [128]
-0.010160393 -0.023511231 -0.03948594 -0.013318179 -0.08429944 -0.033320807 0.008167402 -0.067009926
-0.00879336 0.026167111 -0.018300034 0.05245919 0.022432331 -0.017555723 -0.085472435 -0.025610954
0.016531214 0.06418304 0.05715524 0.009464034 -0.08010113 0.015098221 -0.040200718 -0.07880676
-0.006231958 -0.024638783 -0.015034123 -0.034702703 -0.0011780837 -0.023703497 -0.04022418 0.025414387
0.056056347 0.02881235 -0.06818111 -0.005617391 -0.06335282 0.016063645 -0.08276072 -0.08468585
0.05687796 -0.016340299 0.051733933 -0.006394829 0.059643757 -0.018370643 -0.019389655 0.0497584
-0.078279965 -0.09050132 -0.021667112 0.012205258 0.04140251 -0.0002947121 0.03558495 0.047119398
0.012555184 0.015975539 -0.033487983 0.040364202 -0.041577477 -0.087474674 -0.041404836 -0.04864503
-0.017755881 -0.035467487 -0.008313993 0.068661705 0.055705313 0.078385875 -0.019822776 -0.037854757
-0.0039007457 0.006641444 -0.038454123 -0.06389014 -0.00471804 0.013984437 0.053606655 0.007462735
-0.04701331 0.013989028 -0.017775847 0.0020055948 -0.036827847 0.03438608 0.049265098 -0.0550651
-0.014147099 0.00013982461 -0.08822963 -0.07236881 -0.061413575 0.028526746 -0.0073601855 -0.033738095
-0.022232192 0.018177783 0.024441756 -0.01792095 0.045541365 0.019311357 -0.08009874 -0.07001616
-0.014168743 -0.03421139 0.0007077584 0.030921018 0.028544968 0.01992386 -0.063138925 0.069307305
-0.1782347 0.050968666 0.01854738 -0.04166981 0.05365664 -0.11932525 0.045694463 0.014500183
-0.0056432565 -0.06820244 -0.09898801 0.012140361 -0.008301503 -0.00068460713 0.059651274 0.034548435
00000000: c777 26bc a09a c0bc 02bc 21bd 7e34 5abc
00000010: 2fa5 acbd 667b 08bd 91d0 053c 803c 89bd
00000020: 0612 10bc 695c d63c f4e9 95bc 73df 563d
00000030: 02c4 b73c 05d1 8fbc 2c0c afbd 10ce d1bc
00000040: 786c 873c 6672 833d 9d1b 6a3d 090f 1b3c
00000050: 100c a4bd 875e 773c 82a9 24bd 7065 a1bd
00000060: 7435 ccbb 46d7 c9bc af51 76bc 6c24 0ebd
00000070: ee69 9aba d62d c2bc 1cc2 24bd d531 d03c
00000080: 579b 653d e107 ec3c 8aa2 8bbd 1712 b8bb
00000090: 20bf 81bd e897 833c 747e a9bd c66f adbd
000000a0: ddf8 683d 17dc 85bc f6e6 533d b78b d1bb
000000b0: 034d 743d 087e 96bc 0ed7 9ebc 77cf 4b3d
000000c0: 3f51 a0bd c258 b9bd 3a7f b1bc 90f8 473c
000000d0: ae95 293d 9783 9ab9 86c1 113d 4500 413d
000000e0: 42b4 4d3c 22df 823c b22a 09bd ef54 253d
000000f0: 254d 2abd ec25 b3bd 1e98 29bd 0340 47bd
00000100: c874 91bc 5b46 11bd 6a37 08bc 829e 8c3d
00000110: 412b 643d c688 a03d 6063 a2bc 970d 1bbd
00000120: a7a3 7fbb 78a0 d93b 1282 1dbd d5d8 82bd
00000130: ca99 9abb fb1e 653c a792 5b3d f589 f43b
00000140: 0791 40bd 3c32 653c a79e 91bc 4c70 033b
00000150: ccd8 16bd 6bd8 0c3d 33ca 493d f18b 61bd
00000160: 3cc9 67bc e29d 1239 bcb1 b4bd 1936 94bd
00000170: cd8c 7bbd ecb0 e93c b62d f1bb f530 0abd
00000180: 4920 b6bc 93e9 943c 143a c83c f5ce 92bc
00000190: 9589 3a3d da32 9e3c cf0a a4bd a264 8fbd
000001a0: 0424 68bc 3e21 0cbd dd88 393a 134e fd3c
000001b0: 23d7 e93c 5d37 a33c fb4e 81bd fdf0 8d3d
000001c0: 2883 36be 85c4 503d adf0 973c f6ad 2abd
000001d0: 11c7 5b3d cc60 f4bd 1e2a 3b3d 2d92 6d3c
000001e0: 11eb b8bb b9ad 8bbd 3aba cabd 5de8 463c
000001f0: 0703 08bc 3577 33ba e554 743d a982 0d3d

4.weight f4 [64, 128]
0.008346092 -0.06406593 0.072632134 -0.028381051 -0.030980136 -0.05692633 -0.023783067 -0.0024244317
-0.022029009 0.036913887 0.0464029 0.002908964 -0.028920718 -0.054589182 0.039755084 0.019378813
-0.066456325 0.10214583 -0.05352598 -0.023684625 -0.07802618 -0.07704044 0.015376028 0.051299844
-0.047971442 0.059940327 -0.039019756 0.03571731 -0.01963191 0.058355194 -0.015250949 0.05709178
-0.028839886 -0.10217652 -0.00795994 0.0065933983 0.010560235 -0.081784345 -0.005520948 -0.020414637
0.072143994 -0.03266797 0.012623784 -0.09802427 0.06556477 0.019780174 0.024452351 0.10571489
-0.017329281 -0.053788304 -0.004849191 0.07748927 -0.02665316 0.03288216 0.073782295 -0.039382715
0.029902574 -0.061455145 -0.07090275 -0.063047074 0.011344157 0.03899083 -0.0012188569 -0.03596332
-0.062529564 -0.017134538 0.036461513 -0.06456831 0.07013987 0.07132498 0.07576617 0.102581844
-0.059741028 -0.06561713 -0.017852055 0.056755293 -0.03334725 0.046118338 -0.024952145 -0.047394086
-0.044605155 -0.036133237 0.082721 -0.05219944 0.023316942 -0.001025066 -0.029406592 0.08408036
0.034769807 0.022718526 -0.028706107 0.050513 -0.031072855 -0.0028341343 0.081855714 -0.038360067
0.013271304 0.020000944 -0.032801066 0.05698886 -0.022715239 0.090196446 0.040751226 -0.051489703
0.06349027 0.051430278 0.08057476 0.042646516 -0.076530814 0.070542045 0.05498682 -0.038131926
0.15205146 -0.031325307 0.025825001 0.017727645 0.010209566 0.23637725 0.005300218 0.030916851
0.09948619 0.07927179 0.11286528 0.004315912 0.00074085506 -0.081755765 0.04662892 -0.03819603
0.08099863 0.01744408 0.06396172 -0.060251854 0.004279287 0.0780154 -0.05607206 0.06615613
0.070852615 0.017426344 -0.04857369 -0.03372691 0.043872435 0.05429504 -0.031286135 -0.08165444
0.009225065 -0.026657693 -0.045451805 0.03642705 -0.036947746 -0.07269916 -0.063071206 -0.0016712942
-0.04399568 0.060301103 0.006324465 0.016612483 0.027151242 0.09850366 -0.06549181 0.034828365
-0.006094223 0.07333307 -0.015864449 0.0645027 0.09551708 0.038491562 0.07135311 0.044653423
-0.01905453 -0.013226074 0.0040031914 -0.027293967 -0.039801527 -0.05563232 -0.0400457 0.028572066
-0.06667864 0.084547 -0.017217973 -0.048956633 -0.055934023 0.078789674 0.02999364 0.07531803
0.009179971 -0.044842757 0.07871072 -0.115894355 -0.053547364 -0.06140626 0.019528221 0.06826904
0.04136486 -0.054871406 0.05632318 -0.050098862 -0.08414333 0.08346509 -0.07946262 -0.07060236
0.03562722 -0.058960088 0.036576208 0.04081194 -0.08877543 -0.016141666 0.036119014 0.05245216
0.008337698 -0.089104995 -0.050023507 -0.057882458 0.083601795 -0.009045279 -0.021204343 -0.001892213
0.007572732 -0.018532662 -0.07777573 -0.017393978 0.0971743 -0.021402555 -0.0035565405 0.10419779
-0.048344467 -0.0999289 -0.0007105764 -0.009191399 -0.07160029 0.08485946 0.040878806 0.038250316
0.07764985 0.07932145 -0.00013657729 0.067358874 -0.08270001 -0.028691944 0.024812995 0.008464954
0.1042974 -0.05364351 0.07085554 0.084242456 0.06375801 0.21513274 0.012139967 -0.019337026
0.036953278 0.09202666 0.07480467 -0.08759682 0.033547882 0.07924255 0.083944395 0.052727297
00000000: 0cbe 083c 0035 83bd 28c0 943d 617f e8bc
00000010: 0eca fdbc 952b 69bd b5d4 c2bc 37e3 1ebb
00000020: 2e76 b4bc 0433 173d f810 3e3d 51a4 3e3b
00000030: 24eb ecbc e898 5fbd 3ad6 223d 51c0 9e3c
00000040: 411a 88bd d531 d13d 0f3e 5bbd 4206 c2bc
00000050: 31cc 9fbd 61c7 9dbd bceb 7b3c c91f 523d
00000060: b47d 44bd fd83 753d 2ed3 1fbd 504c 123d
00000070: 19d3 a0bc db05 6f3d 1edf 79bc 12d9 693d
00000080: a041 ecbc ec41 d1bd 686a 02bc 6f0d d83b
00000090: d604 2d3c 8d7e a7bd 12e9 b4bb 993c a7bc
000000a0: 3bc0 933d d9ce 05bd fdd3 4e3c f3c0 c8bd
000000b0: d246 863d 080a a23c 4c50 c83c 0c81 d83d
000000c0: 23f6 8dbc 2051 5cbd f6e5 9ebb b2b2 9e3d
000000d0: ba57 dabc 72af 063d 2c1b 973d c54f 21bd
000000e0: 3ef6 f43c 64b8 7bbd 7635 91bd d31e 81bd
000000f0: d8dc 393c d9b4 1f3d 0dc2 9fba 464e 13bd
00000100: 800f 80bd bb5d 8cbc ab58 153d 643c 84bd
00000110: 7ea5 8f3d d512 923d 4b2b 9b3d 6e16 d23d
00000120: 02b3 74bd 4662 86bd 793e 92bc 3d78 683d
00000130: 2097 08bd 95e6 3c3d 7168 ccbc 4d20 42bd
00000140: e5b3 36bd 7200 14bd a169 a93d 14cf 55bd
00000150: 2c03 bf3c 825b 86ba 18e6 f0bc 5332 ac3d
00000160: c96a 0e3d 341c ba3c 1229 ebbc b8e6 4e3d
00000170: 808c febc e2bc 39bb f8a3 a73d 721f 1dbd
00000180: e26f 593c 05d9 a33c 695a 06bd 276d 693d
00000190: 4f15 babc eab8 b83d c2ea 263d dee6 52bd
000001a0: 3007 823d 8ea8 523d 6104 a53d 1dae 2e3d
000001b0: 30bc 9cbd 5978 903d dc39 613d 3930 1cbd
000001c0: 61b3 1b3e f74e 00bd f48e d33c 9139 913c
000001d0: 0646 273c e10c 723e 73ad ad3b 5645 fd3c
000001e0: 6abf cb3d 4059 a23d e925 e73d 7e6c 8d3b
000001f0: f135 423a 916f a7bd f7fd 3e3d 7173 1cbd
00000200: 9ce2 a53d e3e6 8e3c 5dfe 823d a6ca 76bd
00000210: 4339 8c3b 8ac6 9f3d d1ab 65bd dd7c 873d
00000220: 2d1b 913d b1c1 8e3c 35f5 46bd 3a25 0abd
00000230: 95b3 333d 7a64 5e3d e425 00bd 713a a7bd
00000240: ba24 173c 3c61 dabc ac2b 3abd 8834 153d
00000250: 8556 17bd 4ce3 94bd 7a2b 81bd 540f dbba
00000260: d034 34bd 4afe 763d 753d cf3b e716 883c
00000270: 486c de3c 49bc c93d 9220 86bd 30a8 0e3d
00000280: 0cb2 c7bb a62f 963d 29f6 81bc fe19 843d
00000290: 759e c33d 54a9 1d3d 9421 923d 82e6 363d
000002a0: 3f18 9cbc 2db2 58bc 342d 833b 9997 dfbc
000002b0: ed06 23bd b7de 63bd f606 24bd f70f ea3c
000002c0: d08e 88bd fa26 ad3d b50c 8dbc c086 48bd
000002d0: 131b 65bd 7b5c a13d 39b5 f53c 5740 9a3d
000002e0: 9767 163c 0aad 37bd 1633 a13d 055a edbd
000002f0: 7b54 5bbd 2185 7bbd a6f9 9f3c a3d0 8b3d
00000300: 336e 293d d7c0 60bd 23b3 663d 7734 4dbd
00000310: 5753 acbd bfef aa3d 4cbd a2bd f897 90bd
00000320: d9ed 113d 2280 71bd efd0 153d 6c2a 273d
00000330: e5cf b5bd 873b 84bc 88f1 133d 13d8 563d
00000340: d79a 083c ae7c b6bd 73e5 4cbd 2816 6dbd
00000350: 6b37 ab3d a632 14bc bbb4 adbc 2204 f8ba
00000360: ae24 f83b cfd1 97bc e248 9fbd d17d 8ebc
00000370: 5203 c73d 6954 afbc d914 69bb a765 d53d
00000380: d904 46bd 86a7 ccbd fa45 3aba 8697 16bc
00000390: 2ca3 92bd ccca ad3d 8970 273d 5dac 1c3d
000003a0: e206 9f3d 4973 a23d 3036 0fb9 73f3 893d
000003b0: 9f5e a9bd 5e0b ebbc 9f44 cb3c 97b0 0a3c
000003c0: e099 d53d 4cb9 5bbd b61c 913d 4f87 ac3d
000003d0: 8f93 823d c24b 5c3e b6e6 463c af68 9ebc
000003e0: 525c 173d 7978 bc3d 3133 993d f665 b3bd
000003f0: 8169 093d eb49 a23d 0aeb ab3d 94f8 573d

4.bias f4 [64]
-0.0853012 -0.04368114 0.0033678068 0.06137426 0.003820131 -0.07954533 0.07219347 -0.012228192
-0.034480125 0.018748557 0.08419962 0.06816734 0.041046947 0.074129164 -0.090594515 -0.002297876
-0.037483223 0.038681563 0.043830264 -0.051556718 0.074559174 -0.04996265 -0.0016225404 -0.07386225
0.0013524732 -0.089332744 -0.047068547 -0.13658203 -0.029354235 0.03463048 -0.03369527 -0.0320544
0.07829581 -0.02677328 0.04956076 -0.01596099 0.038588725 -0.020780427 -0.09663262 0.0123406015
-0.07875185 -0.07294148 -0.02260328 -0.04568778 0.042679217 -0.048071973 -0.014840453 0.047398552
0.028953819 -0.059906125 -0.08211226 -0.052407146 -0.08891953 -0.1234066 0.046242844 -0.10257058
-0.08784399 -0.053291287 -0.08639016 0.07026617 0.03983543 0.022647843 -0.10820273 -0.0913107
00000000: 65b2 aebd ffea 32bd 6cb6 5c3b 9363 7b3d
00000010: 2a5b 7a3b a9e8 a2bd 2cda 933d c158 48bc
00000020: 083b 0dbd 9396 993c da70 ac3d 519b 8b3d
00000030: d820 283d 08d1 973d 9e89 b9bd f697 16bb
00000040: 0288 19bd 8f70 1e3d 5d87 333d 232d 53bd
00000050: 7bb2 983d a3a5 4cbd 6cab d4ba 1745 97bd
00000060: 7845 b13a 16f4 b6bd f3ca 40bd 29dc 0bbe
00000070: 4b78 f0bc b1d8 0d3d 0d04 0abd 794b 03bd
00000080: 8e59 a03d a353 dbbc 3900 4b3d 9fc0 82bc
00000090: 360f 1e3d b73b aabc 53e7 c5bd 3c30 4a3c
000000a0: a648 a1bd 5862 95bd 842a b9bc 1c23 3bbd
000000b0: 67d0 2e3d 1ee7 44bd 5f25 73bc fc24 423d
000000c0: 8f30 ed3c 2060 75bd 792a a8bd e0a8 56bd
000000d0: 711b b6bd 99bc fcbd 2369 3d3d 8610 d2bd
000000e0: 8de7 b3bd f747 5abd 53ed b0bd b6e7 8f3d
000000f0: 7a2a 233d f887 b93c 6599 ddbd 1b01 bbbd

6.weight f4 [32, 64]
-0.103623584 0.011526632 -0.025289578 -0.019996136 -0.013814354 -0.018345352 0.0887392 0.15675463
-0.07272732 -0.08210399 -0.006035271 -0.1582647 -0.017146768 0.023017319 0.031001577 0.0987868
-0.14478515 0.09734806 0.12725516 -0.03351331 0.08760512 0.08345259 -0.12931757 0.0047311042
-0.08563022 0.030275002 -0.026072979 0.12517262 0.07802741 0.09946254 -0.10762433 -0.04552825
-0.083134755 -0.0650416 -0.04123435 -0.072701074 -0.028731626 0.019212162 0.0028813276 0.03166085
0.15746948 -0.14729911 0.09473628 -0.0832363 0.071875684 0.09746333 -0.06820059 0.056303445
-0.0074518304 -0.051199473 0.032735184 0.052046213 0.022831967 0.06362664 -0.015620019 0.099141605
-0.05725493 0.06089302 -0.038657036 0.040382188 0.02368339 -0.033176083 0.05178879 -0.07990944
-0.006262172 -0.10134732 0.059774943 -0.021405507 -0.0032991813 0.045226783 -0.022441652 0.1382446
-0.18048812 0.075639285 -0.12275336 -0.031124007 -0.094333746 -0.019022744 -0.004213188 -0.03917877
-0.049473654 -0.038863204 0.09748365 0.09045429 0.04512741 0.035510775 -0.062505975 -0.12372459
-0.040650472 0.01754516 0.06253891 -0.0025525214 -0.071715124 -0.017097613 -0.046003446 0.1253
0.033880007 0.061592937 0.085526764 0.034570727 0.05563021 -0.021150516 0.07123302 0.077955544
-0.0119466465 -0.07183394 -0.029272223 0.030756883 0.018364247 0.16329 -0.13432147 0.08190618
-0.05326708 -0.07683099 0.056492418 -0.019852024 0.018343858 0.011329394 0.13726412 -0.032891408
0.1029355 -0.122130014 0.0055521852 -0.05901719 -0.0759834 -0.055763837 0.16069311 0.11882926
-0.13204515 0.022496555 0.153661 0.0019514845 -0.03200139 0.09718247 -0.073599465 0.013954967
-0.035147063 -0.048446726 0.07176544 -0.07513828 0.060921274 -0.05590893 0.035169944 0.072529584
-0.043748636 -0.14733204 0.1284911 0.0068244007 0.026759282 -0.017340673 -0.066221006 -0.115487605
0.053975575 0.032771964 0.09796157 -0.0017242277 0.04849914 -0.03401672 0.047244124 0.08860812
0.14408985 0.05721557 -0.015380397 0.033436462 0.014198987 -0.00032239838 -0.003142419 -0.08896894
0.1263101 -0.06506654 0.035495035 0.024842285 0.08068124 0.117590085 -0.13554041 0.04026189
-0.042809084 -0.14798102 0.023928855 -0.04370871 0.0815614 -0.14451149 -0.084873326 0.07234468
-0.033657987 -0.015565875 0.12036971 0.1374406 -0.04128318 -0.10369759 -0.02915604 0.06550894
-0.017783256 0.10508619 0.0029263827 -0.0927267 0.040768087 -0.10585802 0.117697395 -0.06741211
-0.052051637 0.08411699 -0.03764456 0.0028446757 0.0397046 -0.04675143 -0.112014614 0.09816974
-0.15690078 0.07410575 -0.048093285 0.09448458 0.14635193 -0.07448625 -0.15132517 0.08519623
0.0099481875 -0.09497094 0.083508305 -0.0028508198 0.044450905 0.09819877 -0.07542205 -0.006792238
-0.10327634 -0.056971833 0.0249609 0.06699573 -0.03757519 0.061556175 0.07514238 -0.117134236
0.06604084 -0.073707715 -0.050956313 -0.091754854 0.087829426 0.011913382 -0.12391564 -0.02913021
0.122979365 -0.038175534 0.022136353 0.1176746 -0.07092695 0.04792977 0.048749346 -0.05222584
0.04006551 0.05639332 0.0396445 -0.0019182204 -0.09304848 -0.09389656 0.16762799 -0.01484209
00000000: 9a38 d4bd 33da 3c3c 172c cfbc f0ce a3bc
00000010: 9a55 62bc fe48 96bc e6bc b53d 4984 203e
00000020: 10f2 94bd 2326 a8bd 86c3 c5bb 2410 22be
00000030: 6177 8cbc d18e bc3c 05f7 fd3c bc50 ca3d
00000040: 8f42 14be 6b5e c73d 2d4f 023e 4145 09bd
00000050: 506a b33d 31e9 aa3d d36b 04be 6107 9b3b
00000060: e65e afbd 4803 f83c 0097 d5bc 402d 003e
00000070: d6cc 9f3d 04b3 cb3d 256a dcbd d57b 3abd
00000080: 8e42 aabd 8834 85bd 5ae5 28bd 4de4 94bd
00000090: 965e ebbc d362 9d3c a8d4 3c3b cfae 013d
000000a0: ae3f 213e 94d5 16be 1805 c23d cb77 aabd
000000b0: 8f33 933d db9a c73d c0ac 8bbd 719e 663d
000000c0: 7c2e f4bb 8ab6 51bd 5415 063d 692e 553d
000000d0: 1b0a bb3c af4e 823d 1ceb 7fbc c10a cb3d
000000e0: 2584 6abd f66a 793d d756 1ebd cb67 253d
000000f0: ab03 c23c a5e3 07bd 7b20 543d 8fa7 a3bd
00000100: e832 cdbb 2f8f cfbd 92d6 743d 9a5a afbc
00000110: 1437 58bb b83f 393d 8ed7 b7bc fe8f 0d3e
00000120: e1d1 38be c5e8 9a3d 1d66 fbbd c6f7 febc
00000130: 0d32 c1bd 96d5 9bbc c80e 8abb eb79 20bd
00000140: e3a4 4abd 062f 1fbd 82a5 c73d 1940 b93d
00000150: 85d7 383d bf73 113d 2203 80bd 5163 fdbd
00000160: 1c81 26bd deba 8f3c 6614 803d 3448 27bb
00000170: 61df 92bd 4b10 8cbc 1c6e 3cbd a54e 003e
00000180: c3c5 0a3d e048 7c3d a828 af3d 099a 0d3d
00000190: 81dc 633d d943 adbc 9ee2 913d 28a7 9f3d
000001a0: debb 43bc ac1d 93bd 4dcc efbc dcf5 fb3c
000001b0: 9e70 963c 7e35 273e 918b 09be 6dbe a73d
000001c0: 952e 5abd 9159 9dbd 9864 673d b6a0 a2bc
000001d0: dc45 963c ec9e 393c f78e 0c3e 24b9 06bd
000001e0: d9cf d23d 4d1f fabd 1bef b53b 02bc 71bd
000001f0: 2f9d 9bbd 9f68 64bd bc8c 243e c15c f33d
00000200: d836 07be b24a b83c 4f59 1d3e f4c8 ff3a
00000210: e413 03bd 9a07 c73d 51bb 96bd 60a3 643c
00000220: 5ef6 0fbd 1370 46bd c2f9 923d 19e2 99bd
00000230: 9688 793d c300 65bd 5c0e 103d 648a 943d
00000240: c531 33bd 36de 16be 2c93 033e 399f df3b
00000250: 4836 db3c 070e 8ebc e19e 87bd c484 ecbd
00000260: 7e15 5d3d e53b 063d 13a0 c83d 7bff e1ba
00000270: 09a7 463d 1e55 0bbd 0e83 413d 2d78 b53d
00000280: 4a8c 133e e05a 6a3d 10fe 7bbc acf4 083d
00000290: dea2 683c 9407 a9b9 0bf1 4dbb 5935 b6bd
000002a0: 6f57 013e 9b41 85bd 3e63 113d 0c82 cb3c
000002b0: 353c a53d 12d3 f03d 1bcb 0abe a7e9 243d
000002c0: 9458 2fbd 5688 17be 7206 c43c e807 33bd
000002d0: aa09 a73d d2fa 13be 11d2 adbd 7329 943d
000002e0: f5dc 09bd 0308 7fbc 6584 f63d 3bbd 0c3e
000002f0: 8d18 29bd 675f d4bd a6d8 eebc 8d29 863d
00000300: 31ae 91bc 6e37 d73d 8ec8 3f3b 7fe7 bdbd
00000310: 70fc 263d 17cc d8bd 550b f13d 5c0f 8abd
00000320: 1934 55bd 8745 ac3d 2f31 1abd bd6d 3a3b
00000330: 4aa1 223d 6d7e 3fbd eb67 e5bd 370d c93d
00000340: 99aa 20be c1c4 973d 77fd 44bd 2281 c13d
00000350: 48dd 153e 3f8c 98bd fcf4 1abe 5c7b ae3d
00000360: b9fd 223c 2080 c2bd 6706 ab3d d2d4 3abb
00000370: 2712 363d 701c c93d e076 9abd 6c91 debb
00000380: 8c82 d3bd 4c5b 69bd cd7a cc3c 0f35 893d
00000390: 71e8 19bd 5422 7c3d 40e4 993d 13e4 efbd
000003a0: 6c40 873d 12f4 96bd 91b7 50bd f8e9 bbbd
000003b0: eadf b33d 5930 433c 7cc7 fdbd 7aa2 eebc
000003c0: 9bdc fb3d f35d 1cbd 4c57 b53c 61ff f03d
000003d0: 2642 91bd 0252 443d 65ad 473d c3ea 55bd
000003e0: bb1b 243d affc 663d 4562 223d cc6c fbba
000003f0: 3490 bebd d74c c0bd aca6 2b3e 3d2c 73bc

6.bias f4 [32]
-0.0036795663 0.021554276 0.0022590924 0.035183914 0.117323756 0.06816717 -0.0063211457 0.051911473
0.095222995 0.096766725 0.008135297 -0.061211392 -0.08137721 -0.10230686 -0.122208856 -0.058444396
0.02399233 0.07018007 0.0059582205 0.011187528 0.010697861 -0.106110975 -0.002006773 -0.0049071405
-0.08401491 0.03392931 -0.054572903 -0.040872127 0.023395682 0.0560571 0.030867819 -0.12537652
00000000: e124 71bb 9892 b03c 480d 143b 021d 103d
00000010: 7047 f03d 3b9b 8b3d 9d21 cfbb 20a1 543d
00000020: 4604 c33d a22d c63d e949 053c ccb8 7abd
00000030: 18a9 a6bd 4286 d1bd a348 fabd 6463 6fbd
00000040: 908b c43c 92ba 8f3d 2d3d c33b e54b 373c
00000050: 1546 2f3c b650 d9bd 1084 03bb 14cc a0bb
00000060: 0210 acbd 76f9 0a3d d687 5fbd 8869 27bd
00000070: 4da8 bf3c 219c 653d 82de fc3c b462 00be

8.weight f4 [1, 32]
-0.09578913 -0.043695457 -0.047125775 -0.065620355 0.03528827 0.09215932 -0.12387808 0.14185417
0.025638618 0.00038482453 0.014670782 0.028524445 0.14404324 -0.07363206 0.1507548 0.11327551
-0.16349305 -0.1715311 -0.008049555 0.18602978 0.08889412 0.044690836 0.001091383 -0.14409721
0.031489972 0.036708336 -0.14999586 0.15372413 0.043421175 0.038106214 -0.17003855 -0.03298711
00000000: 172d c4bd 02fa 32bd f506 41bd f763 86bd
00000010: 6f8a 103d 07be bc3d cab3 fdbd 3842 113e
00000020: 1408 d23c 46c2 c939 b85d 703c 19ac e93c
00000030: 1280 133e 68cc 96bd 775f 1a3e fefc e73d
00000040: b96a 27be d9a5 2fbe 48e2 03bc 977e 3e3e
00000050: 1f0e b63d bd0d 373d bd0c 8f3a 388e 13be
00000060: a1fb 003d 7b5b 163d 8498 19be dc69 1d3e
00000070: 67da 313d 4315 1c3d 961e 2ebe 7e1d 07bd
