models/nn/exp_5_best.pth (torch, 224034 bytes, 25 tensors)

0.weight f4 [256, 32]
0.050765797 -0.2017335 0.090347886 0.12689154 -0.011624386 -0.07584218 0.010048002 0.015639022
-0.10175578 0.15633991 -0.036307976 0.052370127 -0.010414418 -0.041298438 -0.07806316 -0.05853953
0.09635719 -0.10591163 0.19028488 0.1535907 0.0852397 -0.09944247 -0.15337643 0.13373819
0.15246014 -0.04526149 -0.09512703 0.1401096 0.0043630674 0.08660068 -0.08413908 -0.1278634
-0.109968394 0.019760933 -0.0930898 -0.13106205 -0.07027178 -0.004821696 0.1523884 0.05562038
-0.03814855 0.11542412 0.12595943 -0.07007928 0.004257505 -0.04912067 0.015490112 0.13401954
0.14826702 -0.18382588 -0.072992146 0.055467684 0.031961057 0.00548599 0.1493288 0.10454082
-0.01589122 -0.059026234 0.05248597 -0.121278815 0.07041232 -0.059491366 -0.026486605 -0.06576316
0.11536728 0.05848925 0.110091515 -0.13794458 -0.055673797 -0.074620396 -0.11285562 -0.10641432
-0.042355247 -0.18618536 -0.086946376 -0.01719241 0.009037249 0.118084386 0.005004982 0.1053541
0.07219166 0.08844169 -0.052539334 0.034888197 -0.09560652 0.14940372 -0.057985686 -0.01044818
-0.116645254 -0.15472296 -0.079499766 0.17570503 0.11980614 -0.00014067805 -0.109945655 0.030261789
-0.09196058 0.011742285 0.23878755 -0.06913186 -0.17014557 0.030412436 -0.17988102 -0.17292131
-0.0469562 -0.08392245 -0.04148434 -0.018785162 -0.044524148 -0.12015827 0.1508361 -0.110729955
-0.021717075 -0.14039445 -0.019356394 0.15803248 -0.14162995 -0.0060821404 -0.047641985 -0.17160763
0.116754256 0.11879772 -0.11600383 -0.12092691 0.058207385 -0.006037162 -0.046360068 0.01894607
0.08903751 0.064547345 -0.096016645 0.054924726 0.09131905 0.102731265 0.029018484 -0.16669753
0.1282526 -0.13974084 -0.06981484 -0.16975828 -0.16792393 0.14355272 -0.062588975 -0.13412997
-0.19236052 0.008788914 0.07420874 -0.0051730364 -0.12698536 -0.08338769 -0.1352914 -0.12115158
-0.009649779 0.10909468 -0.17004709 -0.180698 -0.13644579 -0.17117022 -0.008360752 0.148604
-0.07887111 0.15266322 -0.067298375 0.0965811 -0.09055441 0.12691067 0.070538014 -0.1850881
0.15650825 0.10332686 0.12076487 -0.1481116 -0.054144412 0.040301535 -0.1488232 0.01955929
-0.112393856 -0.06415445 0.108549364 -0.0007265453 -0.09300923 0.121294856 0.023853902 0.17086257
-0.034234717 -0.14859743 -0.102778904 -0.005181956 0.040228613 -0.07683453 -0.11525897 0.10940826
-0.0429837 0.0863903 0.07744106 -0.048239727 -0.059548076 -0.0885062 -0.030465053 -0.07098155
-0.12760308 0.16303709 0.02620603 -0.023471154 0.027274465 0.11648352 0.14361954 0.090391204
0.046203338 -0.08978782 -0.16311783 -0.03200647 0.060657598 0.10353083 0.0093940925 0.15600093
-0.07412501 -0.11679251 -0.026278025 -0.090296075 0.032464482 0.073268086 -0.15227112 0.13429122
-0.21790326 0.024470322 0.18366921 0.0023381822 0.066657975 0.13829537 0.02004348 -0.16488734
0.037299693 0.014959365 -0.019352099 -0.07721613 0.13928923 0.040032443 -0.06314538 -0.00544754
-0.048660174 -0.15030293 -0.09237006 0.121682875 -0.12043318 0.09847295 -0.07201745 0.10791547
-0.085272186 -0.08663591 0.14893772 -0.17615445 0.15002774 0.10655697 -0.068754725 -0.049001023
00000000: ccef 4f3d 3a93 4ebe 5008 b93d dbef 013e
00000010: 3574 3ebc 2553 9bbd 60a0 243c 681d 803c
00000020: 5665 d0bd 9217 203e acb7 14bd 0f82 563d
00000030: 3ca1 2abc 8d28 29bd 94df 9fbd 25c7 6fbd
00000040: eb56 c53d 32e8 d8bd 0ada 423e e146 1d3e
00000050: 2792 ae3d 7ea8 cbbd b60e 1dbe aaf2 083e
00000060: 831e 1c3e 1d64 39bd f6d1 c2bd e478 0f3e
00000070: 10f8 8e3b b35b b13d 1c51 acbd a0ee 02be
00000080: 1c37 e1bd aee1 a13c dda5 bebd 2135 06be
00000090: a7ea 8fbd 51ff 9dbb b40b 1c3e 32d2 633d
000000a0: a741 1cbd 7b63 ec3d 82fb 003e ba85 8fbd
000000b0: 8a82 8b3b c132 49bd 3dca 7d3c 6b3c 093e
000000c0: 4fd3 173e da3c 3cbe e87c 95bd 1532 633d
000000d0: 99e9 023d d2c3 b33b a6e9 183e 7f19 d63d
000000e0: 4e2e 82bc 7ec5 71bd 87fb 563d 0761 f8bd
000000f0: 5634 903d 38ad 73bd 70fa d8bc d6ae 86bd
00000100: ae45 ec3d 6c92 6f3d a977 e13d 5841 0dbe
00000110: 350a 64bd 94d2 98bd d920 e7bd c0ef d9bd
00000120: b27c 2dbd 60a7 3ebe f110 b2bd 19d7 8cbc
00000130: f810 143c 3ad6 f13d d500 a43b e4c3 d73d
00000140: 39d9 933d eb20 b53d 7c33 57bd ede6 0e3d
00000150: 5acd c3bd 4afd 183e 6682 6dbd d82e 2bbc
00000160: b5e3 eebd b26f 1ebe c6d0 a2bd 05ec 333e
00000170: ec5c f53d fa82 13b9 302b e1bd 92e7 f73c
00000180: d455 bcbd b762 403c b984 743e 0195 8dbd
00000190: a43a 2ebe 8023 f93c bb32 38be 4912 31be
000001a0: 2555 40bd 89df abbd 7ceb 29bd 57e3 99bc
000001b0: f45e 36bd 8a15 f6bd c774 1a3e 63c6 e2bd
000001c0: 02e8 b1bc 90c3 0fbe 4d91 9ebc 44d3 213e
000001d0: 7107 11be b14c c7bb 3e24 43bd e9b9 2fbe
000001e0: db1c ef3d 384c f33d 6b93 edbd 87a8 f7bd
000001f0: de6a 6e3d 63d3 c5bb 0ee4 3dbd ca34 9b3c
00000200: 4c59 b63d 6631 843d 60a4 c4bd c0f8 603d
00000210: 7b05 bb3d c564 d23d 2cb8 ed3c c2b2 2abe
00000220: a654 033e 3918 0fbe 15fb 8ebd 1dd5 2dbe
00000230: 40f4 2bbe 7cff 123e a62e 80bd 5e59 09be
00000240: 28fa 44be 61ff 0f3c c0fa 973d 9382 a9bb
00000250: 7308 02be 2ac7 aabd d489 0abe 521e f8bd
00000260: 1b1a 1ebc 086d df3d d320 2ebe e608 39be
00000270: 72b8 0bbe 3f47 2fbe 89fb 08bc a62b 183e
00000280: 2d87 a1bd bf53 1c3e bbd3 89bd 50cc c53d
00000290: 9774 b9bd dff4 013e 3c76 903d bc87 3dbe
000002a0: b343 203e 089d d33d 9253 f73d 91aa 17be
000002b0: 88c6 5dbd 3913 253d 1c65 18be ce3a a03c
000002c0: c02e e6bd 6963 83bd 214f de3d a175 3eba
000002d0: a07b bebd 7069 f83d 4269 c33c 99f6 2e3e
000002e0: b439 0cbd ed29 18be bf7d d2bd 66cd a9bb
000002f0: c2c6 243d 6c5b 9dbd e50c ecbd 7011 e03d
00000300: ad0f 30bd 66ed b03d 6b99 9e3d 0597 45bd
00000310: afe8 73bd bd42 b5bd d991 f9bc c65e 91bd
00000320: 62aa 02be 32f3 263e 07ae d63c 9446 c0bc
00000330: b36e df3c e98e ee3d 0011 133e 061f b93d
00000340: b63f 3d3d ade2 b7bd 5c08 27be 3719 03bd
00000350: 1a74 783d f907 d43d aee9 193c b5be 1f3e
00000360: dace 97bd e930 efbd 0345 d7bc 26ed b8bd
00000370: 7af9 043d 940d 963d f6ec 1bbe a383 093e
00000380: 0822 5fbe fc75 c83c c813 3c3e 303c 193b
00000390: fa83 883d 4d9d 0d3e 3932 a43c 3ad8 28be
000003a0: 90c7 183d 2018 753c 4b88 9ebc 7e23 9ebd
000003b0: d6a1 0e3e 0ff9 233d 5d52 81bd 4781 b2bb
000003c0: e44f 47bd 03e9 19be 842c bdbd df34 f93d
000003d0: aca5 f6bd 30ac c93d e37d 93bd c902 dd3d
000003e0: 2fa3 aebd 2b6e b1bd 2183 183e d561 34be
000003f0: dfa0 193e 8a3a da3d 47cf 8cbd 4cb5 48bd

0.bias f4 [256]
0.110395305 -0.1713034 -0.16911697 0.099827275 -0.109960906 -0.048637558 -0.1543024 -0.09853223
0.0983815 0.06367445 -0.1374263 0.07056363 -0.13578764 0.087485135 -0.12002636 0.019646505
0.023978971 -0.13078654 0.14888154 0.079285204 0.03325857 -0.16990833 -0.14884286 -0.11389368
0.039150827 0.08282749 -0.051836472 0.021481976 0.038299054 -0.041322246 0.14698622 0.17308196
0.09923294 -0.131106 -0.07297929 0.06363594 0.15955071 0.043352652 0.044670638 0.110653356
-0.01317141 0.075318776 0.014233085 -0.11361062 0.15697688 0.031666648 -0.1708514 -0.13582945
0.1064188 -0.15945579 0.06324387 -0.0039858003 0.011515113 0.1279062 -0.08686765 0.0327992
0.14631021 0.0072715716 0.050267354 -0.13177246 0.08057996 -0.102975324 -0.17108491 -0.031825308
-0.13287072 0.09810459 -0.105333656 -0.08425421 0.012775291 0.16715613 -0.089430936 0.02430237
-0.11275399 -0.07733116 0.06949774 0.15986803 0.08405734 0.012611224 -0.1758649 -0.018201813
0.0013655231 -0.1486619 0.17103238 0.07192819 0.06798466 0.053676974 -0.06847853 -0.029686026
0.13827862 -0.031791214 -0.064287595 0.10448342 0.014224658 -0.090243354 -0.1544393 -0.09530702
0.11111158 -0.14518043 -0.13231915 -0.02264405 0.1744726 -0.050662942 0.16395485 -0.06858472
-0.05404914 -0.079993956 -0.07846336 -0.06531924 -0.15946087 -0.0049168416 0.15070637 -0.006335167
0.089330256 -0.05772499 0.074000835 0.16814995 0.016557215 0.16624264 0.060940452 0.1713103
0.10539676 -0.04747699 -0.14149627 0.011475432 -0.040381655 0.11156125 0.046428017 0.13234013
-0.15180117 -0.057761565 0.12200466 0.10893544 0.049249087 0.024756312 -0.024495803 0.12700188
0.12405923 0.020587077 -0.053062107 -0.14440298 0.1172179 -0.026007669 0.13181894 -0.10376115
-0.13752323 -0.17328994 -0.062234055 0.07278798 0.16038384 0.09756176 0.17688678 -0.08731254
-0.06312243 -0.14947517 -0.15086019 0.025703216 0.14000331 0.12205986 0.14050287 0.0048385905
0.07723486 0.11239305 0.14544454 0.1263351 -0.068791986 -0.13887133 -0.112728216 0.017708525
-0.12352356 0.087080665 0.1763932 0.0059081856 -0.09571075 -0.16668016 0.10840958 0.15534404
0.014908127 0.13608216 0.0015597207 0.0016695659 -0.03883716 0.059207715 0.027138356 0.15183061
0.021790868 0.047373906 0.07157632 -0.01599742 -0.061361533 -0.09725277 -0.07974957 -0.1645142
-0.113103494 -0.08428117 -0.048115898 -0.06477541 0.07638775 -0.06263491 0.0389869 0.08951542
0.1625285 -0.09030475 -0.12898088 0.07647266 -0.13514201 0.15840437 -0.09573939 -0.117473714
0.17496945 -0.08128515 0.0036040181 0.08037384 0.049410958 0.12202067 0.07557866 -0.08781921
-0.16440564 -0.12087206 -0.0689408 0.12324291 -0.14878644 0.09123067 -0.036018338 -0.07859799
0.100327626 0.09307638 0.09788038 -0.08245929 0.115020126 -0.09104837 -0.13904129 -0.05378501
0.013397461 -0.17337836 -0.06819812 0.016974758 -0.15067033 -0.10638885 0.16117418 -0.004367944
-0.1665688 -0.035817273 -0.08737446 0.075705774 0.010576181 -0.09134025 0.01569573 -0.12857416
0.1510056 0.13426667 0.0807349 0.12301757 0.14562163 0.13878995 -0.15671487 0.11206425
00000000: ef16 e23d 296a 2fbe 002d 2dbe 3e72 cc3d
00000010: 2f33 e1bd 2d38 47bd 7301 1ebe 44cb c9bd
00000020: 3d7c c93d c067 823d 7bb9 0cbe aa83 903d
00000030: ea0b 0bbe 682b b33d 61d0 f5bd b5f1 a03c
00000040: 8c6f c43c e8ec 05be 6774 183e 4860 a23d
00000050: 233a 083d 73fc 2dbe 436a 18be 1741 e9bd
00000060: 9e5c 203d 76a1 a93d 7b52 54bd f8fa af3c
00000070: 78df 1c3d 8441 29bd 8e83 163e 663c 313e
00000080: a43a cb3d a740 06be 2a76 95bd 8f53 823d
00000090: 4361 233e 8d92 313d 8ff8 363d 3a9e e23d
000000a0: e6cc 57bc bb40 9a3d e331 693c afac e8bd
000000b0: 8cbe 203e e3b4 013d abf3 2ebe e016 0bbe
000000c0: 1af2 d93d 6148 23be 0186 813d 519b 82bb
000000d0: e2a9 3c3c d8f9 023e abe7 b1bd 7458 063d
000000e0: 58d2 153e 5d46 ee3b 24e5 4d3d 5cef 06be
000000f0: 1b07 a53d bae4 d2bd e230 2fbe 415b 02bd
00000100: 430f 08be 0feb c83d 2cb9 d7bd 798d acbd
00000110: 744f 513c fa2a 2b3e 9127 b7bd c415 c73c
00000120: 90eb e6bd cd5f 9ebd d554 8e3d 72b4 233e
00000130: 4126 ac3d 4f9f 4e3c ee15 34be f81b 95bc
00000140: 5afb b23a d33a 18be 1d23 2f3e 164f 933d
00000150: 8b3b 8b3d 63dc 5b3d 793e 8cbd 1c30 f3bc
00000160: e998 0d3e 8137 02bd 37a9 83bd 67fb d53d
00000170: 8a0e 693c 82d1 b8bd 5625 1ebe 5430 c3bd
00000180: 788e e33d 2eaa 14be ac7e 07be 0480 b9bc
00000190: f2a8 323e f283 4fbd c8e3 273e 2576 8cbd
000001a0: a262 5dbd dfd3 a3bd 66b1 a0bd 18c6 85bd
000001b0: b649 23be 751d a1bb c552 1a3e 3c97 cfbb
000001c0: c8f2 b63d 0a71 6cbd c08d 973d 802f 2c3e
000001d0: ffa2 873c 833b 2a3e b29c 793d f86b 2f3e
000001e0: 42da d73d 3b77 42bd 66e4 10be 7303 3c3c
000001f0: 3c67 25bd 3a7a e43d 4e2b 3e3d 2c84 073e
00000200: c471 1bbe 6497 6cbd 94dd f93d 8b19 df3d
00000210: 69b9 493d c0cd ca3c 6cab c8bc c80c 023e
00000220: c412 fe3d 3ba6 a83c a757 59bd 60de 13be
00000230: f00f f03d 090e d5bc 8bfb 063e ba80 d4bd
00000240: e4d2 0cbe eb72 31be 23e9 7ebd dd11 953d
00000250: a93b 243e 76ce c73d cf21 353e ebd0 b2bd
00000260: 5546 81bd 0510 19be 187b 1abe 8d8f d23c
00000270: 075d 0f3e 85fa f93d fcdf 0f3e 0a8d 9e3b
00000280: 4f2d 9e3d 542e e63d 6aef 143e fd5d 013e
00000290: d0e2 8cbd 4934 0ebe 0dde e6bd 7811 913c
000002a0: ecf9 fcbd 5957 b23d 6ba0 343e 7499 c13b
000002b0: ff03 c4bd 34ae 2abe d805 de3d 8212 1f3e
000002c0: 3741 743c 1f59 0b3e 8b6f cc3a 56d5 da3a
000002d0: b713 1fbd ca83 723d 4251 de3c 7c79 1b3e
000002e0: c382 b23c 240b 423d 9b96 923d 050d 83bc
000002f0: 3b56 7bbd 762c c7bd be53 a3bd 6976 28be
00000300: cea2 e7bd 9b9b acbd 2d15 45bd f8a8 84bd
00000310: 2e71 9c3d bb46 80bd bab0 1f3d dc53 b73d
00000320: df6d 263e b2f1 b8bd 9013 04be b39d 9c3d
00000330: ab62 0abe c134 223e 0313 c4bd 0f96 f0bd
00000340: 312b 333e d478 a6bd 6431 6c3b 0a9b a43d
00000350: 2563 4a3d f9e5 f93d fcc8 9a3d 8fda b3bd
00000360: f459 28be c58b f7bd d630 8dbd c766 fc3d
00000370: 795b 18be 25d7 ba3d f787 13bd fcf7 a0bd
00000380: 9278 cd3d d49e be3d 8275 c83d 6be0 a8bd
00000390: ac8f eb3d 9177 babd d760 0ebe ac4d 5cbd
000003a0: 0681 5b3c 198a 31be 75ab 8bbd a60e 8b3c
000003b0: 5349 1abe 66e2 d9bd d80a 253e f820 8fbb
000003c0: 0391 2abe 22b5 12bd 62f1 b2bd a10b 9b3d
000003d0: b847 2d3c 9910 bbbd 5594 803c f2a8 03be
000003e0: 36a1 1a3e 347d 093e 5758 a53d a3f0 fb3d
000003f0: d61d 153e f41e 0e3e dd79 20be f181 e53d

1.weight f4 [256]
0.9790505 1.0399121 0.9865929 0.9767728 1.017896 1.0548924 0.9886872 1.0002567
0.991289 0.99200255 1.008918 0.998648 1.0574838 1.12845 0.9803191 1.0071906
0.9836752 1.0179303 0.9738845 0.9851847 0.9946524 1.0201811 0.99682504 1.0008903
1.0254703 1.0091772 0.9734402 0.98533136 1.0416628 0.9523462 1.0146875 1.0156865
0.9782644 0.9840931 0.9933417 0.97103655 1.0356096 1.0229822 1.0011276 1.0122397
0.99604636 0.9892084 0.99813175 1.0122561 0.9806856 0.99213505 1.0030106 0.974441
1.0051336 1.0175402 1.0351802 1.0051173 1.0317228 1.0219393 1.0127047 0.99096817
0.99947935 0.99863803 1.0070672 0.99229586 0.97827715 1.0066433 0.9650324 1.0028741
0.99712384 1.0082407 0.9906551 1.0127261 0.9911555 1.0179362 1.0235022 1.0009375
0.97289854 0.98667735 0.99557275 0.9890951 1.0065323 1.0193822 0.9886348 1.0101556
1.0511948 0.99552923 0.99121577 0.9887074 1.0007946 1.0000421 1.0362703 0.98621017
0.9852868 1.0015184 0.99405605 1.005422 1.0269287 0.9839501 0.95227414 1.0247687
1.0197188 0.98801535 1.000273 1.0388905 0.9930207 0.9935273 1.0046849 1.0090824
0.98487204 0.9966505 1.0250194 1.0075793 1.0174432 1.0152255 0.9781303 1.0115389
1.0031576 1.033266 0.996993 0.9955115 1.0179737 1.0256034 1.0133488 1.0150123
0.99957865 0.98430014 0.984861 0.9964227 0.9877977 1.0123326 1.045406 1.0347389
1.0047145 0.98173594 0.9863021 1.0317146 1.004796 1.005914 1.0073444 0.99449563
1.0071741 1.0220282 0.96437496 0.9915853 1.0076954 1.0280074 0.98586065 1.0102139
1.0080793 0.9794019 1.0170802 1.0074437 1.0405806 1.0072842 0.9706812 1.0074522
1.0106109 1.0043362 0.9825721 1.0095911 1.0182811 0.97376573 0.99595463 0.97233546
0.98658395 1.0097554 0.9852855 0.9920823 1.0106142 1.0239763 0.98487324 1.0088753
0.99147415 1.0133018 1.0045223 1.0208095 0.98117644 0.9985228 0.9798375 1.0148342
1.0374936 1.0192614 0.98068255 1.0088339 0.94830924 1.0303639 1.0028243 0.99299026
0.9958612 1.0081661 1.000356 1.0105783 1.0219204 1.0406698 1.0298015 1.0037453
0.9895531 1.0007238 1.0245739 1.0125884 0.9844287 0.9945859 1.0004449 1.011074
0.99624926 1.0099528 0.9939786 0.9868211 0.9919375 1.0003432 1.0085206 0.97227806
0.97592986 1.0614328 1.0054998 0.9547142 0.98842746 1.0074255 0.9993338 1.0349089
0.9865569 1.0466326 0.9827456 0.9824309 1.0139408 1.0154077 0.97571176 1.0440594
0.99326545 0.99815875 1.001913 1.0243925 1.0138296 1.0290263 1.0020411 1.011248
1.0193521 1.000715 0.9974612 1.0119328 1.04678 1.0222607 1.024686 1.0161498
1.0315431 0.9764736 0.9922309 1.0341359 1.0213261 0.99543613 1.0261372 1.0155375
1.0042633 1.0065325 1.0294206 1.0101147 1.0116826 0.9818465 1.00685 1.0235336
00000000: 0ea3 7a3f d71b 853f 5a91 7c3f c80d 7a3f
00000010: 6b4a 823f b706 873f 9b1a 7d3f 6908 803f
00000020: 1ec5 7d3f e1f3 7d3f 3a24 813f 65a7 7f3f
00000030: a15b 873f 0d71 903f 31f6 7a3f 9feb 803f
00000040: 23d2 7b3f 8a4b 823f 7f50 793f 1135 7c3f
00000050: 8aa1 7e3f 4b95 823f ed2f 7f3f 2c1d 803f
00000060: 9c42 833f b82c 813f 6033 793f ad3e 7c3f
00000070: 3555 853f f6cc 733f 48e1 813f 0402 823f
00000080: 896f 7a3f 87ed 7b3f a44b 7e3f da95 783f
00000090: db8e 843f 15f1 823f f324 803f 1291 813f
000000a0: e5fc 7e3f c33c 7d3f 9085 7f3f 9c91 813f
000000b0: 360e 7b3f 90fc 7d3f a762 803f f774 793f
000000c0: 38a8 803f c23e 823f c980 843f afa7 803f
000000d0: 7e0f 843f e8ce 823f 4fa0 813f 17b0 7d3f
000000e0: e1dd 7f3f bea6 7f3f 94e7 803f 1a07 7e3f
000000f0: 5f70 7a3f b0d9 803f 5d0c 773f 2e5e 803f
00000100: 8243 7f3f 080e 813f 939b 7d3f 02a1 813f
00000110: 5ebc 7d3f bc4b 823f 1f02 833f b81e 803f
00000120: e10f 793f e396 7c3f dbdd 7e3f 5635 7d3f
00000130: 0dd6 803f 1e7b 823f 2c17 7d3f c74c 813f
00000140: 8d8d 863f 01db 7e3f 51c0 7d3f ee1b 7d3f
00000150: 0a1a 803f 6101 803f 81a4 843f 4578 7c3f
00000160: c13b 7c3f c131 803f 757a 7e3f abb1 803f
00000170: 6672 833f 27e4 7b3f 3dc8 733f 9f2b 833f
00000180: 2586 823f 93ee 7c3f f208 803f 5dfa 843f
00000190: 9b36 7e3f ce57 7e3f 8499 803f 9d29 813f
000001a0: 9320 7c3f 7d24 7f3f d633 833f 5cf8 803f
000001b0: 943b 823f e9f2 813f bf66 7a3f 1b7a 813f
000001c0: 7867 803f 0f42 843f ef3a 7f3f d7d9 7e3f
000001d0: f64c 823f f946 833f 6ab5 813f eceb 813f
000001e0: 63e4 7f3f 18fb 7b3f da1f 7c3f 8f15 7f3f
000001f0: 4fe0 7c3f 1d94 813f ddcf 853f 5372 843f
00000200: 7c9a 803f 0c53 7b3f 4b7e 7c3f 390f 843f
00000210: 289d 803f cac1 803f a9f0 803f 4497 7e3f
00000220: 15eb 803f d2d1 823f 47e1 763f 89d8 7d3f
00000230: 2afc 803f bf95 833f 5d61 7c3f b04e 813f
00000240: be08 813f 15ba 7a3f af2f 823f eaf3 803f
00000250: bf31 853f b0ee 803f 907e 783f 32f4 803f
00000260: b35b 813f 178e 803f d889 7b3f 483a 813f
00000270: 0957 823f b648 793f e2f6 7e3f faea 783f
00000280: c490 7c3f aa3f 813f ac3b 7c3f 1bf9 7d3f
00000290: ce5b 813f a811 833f a720 7c3f d322 813f
000002a0: 40d1 7d3f e0b3 813f 3094 803f e3a9 823f
000002b0: 612e 7b3f 319f 7f3f a1d6 7a3f 16e6 813f
000002c0: 97cc 843f 2877 823f 030e 7b3f 7821 813f
000002d0: 65c4 723f f7e2 833f 8c5c 803f 9c34 7e3f
000002e0: c2f0 7e3f 960b 813f aa0b 803f a15a 813f
000002f0: 4ace 823f ab34 853f 89d0 833f ba7a 803f
00000300: 5a53 7d3f b817 803f 3d25 833f 7f9c 813f
00000310: 8503 7c3f 2e9d 7e3f 940e 803f df6a 813f
00000320: 310a 7f3f 2246 813f 6275 7e3f 4fa0 7c3f
00000330: 9eef 7d3f 3f0b 803f 3417 813f 37e7 783f
00000340: 8ad6 793f 08dd 873f 38b4 803f 2668 743f
00000350: 9509 7d3f 52f3 803f 57d4 7f3f e577 843f
00000360: fe8e 7c3f 0ff8 853f 3795 7b3f 9780 7b3f
00000370: d0c8 813f e1f8 813f 3fc8 793f bda3 853f
00000380: a546 7e3f 5587 7f3f af3e 803f 4b1f 833f
00000390: 2bc5 813f 22b7 833f e242 803f 9370 813f
000003a0: 217a 823f 6e17 803f 9e59 7f3f 0487 813f
000003b0: e3fc 853f 70d9 823f e928 833f 3211 823f
000003c0: 9b09 843f 2dfa 793f d802 7e3f 915e 843f
000003d0: d0ba 823f e7d4 7e3f 7758 833f 22fd 813f
000003e0: b38b 803f 0fd6 803f 0ec4 833f 704b 813f
000003f0: d17e 813f 4b5a 7b3f 76e0 803f 2603 833f

1.bias f4 [256]
0.021026712 0.014027025 -0.0027533777 0.028723657 0.022053339 0.03396561 0.0028246567 -0.02357762
0.009630678 -0.014204165 -0.021520965 -0.023123179 0.054386068 0.08476434 0.0068835034 0.04403748
0.017218605 0.015123328 -0.0065621026 -0.0018001988 -0.02248662 -0.0033331465 -0.0007561303 0.030071877
0.0059475102 0.015484665 0.00989273 -0.01677153 -0.0034256724 -0.01306584 0.013625176 -0.009236624
-0.013828983 -0.011495029 0.006162338 -0.0038661773 -0.0094443625 0.027421776 -0.0055656177 0.028621603
0.0028010262 0.037874717 0.0031099815 5.0325852e-05 -0.010122415 0.01849204 -0.017672978 0.0049419985
-0.006078625 -0.006690471 0.0069331224 -0.017672695 0.025674764 -0.060838092 0.0077984887 -0.02185818
-0.009675629 0.025972666 -0.0013294771 -0.008056884 -0.0008958172 -0.0080082975 0.02593112 -0.0008254929
0.026754048 -0.0084585445 -0.004243883 -0.02306956 -0.032631747 0.006430617 0.029359298 -0.024300499
-0.004001814 0.03831679 0.01722826 -0.011651439 0.016386647 0.0072939205 -0.0047210185 -0.008971145
0.013084144 0.015972259 0.005787245 -0.056918066 0.022952428 0.016662257 0.007036036 -0.017305866
-0.02929049 0.01995635 -0.008709521 -0.006166752 -0.0069254986 -0.024414176 0.012490029 0.01092643
-0.026219882 -0.036991406 0.017809004 -0.012557678 0.02532302 -0.015981788 -0.008760696 -0.011887243
0.016594648 4.8215097e-05 -0.00024131637 0.013667692 0.016652921 0.03054422 0.012800057 -0.009849527
0.0020094644 0.021773683 -0.10786169 -0.0012979421 0.0029819065 0.024057688 -0.019653758 -0.015355233
-0.032150637 -0.0028940614 0.03535524 -0.011070074 -0.02079691 -0.009964605 -0.006033343 0.014858953
-0.01854682 -0.03724763 0.04038654 -0.01145518 0.017633166 -0.0091580115 0.006630746 0.024410388
-0.013015409 0.009555636 -0.008439462 -0.018802065 -0.037302066 -0.017194448 -0.023081608 0.027424136
0.0027423585 0.018887341 0.0021074733 -0.028104333 0.016804067 0.011524941 0.017460871 0.00039647953
0.009556294 0.017863529 0.0064532566 0.021377888 0.010980521 -0.013038061 0.03226902 0.00508068
0.007457766 -0.039585713 -0.017549016 -0.010782878 0.01279726 0.0079237195 0.025933446 -0.0118654175
-0.026389211 0.012052018 -0.013449221 0.019160336 -0.0062118806 0.012203231 0.004424749 -0.0048397146
0.0041958475 0.0027314331 0.014321882 -0.008237059 -0.027705718 0.027850213 0.0034068308 0.002773331
0.0067835553 -0.005969654 -0.028655386 -0.0035105937 -0.01342965 0.012231478 -0.003503853 0.01135189
0.0201749 0.004731258 0.037536163 -0.017658953 -0.006059806 -0.012571345 -0.013006642 -0.004080318
0.003810649 -0.0030461752 0.006747118 0.0001779167 -0.0061484994 -0.06070598 -0.0033476849 0.009877799
0.0199089 -0.00942899 0.005301995 -0.012088923 -0.005033562 -0.019075425 -0.008055255 0.033884663
-0.079813726 0.0090314755 -0.0004227472 0.011218223 -0.0007567277 0.029660778 0.0391815 -0.009673962
0.007462282 0.010974338 0.026912887 -0.013877253 -0.0077931443 -0.001988407 0.001655952 0.0072395573
0.045980554 0.03183168 -0.033538014 -0.037599653 0.06273232 -0.0079531865 0.008366139 -0.0021880986
-0.0012084864 0.0036297257 0.0015844896 0.016831825 0.0010448167 0.00043962567 0.004663551 0.037372448
0.008544669 -0.007464382 0.027843658 -0.052887626 0.005549654 -0.0032989208 -0.019983364 0.048475906
00000000: 3640 ac3c 9bd1 653c 0372 34bb e04d eb3c
00000010: 34a9 b43c 861f 0b3d e01d 393b da25 c1bc
00000020: fec9 1d3c 96b8 68bc bc4c b0bc d26c bdbc
00000030: edc3 5e3d ed98 ad3d 038f e13b a560 343d
00000040: 080e 8d3c d6c7 773c e806 d7bb a6f4 ebba
00000050: dc35 b8bc eb70 5abb 0c37 46ba 4c59 f63c
00000060: 55e3 c23b 64b3 7d3c 1e15 223c 7364 89bc
00000070: 3f81 60bb 1b12 56bc 213c 5f3c 3655 17bc
00000080: f592 62bc a555 3cbc 70ed c93b b15f 7dbb
00000090: 87bc 1abc a2a3 e03c c95f b6bb da77 ea3c
000000a0: 6c91 373b 8522 1b3d d5d0 4b3b f914 5338
000000b0: 7cd8 25bc 9e7c 973c ecc6 90bc 7df0 a13b
000000c0: 342f c7bb bd3b dbbb 3f2f e33b 54c6 90bc
000000d0: e253 d23c 5d31 79bd 778a ff3b ed0f b3bc
000000e0: 8886 1ebc a1c4 d43c d941 aeba 0501 04bc
000000f0: 46d5 6aba 3c35 03bc 806d d43c e465 58ba
00000100: 4e2b db3c b595 0abc 4510 8bbb 60fc bcbc
00000110: dea8 05bd edb7 d23b e982 f03c d711 c7bc
00000120: a621 83bb 11f2 1c3d 4822 8d3c ade5 3ebc
00000130: 4a3d 863c d701 ef3b c6b2 9abb b6fb 12bc
00000140: e15e 563c 41d8 823c eea2 bd3b eb22 69bd
00000150: bb06 bc3c 497f 883c 8c8e e63b 08c5 8dbc
00000160: 9cf2 efbc 807b a33c 61b2 0ebc 7712 cabb
00000170: 4bef e2bb 3d00 c8bc fba2 4c3c c504 333c
00000180: 14cb d6bc 4d84 17bd 30e4 913c b8be 4dbc
00000190: 3972 cf3c 3dec 82bc 0689 0fbc b6c2 42bc
000001a0: 80f1 873c 913a 4a38 df09 7db9 75ee 5f3c
000001b0: b56b 883c df37 fa3c 55b7 513c e95f 21bc
000001c0: 38b1 033b b95e b23c 97e6 dcbd b61f aaba
000001d0: 176c 433b a114 c53c eb00 a1bc 8494 7bbc
000001e0: 63b0 03bd 4baa 3dbb a8d0 103d 415f 35bc
000001f0: 485e aabc 9542 23bc 59b3 c5bb f772 733c
00000200: 80ef 97bc f990 18bd 5b6c 253d 82ae 3bbc
00000210: 6e73 903c 7c0b 16bc bb46 d93b 4bf8 c73c
00000220: 953e 55bc 3e8f 1c3c ab45 0abc ca06 9abc
00000230: 0dca 18bd 5fdb 8cbc a415 bdbc 95a8 e03c
00000240: 24b9 333b a0b9 9a3c 891d 0a3b 0f3b e6bc
00000250: afa8 893c 1bd3 3c3c 1a0a 8f3c 95de cf39
00000260: 0192 1c3c 8956 923c d775 d33b ae20 af3c
00000270: a5e7 333c 979d 55bc 852c 043d d57b a63b
00000280: 4760 f43b a124 22bd f4c2 8fbc abaa 30bc
00000290: 99ab 513c 7dd2 013c 6172 d43c 2b67 42bc
000002a0: 302e d8bc d475 453c 1f5a 5cbc 23f6 9c3c
000002b0: 088d cbbb 10f0 473c 7cfd 903b 7896 9ebb
000002c0: 527d 893b d801 333b 54a6 6a3c bbf4 06bc
000002d0: 1af7 e2bc 2126 e43c 2345 5f3b c6c0 353b
000002e0: 9648 de3b 169d c3bb b3be eabc fd11 66bb
000002f0: 0908 5cbc 8966 483c e6a0 65bb 47fd 393c
00000300: d545 a53c ab08 9b3b 85bf 193d 82a9 90bc
00000310: 5691 c6bb 0bf8 4dbc d019 55bc 30b4 85bb
00000320: 15bc 793b 57a2 47bb ee16 dd3b 278f 3a39
00000330: 5a79 c9bb d5a6 78bd d564 5bbb 7ed6 213c
00000340: fd17 a33c 0d7c 1abc 5cbc ad3b 9e10 46bc
00000350: 94f0 a4bb 1144 9cbc 30fa 03bc a5ca 0a3d
00000360: 6175 a3bd c1f8 133c 2ba4 ddb9 a3cc 373c
00000370: 235f 46ba 29fb f23c c87c 203d 8a7f 1ebc
00000380: 2986 f43b b6cd 333c 6a78 dc3c 6b5d 63bc
00000390: a25d ffbb ef4f 02bb 870c d93a cf39 ed3b
000003a0: 1b56 3c3d f061 023d 285f 09bd 1802 1abd
000003b0: cd79 803d 154e 02bc 2112 093c 3466 0fbb
000003c0: 1366 9eba b1e0 6d3b a6ae cf3a e5e2 893c
000003d0: 3bf2 883a 8f7d e639 b4d0 983b da13 193d
000003e0: f0fe 0b3c c697 f4bb 6218 e43c b2a0 58bd
000003f0: dfd9 b53b b532 58bb 27b4 a3bc ac8e 463d

1.running_mean f4 [256]
0.1297377 -0.5555305 -0.2686856 0.28664154 0.38030374 0.17883904 -0.3223345 0.0040169368
0.06814428 -0.0962464 -0.37161818 0.21158107 -0.02066398 0.1697145 -0.029832967 -0.22829369
-0.11621212 -0.15823586 0.16467695 0.080650344 0.024745224 0.37098482 -0.48002416 0.5533385
0.18481076 0.12605457 0.3096003 0.2310376 0.07277306 -0.26120716 0.12044983 0.30475828
0.5081128 0.32715088 -0.44608915 0.32008302 0.09881514 -0.40874934 0.14661881 0.2886406
0.053675216 0.15367238 0.23317678 -0.13154484 0.24952273 0.18107891 -0.2120071 0.05913939
-0.052537866 -0.11521741 -0.19206257 0.37344968 -0.2803258 0.010374803 0.09687599 -0.038123894
0.3122198 -0.23064227 -0.0646613 -0.51280224 -0.14549708 -0.12683317 -0.0680271 0.1729791
0.06786577 0.22160324 0.22593054 -0.32835743 0.35184833 0.276397 -0.08093416 -0.25978905
-0.30333155 -0.22513156 -0.057341788 -0.006245878 0.040157355 0.25766692 0.05838619 -0.21210507
-0.050593305 0.28456157 0.7438084 -0.23575667 -0.27129707 -0.16841991 0.057177667 -0.568162
0.22424291 0.01829044 -0.37737635 0.23764858 0.40503126 -0.4164889 -0.044143625 0.1253476
0.55447793 -0.20231141 -0.12758952 -0.23558734 -0.0035919135 -0.21865195 0.25942537 -0.6255024
-0.07719019 -0.374506 -0.036651 0.056883734 -0.23091471 0.20651498 0.025280671 -0.48963425
0.624511 -0.28607205 0.19131076 0.09790666 0.04211567 0.0040551536 -0.1898868 0.28965744
-0.20506838 -0.06117136 -0.1147796 -0.136629 -0.2678556 -0.46107715 0.1508464 -0.013504935
-0.48816925 0.23657556 0.3999647 0.15614137 0.2070649 -0.34645757 0.07194053 0.057584316
-0.1258096 -0.5142163 -0.079193234 -0.20189668 0.014536978 -0.108949184 0.4768006 -0.0989196
-0.25658298 -0.63022304 -0.50625914 0.42951822 0.2540967 0.16033012 -0.20362443 -0.1380571
-0.14563593 -0.045916997 -0.26417267 0.03595038 0.2985863 0.2555483 0.17413223 0.11304598
-0.01570951 0.34026688 0.5638694 0.32602286 0.3512872 0.10523164 -0.17687757 -0.16616306
-0.14050062 -0.20340103 0.2856139 -0.29666445 0.4202042 -0.5047024 0.0242583 -0.16909392
-0.41890004 0.5152156 0.6485682 -0.008862661 0.24286295 -0.004467541 0.29391256 0.15819393
-0.18451524 0.35732812 0.3645938 0.042026512 0.06668864 -0.08502981 0.026943613 -0.031189185
-0.499858 -0.02628823 -0.20098256 0.12270804 -0.05679443 -0.06639696 0.20787224 0.14881353
0.53145707 -0.25449085 -0.63489145 -0.020242462 -0.30612835 0.49706396 -0.31597248 -0.31312492
0.46713382 -0.21246713 -0.15249191 0.41883734 0.19501564 0.28904712 0.268217 0.10860661
-0.03325885 -0.2310892 -0.21447012 0.18588862 0.18050902 -0.1326775 -0.45697218 -0.36730462
0.30390653 -0.096523225 0.01757875 0.09784767 0.051044963 0.03480024 0.50128025 0.43093565
0.18412873 -0.16543475 -0.061882067 0.13999525 -0.066648334 0.08212689 0.3546248 -0.21354558
-0.17343108 -0.34476632 -0.1667858 0.01152966 0.16420466 -0.20619318 0.31981495 0.009818507
0.29663113 0.14821954 0.39577565 -0.036261152 0.33231935 0.22947675 -0.3469613 0.01650356
00000000: f6d9 043e 3f37 0ebf 2991 89be aec2 923e
00000010: 2cb7 c23e 9521 373e 0709 a5be 82a0 833b
00000020: 3a8f 8b3d d51c c5bd bd44 bebe b5a8 583e
00000030: 8247 a9bc a3c9 2d3e 4464 f4bc d2c5 69be
00000040: 9f00 eebd 9508 22be 13a1 283e 022c a53d
00000050: 7fb6 ca3c b9f1 bd3e bac5 f5be 98a7 0d3f
00000060: 083f 3d3e 7314 013e ee83 9e3e 1f95 6c3e
00000070: 0b0a 953d f2bc 85be 67ae f63d 4709 9c3e
00000080: ae13 023f 5280 a73e cc65 e4be ece1 a33e
00000090: 985f ca3d 9847 d1be 3e23 163e b3c8 933e
000000a0: 8bda 5b3d 4b5c 1d3e e5c5 6e3e b1b3 06be
000000b0: e382 7f3e c06c 393e 6418 59be 253c 723d
000000c0: f231 57bd 1bf7 ebbd 0dac 44be cc34 bf3e
000000d0: dd86 8fbe 14fb 293c eb66 c63d cd27 1cbd
000000e0: 46db 9f3e 7d2d 6cbe 256d 84bd 0247 03bf
000000f0: 30fd 14be 8ee0 01be cb51 8bbd 6f21 313e
00000100: 35fd 8a3d f6eb 623e 565a 673e 771e a8be
00000110: 7725 b43e e883 8d3e cfc0 a5bd 1203 85be
00000120: 464e 9bbe e388 66be 39df 6abd 39aa ccbb
00000130: 0a7c 243d ebec 833e 5c26 6f3d 1232 59be
00000140: ed3a 4fbd 0eb2 913e 3a6a 3e3f 326a 71be
00000150: 73e7 8abe 4576 2cbe 2133 6a3d 1173 11bf
00000160: ef9f 653e d5d5 953c 7937 c1be 265a 733e
00000170: 4260 cf3e 083e d5be f2cf 34bd 1f5b 003e
00000180: 44f2 0d3f b92a 4fbe d4a6 02be cf3d 71be
00000190: 4f66 6bbb 4ce6 5fbe 67d3 843e ed20 20bf
000001a0: e415 9ebd 40bf bfbe 5c1f 16bd ebfe 683d
000001b0: e874 6cbe aa78 533e 6919 cf3c 57b1 fabe
000001c0: f4df 1f3f 0978 92be f8e6 433e 4983 c83d
000001d0: 7b81 2c3d 18e1 843b af71 42be fb4d 943e
000001e0: 72fd 51be d28e 7abd 9111 ebbd 79e8 0bbe
000001f0: 5f24 89be 4e12 ecbe 7b77 1a3e ce43 5dbc
00000200: 52f1 f9be dd40 723e 2cc8 cc3e 86e3 1f3e
00000210: d208 543e e362 b1be 8e55 933d 88dd 6b3d
00000220: 3bd4 00be aea3 03bf 1030 a2bd 01be 4ebe
00000230: 812c 6e3c c020 dfbd 351f f43e 5c96 cabd
00000240: d85e 83be 4c56 21bf 339a 01bf d0e9 db3e
00000250: f618 823e 942d 243e ec82 50be d75e 0dbe
00000260: 9621 15be 7613 3cbd a441 87be b540 133d
00000270: 4ee0 983e 3ad7 823e b84f 323e a784 e73d
00000280: 3bb1 80bc 7637 ae3e bf59 103f 78ec a63e
00000290: eadb b33e b083 d73d 651f 35be a626 2abe
000002a0: 65df 0fbe 5c48 50be fc3b 923e 67e4 97be
000002b0: 0125 d73e 2d34 01bf 58b9 c63c f526 2dbe
000002c0: 117a d6be 2be5 033f 9108 263f b234 11bc
000002d0: 11b1 783e 7364 92bb b57b 963e 97fd 213e
000002e0: 90f1 3cbe b6f3 b63e 0aac ba3e fe23 2c3d
000002f0: 0e94 883d 1c24 aebd dab8 dc3c 7680 ffbc
00000300: 63ed ffbe 6a5a d7bc 5fce 4dbe 5a4e fb3d
00000310: 47a1 68bd 21fb 87bd 76dc 543e 9362 183e
00000320: 920d 083f a04c 82be 3f88 22bf 85d3 a5bc
00000330: dbbc 9cbe 2b7f fe3e 25c7 a1be e951 a0be
00000340: 2a2c ef3e fc90 59be d726 1cbe d971 d63e
00000350: 2eb2 473e fcfd 933e bd53 893e 246d de3d
00000360: 6f3a 08bd a6a2 6cbe 0e9e 5bbe 9659 3e3e
00000370: 5bd7 383e 9cdc 07be 42f8 e9be 5a0f bcbe
00000380: a399 9b3e f8ad c5bd 5001 903c 5c64 c83d
00000390: 8614 513d b28a 0e3d e753 003f 99a3 dc3e
000003a0: 3e8c 3c3e ba67 29be 0d78 7dbd ea5a 0f3e
000003b0: ec7e 88bd 2532 a83d 6291 b53e b1ab 5abe
000003c0: eb97 31be 3685 b0be e6c9 2abe e6e6 3c3c
000003d0: 4425 283e 4e24 53be c9be a33e cedd 203c
000003e0: 09e0 973e ddc6 173e 1ba3 ca3e 9386 14bd
000003f0: c325 aa3e f4fb 6a3e e9a4 b1be 7932 873c

1.running_var f4 [256]
0.059772287 0.1491477 0.14347677 0.15216616 0.35173333 0.077480935 0.2141089 0.02836202
0.046405755 0.4550375 0.60081017 0.027044812 0.10126669 0.05132458 0.51686764 0.0787681
0.24925245 0.09305811 0.30329362 0.26161462 0.25704134 0.38044244 0.059061773 0.2017443
0.12558416 0.19408964 0.44354206 0.40411955 0.16130063 0.11303449 0.06668641 0.10151834
0.22599146 0.74751365 0.8196843 0.76499075 0.23723908 0.05858495 0.16211782 0.08498257
0.875929 0.065998025 0.3773661 0.056593515 0.09622707 0.2720488 0.40768263 0.20847122
0.3027653 0.049522553 0.19696167 0.47071812 0.24768798 0.022295747 0.40614462 0.1789172
0.24270965 0.21891956 0.17981146 0.112014435 0.30040824 0.08010625 0.06559583 0.60635376
0.32196525 0.09062232 0.415535 0.71208835 0.24703458 0.02568257 0.04132805 0.060984146
0.5314936 0.13233909 0.20042582 0.22997297 0.07338956 0.37862158 0.08995227 0.19748065
0.039116394 0.18930565 0.113940805 0.2273624 0.0267577 0.37449384 0.036315378 0.2884555
0.84706163 0.096608445 0.44268936 0.03600074 0.15702324 0.97741 0.09260748 0.053920355
0.061050814 0.09239475 0.15325098 0.2009905 0.08762373 0.2882014 0.032385696 0.5483965
0.15267168 0.14631963 0.13433577 0.1099514 0.09231444 0.029814009 0.25218093 0.64052296
0.23366795 0.09337084 0.028723786 0.7660308 0.5584011 0.08883397 0.1796358 0.0322615
0.34770727 0.15226369 0.11152646 0.64500105 0.47375667 0.14466271 0.042049598 0.04812488
0.083508305 0.15528479 0.0488997 0.026612066 0.327278 0.1885427 0.102225184 0.08547076
0.14429688 0.33985665 0.08404336 0.45033863 0.07059883 0.085131265 0.5898953 0.070589766
0.1380464 0.25693288 0.033377573 0.2368985 0.16591102 0.13395296 0.09162996 0.44365153
0.17867339 0.12077748 0.4027636 0.044865362 0.017559627 0.505524 0.24922879 0.7195404
0.26781547 0.16450717 1.0868102 0.040848713 0.4486552 0.124568194 0.089788646 0.38415226
0.50420445 0.07116039 0.028815718 0.12009023 0.46478742 0.33259794 0.09341164 0.41431183
0.18289049 0.19270831 0.68067515 0.33247837 0.03529282 0.15707411 0.1602917 0.26681897
0.4158331 0.81288356 0.12693883 0.23974669 0.05131564 0.049288843 0.08536294 0.19226575
0.1350381 0.2032257 0.089611284 0.4528611 0.34134215 0.37446076 0.065003395 0.24762328
0.28572875 1.0789542 0.16520168 0.24811058 0.5179346 0.17857642 0.06810361 0.14714473
0.51506776 0.11327247 0.15822218 0.46130943 0.19525315 0.113253646 1.2611967 0.015098309
0.04508867 0.043769244 0.12622917 0.67278755 0.083192 0.044868186 0.11099246 0.05425989
0.63167334 0.10188527 0.062310953 0.123697184 0.21416713 0.06898668 0.13556626 0.09917056
0.11176091 0.044903222 0.04362492 0.12327383 0.092383526 0.020272054 0.3776526 0.33687782
0.27790558 0.52203006 0.4438267 0.20128965 0.091873296 0.19507359 0.04533262 0.053851172
0.045450125 0.23722002 0.08734356 0.037259024 0.2575671 0.48571116 0.06459778 0.12547159
00000000: c9d3 743d 2dba 183e 93eb 123e 72d1 1b3e
00000010: 6416 b43e 53ae 9e3d 5d3f 5b3e 7857 e83c
00000020: f613 3e3d adfa e83e b2ce 193f 158d dd3c
00000030: e964 cf3d b939 523d 7051 043f 2b51 a13d
00000040: 093c 7f3e 4095 be3d 4d49 9b3e 5af2 853e
00000050: ec9a 833e 5ac9 c23e c2ea 713d 0f96 4e3e
00000060: 2299 003e 6fbf 463e f217 e33e c2e8 ce3e
00000070: fe2b 253e a07e e73d e292 883d d9e8 cf3d
00000080: 4e6a 673e 0e5d 3f3f d5d6 513f 6fd6 433f
00000090: cdee 723e c6f6 6f3d 3702 263e 570b ae3d
000000a0: e23c 603f f929 873d 2136 c13e 9ace 673d
000000b0: b312 c53d fb49 8b3e c7bb d03e 7b79 553e
000000c0: 0e04 9b3e 29d8 4a3d 52b0 493e f701 f13e
000000d0: eba1 7d3e 92a5 b63c 30f2 cf3e 1236 373e
000000e0: e188 783e 732c 603e 7f20 383e d367 e53d
000000f0: 1ccf 993e bf0e a43d 1b57 863d 003a 1b3f
00000100: a1d8 a43e 3298 b93d 01c1 d43e 6c4b 363f
00000110: a2f6 7c3e 4164 d23c 9a47 293d 83ca 793d
00000120: f70f 083f e683 073e 6d3c 4d3e 097e 6b3e
00000130: 444d 963d b0da c13e e538 b83d 5e38 4a3e
00000140: 8338 203d 57d9 413e cc59 e93d b0d1 683e
00000150: f732 db3c a8bd bf3e 6fbf 143d 70b0 933e
00000160: 08d9 583f a6da c53d 2ea8 e23e 8375 133d
00000170: b3ca 203e 8b37 7a3f fea8 bd3d 97db 5c3d
00000180: 6b10 7a3d 7539 bd3d d3ed 1c3e 74d0 4d3e
00000190: 1274 b33d 228f 933e dda6 043d b763 0c3f
000001a0: f755 1c3e d0d4 153e 518f 093e 332e e13d
000001b0: 5a0f bd3d 823c f43c dc1d 813e 50f9 233f
000001c0: a746 6f3e 3639 bf3d 254e eb3c 981a 443f
000001d0: 60f3 0e3f 96ee b53d 72f2 373e a224 043d
000001e0: b006 b23e 03eb 1b3e fc67 e43d ca1e 253f
000001f0: 3c90 f23e 7622 143e 333c 2c3d 981e 453d
00000200: 6706 ab3d fa02 1f3e 0d4b 483d 8c01 da3c
00000210: fb90 a73e 5611 413e 705b d13d 4b0b af3d
00000220: 90c2 133e b101 ae3e ed1e ac3d c992 e63e
00000230: 1f96 903d 4d59 ae3d 6103 173f 5e91 903d
00000240: 095c 0d3e b58c 833e ecb6 083d 8595 723e
00000250: 94e4 293e f72a 093e 7da8 bb3d 4b26 e33e
00000260: 28f6 363e 2f5a f73d 0837 ce3e bec4 373d
00000270: 35d9 8f3c 056a 013f d535 7f3e cd33 383f
00000280: 1c1f 893e 9174 283e 991c 8b3f fb50 273d
00000290: 22b6 e53e 9c1d ff3d 1ce3 b73d 9baf c43e
000002a0: 8b13 013f 8abc 913d f10e ec3c def1 f53d
000002b0: 9ef8 ed3e 474a aa3e 9a4e bf3d ae20 d43e
000002c0: a547 3b3e 5455 453e ba40 2e3f 9b3a aa3e
000002d0: 348f 103d 09d8 203e 8223 243e 7f9c 883e
000002e0: 13e8 d43e 2319 503f 41fc 013e 2880 753e
000002f0: 5930 523d 19e3 493d c4d2 ae3d 50e1 443e
00000300: 6d47 0a3e 661a 503e 1f86 b73d 69dd e73e
00000310: 66c4 ae3e 52b9 bf3e 8020 853d f590 7d3e
00000320: 0a4b 923e 2c1b 8a3f a12a 293e b310 7e3e
00000330: 5d97 043f bddc 363e e879 8b3d 1cad 163e
00000340: 7bdb 033f 66fb e73d ff04 223e c030 ec3e
00000350: 71f0 473e 87f1 e73d e56e a13f e65e 773c
00000360: e6ae 383d 6147 333d 3842 013e ce3b 2c3f
00000370: 9160 aa3d b4c7 373d 0450 e33d 9e3f 5e3d
00000380: 58b5 213f 39a9 d03d c539 7f3d f354 fd3d
00000390: a14e 5b3e e348 8d3d e2d1 0a3e ef19 cb3d
000003a0: e7e2 e43d 71ec 373d 0bb0 323d fd76 fc3d
000003b0: 9333 bd3d 9411 a63c ae5b c13e 407b ac3e
000003c0: a449 8e3e c3a3 053f 413d e33e e01e 4e3e
000003d0: 1128 bc3d 5fc1 473e b3ae 393d 0c93 5c3d
000003e0: e929 3a3d cee9 723e 2ee1 b23d eb9c 183d
000003f0: d6df 833e 22af f83e d74b 843d a07b 003e

3.weight f4 [128, 256]
-0.018995807 -0.034124576 0.07463176 0.03550137 -0.04490104 -0.014307756 0.021161677 0.04245688
-0.011422726 -0.003783895 0.044070132 0.02857788 0.05838319 0.019640855 -0.014978889 -0.04769043
-0.045247667 -0.030073833 0.008431737 -0.04816272 0.016252331 0.0020263903 -0.049840093 -0.0019688692
0.026191222 0.048886698 0.042796466 0.0054170783 -0.021776957 -0.032860883 0.0048072087 0.0017729055
0.003808139 0.060904298 -0.014380884 -0.073275015 -5.068711e-05 -0.027560677 -0.06598753 -0.004535513
-0.05360302 -0.017129024 -0.016675068 -0.017182745 0.0033320198 0.032046102 -0.0047207493 -0.029586775
0.03624903 -0.012001016 -0.06723428 -0.029037971 -0.0031033861 0.022262527 0.06905215 0.037358083
-0.044398207 -0.07505714 0.048633136 -0.024042876 -0.0057357145 -0.036219615 0.04964649 -0.005113822
-0.052234504 0.009661069 -0.039077837 0.032472957 -0.024667481 0.036010135 -0.035486642 0.042884495
-0.058388326 0.06951661 -0.009912156 -0.03064388 0.023590293 0.054685358 -0.046175767 -0.051381245
0.0006911057 -0.033447035 -0.07467664 0.039004132 0.07832923 -0.042473413 0.08641558 -0.0050297165
0.0027481494 0.0140539985 0.041352563 -0.039600674 -0.005793399 0.057568945 -0.00307667 -0.022232946
0.01878242 0.010902841 0.017811116 -0.018070668 -0.089332916 -0.032437988 0.030340664 -0.05113934
0.08397308 0.091715485 0.005111231 0.0098743355 -0.027328104 -0.03944108 0.044876162 0.007138885
0.04747467 -0.029541109 0.048467655 -0.025601016 -0.042372547 0.0046902327 0.019241124 0.0076171733
0.008240609 0.063957796 -0.0034077645 0.030808246 -0.0063442243 -0.03901269 0.009294348 -0.010816401
0.018430993 0.05852923 0.02470552 0.0116094025 -0.006024983 0.038421072 -0.015809013 0.012844922
0.04263847 0.0050538327 -0.060898542 -0.06269756 -0.010350903 0.022403564 -0.029206118 0.03967126
-0.025090411 0.034757104 0.067223415 0.0528723 -0.038709998 0.0050787646 0.024374288 0.06705577
-0.010887918 -0.034830686 -0.034148347 0.03615465 0.012938207 0.04957594 0.03952333 -0.024359055
-0.013123686 0.03420131 -0.05538612 0.045170587 0.007912265 0.014095074 0.05637022 0.049351033
0.016319003 0.06815795 -0.046827562 -0.02884683 0.020211788 -0.02314744 -0.00866293 -0.0458492
0.026070077 0.042485975 0.046957225 0.05004222 -0.010304675 0.05218529 0.018687831 0.045456417
0.013471715 0.055575505 -0.0048823194 0.0044624847 0.021410901 0.062310625 0.008542846 0.01977639
0.019437687 0.041331418 -0.010157077 -0.008575442 0.015107452 0.0030007935 -0.016975578 0.0022908202
-0.04878436 0.0015511054 0.02976039 -0.029747207 -0.0072504976 0.025954664 -0.047616165 -0.040418454
-0.02336695 0.026075147 -0.0019924624 -0.06754315 0.07219232 -0.0089206295 -0.011836429 -0.032034542
-0.027659722 -0.03935091 -0.02041245 0.028305646 0.010899424 0.04406523 -0.06423395 0.03049505
-0.037847552 -0.059661884 -0.04702253 -0.033155292 -0.054120433 0.054220594 -0.020258939 -0.080659054
-0.024202902 0.035958443 0.037213814 0.050931692 0.027641289 -0.059109736 -0.006325282 0.043486845
0.08005801 -0.01807805 -0.05136692 -0.055283085 0.025867404 0.056498475 0.010047726 0.033405896
-0.02473386 0.029986784 0.009750949 0.012414215 0.03911724 0.020813879 0.014513019 -0.037179414
00000000: 189d 9bbc 36c6 0bbd 89d8 983d e269 113d
00000010: 27ea 37bd 146b 6abc 415b ad3c 44e7 2d3d
00000020: 6326 3bbc 39fb 77bb e282 343d 281c ea3c
00000030: 3623 6f3d dce5 a03c 046a 75bc 0a57 43bd
00000040: 9e55 39bd 665d f6bc 4525 0a3c 4646 45bd
00000050: 9c23 853c 30cd 043b 2025 4cbd 2508 01bb
00000060: f98e d63c 6b3d 483d 594b 2f3d bf81 b13b
00000070: 9765 b2bc 2299 06bd ca85 9d3b d660 e83a
00000080: f891 793b c976 793d cd9d 6bbc 3611 96bd
00000090: df98 54b8 eec6 e1bc 7824 87bd a49e 94bb
000000a0: d78e 5bbd 2b52 8cbc 279a 88bc d4c2 8cbc
000000b0: 045e 5a3b c642 033d 84b0 9abb f75f f2bc
000000c0: dd79 143d e99f 44bc 20b2 89bd 0ae1 edbc
000000d0: 2e62 4bbb e75f b63c 376b 8d3d ca04 193d
000000e0: e5da 35bd 8fb7 99bd 8a33 473d 91f5 c4bc
000000f0: a9f2 bbbb 055b 14bd 1e5a 4b3d d991 a7bb
00000100: d9f3 55bd 7649 1e3c 1510 20bd 5d02 053d
00000110: 7513 cabc 5d7f 133d 715a 11bd a7a7 2f3d
00000120: 9928 6fbd b95e 8e3d 9866 22bc e008 fbbc
00000130: 6e40 c13c c1fd 5f3d cd22 3dbd 2475 52bd
00000140: 522b 353a c2ff 08bd 11f0 98bd ccc2 1f3d
00000150: 136b a03d 9af8 2dbd a7fa b03d 52d0 a4bb
00000160: 4c1a 343b be42 663c 4e61 293d 5134 22bd
00000170: 8ed6 bdbb 6acd 6b3d f5a1 49bb de21 b6bc
00000180: 97dd 993c d4a1 323c 9ee8 913c f008 94bc
00000190: 2df4 b6bd b2dd 04bd fc8c f83c 7c77 51bd
000001a0: 14fa ab3d 54d5 bb3d 1d7c a73b f7c7 213c
000001b0: 30df dfbc f88c 21bd 11d0 373d 4fed e93b
000001c0: cd74 423d 3200 f2bc 0586 463d 39b9 d1bc
000001d0: d68e 2dbd 86b0 993b 909f 9d3c 7b99 f93b
000001e0: 9f03 073c 4efc 823d cd54 5fbb 9361 fc3c
000001f0: 36e3 cfbb c5cb 1fbd 5247 183c 4637 31bc
00000200: 98fc 963c 59bc 6f3d 3b63 ca3c 5d35 3e3c
00000210: 386d c5bb 6a5f 1d3d e781 81bc 8273 523c
00000220: ada5 2e3d 9f9a a53b c070 79bd 9467 80bd
00000230: d596 29bc ae87 b73c ab41 efbc 557e 223d
00000240: 688a cdbc 775d 0e3d 6eac 893d a090 583d
00000250: 608e 1ebd c46b a63b 96ac c73c 8954 893d
00000260: 3d63 32bc 9faa 0ebd 23df 0bbd e616 143d
00000270: c6fa 533c 2410 4b3d 37e3 213d a48c c7bc
00000280: bb04 57bc ac16 0c3d 8edc 62bd cb04 393d
00000290: 72a2 013c 06ef 663c 76e4 663d 4f24 4a3d
000002a0: 6eaf 853c 6596 8b3d 42ce 3fbd 3050 ecbc
000002b0: 3193 a53c b39f bdbc f6ee 0dbc 5fcc 3bbd
000002c0: ea90 d53c c605 2e3d 3856 403d 12f9 4c3d
000002d0: f1d4 28bc 3ec0 553d 3917 993c 8230 3a3d
000002e0: 78b8 5c3c 24a3 633d ddfb 9fbb 093a 923b
000002f0: ea65 af3c 6d39 7f3d 4bf7 0b3c 1902 a23c
00000300: c93b 9f3c 224b 293d de69 26bc 0380 0cbc
00000310: 3f85 773c f6a8 443b 5e10 8bbc 9621 163b
00000320: 1cd2 47bd 764e cb3a 10cc f33c 6ab0 f3bc
00000330: 9595 edbb e09e d43c 2b09 43bd d28d 25bd
00000340: 0c6c bfbc 8c9b d53c f993 02bb 1054 8abd
00000350: 91d9 933d d527 12bc 95ed 41bc a736 03bd
00000360: a496 e2bc 6b2e 21bd 0338 a7bc 3ee1 e73c
00000370: 7f93 323c be7d 343d 178d 83bd c1d0 f93c
00000380: 0906 1bbd 0560 74bd b29a 40bd d8cd 07bd
00000390: 63ad 5dbd 6a16 5e3d 13f6 a5bc 9330 a5bd
000003a0: 2a45 c6bc 2949 133d 836d 183d c09d 503d
000003b0: fc6f e23c 0d1d 72bd 5044 cfbb 431f 323d
000003c0: 74f5 a33d 6b18 94bc 1f66 52bd 8470 62bd
000003d0: e1e7 d33c f26a 673d 389f 243c 9fd4 083d
000003e0: aa9e cabc d8a6 f53c 72c2 1f3c fe64 4b3c
000003f0: 6639 203d de81 aa3c 03c8 6d3c 7149 18bd

3.bias f4 [128]
-0.058273997 -0.002147101 0.032248095 -0.031793505 -0.004479664 0.0327495 -0.009781454 0.03672054
-0.028473204 -0.040175773 -0.014404054 -0.026791802 -0.011960257 0.0072824555 0.023520514 -0.061079826
0.00203346 -0.03386584 0.043427315 0.002033913 0.011732572 -0.004644327 0.017860997 -0.05758535
0.012383881 0.01757156 -0.012601849 0.03013957 0.07203153 -0.037050225 -0.053729605 -0.038739033
-0.0009258913 0.04044598 -0.016753059 -0.03198267 -0.016620722 -0.04505857 -0.048244994 0.010021145
-0.010867691 0.04360749 0.023272624 0.053085525 0.05125173 -0.0024358588 -0.011439946 0.062085647
-0.020855952 -0.028839841 0.0507931 0.03795413 0.043190483 0.05750751 -0.05917082 -0.05295704
-0.0070950566 0.022550764 0.022366608 0.0011173472 0.00600142 0.023379082 0.009000544 -0.003454092
-0.0552872 -0.027221218 0.01571573 -0.061135016 -0.053579763 -0.022483189 -0.028555823 0.029597037
-0.0017644321 0.027548973 0.0398152 0.0628312 -0.039632216 -0.032647267 -0.062019005 0.0023212396
0.056880146 -0.03808222 -0.051330276 0.016052103 -0.05172729 0.045103453 -0.059154138 -0.024821518
-0.029371802 -0.04829114 -0.037422538 0.046804592 -0.037519086 0.054744262 0.025059005 0.008811653
0.046806946 0.0627501 -0.021417737 0.017172053 0.024528775 -0.006572764 0.058862288 -0.03244475
0.010074113 0.021099167 -0.035629265 -0.029446688 0.0623784 0.0557494 -0.02572047 0.04037761
0.04678285 -0.027115658 -0.017679479 0.03073297 -0.027414244 0.01918696 0.058652293 0.042571846
-0.0031153706 0.017114218 -0.02258161 0.05658833 0.033611834 0.057967193 -0.006098787 -0.04397597
00000000: b7b0 6ebd 61b6 0cbb 9416 043d e839 02bd
00000010: 25ca 92bb 5724 063d 6442 20bc 4768 163d
00000020: a340 e9bc 5a8f 24bd fbfe 6bbc 7b7a dbbc
00000030: f4f4 43bc aaa1 ee3b 18ae c03c d72e 7abd
00000040: cc43 053b e8b6 0abd d7e0 313d 664b 053b
00000050: f939 403c 702f 98bb 3a51 923c 9ede 6bbd
00000060: c3e5 4a3c 3bf2 8f3c fc77 4ebc 42e7 f63c
00000070: 4485 933d fac1 17bd 9313 5cbd d2ac 1ebd
00000080: 83b7 72ba afaa 253d b63d 89bc 4300 03bd
00000090: 2e28 88bc 568f 38bd 8b9c 45bd bb2f 243c
000000a0: 660e 32bc c49d 323d 3ba6 be3c 3570 593d
000000b0: 56ed 513d eea2 1fbb 9c6e 3bbc 854d 7e3d
000000c0: 1ada aabc 8841 ecbc 6d0c 503d ca75 1b3d
000000d0: 81e8 303d ff8c 6b3d 1a5d 72bd 7be9 58bd
000000e0: a67d e8bb 61bc b83c 2d3a b73c f373 923a
000000f0: 8fa7 c43b 7d85 bf3c 0577 133c 0c5e 62bb
00000100: d574 62bd 08ff debc 46be 803c b668 7abd
00000110: 7476 5bbd aa2e b8bc e7ed e9bc 7c75 f23c
00000120: 8444 e7ba 62ae e13c 4315 233d a5ad 803d
00000130: 6455 22bd 24b9 05bd a407 7ebd f01f 183b
00000140: 28fb 683d 1afc 1bbd b23f 52bd b37f 833c
00000150: ffdf 53bd 66be 383d 9c4b 72bd 7f56 cbbc
00000160: 229d f0bc eecc 45bd 6048 19bd 2cb6 3f3d
00000170: 9dad 19bd 853b 603d 8b48 cd3c c05e 103c
00000180: a4b8 3f3d 2083 803d 4074 afbc 68ac 8c3c
00000190: 92f0 c83c 5760 d7bb 9519 713d c9e4 04bd
000001a0: e40d 253c 29d8 ac3c feef 11bd 2e3a f1bc
000001b0: 7e80 7f3d 7c59 643d bcb3 d2bc fe62 253d
000001c0: 609f 3f3d a821 debc 8ed4 90bc b6c3 fb3c
000001d0: d693 e0bc f92d 9d3c 633d 703d d15f 2e3d
000001e0: 3f2b 4cbb 1e33 8c3c 12fd b8bc 2ac9 673d
000001f0: 90ac 093d 026f 6d3d 55d8 c7bb 2620 34bd

4.weight f4 [128]
0.9995375 1.04187 1.0806429 1.0106477 0.9638506 1.0114632 1.0079827 1.0722107
1.0233197 1.0139039 1.0132163 0.99463993 1.0088458 1.0319297 0.9989774 0.9950996
1.0453779 1.0423397 1.0076059 1.0332264 1.021354 1.0221024 1.0045911 0.9877649
1.0224979 1.013562 1.0567375 0.9982874 1.0138566 1.0258298 0.99254584 1.0161132
1.0169872 1.0120417 1.0191905 1.0245494 1.008318 1.045831 1.007515 1.0008951
1.0084 1.0295618 1.0199919 1.0214714 0.9948822 1.0039288 0.9985841 1.007433
0.9973386 1.0154157 1.0339142 1.0022354 0.9845513 1.0050569 1.0417913 1.015351
1.0118655 1.001571 0.98489255 1.007427 0.99908096 1.0310284 0.99492574 1.0244629
1.0031618 1.0272334 1.0297543 1.0406299 1.0085344 1.028487 0.98996276 1.0249991
1.0273111 1.0011954 1.0186552 0.99266636 1.026065 1.0107327 0.9889567 1.002261
0.9956276 1.0033481 0.98223096 1.0128417 0.9966042 1.0038632 1.0117648 0.9818545
1.0398793 1.0414803 1.0000293 0.9965118 0.9950406 1.0061352 1.0034285 1.0063852
0.9985516 0.9876287 0.99582523 0.9957626 0.99760973 0.99763507 1.0384127 1.0132561
1.0064882 0.9993502 1.0018923 1.0262371 0.98175126 1.0039427 1.0204421 0.9939987
1.0191815 1.0022608 0.99443233 1.0109721 1.0203794 1.0087231 1.0296882 0.99597836
1.02766 1.0665826 1.0069529 1.0064696 0.9921847 1.0224959 0.9936559 1.0022317
00000000: b1e1 7f3f ff5b 853f 8252 8a3f e75c 813f
00000010: eabe 763f a077 813f 9405 813f 333e 893f
00000020: 24fc 823f 9ac7 813f 12b1 813f b9a0 7e3f
00000030: dc21 813f 4616 843f fcbc 7f3f d9be 7e3f
00000040: f1ce 853f 636b 853f 3bf9 803f c340 843f
00000050: babb 823f 40d4 823f 7196 803f 29de 7c3f
00000060: 36e1 823f 66bc 813f 2d43 873f c38f 7f3f
00000070: 0ec6 813f 644e 833f 7c17 7e3f ff0f 823f
00000080: a32c 823f 958a 813f d674 823f 6f24 833f
00000090: 9010 813f cadd 853f 40f6 803f 551d 803f
000000a0: 4013 813f aec8 833f 188f 823f 93bf 823f
000000b0: 9ab0 7e3f bd80 803f 35a3 7f3f 91f3 803f
000000c0: 9551 7f3f 24f9 813f 4d57 843f 4049 803f
000000d0: 8e0b 7c3f b4a5 803f 6b59 853f 06f7 813f
000000e0: cf84 813f 7b33 803f eb21 7c3f 5ef3 803f
000000f0: c5c3 7f3f bdf8 833f 74b3 7e3f 9a21 833f
00000100: 9b67 803f 627c 833f fdce 833f 5c33 853f
00000110: a817 813f 76a5 833f 336e 7d3f 2c33 833f
00000120: ee7e 833f 2c27 803f 4b63 823f 621f 7e3f
00000130: 1956 833f b05f 813f 442c 7d3f 174a 803f
00000140: 73e1 7e3f b66d 803f 7d73 7b3f cca4 813f
00000150: 7421 7f3f 977e 803f 8281 813f d15a 7b3f
00000160: c41a 853f 3a4f 853f f600 803f 661b 7f3f
00000170: fbba 7e3f 0ac9 803f 5870 803f 3bd1 803f
00000180: 14a1 7f3f 3cd5 7c3f 67ee 7e3f 4cea 7e3f
00000190: 5a63 7f3f 0365 7f3f b5ea 843f 60b2 813f
000001a0: 9bd4 803f 6ad5 7f3f 023e 803f bd5b 833f
000001b0: 0d54 7b3f 3281 803f d99d 823f b376 7e3f
000001c0: 8a74 823f 154a 803f 1e93 7e3f 8967 813f
000001d0: cb9b 823f d71d 813f d3cc 833f 70f8 7e3f
000001e0: 5d8a 833f c785 883f d5e3 803f ffd3 803f
000001f0: d1ff 7d3f 25e1 823f 3c60 7e3f 2149 803f
