models/nn/nn_bl_only_nolf_quantile.pth (torch, 179430 bytes, 9 tensors)

layers.0.weight f4 [256, 1]
-0.68418866 -0.7811126 0.94101524 -0.6433222 -0.31988734 -0.4429746 -0.004699333 -1.1465906
0.8639518 -0.57514745 0.48383743 0.035470564 -0.18777423 0.10408448 -0.69213825 -0.2705566
0.43841603 0.91685855 0.57626307 0.85607135 0.6507098 0.84649694 0.5141429 -1.0008658
-0.6390536 -0.55780107 -0.0035929722 0.7125701 -1.1830673 0.36292598 -1.1090109 -0.50380343
-1.1225233 -0.01593033 -0.5030557 -0.4973948 0.0024579428 -0.0071686776 0.8892664 -0.17327496
-0.72518766 -1.0541397 -0.001990771 0.88404006 -0.0066395886 0.23123972 0.054014187 -0.6795363
-0.707985 0.025256805 -0.49384633 -0.2277847 0.15540859 0.36723498 0.0056222924 -0.1333127
-0.13435659 -0.7194333 -0.10879743 0.0016112321 0.87502885 -0.37255123 0.40684974 0.9178569
0.3282881 0.24406743 -0.5881937 0.6253657 -0.32832676 -0.5700849 -1.0694637 -0.6102052
0.36577815 -0.13456008 -0.2822024 -0.00048702644 -1.0420051 -0.5892502 0.16897507 0.89005876
-0.58512944 -0.59753984 -0.3342675 -0.6436986 0.45853892 -0.54916567 0.004239648 -0.0004918614
0.17214455 0.39222458 -1.4698335 -0.32926506 0.48628163 0.2584684 0.22875413 -0.19446771
-0.7655764 0.73638326 0.14436862 -1.284054 -0.76909566 0.31147048 -0.22796308 -0.43916026
-0.87160194 -0.24316604 -0.2652097 -0.633888 0.5741674 0.7937177 0.014830975 -0.4817148
-0.005858708 -0.17770267 0.530194 0.7255769 -0.76143396 0.45977053 0.35161194 -0.47814673
-0.072393335 -0.21364555 0.25261375 -0.83045983 0.0102526015 -0.004723514 0.005296592 0.45570272
0.758969 0.77400225 -0.81790984 0.53882384 -0.5200162 -0.73297805 -0.16164084 0.4665267
-0.49553245 0.0047281054 -0.58613163 0.38451028 -0.7819313 0.5135654 -0.26706108 0.43882427
0.4035878 -0.92149997 -1.1665634 0.5312009 -0.0063393824 -0.3446797 0.6301721 0.6601111
-1.226366 -0.53444684 -0.20349623 0.5637818 -0.4130881 -0.46780992 0.2606342 0.52059984
-0.30048478 0.7784105 0.8456772 0.17835307 0.5855008 -1.074712 0.61270154 -1.5988986
-0.8163249 -0.8099999 -0.5746777 -0.00083050114 -0.37010044 -0.7401617 -0.0058037634 -0.6129204
-0.3091786 -0.70385104 0.99486494 0.68718904 -0.2581649 0.17591012 -1.0478742 -0.14038996
0.0067844624 0.18584703 0.9293208 0.37175328 0.0639607 -0.62365717 0.86314917 0.69137007
-1.1826029 0.43065965 -1.2046309 0.15978537 -0.4507131 -0.046870563 -0.5269229 0.6945401
0.36428016 0.28262165 -0.2825632 -0.31660563 0.040606685 -0.0068480866 -0.4562796 -0.31312254
0.7522213 -0.6967439 -0.37609822 0.5999474 -0.32905155 -0.47987846 -0.69971853 -0.66989976
0.42442894 -0.95079017 -0.36659804 0.6259156 -0.338021 -1.0465828 -1.2212268 0.56538737
-0.003680507 0.9669945 0.28449795 0.23962188 0.7921741 -0.53405744 -0.57358795 0.0877942
0.0016966386 0.0017442472 -0.5120139 -0.380601 0.045482088 -0.59650177 0.16343534 -0.38788113
0.4821614 -1.3475813 -0.56388676 -0.6160224 -0.71972036 -0.86852217 -0.526586 0.01207291
-0.6728296 0.0039236257 0.0017443955 -0.39187422 0.13204293 -0.8132425 -0.5336605 -0.109317645
00000000: fd26 2fbf fff6 47bf 60e6 703f c4b0 24bf
00000010: 46c8 a3be 91cd e2be ddfc 99bb 7bc3 92bf
00000020: f22b 5d3f dd3c 13bf 8ab9 f73e 9549 113d
00000030: e347 40be 3e2a d53d f92f 31bf 6586 8abe
00000040: 1178 e03e 3eb7 6a3f fa85 133f 7e27 5b3f
00000050: eb94 263f 06b4 583f de9e 033f 5f1c 80bf
00000060: 0499 23bf 0dcc 0ebf 1278 6bbb fe6a 363f
00000070: c06e 97bf 6fd1 b93e 12f4 8dbf 43f9 00bf
00000080: d8ae 8fbf 5380 82bc 42c8 00bf 88aa febe
00000090: 7015 213b 3ae7 eabb f6a6 633f fe6e 31be
000000a0: e6a5 39bf 0dee 86bf 9877 02bb 7350 623f
000000b0: e890 d9bb 1bca 6c3e fb3d 5d3d 17f6 2dbf
000000c0: 813e 35bf 5ce7 ce3c 6dd9 fcbe 6440 69be
000000d0: 6e23 1f3e 3906 bc3e 353b b83b 2083 08be
000000e0: c694 09be c82c 38bf 30d1 debd fa2f d33a
000000f0: e401 603f 09bf bebe 9c4e d03e abf8 6a3f
00000100: 6115 a83e d0ec 793e dd93 16bf f717 203f
00000110: 721a a8be 16f1 11bf 30e4 88bf 6836 1cbf
00000120: 4647 bb3e 1eca 09be d57c 90be 9557 ffb9
00000130: 6c60 85bf 1ad9 16bf cd07 2d3e e4da 633f
00000140: 0bcb 15bf 5ff8 18bf 1c25 abbe 6ec9 24bf
00000150: 9dc5 ea3e 1f96 0cbf bfec 8a3b 43f0 00ba
00000160: a946 303e a9d1 c83e 8123 bcbf 6e95 a8be
00000170: e8f9 f83e f855 843e 863e 6a3e 8b22 47be
00000180: d1fc 43bf 9d83 3c3f 5ed5 133e e25b a4bf
00000190: 74e3 44bf 0f79 9f3e 276f 69be 9dd9 e0be
000001a0: 4e21 5fbf 8500 79be 91c9 87be 7c46 22bf
000001b0: a2fc 123f 1531 4b3f 9efd 723c 52a3 f6be
000001c0: 68fa bfbb b0f7 35be cbba 073f 68bf 393f
000001d0: 56ed 42bf 0b67 eb3e 7b06 b43e a6cf f4be
000001e0: f542 94bd e6c5 5abe 9756 813e 0499 54bf
000001f0: 87fa 273c b5c7 9abb 098f ad3b de51 e93e
00000200: cb4b 423f 0325 463f 8a62 51bf 5cf0 093f
00000210: c81f 05bf 73a4 3bbf 2d85 25be 96dc ee3e
00000220: 6eb6 fdbe 39ee 9a3b b90c 16bf 88de c43e
00000230: a62c 48bf 0679 033f 3bbc 88be 93ad e03e
00000240: 0fa3 ce3e 6ce7 6bbf f351 95bf c8fc 073f
00000250: 98ba cfbb dc79 b0be f552 213f 0bfd 283f
00000260: 90f9 9cbf 82d1 08bf 5161 50be 0154 103f
00000270: 4980 d3be c884 efbe d971 853e 0846 053f
00000280: 24d9 99be e945 473f 4d7e 583f 30a2 363e
00000290: 61e3 153f 2a90 89bf 02da 1c3f b6a8 ccbf
000002a0: abfa 50bf 275c 4fbf 141e 13bf fdb5 59ba
000002b0: ce7d bdbe 3d7b 3dbf 7f2d bebb 5ae8 1cbf
000002c0: a84c 9ebe 952f 34bf 78af 7e3f 9feb 2f3f
000002d0: 312e 84be c821 343e be20 86bf 63c2 0fbe
000002e0: 3250 de3b af4e 3e3e f8e7 6d3f 7256 be3e
000002f0: d4fd 823d ffa7 1fbf 58f7 5c3f a1fd 303f
00000300: 885f 97bf 6c7f dc3e 5831 9abf c79e 233e
00000310: dec3 e6be 59fb 3fbd 6be4 06bf 61cd 313f
00000320: ee82 ba3e c9b3 903e 20ac 90be 221a a2be
00000330: 3253 263d ea65 e0bb 7b9d e9be 9951 a0be
00000340: 9391 403f cf5d 32bf f28f c0be 2796 193f
00000350: 7279 a8be a1b2 f5be c120 33bf 8d7e 2bbf
00000360: c04e d93e fc66 73bf bdb2 bbbe 013c 203f
00000370: 1711 adbe 6df6 85bf 2951 9cbf 3abd 103f
00000380: a934 71bb f48c 773f b7a9 913e 705f 753e
00000390: eccb 4a3f fdb7 08bf a9d6 12bf 72cd b33d
000003a0: bf61 de3a 399f e43a 5813 03bf 22de c2be
000003b0: 6d4b 3a3d 57b4 18bf 985b 273e 5b98 c6be
000003c0: dcdd f63e 8b7d acbf e25a 10bf a5b3 1dbf
000003d0: 983f 38bf 7857 5ebf 57ce 06bf 74cd 453c
000003e0: 903e 2cbf c291 803b 33a4 e43a bda3 c8be
000003f0: 4336 073e a930 50bf f99d 08bf eee1 dfbd

layers.0.bias f4 [256]
0.55960006 -1.2462071 -0.92439556 -1.5653073 0.28922912 0.3654992 -9.2044625e-05 -1.0345854
-0.77188694 0.47738338 -0.30683434 -0.014321043 0.14687578 -0.093921304 -1.5009995 0.25637764
-0.26706773 -0.5870279 -0.38231978 -0.52932096 -0.37949988 -0.75180936 -0.45972547 -1.1501
0.5132921 0.38353297 -0.0018829533 -0.71430373 -0.99606925 -0.25677812 -0.9739461 0.44536808
-0.893408 0.0063872095 0.42634583 0.38413835 0.00656714 0.0031599556 -0.60959524 0.15658763
0.5035795 -1.3019003 0.0035957543 -0.5672645 0.004556605 -0.16746166 -0.03224401 -1.5970509
0.67198354 -0.017202154 0.4137793 0.22057897 -0.020769028 -0.29286757 0.0043731 0.1085595
0.1316377 0.5319358 0.09458767 0.0027863698 -0.55052227 0.31726927 -0.40065494 -0.61393493
-0.21628328 -0.10379124 -1.6649101 -0.605283 0.2699992 0.501959 -1.1286099 0.42456996
-0.22253965 0.12120509 0.24296983 -0.0013689201 0.91091955 0.5951593 -0.12066155 -0.7403616
0.4947636 0.47032735 0.2982713 0.58549 -0.2931074 0.4798835 -0.0029439845 -0.0011000287
-0.107445695 -0.20244087 -0.67001766 0.31588283 -0.40843472 -0.17477037 -0.14993683 0.19944139
0.59600073 -0.6915289 -0.10864098 -0.9004318 0.60708225 -0.17154793 0.18737414 0.43450344
0.8145569 0.1925148 0.24269041 0.53899616 -0.35541195 -0.5870898 -0.0060384376 0.40784088
0.001105378 0.17500283 -0.41824138 -0.40354502 0.55336094 -0.28393346 -0.25051078 0.33257732
0.057265118 0.2006755 -0.17598687 -1.1927655 -0.0058110263 -0.0026289893 0.001992707 -0.3997055
-0.76520836 -0.47879434 0.641872 -0.28501558 0.4198135 0.5306575 0.14960693 -0.23412794
0.46321157 -0.0014177297 0.5043018 -0.1595724 -1.3977698 -0.2271682 0.23414299 -0.4031892
-0.28041813 -1.5025455 -1.2325662 -0.42774993 0.0074595376 0.346592 -0.40204987 -0.5967817
-0.8629076 0.46956486 0.18236724 -0.38624093 0.37974456 0.3802747 -0.15592568 -0.40703917
0.29855832 -0.7712885 -0.54752064 -0.14316976 -0.4911703 -0.81023335 -0.5245043 -0.4779668
0.5673001 0.64426535 -1.5692043 0.0013246963 -1.7450769 0.69155085 0.001653885 -1.6538222
0.2705898 0.5465493 -0.8529922 -0.5839996 0.20200521 -0.11013068 -1.1897453 0.11845492
-0.0044752476 -0.16919684 -0.77886796 -0.23406015 -0.04623509 0.4195895 -0.77635175 -0.42439023
-0.95144534 -0.27559528 -0.8385098 -0.10336603 0.40232533 0.03359816 0.4930215 -0.4586798
-0.20588087 -0.23785436 0.24647138 0.24169885 -0.023353051 0.0016196435 0.3922877 0.20759962
-0.51489604 0.6542338 0.36364472 -0.38128898 0.3070733 0.4424955 -1.5040841 -1.4927728
-0.2607381 0.8232025 0.28660253 -0.37021086 0.3124079 -1.3181059 -0.8791375 -0.391858
0.0054577272 -0.6589729 -0.18494974 -0.10652857 -0.7274206 0.43726224 0.42303714 -0.07170511
0.0011972005 -0.00016505114 0.45724326 0.28828514 -0.023585252 -1.7413242 -0.1166675 0.3577723
-0.3180966 -0.9908744 -1.5385888 -1.6028897 0.5988882 0.70970845 0.37753305 -0.0026510763
0.49928045 0.0043572956 -0.0025901734 0.311215 -0.09202891 -1.2913203 0.5170322 0.107332446
00000000: f341 0f3f b783 9fbf 30a5 6cbf fd5b c8bf
00000010: d715 943e b622 bb3e 1508 c1b8 4b6d 84bf
00000020: 629a 45bf 986b f43e 6419 9dbe cfa2 6abc
00000030: 9b66 163e d059 c0bd c020 c0bf ee43 833e
00000040: 1abd 88be 7647 16bf 6bbf c3be 9481 07bf
00000050: cf4d c2be 9476 40bf 2361 ebbe 7a36 93bf
00000060: 1c67 033f 6f5e c43e 6ecd f6ba 9cdc 36bf
00000070: 65fe 7ebf 6c78 83be 8854 79bf 4907 e43e
00000080: 63b6 64bf cc4b d13b 004a da3e c8ad c43e
00000090: 2a31 d73b 4217 4f3b 6f0e 1cbf 8258 203e
000000a0: 96ea 003f aba4 a6bf bfa6 6b3b 3f38 11bf
000000b0: 934f 953b 127b 2bbe 4c12 04bd 2a6c ccbf
000000c0: 1d07 2c3f 88eb 8cbc e1da d33e 74df 613e
000000d0: cf23 aabc bdf2 95be 394c 8f3b 7154 de3d
000000e0: 09cc 063e f22c 083f 2eb7 c13d 879b 363b
000000f0: 07ef 0cbf 1e71 a23e a522 cdbe d72a 1dbf
00000100: 5d79 5dbe 8090 d4bd c61b d5bf d4f3 1abf
00000110: 563d 8a3e 6380 003f 4a76 90bf 3c61 d93e
00000120: 6fe1 63be 603a f83d 15cd 783e 566d b3ba
00000130: 0632 693f 5c5c 183f 671d f7bd 5688 3dbf
00000140: a851 fd3e bfce f03e 04b7 983e ace2 153f
00000150: 2c12 96be 4ab3 f53e ddef 40bb d72e 90ba
00000160: 7d0c dcbd a94c 4fbe 4786 2bbf 65bb a13e
00000170: 5b1e d1be 01f7 32be 0a89 19be 5d3a 4c3e
00000180: 8193 183f 0a08 31bf 2a7f debd b382 66bf
00000190: be69 1b3f 43aa 2fbe 02df 3f3e 3c77 de3e
000001a0: cd86 503f 9a22 453e d683 783e a7fb 093f
000001b0: 8ef8 b5be 844b 16bf 16de c5bb 85d0 d03e
000001c0: 55e2 903a f133 333e bc23 d6be 749d cebe
000001d0: 10a9 0d3f ba5f 91be f342 80be 9347 aa3e
000001e0: d48e 6a3d e17d 4d3e e735 34be 8aac 98bf
000001f0: 6c6a bebb 1f4b 2cbb 1398 023b 33a6 ccbe
00000200: b2e4 43bf 8824 f5be b951 243f 90ed 91be
00000210: ccf1 d63e 2bd9 073f 8f32 193e 3cbf 6fbe
00000220: 112a ed3e 1dd3 b9ba ec19 013f f266 23be
00000230: 1fea b2bf c89e 68be 2ec3 6f3e d16e cebe
00000240: f792 8fbe 6953 c0bf bbc4 9dbf 0a02 dbbe
00000250: 236f f43b 8274 b13e 7bd9 cdbe afc6 18bf
00000260: 83e7 5cbf ce6a f03e 7abe 3a3e 5fc1 c5be
00000270: e16d c23e 5eb3 c23e fbaa 1fbe 7067 d0be
00000280: a3dc 983e 2a73 45bf 502a 0cbf 189b 12be
00000290: ac7a fbbe 746b 4fbf ea45 06bf 10b8 f4be
000002a0: 943a 113f 93ee 243f b0db c8bf 6fa1 ad3a
000002b0: ae5e dfbf 7a09 313f 2cc7 d83a 72b0 d3bf
000002c0: bf8a 8a3e a8ea 0b3f b25d 5abf ff80 15bf
000002d0: 74da 4e3e 328c e1bd 9349 98bf 7e98 f23d
000002e0: 19a5 92bb f041 2dbe e463 47bf 77ad 6fbe
000002f0: 0161 3dbd 6fd4 d63e fdbe 46bf ad49 d9be
00000300: ec91 73bf d31a 8dbe 94a8 56bf 92b1 d3bd
00000310: 96fd cd3e 399e 093d 506d fc3e 14d8 eabe
00000320: 6fd2 52be 1890 73be fe62 7c3e e77f 773e
00000330: e64e bfbc 384a d43a efd9 c83e ff94 543e
00000340: 3ad0 03bf de7b 273f a42f ba3e 4f38 c3be
00000350: b638 9d3e c58e e23e d485 c0bf 2e13 bfbf
00000360: 777f 85be 66bd 523f 91bd 923e 478c bdbe
00000370: eef3 9f3e b2b7 a8bf 280f 61bf 9da1 c8be
00000380: bcd6 b23b 73b2 28bf 7763 3dbe a72b dabd
00000390: 3d38 3abf d6e0 df3e 5398 d83e 21da 92bd
000003a0: 62eb 9c3a 9411 2db9 ca1b ea3e 1c9a 933e
000003b0: dc35 c1bc b6e3 debf 5fef eebd ee2d b73e
000003c0: 8fdd a2be f2a9 7dbf 7af0 c4bf 7d2b cdbf
000003d0: bd50 193f 74af 353f 034c c13e aebd 2dbb
000003e0: b0a1 ff3e a5c7 8e3b e6bf 29bb 9357 9f3e
000003f0: a779 bcbd fc49 a5bf 395c 043f 1dd1 db3d

layers.3.weight f4 [128, 256]
0.0053837104 -0.00023758513 -0.021599377 -0.00945798 0.0035204315 -0.02851706 -0.016956972 0.019797139
-0.026333174 0.04744341 -0.10029137 -0.0019983696 -0.008692311 -0.11121661 0.016892366 -0.022445986
-0.23810804 -0.27784044 -0.30360338 -0.26439437 -0.26836628 0.0034718371 -0.018726474 0.028181061
0.012978435 -0.009945741 0.035734456 0.095504165 -0.0029227254 -0.028544316 -0.017673574 -0.03353614
0.03618634 0.0106749 0.017778806 0.031061484 -0.020277709 -0.01632391 -0.21924247 0.021751849
0.02261617 -0.0056189713 -0.03704528 -0.25736865 -0.013453242 -0.1408776 -0.09319579 -0.006138808
0.057202768 -0.0013576063 -0.0042299824 0.053065903 -0.07954105 -0.05115679 -0.0811747 0.062068306
0.016943954 0.001743529 0.0031663554 0.007478059 -0.21455881 0.0408175 -0.048008587 -0.21510902
-0.11960723 -0.055991083 -0.17549095 -0.022759508 -0.023931716 0.01736272 0.010258688 0.004382984
-0.29018435 0.03884125 0.04390845 -0.006889892 -0.011236164 0.04418147 -0.05843208 -0.007753321
-0.009129466 -0.043757282 0.054533422 -0.0066863643 -0.17867969 0.0034510673 -0.03518263 -0.05059479
-0.036147464 -0.09226736 -0.0008073217 -0.007993344 0.036700167 -0.14649765 -0.10382281 0.03580955
0.006225635 0.030490363 -0.15858074 -0.026779797 -0.004972622 -0.10242771 0.01910911 -0.005571592
0.015336183 -0.04139467 -0.036517333 0.021145042 -0.21436788 -0.10850343 0.00080983574 -0.0033728234
-0.0059879622 -0.0056854263 -0.08890842 -0.17110205 -0.028717093 -0.17408411 -0.14293753 0.030150795
0.01102805 0.022629237 -0.044466477 0.01726073 -0.035943065 0.035399925 -0.03895036 0.0212509
0.07827931 -0.27457634 -0.018418916 -0.116793096 0.0026716702 0.013187068 0.040281918 -0.07842028
0.033172518 0.0047351806 0.052008916 -0.15500373 0.04201983 -0.02966989 0.0701234 -0.031348173
-0.1855808 3.228469e-06 -0.005466232 -0.07106089 0.02222369 0.041283876 -0.12477762 -0.07059996
-0.016206665 0.02751095 0.019307809 -0.15166621 0.01145971 0.048075013 -0.06145504 -0.072426066
-0.0028774042 0.037584826 -0.31447002 -0.12947956 -0.03840138 0.023284357 -0.14129679 -0.024408499
-0.017867958 0.006508186 -0.007814327 -0.00891227 -0.09828261 0.0017398052 0.042009253 -0.051951736
0.006615374 0.040778324 0.04370803 0.034794863 0.042899754 -0.08940756 -0.03674239 0.06890811
-0.037060253 -0.09625746 -0.035305955 -0.17375822 -0.06477448 0.013527272 -0.004235348 -0.26307794
-0.0072542946 -0.18503965 0.027753169 -0.09683042 0.038959276 -0.03509705 -0.010401429 -0.254729
-0.1053956 0.0035274383 -0.005180624 -0.0048772823 -0.061462563 -0.008851733 -0.022992129 -0.029083682
-0.2767292 -0.012924703 -0.0020572168 -0.26930782 -0.009704008 0.012475657 -0.090696916 -0.05426085
-0.07104087 -0.01875564 -0.039713923 -0.14410327 0.0058626626 0.0058464496 -0.045745727 -0.16887267
-0.063206665 -0.21619794 -0.12801145 -0.1101143 -0.025787342 0.026329422 0.029327856 -0.0631363
-0.031697184 -0.061606124 0.010766802 -0.04567263 -0.049697753 -0.12616774 -0.05985037 0.03264848
-0.1577071 -0.032492723 0.020896392 -0.07223622 -0.015741061 0.005168096 0.05067152 -0.08131016
0.018765712 0.019962937 -0.03855875 0.041877672 -0.09469132 -0.01798428 0.03202855 0.07128849
00000000: d669 b03b 4620 79b9 2df1 b0bc a5f5 1abc
00000010: 0ab7 663b 9c9c e9bc 59e9 8abc 9c2d a23c
00000020: abb8 d7bc 0554 423d 9065 cdbd 14f7 02bb
00000030: 326a 0ebc 89c5 e3bd dc61 8a3c a5e0 b7bc
00000040: 98d2 73be 1a41 8ebe e771 9bbe b35e 87be
00000050: 4e67 89be c387 633b 4368 99bc f8db e63c
00000060: 80a3 543c 76f3 22bc 4b5e 123d b097 c33d
00000070: 328b 3fbb c5d5 e9bc 2cc8 90bc 315d 09bd
00000080: 2138 143d c7e5 2e3c dca4 913c a774 fe3c
00000090: 701d a6bc b8b9 85bc 1981 60be ef30 b23c
000000a0: 8c45 b93c 591f b8bb cbbc 17bd d3c5 83be
000000b0: fd6a 5cbc 3842 10be 6fdd bebd 0e28 c9bb
000000c0: 734d 6a3d b5f1 b1ba aa9b 8abb a25b 593d
000000d0: 6be6 a2bd c889 51bd ec3e a6bd 563b 7e3d
000000e0: 0cce 8a3c 2087 e43a a182 4f3b 810a f53b
000000f0: 4eb5 5bbe 4030 273d a7a4 44bd 8a45 5cbe
00000100: a3f4 f4bd e856 65bd e6b3 33be 2672 babc
00000110: 720c c4bc 433c 8e3c 0e14 283c 229f 8f3b
00000120: 0b93 94be 0118 1f3d 59d9 333d 9ac4 e1bb
00000130: e317 38bc a1f7 343d 7a56 6fbd 920f febb
00000140: c193 15bc d63a 33bd 705e 5f3d 4a19 dbbb
00000150: cff7 36be 4d2b 623b a91b 10bd 7c3c 4fbd
00000160: 5d0f 14bd abf6 bcbd 71a2 53ba 84f6 02bc
00000170: ea52 163d 7b03 16be 0ea1 d4bd 09ad 123d
00000180: 6900 cc3b edc6 f93c fd62 22be 4e61 dbbc
00000190: 60f1 a2bb 9fc5 d1bd b58a 9c3c e791 b6bb
000001a0: 9d44 7b3c 758d 29bd 3393 15bd 5e38 ad3c
000001b0: 4183 5bbe 0c37 debd 284b 543a 960a 5dbb
000001c0: ab36 c4bb d04c babb 9e15 b6bd 6035 2fbe
000001d0: 1c40 ebbc 1b43 32be 375e 12be cdfe f63c
000001e0: ffae 343c f360 b93c 7b22 36bd 6066 8d3c
000001f0: 0939 13bd 83ff 103d 6a8a 1fbd 5e16 ae3c
00000200: e750 a03d 4595 8cbe 44e3 96bc 3831 efbd
00000210: 3017 2f3b 920e 583c a7fe 243d d09a a0bd
00000220: e8df 073d 9329 9b3b 4d07 553d 4cb9 1ebe
00000230: fc1c 2c3d 450e f3bc db9c 8f3d f166 00bd
00000240: e508 3ebe ada8 5836 141e b3bb 5f88 91bd
00000250: 750e b63c 4819 293d 698b ffbd b696 90bd
00000260: d7c3 84bc a55e e13c 692b 9e3c 634e 1bbe
00000270: 82c1 3b3c 4eea 443d 48b8 7bbd 1e54 94bd
00000280: d592 3cbb 8cf2 193d 3702 a1be 4a96 04be
00000290: c44a 1dbd d6be be3c 1bb0 10be 55f4 c7bc
000002a0: d35f 92bc 9f42 d53b aa07 00bc c504 12bc
000002b0: 6548 c9bd 2d0a e43a e511 2c3d 58cb 54bd
000002c0: c7c5 d83b 2c07 273d 3107 333d 0f85 0e3d
000002d0: a7b7 2f3d 501b b7bd 307f 16bd b21f 8d3d
000002e0: 7ecc 17bd a222 c5bd fa9c 10bd aded 31be
000002f0: 7ca8 84bd 7ea1 5d3c adc8 8abb 27b2 86be
00000300: 6fb5 edbb 097b 3dbe 9d5a e33c 074f c6bd
00000310: c393 1f3d edc1 0fbd c16a 2abc d76b 82be
00000320: a6d9 d7bd 982c 673b 39c2 a9bb 9cd1 9fbb
00000330: 2bc0 7bbd dc06 11bc fd59 bcbc e740 eebc
00000340: 73af 8dbe 22c2 53bc 5fd2 06bb b7e2 89be
00000350: 8ffd 1ebc b366 4c3c 4ebf b9bd a040 5ebd
00000360: e07d 91bd 6ea5 99bc 11ab 22bd cf8f 13be
00000370: 941b c03b 9393 bf3b df5f 3bbd f5ec 2cbe
00000380: 7f72 81bd fe62 5dbe 6f15 03be 9b83 e1bd
00000390: fa3f d3bc cdb0 d73c f940 f03c 9b4d 81bd
000003a0: e8d4 01bd b456 7cbd 3e67 303c 3913 3bbd
000003b0: df8f 4bbd 1e32 01be a925 75bd 6aba 053d
000003c0: f87d 21be 1717 05bd e92e ab3c 95f0 93bd
000003d0: 66f3 80bc 2259 a93b f18c 4f3d f185 a6bd
000003e0: 8dba 993c 5089 a33c c8ef 1dbd ec87 2b3d
000003f0: 86ed c1bd c553 93bc 5e30 033d b3ff 913d

layers.3.bias f4 [128]
0.0018395025 0.020293504 -0.22798714 0.05400751 0.016665725 -0.14219813 -0.07951339 0.019465389
-0.017303757 0.0036813368 -0.07281698 -0.16701698 0.019783797 0.039772168 0.06396734 -0.21514113
-0.009779908 -0.11249974 -0.19367984 -0.23622642 0.056863237 0.04091795 -0.055196844 -0.012319585
-0.06968874 -0.013612005 0.05975638 -0.2385807 0.041667104 0.032788828 -0.01287625 -0.16034402
-0.2463451 0.040249124 -0.053982377 -0.048541382 -0.0034349044 -0.22837774 0.061114028 -0.033587396
0.049257297 -0.18008423 -0.06320388 0.056892995 0.021244066 -0.02242388 0.016923266 0.031999577
0.042107362 -0.036653377 0.049005836 -0.07308562 0.039763413 -0.089892805 -0.060251214 -0.19794539
0.022958396 0.027702268 -0.025468556 -0.04748558 -0.041808844 0.047733136 0.042806104 -0.0038918487
-0.034677044 -0.061089166 0.055334695 -0.0053073075 -0.005056964 0.027083121 -0.25114346 0.048269883
0.010979711 0.087775454 -0.07902737 0.00039814616 -0.2631803 -0.0040599667 -0.010136209 0.035520535
0.035760596 0.054464232 -0.037947048 -0.01694344 0.0058893133 -0.1595105 -0.2094093 -0.0014725629
-0.10616561 0.051776752 -0.08491766 -0.039731815 -0.073621206 -0.035492532 0.029249758 -0.069170386
-0.19560407 0.085346125 0.013861452 -0.07188908 -0.061609037 0.06571025 -0.0731553 -0.18204269
-0.056650557 -0.004490311 -0.16968167 -0.007335202 -0.025605142 0.021011136 -0.026430277 -0.039327923
-0.091463864 -0.1570271 0.025659319 0.0022515163 0.0071734437 -0.07182197 0.024100522 0.00526833
-0.16451387 -0.039353404 -0.14823286 0.112353995 -0.17321333 -0.02583866 0.01644325 -0.24860525
00000000: 761b f13a 903e a63c 7675 69be fb36 5d3d
00000010: 8f86 883c 639c 11be ebd7 a2bd e175 9f3c
00000020: 9cc0 8dbc 9542 713b 1221 95bd 8006 2bbe
00000030: a111 a23c 24e8 223d 4f01 833d f54d 5cbe
00000040: e83b 20bc 4466 e6bd 0254 46be 57e5 71be
00000050: 6de9 683d 9599 273d 1616 62bd 16d8 49bc
00000060: f8b8 8ebd e304 5fbc 1bc3 743d 804e 74be
00000070: 20ab 2a3d 944d 063d e8f6 52bc 3931 24be
00000080: e441 7cbe 44dc 243d a01c 5dbd 54d3 46bd
00000090: 221c 61bb dbdb 69be b452 7a3d f092 09bd
000000a0: 05c2 493d 0068 38be 0971 81bd a108 693d
000000b0: 0908 ae3c 49b2 b7bc a9a2 8a3c fd11 033d
000000c0: c578 2c3d da21 16bd 58ba 483d eaad 95bd
000000d0: f6de 223d b819 b8bd fac9 76bd 32b2 4abe
000000e0: 3f13 bc3c deef e23c 6fa3 d0bc 3d80 42bd
000000f0: c03f 2bbd d283 433d 7455 2f3d 630e 7fbb
00000100: 8409 0ebd a238 7abd a2a6 623d ece8 adbb
00000110: e3b4 a5bb 6cdd dd3c e095 80be a4b6 453d
00000120: 3fe4 333c 9ec3 b33d 1ad9 a1bd 46be d039
00000130: 91bf 86be 7809 85bb 5812 26bc fb7d 113d
00000140: b479 123d e315 5f3d 5d6e 1bbd f8cc 8abc
00000150: 24fb c03b b856 23be 646f 56be 0303 c1ba
00000160: 5b6d d9bd dc13 543d 4fe9 adbd d4bd 22bd
00000170: b7c6 96bd 9e60 11bd 309d ef3c 34a9 8dbd
00000180: 6f4c 48be f3c9 ae3d 251b 633c 953a 93bd
00000190: c259 7cbd 1893 863d 72d2 95bd 6669 3abe
000001a0: 6a0a 68bd 7523 93bb 08c1 2dbe 225c f0bb
000001b0: e0c1 d1bc 8c1f ac3c 4f84 d8bc 5116 21bd
000001c0: 6851 bbbd b6cb 20be 7e33 d23c 2d8e 133b
000001d0: 350f eb3b 6617 93bd 756e c53c f5a1 ac3b
000001e0: 5376 28be 0931 21bd 5bca 17be da19 e63d
000001f0: d65e 31be 99ab d3bc ffb3 863c 6092 7ebe

layers.6.weight f4 [64, 128]
-0.020396704 0.0017515811 -0.15298793 -0.022102078 0.01809051 -0.046662323 -0.13078018 -0.049370255
0.012675071 -0.066202156 -0.005658129 -0.055906437 0.022060746 -0.002711786 -0.003570618 -0.14206359
-0.032488707 0.038493786 -0.012766882 -0.21879485 0.13720828 0.07038778 0.06087143 -0.042575683
-0.012063127 -0.02065673 -0.022503395 -0.32819834 -0.027843013 0.070834994 0.18975402 -0.116520956
-0.22938296 0.03974281 0.0041459305 -0.04269531 0.07821001 -0.12798615 0.11868233 -0.049577672
-0.026912672 -0.21815707 -0.021977793 0.23258978 -0.0020851495 -0.020965796 0.047131594 0.14891501
-0.08499743 -0.012669787 -0.018413449 0.040584307 0.025974577 0.050860457 -0.032078072 -0.111786716
-0.105250806 -0.007427599 0.10283535 -0.010104153 0.014653979 0.083149895 0.11551981 0.12129342
0.0037310068 0.09782695 -0.01678157 0.0021611885 -0.038089685 -0.015876565 -0.24545038 -0.033282883
0.0554032 0.047570433 -0.04549661 0.09360243 -0.2527938 -0.0063757366 -0.060530905 -0.0071106744
0.002311889 -0.00031446162 -0.11310287 0.016650135 -0.04950079 -0.10346047 -0.37093353 -0.02022884
-0.14286678 0.0054219635 0.028081112 0.00085846114 -0.11680028 0.076163754 0.026261235 -0.06930972
-0.31203833 0.16611685 0.02759457 0.00047240837 -0.045980886 0.05851233 -0.023259345 -0.01333104
-0.055981103 -0.013179597 -0.043506518 0.10066748 -0.00062386284 -0.019730352 -0.037631266 0.05892529
-0.0017719049 -0.13703308 0.040623046 0.034684557 0.088771276 -0.015653541 -0.11050802 -0.0075793006
-0.23501472 0.034769226 -0.18875964 -0.07599762 -0.26352763 0.0058447174 0.04533157 -0.3307757
-0.040185764 0.008528844 0.2168046 0.07414329 -0.01259703 -0.02545724 0.042869214 -0.006887546
0.10706039 0.011006788 0.0725867 0.03207371 0.054274946 -0.0051325276 0.007387495 0.16324693
0.07484438 -0.04491662 0.14427137 0.10943117 -0.034246717 0.017393561 0.022679655 -0.0044749947
-0.0679266 0.035328362 -0.01235871 0.20883165 -0.13674903 -0.120939426 -0.011890822 0.058958784
0.2762425 0.070943035 0.07984707 0.009521707 -0.0028115464 0.26183143 -0.07354318 0.00292613
0.005883547 0.13120262 0.04110482 -0.009751108 0.013659568 0.023402967 0.02200483 0.013092968
0.13175884 0.058461282 -0.010893542 0.023682905 -0.06079965 0.019200929 -3.024822e-05 0.050554965
-0.0063087954 0.030862002 0.067991085 -0.03235154 0.048945066 0.052437738 -0.09789742 0.03169145
0.00021897549 0.0072957254 0.045450114 -0.026296752 0.0059438096 -0.024336858 0.11684905 0.02908214
0.02640111 -0.065503284 0.03054078 0.07778011 0.19100277 0.11361738 -8.9083704e-05 -0.0027573945
-0.004798119 0.009996095 -0.04671209 -0.012734748 0.02334406 0.12045207 0.16546029 0.023023112
-0.052458394 -0.05623227 -0.100374766 -0.013381417 0.048126142 0.024979265 -0.07066221 -0.005485444
0.29928458 -0.030690342 -0.016723525 0.0682546 0.050144825 0.03941798 0.07064712 0.0025750222
0.044352967 -0.046257887 0.015706802 0.0015346432 0.04057236 0.07102308 0.058901224 -0.026479762
0.042933244 0.08625141 0.016115462 0.08978333 0.017506905 0.0026157745 -0.03708807 0.056274433
-0.045092974 -0.036975756 0.036636684 -0.0812082 0.2730724 0.040269468 -0.045615133 0.15903023
00000000: fd16 a7bc 4f95 e53a dea8 1cbe 6b0f b5bc
00000010: 8d32 943c fe20 3fbd 3deb 05be 7738 4abd
00000020: 1aab 4f3c ff94 87bd d467 b9bb 26fe 64bd
00000030: bdb8 b43c 38b8 31bb 0801 6abb 1e79 11be
00000040: e112 05bd a9ab 1d3d 2f2c 51bc c20b 60be
00000050: 5480 0c3e 7827 903d 5254 793d d763 2ebd
00000060: 6ca4 45bc 4d38 a9bc 0a59 b8bc 9d09 a8be
00000070: 0817 e4bc f011 913d e14e 423e 8aa2 eebd
00000080: 5ee3 6abe 5bc9 223d 96da 873b 47e1 2ebd
00000090: 922c a03d cd0e 03be b90f f33d f511 4bbd
000000a0: f777 dcbc 9164 5fbe c60a b4bc 042c 6e3e
000000b0: 01a7 08bb 76c0 abbc 0f0d 413d 2d7d 183e
000000c0: 2213 aebd f094 4fbc cdd7 96bc bb3b 263d
000000d0: a3c8 d43c 0e53 503d 4c64 03bd 6ff0 e4bd
000000e0: bc8d d7bd 3763 f3bb 579b d23d e48b 25bc
000000f0: 3e17 703c 7e4a aa3d a695 ec3d af68 f83d
00000100: e883 743b 7f59 c83d 8179 89bc baa2 0d3b
00000110: ee03 1cbd 920f 82bc 5857 7bbe a253 08bd
00000120: 77ee 623d 37d9 423d a75a 3abd a1b2 bf3d
00000130: 306e 81be 8eeb d0bb 41ef 77bd a900 e9bb
00000140: 1083 173b 53de a4b9 7aa2 e7bd dd65 883c
00000150: 57c1 4abd 15e3 d3bd 00eb bdbe f4b6 a5bc
00000160: ab4b 12be baaa b13b 5c0a e63c 5a0a 613a
00000170: fc34 efbd befb 9b3d cd21 d73c 41f2 8dbd
00000180: 7dc3 9fbe 891a 2a3e 020e e23c 94ad f739
00000190: 7456 3cbd a0aa 6f3d 628a bebc 6f6a 5abc
000001a0: 714c 65bd 3def 57bc e433 32bd c02a ce3d
000001b0: ba8a 23ba 8ca1 a1bc 3e23 1abd a55b 713d
000001c0: 433f e8ba 6652 0cbe 5a64 263d 6511 0e3d
000001d0: b7cd b53d db3b 80bc 0752 e2bd c85b f8bb
000001e0: b3a7 70be 2d6a 0e3d 354a 41be a4a4 9bbd
000001f0: 18ed 86be 0b85 bf3b 99ad 393d 6f5b a9be
00000200: d499 24bd 91bc 0b3c 0602 5e3e 70d8 973d
00000210: c663 4ebc b48b d0bc a197 2f3d ecb0 e1bb
00000220: 7a42 db3d d155 343c 56a8 943d b95f 033d
00000230: 684f 5e3d c32e a8bb cd12 f23b 342a 273e
00000240: 0348 993d 7dfa 37bd e0bb 133e 731d e03d
00000250: 4946 0cbd f17c 8e3c afca b93c faa2 92bb
00000260: 1a1d 8bbd 79b4 103d 307c 4abc f7d7 553e
00000270: f007 0cbe 17af f7bd b9d1 42bc c47e 713d
00000280: a86f 8d3e 954a 913d dc86 a33d ef00 1c3c
00000290: ec41 38bb c50e 863e cf9d 96bd 51c4 3f3b
000002a0: c5ca c03b fb59 063e 875d 283d 1cc3 1fbc
000002b0: 61cc 5f3c 94b7 bf3c 7943 b43c e383 563c
000002c0: caeb 063e 1975 6f3d d47a 32bc a702 c23c
000002d0: 0e09 79bd 444b 9d3c 8fbd fdb7 b912 4f3d
000002e0: 03ba cebb 4fd2 fc3c e93e 8b3d 0c83 04bd
000002f0: 9f7a 483d f4c8 563d 717e c8bd e5ce 013d
00000300: c99c 6539 fb10 ef3b e629 3a3d 496c d7bc
00000310: 4ac4 c23b 175e c7bc 8e4e ef3d ab3d ee3c
00000320: 2447 d83c 9626 86bd a830 fa3c 2e4b 9f3d
00000330: 3b96 433e 3bb0 e83d 73d2 bab8 67b5 34bb
00000340: 8a39 9dbb a9c6 233c 2d55 3fbd 68a5 50bc
00000350: 0b3c bf3c 93af f63d 6c6e 293e f79a bc3c
00000360: 9dde 56bd cf53 66bd 4991 cdbd bb3d 5bbc
00000370: eb1f 453d 51a1 cc3c 59b7 90bd 3dbf b3bb
00000380: d43b 993e 506a fbbc c6ff 88bc 11c9 8b3d
00000390: a964 4d3d bf74 213d 70af 903d b4c1 283b
000003a0: 75ab 353d e978 3dbd 8dab 803c 1526 c93a
000003b0: 342f 263d 8c74 913d 6942 713d 16ec d8bc
000003c0: c5da 2f3d 94a4 b03d 9304 843c 53e0 b73d
000003d0: a46a 8f3c 6a6d 2b3b a9e9 17bd 0580 663d
000003e0: 69b3 38bd e473 17bd 5910 163d 7c50 a6bd
000003f0: 25d0 8b3e 99f1 243d efd6 3abd d2d8 223e

layers.6.bias f4 [64]
0.30924767 -0.018095441 -0.13819136 0.18169183 0.17456451 0.11508663 -0.040971998 -0.06589656
0.10155655 0.17563005 -0.11771959 0.060182933 0.27682355 0.155118 -0.077721104 0.021659303
0.03183183 -0.058600366 -0.02497333 -0.13059981 -0.054017 0.22412837 -0.03731862 0.101371154
-0.111538954 0.050948318 0.24956062 0.2931976 0.1881276 0.23462136 0.19814123 -0.07982425
-0.0332165 -0.11144254 0.23719212 0.12738167 -0.45286405 -0.02843172 0.05182566 0.22227101
-0.0030143864 -0.08613965 0.20703295 -0.034957424 -0.0069527696 -0.060205832 -0.04832336 0.1966962
-0.16538541 -0.042987972 0.0069918283 0.18360451 0.20404765 -0.14893977 -0.06672116 -0.035566702
-0.05603748 -0.08270046 0.31615448 -0.025316082 0.20620544 -0.0984169 0.0029597813 -0.035042748
00000000: b655 9e3e e43c 94bc 0982 0dbe 6c0d 3a3e
00000010: 0ac1 323e 8ab2 eb3d 41d2 27bd c7f4 86bd
00000020: e1fc cf3d 5dd8 333e f816 f1bd 6182 763d
00000030: d1bb 8d3e 41d7 1e3e 3e2c 9fbd da6e b13c
00000040: 1862 023d f006 70bd de94 ccbc f5bb 05be
00000050: ee40 5dbd e881 653e 69db 18bd ae9b cf3d
00000060: 896e e4bd 2faf 503d d28c 7f3e ff1d 963e
00000070: 86a4 403e 9540 703e 89e5 4a3e e57a a3bd
00000080: 060e 08bd fd3b e4bd 7ee2 723e 5770 023e
00000090: ccdd e7be a3e9 e8bc 2547 543d 039b 633e
000000a0: 038d 45bb fc69 b0bd 7200 543e 842f 0fbd
000000b0: 0fd4 e3bb 649a 76bd b7ee 45bd bb6a 493e
000000c0: cb5a 29be 2814 30bd b51b e53b d202 3c3e
000000d0: def1 503e ab83 18be 1ba5 88bd 64ae 11bd
000000e0: 8e87 65bd dc5e a9bd 00df a13e ac63 cfbc
000000f0: 8527 533e cd8e c9bd e4f8 413b fc88 0fbd

layers.9.weight f4 [32, 64]
-0.013199849 -0.004454137 -0.014862176 0.006224628 -0.0025513794 -0.004440068 0.011357341 0.03250564
-0.027328588 -0.016840564 -0.021437887 -0.044592798 0.010906741 0.008747726 -0.037171125 -3.0457638e-06
-0.0434445 0.011706976 0.009444584 -0.0040332275 -8.8523026e-05 0.010875239 -0.048766397 -0.053886037
0.04703927 -0.048045482 0.0068188715 -0.003566528 -0.006740096 -0.017542394 -0.0028748298 -0.056555655
0.010478866 -0.009364184 0.0108631095 0.0003806039 0.19158317 -0.008992419 -0.019213215 -0.009395592
-0.009523409 0.0061300523 -0.013140204 -0.005864878 -0.052776456 0.009718529 -0.039415605 -0.023679206
-0.0028562706 -0.07612621 0.008796367 0.013466997 -0.011308658 -0.010367606 -0.0027039773 0.0060652513
0.0049117887 0.014251579 -0.0036711588 0.012430428 -0.00052103715 0.020061396 0.013489119 0.056577973
0.16713567 -0.05120404 -0.204259 -0.0008363261 0.066998854 -0.012243675 0.030781252 -0.13449591
-0.035739437 -0.043770287 -0.17468134 0.13484004 0.083273575 0.0463115 -0.0015906527 -0.059556887
0.104476094 -0.19625327 -0.17000999 -0.25446194 0.013089207 -0.0068961685 0.06340947 0.02128218
-0.21660745 0.0084584085 0.00944868 0.14256606 0.08283112 0.18168043 0.0042284015 -0.12795371
-0.0015182331 -0.18600678 0.009728611 0.07188559 -0.17636615 -0.026334818 0.08134349 0.030055607
-0.0737857 -0.071911946 0.03976064 -0.09486112 -0.16818063 -0.075931504 0.0612671 0.21752082
0.06886745 -0.27010635 -0.107318945 0.00045985304 -0.022472475 -0.04102784 -0.08857839 -0.1772946
-0.2818558 -0.0475381 0.028057553 -0.03857414 -1.0535005e-05 -0.17596738 -0.08500403 -0.016879372
0.0006488194 -0.36851078 -0.3107457 0.13118988 0.16819265 -0.023715863 -0.31133074 -0.34838143
-0.009878434 -0.006399234 -0.238811 0.040705293 0.14030315 -0.07704551 -0.22289273 -0.3152742
-0.0016659948 -0.19298622 -0.3829434 -0.27443853 -0.40377057 0.022303673 0.046373524 -0.09794657
-0.3329648 0.09426211 -0.0004709076 0.09031701 0.06298071 0.018823529 0.081955716 -0.24877432
-0.49843195 -0.2728939 -0.0019370242 0.044762053 -0.10524815 -0.33665663 0.09691869 0.07881193
-0.27262557 -0.45041433 0.16486639 -0.4082044 -0.21211334 -0.2872809 -0.20848922 0.005978483
-0.21750894 -0.13233137 -0.33626848 0.13247465 0.09308557 -0.21522582 -0.44996253 -0.32345828
-0.23982662 -0.36017936 -0.021514677 -0.26528972 0.15478039 -0.45403326 -0.2962126 -0.0861656
0.007497785 0.008884145 0.010330676 -0.011798019 0.01865434 -0.0012188198 0.0015956464 0.01103355
-0.03300114 -0.01814796 0.0047401967 -0.059164606 0.004050758 -0.0064454805 0.024602551 0.00197255
-0.038611427 -0.021133877 0.00674427 0.017119596 0.010298215 -0.0022468332 -0.058226313 -0.028207257
0.0069981534 -0.04327989 0.0022929832 0.0082376385 -0.0029335215 -0.008070372 -0.0093987975 -0.004990467
0.012716796 -0.0025357038 -0.005795161 -0.0009589559 0.16044071 0.004874513 -0.0022879154 -0.014197455
0.0078120762 -0.009113775 -0.0012786617 0.0035741234 -0.047178764 0.011096735 -0.033068422 -0.017867075
-0.061452292 -0.037075862 0.0066734795 0.0013205883 -0.012938585 -0.0009397289 0.005366188 -0.0054529957
0.023956947 0.020711076 -0.0011599044 0.012473937 -0.003684221 -0.011813222 0.016952159 0.023818508
00000000: 2e44 58bc 02f4 91bb 7c80 73bc f7f7 cb3b
00000010: 0b35 27bb fd7d 91bb 2414 3a3c a224 053d
00000020: 34e0 dfbc 39f5 89bc 829e afbc f0a6 36bd
00000030: 30b2 323c 9f52 0f3c c040 18bd d365 4cb6
00000040: dcf2 31bd 9ece 3f3c 75bd 1a3c 2a29 84bb
00000050: 70a5 b9b8 0f2e 323c 46bf 47bd 9bb7 5cbd
00000060: 40ac 403d 57cb 44bd d770 df3b 69bc 69bb
00000070: 06dc dcbb 11b5 8fbc a467 3cbb e7a6 67bd
00000080: 8daf 2b3c 3c6c 19bc 2ffb 313c ca8b c739
00000090: 612e 443e f054 13bc 0865 9dbc f8ef 19bc
000000a0: 1308 1cbc 9bde c83b 034a 57bc 2a2e c0bb
000000b0: 202c 58bd 773a 1f3c 4272 21bd e5fa c1bc
000000c0: 4530 3bbb 0fe8 9bbd a31e 103c aea4 5c3c
000000d0: f347 39bc e4dc 29bc 3635 31bb 04bf c63b
000000e0: 12f3 a03b 747f 693c d397 70bb fea8 4b3c
000000f0: 3696 08ba cc57 a43c 7701 5d3c 4ebe 673d
00000100: 9d25 2b3e 54bb 51bd 4529 51be e53c 5bba
00000110: b236 893d b299 48bc f728 fc3c 4cb9 09be
00000120: 8463 12bd 7948 33bd aadf 32be 8213 0a3e
00000130: 568b aa3d 21b1 3d3d 737d d0ba ecf1 73bd
00000140: 90f7 d53d 9ef6 48be 1917 2ebe d648 82be
00000150: 1d74 563c 41f9 e1bb d3dc 813d f757 ae3c
00000160: 58ce 5dbe 2395 0a3c a3ce 1a3c d6fc 113e
00000170: 5da3 a93d 6f0a 3a3e 678e 8a3b 4c06 03be
00000180: 73ff c6ba 9078 3ebe c164 1f3c c138 933d
00000190: 5499 34be 1ebc d7bc 6a97 a63d 2d37 f63c
000001a0: f51c 97bd 9246 93bd 0edc 223d 8c46 c2bd
000001b0: 8b37 2cbe fa81 9bbd 36f3 7a3d c7bd 5e3e
000001c0: 610a 8d3d 614b 8abe 09ca dbbd 6e18 f139
000001d0: 3218 b8bc cf0c 28bd 9668 b5bd b78c 35be
000001e0: 674f 90be 50b7 42bd f4d8 e53c ebff 1dbd
000001f0: 80bf 30b7 cb30 34be 9816 aebd 9c46 8abc
00000200: 8815 2a3a 72ad bcbe 0f1a 9fbe a456 063e
00000210: b23a 2c3e c547 c2bc be66 9fbe 0d5f b2be
00000220: 28d9 21bc aab0 d1bb df8a 74be 98ba 263d
00000230: a1ab 0f3e 09ca 9dbd fe3d 64be 9f6b a1be
00000240: 825d daba 2e9e 45be 2811 c4be 3583 8cbe
00000250: 04bb cebe 31b6 b63c 2af2 3d3d 3698 c8bd
00000260: 5d7a aabe 7e0c c13d 26e4 f6b9 20f8 b83d
00000270: 08fc 803d cd33 9a3c 66d8 a73d b2be 7ebe
00000280: 7932 ffbe c0b8 8bbe bfe3 fdba 6a58 373d
00000290: 588c d7bd 425e acbe 4e7d c63d 2668 a13d
000002a0: 9495 8bbe b59c e6be bcd2 283e 2b00 d1be
000002b0: 3d34 59be 7b16 93be 337e 55be 26e7 c33b
000002c0: aaba 5ebe e081 07be 622b acbe 6fa7 073e
000002d0: a6a3 be3d 2864 5cbe 7d61 e6be 539c a5be
000002e0: 1c95 75be 6e69 b8be 8c3f b0bc 0ed4 87be
000002f0: c07e 1e3e 0c77 e8be 2ea9 97be 9777 b0bd
00000300: fbaf f53b ce8e 113c ff41 293c 7a4c 41bc
00000310: fdd0 983c cec0 9fba 0225 d13a 10c6 343c
00000320: 342c 07bd 08ab 94bc a753 9b3b 9656 72bd
00000330: 39bc 843b 9c34 d3bb 4a8b c93c e645 013b
00000340: 0427 1ebd f420 adbc 0aff dc3b 653e 8c3c
00000350: d8b9 283c 9b3f 13bb b77e 6ebd e812 e7bc
00000360: c450 e53b 4146 31bd e045 163b 29f7 063c
00000370: 5340 40bb 9839 04bc 6afd 19bc 1287 a3bb
00000380: 1c5a 503c 0d2e 26bb 55e5 bdbb 7162 7bba
00000390: 924a 243e 61ba 9f3b daf0 15bb 719c 68bc
000003a0: 72fc ff3b f151 15bc c498 a7ba d73b 6a3b
000003b0: 853e 41bd 14cf 353c c172 07bd f95d 92bc
000003c0: 66b5 7bbd dcdc 17bd 34ad da3b 9717 ad3a
000003d0: 5cfc 53bc 2458 76ba d9d6 af3b 0baf b2bb
000003e0: 5c41 c43c 46aa a93c ef07 98ba 7c5f 4c3c
000003f0: f972 71bb 3f8c 41bc 41df 8a3c 081f c33c

layers.9.bias f4 [32]
-0.015819069 0.34177905 0.4383692 -0.027277494 0.020796295 0.2595369 0.021968177 -0.013951422
-0.021350697 0.42584047 -0.030567702 -0.003232952 -0.026170569 -0.02441622 -0.041718885 -0.01092154
0.3205423 0.40636253 0.40329266 0.30415154 0.37108067 -0.035170566 -0.038566053 0.3468567
0.30728167 -0.04018858 0.42681754 0.46793765 -0.044076033 0.34493747 0.017991725 -0.012953433
00000000: fe96 81bc aafd ae3e ee71 e03e 0d75 dfbc
00000010: fe5c aa3c 05e2 843e 9bf6 b33c 8194 64bc
00000020: a8e7 aebc c307 da3e 1e69 fabc efdf 53bb
00000030: a963 d6bc 8604 c8bc 6ce1 2abd 42f0 32bc
00000040: 1f1e a43e c00e d03e 607c ce3e c0b9 9b3e
00000050: 49fe bd3e 030f 10bd 70f7 1dbd 3497 b13e
00000060: 0654 9d3e c89c 24bd d487 da3e 8695 ef3e
00000070: 1289 34bd a59b b03e 6263 933c a33a 54bc

layers.12.weight f4 [1, 32]
-0.5068124 0.05638894 0.039593514 -0.57262886 -0.46461716 0.048275217 -0.4633742 -0.554645
-0.5443849 0.0386779 -0.5067274 -0.5773213 -0.49260885 -0.5372437 -0.49582368 -0.48157772
0.04343508 0.039703097 0.036624707 0.043807738 0.037383545 -0.5290487 -0.45579827 0.044031635
0.03475911 -0.5302022 0.035377942 0.040410668 -0.48744205 0.044438638 -0.45198688 -0.5291092
00000000: 75be 01bf 17f8 663d cf2c 223d ce97 12bf
00000010: 4de2 edbe 3cbc 453d 623f edbe 37fd 0dbf
00000020: cf5c 0bbf b86c 1e3d e3b8 01bf 54cb 13bf
00000030: 3a37 fcbe ce88 09bf 9adc fdbe 5b91 f6be
00000040: fce8 313d b79f 223d ca03 163d be6f 333d
00000050: 7d1f 193d bc6f 07bf 645e e9be 845a 343d
00000060: 925f 0e3d 55bb 07bf 76e8 103d a885 253d
00000070: 0192 f9be 4a05 363d d36a e7be b373 07bf
