models/nn/nn_bl_only_nolf_mse.pth (torch, 179296 bytes, 9 tensors)

layers.0.weight f4 [256, 1]
000000 b1 0e 95 3c de a8 fe be 1c 1e 67 bf be 58 52 be
       0.018195482 -0.4973821 -0.9028032 -0.20541665
000010 19 2f 05 3e 27 9a 1b bf 52 00 32 3f 13 ae 51 3f
       0.13006248 -0.6078209 0.6953174 0.8190624
000020 af 1c e4 be c4 01 1c bf c1 7c dd be 83 f2 01 3f
       -0.44553134 -0.60940194 -0.43259242 0.5076067
000030 47 e7 83 3e 79 3e 4d be 50 f4 11 3e 37 40 59 3e
       0.25762388 -0.20043363 0.14253354 0.21215902
000040 cc ad 3f 3f 62 9d 85 3e 44 ab b6 3e 05 09 09 bf
       0.7487457 0.26096636 0.3567754 -0.5352939
000050 c9 39 ba 3e 4d eb 7a be a0 ae 83 be f6 f4 c0 bd
       0.36372212 -0.24503823 -0.25719166 -0.094217226
000060 07 42 db 3e 19 78 57 3f 75 2d 4e 3f f0 e7 cf 3e
       0.42823812 0.8416763 0.8053811 0.40606642
000070 db 22 e5 be d2 ae 30 3f fa 5a 7a bf 21 90 95 3d
       -0.44753155 0.69016755 -0.9779507 0.07302881
000080 f9 71 6f 3f be 9f 81 3f ec bf 66 bf 7d 1c 63 bf
       0.93533283 1.0126874 -0.901366 -0.88715345
000090 f6 8f 49 3f 15 43 2a bf b9 ce 3d be 3a 83 44 3f
       0.7873529 -0.6650861 -0.1853589 0.76762736
0000a0 fb c1 3a 3f 28 8b bb bd 99 e2 d7 3c ed 5b cc be
       0.7295224 -0.09157401 0.026353167 -0.39913884
0000b0 5f 02 7d bf d9 7a 6d 3f 82 48 36 bf 41 ab 8a 3e
       -0.98831743 0.92765576 -0.7120439 0.2708378
0000c0 6b ac 45 3f 45 8a 81 be 25 df 6c 3f bc e7 94 be
       0.77216214 -0.25300804 0.9252799 -0.2908305
0000d0 a4 ab 71 3f 44 20 45 3f 2c 31 6a 3e a1 92 23 bd
       0.9440253 0.7700236 0.2287032 -0.039934758
0000e0 10 81 a0 be 29 92 cc 3e c3 d9 3c be c7 03 2f bf
       -0.31348467 0.3995526 -0.18442445 -0.6836514
0000f0 e8 ee 18 3f 37 de a7 be eb 85 34 bf 5d 14 ee 3d
       0.5973954 -0.32786724 -0.7051684 0.11624978
000100 4a 67 46 3f 88 4f 07 3f ae a0 da be c5 64 40 3f
       0.77501357 0.5285573 -0.42700714 0.7515376
000110 c8 91 09 bf c6 e8 8b bd 57 e5 e2 3d 3b 6c e5 be
       -0.5373807 -0.068315074 0.11078899 -0.44809136
000120 e1 5c 76 3f ce 4b 96 3e 62 3d 71 be 62 96 4b be
       0.9623547 0.2935471 -0.23558572 -0.19881585
000130 c9 19 e0 be 33 62 bf be 64 8d b5 be 46 2d e5 be
       -0.43769673 -0.37379608 -0.35459435 -0.44761103
000140 71 ef 13 3f 5e 34 1e bf 3e 13 6a be 3f 91 25 3f
       0.57787234 -0.61798656 -0.22858903 0.6467475
000150 f8 1c c4 3e c2 b9 8e be bc ee 46 bc a2 76 5d bf
       0.3830335 -0.27876097 -0.01214188 -0.86509144
000160 23 53 39 3f d2 76 4f 3f 64 84 67 bf 4a 4c 2a 3f
       0.7239248 0.8104068 -0.9043639 0.6652266
000170 29 b4 45 3e 35 c6 1d bf c5 8d 42 3e fa ca 7b 3e
       0.19307007 -0.61630565 0.18999393 0.24589148
000180 fb 1c ca 3d 86 98 2b 3d d7 18 61 bf bd a6 65 bf
       0.09868809 0.041893505 -0.8792853 -0.8970755
000190 14 b7 fd be b4 1e 7b 3f dd ca c3 be d6 dc 16 3f
       -0.4955374 0.98093724 -0.3824071 0.5893072
0001a0 3a 16 57 be 7d 2e 55 3e 79 7d c6 be f1 e6 1b 3f
       -0.21004573 0.20818515 -0.38767603 0.60899264
0001b0 3d 4b 81 3f 14 e9 0b bf b2 02 af 3e ce 9a 21 bf
       1.0101086 -0.54652524 0.34181744 -0.6312684
0001c0 2d f6 5b 3f 52 0a 2c 3f 66 cb 20 3f 18 58 02 be
       0.8592251 0.6720325 0.6281036 -0.12728918
0001d0 f8 89 5f 3f eb 1e 44 3f 1c 52 f3 3e 31 24 dc be
       0.873199 0.7660968 0.47523582 -0.42996362
0001e0 a1 c6 49 3f 8d df 73 3f 33 b9 26 3f 1e 2e 9a 3d
       0.7881871 0.95262986 0.6512634 0.075283274
0001f0 b7 d6 5f bf 60 05 20 be d2 ac 43 3f c9 03 19 3f
       -0.87437004 -0.1562705 0.7643558 0.597714
000200 ac 57 30 bf 0d 34 e1 3e 23 23 17 3f 9b 20 63 bf
       -0.68883777 0.43985024 0.5903799 -0.88721627
000210 16 1b af 3e e8 5c 2a 3f 2c d2 11 bf b2 b6 0c 3f
       0.34200352 0.66548014 -0.5696132 0.5496627
000220 33 b8 66 3f d9 db 65 bf df 8d 00 bf bc 45 46 3f
       0.90124816 -0.89788586 -0.5021648 0.77450156
000230 28 5d 43 3f c4 e1 28 3e 30 91 57 3f 0d 5a 2f 3d
       0.7631402 0.16492373 0.84205914 0.04281049
000240 5f 11 33 3f 63 be 51 be 2e 82 3e 3f 30 6b 13 3e
       0.6994838 -0.20482783 0.7441739 0.14396358
000250 34 d3 33 3f d2 92 9e 3e 33 2d 33 3f 58 1e 66 bf
       0.70244145 0.3097139 0.69990844 -0.8989005
000260 cb 43 65 3f 4e e0 43 bf 06 ec 4d 3f 19 09 55 bf
       0.8955657 -0.76514137 0.8043827 -0.83217007
000270 ad 17 49 3f 19 16 8d be 3e eb 9d be a5 0d 5d bf
       0.7855175 -0.27555922 -0.30843538 -0.86348945
000280 88 57 83 bf 21 3f 78 bf 82 88 2e 3f b5 4b 37 be
       -1.0261087 -0.9697133 0.68177044 -0.17899974
000290 d0 16 7a bf 6d ce df 39 ad 2c 4b bf da 9c 4a be
       -0.9769106 0.00042687674 -0.79365045 -0.19786397
0002a0 94 d4 00 3f 05 fd 49 bf 04 57 d9 3e 8d 7b 61 bf
       0.5032437 -0.789017 0.424492 -0.8807915
0002b0 db 04 1e 3e 32 2a 86 be bf 63 f5 be ab 72 66 3e
       0.1543154 -0.26204067 -0.47927663 0.2250468
0002c0 e0 01 53 bf d8 a0 de 3e 90 19 57 be e1 e2 59 bf
       -0.82424736 0.4348209 -0.21005845 -0.85111815
0002d0 7a e6 e8 3e 77 3e 6f 3f 2c 98 0f bf 30 74 d4 bd
       0.4548834 0.9345469 -0.5609157 -0.103737235
0002e0 0a ca 0a bf 26 1f 1c bf 58 8d bb 3e 2e c9 41 bd
       -0.5421454 -0.6098503 0.36631274 -0.047311
0002f0 06 f5 56 bd d6 c8 34 3f 03 cf 6b 3f 0c a7 a6 be
       -0.052479766 0.7061895 0.9211275 -0.32549322
000300 6e af 8d be 07 03 9c 3e 76 38 48 3f 25 e5 22 bf
       -0.27672905 0.3047106 0.7821115 -0.63630897
000310 bc 51 f8 bd 57 63 15 3f 53 63 25 3f 82 b4 bf be
       -0.121249646 0.58354706 0.6460468 -0.37442404
000320 b0 ed 18 3f a7 cb 06 3e 48 df 69 be e5 8b 53 3f
       0.5973768 0.13163625 -0.22839081 0.8263534
000330 59 1b 23 bf 1d f4 21 3f b8 67 53 bf bd 56 0c 3e
       -0.63713604 0.6326311 -0.8258014 0.13704963
000340 d3 aa 28 bf eb 3b a2 bd c0 05 ee 3d 90 1f 1d bf
       -0.6588566 -0.07921585 0.116221905 -0.61376286
000350 d0 e7 5a 3f 48 9f 58 bf f5 75 43 3f d4 1c 70 bc
       0.8550997 -0.84618044 0.76351863 -0.014655311
000360 05 69 0c 3f f2 55 8c 3c 1f 0b 32 bd 31 4b 7f 3f
       0.5484775 0.017130826 -0.043467637 0.9972411
000370 57 bb 1d bf d3 a5 e2 3e 88 c7 11 be a0 0c 80 bc
       -0.6161398 0.4426714 -0.14236271 -0.01563102
000380 60 01 3f bf 8d 59 2b 3f 9b fe 15 bf 45 4b 5c bf
       -0.74611473 0.6693352 -0.5859162 -0.8605235
000390 37 e7 b8 3e ec 3c 9e be 2f b2 85 be d8 a2 68 3f
       0.36113903 -0.30905855 -0.26112506 0.9087348
0003a0 97 15 6c bf f4 8a 5f 3f 9e 08 2f be 11 ae 08 3f
       -0.92220443 0.873214 -0.17093131 0.53390604
0003b0 31 39 19 3f 35 09 44 bf 0b 56 3f 3f 68 45 de be
       0.5985289 -0.7657655 0.74740666 -0.43412328
0003c0 75 9a 11 bf 39 26 d0 3e 9c 63 72 3f fe 3e 7f be
       -0.5687631 0.40654162 0.9468324 -0.24926373
0003d0 41 7a 97 3e 99 4f 5f be 34 1c 33 bf ec c1 1f 3f
       0.2958546 -0.21807708 -0.6996491 0.62405276
0003e0 c3 de 3e bf ad ba 4d bf cd df 59 be 9e 00 e6 be
       -0.7455866 -0.8036297 -0.2127678 -0.44922346
0003f0 9d d0 e8 3e 74 63 02 bf 41 d0 7f 3e 41 78 3e bf
       0.4547166 -0.50933003 0.24981786 -0.7440224

layers.0.bias f4 [256]
000000 7e 12 14 3f a9 f2 2a 3f 26 12 ac be 85 b6 f8 3e
       0.57840717 0.6677652 -0.33607596 0.4857675
000010 3d 68 9f 3e 9d 27 7a 3f e6 2b a0 3e ae 6e 28 3f
       0.31134215 0.97716695 0.31283492 0.65793884
000020 ac f9 0c 3f 53 24 5f 3f ab 7e 6c bf 3a 70 90 be
       0.5506847 0.871648 -0.9238078 -0.28210622
000030 92 1b 9a be 99 dd 87 bf 83 4b 8b bf ff c3 8e 3d
       -0.3009916 -1.0614501 -1.0882419 0.06970977
000040 8e 64 37 bf 6c ee 66 be 6d 16 d5 be e5 a1 0a 3f
       -0.7163781 -0.22551888 -0.41618672 0.5415328
000050 e6 1e e4 3e 14 b1 90 3d f0 3c 41 3f bb 5b ce be
       0.44554824 0.07065025 0.7548361 -0.4030436
000060 50 83 1a bf 0f f3 b4 be df 15 e4 bd 1e 16 14 3f
       -0.60356617 -0.3534169 -0.11136984 0.5784625
000070 3e 01 76 bf cd 9b 0b 3e 19 3b c1 be 8b 7d 23 3f
       -0.96095645 0.13633652 -0.377404 0.6386344
000080 47 9b 2f be f5 04 07 bf 6c 30 40 bf d0 6a 80 be
       -0.17149077 -0.5274194 -0.75073886 -0.2508149
000090 64 54 fb 3e be f3 5b 3f 40 e5 21 3e 41 11 21 bf
       0.49087822 0.85918796 0.15810108 -0.6291695
0000a0 51 dd 07 3f b2 d9 1e 3f 1d f0 be 3e a1 1a 75 3e
       0.5307208 0.62050927 0.37292567 0.2393594
0000b0 fa 76 76 bf 0a 20 34 3f ff 02 e0 be fe 46 9d 3d
       -0.96275294 0.7036139 -0.43752286 0.07679556
0000c0 66 ed 73 3e 23 51 a6 3e 04 44 f6 be 16 ae 1c 3f
       0.23821029 0.32483777 -0.48098767 0.61203134
0000d0 8d 30 a8 be 0a ab 1c bf 65 c1 20 3f 27 17 c8 be
       -0.3284954 -0.61198485 0.62795097 -0.39080164
0000e0 3a 0f 4e 3f ec 35 0c bf c7 15 8d be e3 1b a9 be
       0.80491984 -0.5476978 -0.27555677 -0.33029088
0000f0 b1 6e 5a bf af 90 57 3f 07 fb 77 3e 9e 90 09 bd
       -0.8532515 0.84205145 0.24216853 -0.033585183
000100 cb 1f 66 bf ae ec d4 3e d5 05 55 3f 37 26 90 3e
       -0.8989226 0.41586822 0.83212024 0.28154156
000110 51 da 14 3f f8 61 08 bf d6 b0 84 bf 74 b6 65 3d
       0.58145624 -0.5327449 -1.0366466 0.056082204
000120 3c 30 aa be cb a2 87 3e c0 30 ef 3e 68 7f 8a 3e
       -0.33239925 0.2649139 0.4671688 0.27050328
000130 65 89 5c 3f ba 38 26 bf f6 0f f4 3e 1c c3 a9 bd
       0.8614715 -0.6493031 0.47668427 -0.08289167
000140 66 d4 4b 3f ca 43 65 3f d5 d6 34 be 41 f0 a0 3e
       0.7962097 0.8955656 -0.17660077 0.314333
000150 0d 44 83 be 4e 70 be 3e 55 a9 09 be 34 c2 dc be
       -0.25637856 0.37195057 -0.13443501 -0.43116915
000160 90 58 3d 3f 2e ee 2b 3e 4f 98 6a bf e4 60 e0 3e
       0.7396326 0.16790077 -0.91638654 0.43823922
000170 09 c2 84 3e dc 02 64 bf 32 6a 46 be fa a0 9b 3e
       0.25929287 -0.89066863 -0.19376448 0.30396253
000180 a1 8e 19 bf 80 ae 16 bf 5a 3c 5f 3f ff a4 49 3f
       -0.5998326 -0.58860016 0.87201464 0.7876739
000190 93 bc 20 3f f6 d9 4f bf 06 4d e4 bc 8b 6b 40 be
       0.6278774 -0.81191957 -0.027868759 -0.18791024
0001a0 4e 7e eb 3e c0 1a 31 bc ae dc 42 bf 79 4b b2 3e
       0.459948 -0.0108096 -0.7611798 0.34823206
0001b0 71 bf 74 bf 97 b8 6b 3f 64 15 c8 be 74 31 5a 3f
       -0.95604616 0.92078537 -0.3907882 0.8523171
0001c0 a7 90 ea be a7 90 cd 3d c3 62 37 3f 2b 20 54 be
       -0.45813486 0.10037356 0.71635073 -0.20715396
0001d0 0f 28 ab 3e c9 84 b9 3d da 21 7f be f5 1a b9 3c
       0.33429 0.0905853 -0.24915257 0.022595862
0001e0 44 55 0b 3f 52 3d 64 bf 51 4c 3c bf 5b cf f5 be
       0.5442698 -0.8915607 -0.7355395 -0.48009762
0001f0 3a a8 e1 be 23 b2 31 3e 13 ce 1d bf 84 31 ef 3e
       -0.4407366 0.1735311 -0.6164257 0.46717465
000200 8e df 7f bf a2 cc 6b bf c8 e0 2c 3e 60 0c 73 3f
       -0.9995049 -0.9210912 0.16882622 0.9494076
000210 8f d4 5f 3f 25 e1 01 3f 4b da 22 3e 5b 9a f8 3e
       0.87433714 0.5073417 0.15903585 0.48555264
000220 04 0e 17 bf 10 cc b8 be 49 ea 46 3e 71 9d 22 3e
       -0.5900576 -0.36093187 0.1942531 0.15880372
000230 85 c9 98 3e ff 43 23 3f 2a 98 05 3f 67 93 33 bd
       0.29841247 0.6377563 0.5218531 -0.043841746
000240 dc 57 4e 3f 50 89 90 be 11 2d 11 3e 6d a8 de be
       0.8060281 -0.2822976 0.14177348 -0.43487874
000250 62 79 0b bf 6f f1 f7 3e c9 1a a0 3e 39 d0 23 bd
       -0.5448209 0.48426387 0.31270435 -0.0399935
000260 de e2 9b bd 1f 8e 2e 3f 92 b3 38 bf 8a 71 01 be
       -0.07611631 0.6818561 -0.72149 -0.12640968
000270 1f cf 27 bf 1a 16 78 bf 16 69 4b bf 3b ef 3a be
       -0.65550417 -0.96908724 -0.79457223 -0.18255322
000280 65 e2 65 bf 94 2f 4e bf dc 46 09 bf 5d e3 48 3f
       -0.89798576 -0.8054135 -0.5362375 0.7847193
000290 20 04 de be 93 9a fa 3e 00 e9 6b 3f 22 cd 4f 3e
       -0.43362522 0.48946056 0.92152405 0.20293096
0002a0 8d 31 7b bf 46 4b 42 3f b5 66 34 be a4 11 05 3f
       -0.98122483 0.7589611 -0.17617305 0.5198004
0002b0 a9 25 2e 3d 02 88 1f 3f 48 0a 28 bf 83 f4 79 bd
       0.042516384 0.62316906 -0.6564069 -0.0610242
0002c0 84 27 76 3f 78 83 91 be ad 6f f1 be 5c 7d e5 be
       0.96154046 -0.28420615 -0.47155514 -0.44822204
0002d0 ca 30 24 3f d7 cc 1e bd ec ab 3f 3f 3a af 03 3f
       0.64136946 -0.03876957 0.74871707 0.5143925
0002e0 02 3b 66 3f 80 62 27 3e 60 ee bb be aa 5b 6c bf
       0.8993379 0.16346169 -0.36705303 -0.9232737
0002f0 6e 1d 47 3f d6 95 28 3f 8d 15 0d 3e 34 12 36 bd
       0.7777928 0.6585363 0.13777752 -0.044450954
000300 57 e5 29 3d c0 b2 8b be 53 ea 37 3e e6 fc 41 3f
       0.04147848 -0.27284813 0.17960481 0.7577652
000310 ac 5d 61 3e 28 15 a6 be 72 eb aa be a7 34 a6 bd
       0.22008389 -0.32438016 -0.33382756 -0.081155114
000320 76 a2 46 bf a6 09 a0 3e 36 9e 7c bf b6 39 54 3e
       -0.77591646 0.3125736 -0.9867891 0.2072514
000330 99 71 72 3f 32 66 26 3f 5c da 36 3f 84 c2 34 be
       0.94704586 0.6499969 0.7142694 -0.17652327
000340 0f be 08 3f 53 c1 bd be 33 b7 0c 3f ee 32 51 3e
       0.53415006 -0.37061557 0.5496704 0.20429584
000350 80 b9 c3 3e 18 6d 1c bf 14 c4 90 be 31 64 4e 3f
       0.38227463 -0.61103964 -0.28274596 0.8062163
000360 e6 c2 ba 3e de 9e a5 3d 2e c3 ab be b9 7d 13 bf
       0.3647682 0.08086942 -0.33547348 -0.5761371
000370 ec 94 b2 be fa a3 9f 3e d9 4f de 3e d7 06 82 bf
       -0.34879243 0.31179792 0.43420294 -1.0158337
000380 f8 7e 4d 3f 3e 53 82 be 66 66 2c bf bd 2b 13 3f
       0.80271864 -0.25454134 -0.6734375 0.57488614
000390 9f c5 f4 3e 89 29 23 3f 7d 60 ea 3e ae f3 3f bf
       0.47807023 0.6373525 0.4577674 -0.749812
0003a0 98 28 39 bf 17 82 bb be fc b6 44 3f c9 93 07 3f
       -0.72327566 -0.36622688 0.7684171 0.5295988
0003b0 c6 ed 5e 3f fd c6 73 bf f7 58 1a bf a9 45 db 3b
       0.87081563 -0.9522551 -0.60292 0.0066916537
0003c0 c8 5a 54 3e 6b c2 ba be c7 bf 61 3d 1a 1e 24 3e
       0.20737755 -0.36476454 0.055114534 0.16027108
0003d0 9b dc 85 3e 33 d6 51 be 00 91 d6 3e 1a e1 48 3e
       0.2614487 -0.20491867 0.419075 0.1961712
0003e0 1e 47 26 bf b5 19 8e 3e 4e dc 66 be 1b 1d b6 3e
       -0.64952266 0.27753988 -0.22544977 0.3556908
0003f0 98 29 d5 3e 98 53 9f 3e fe 86 bf bd 3f 65 35 3f
       0.41633296 0.31118464 -0.093519196 0.70857614

layers.3.weight f4 [128, 256]
000000 23 09 28 bd 25 56 96 3c ba af 4a bd 14 be 43 3d
       -0.04102434 0.018351624 -0.049483992 0.047788695
000010 d2 52 12 bd 5b fb b9 3c 4f 37 0d bc ca 17 43 3d
       -0.035723515 0.022702863 -0.008619144 0.04763011
000020 3f 11 1e bd 10 53 72 3c 4e ec 4e 3d 6c ad 16 bb
       -0.038590666 0.014790311 0.050518326 -0.002299155
000030 65 f8 a3 bc 76 91 95 3c 75 d2 bf bc 31 3a 06 bd
       -0.020015905 0.018257838 -0.023415783 -0.03277034
000040 e1 27 2c 3e 71 3c 3a 3e 71 54 6d 3d dd 20 45 bd
       0.16812088 0.18187119 0.057941858 -0.048127044
000050 4a 7c 3b 3c d7 d2 f1 bc 32 9d 29 bd f0 78 bb bb
       0.011443207 -0.029519482 -0.04140968 -0.005721204
000060 8d d7 70 3d b6 ca 0f 3d 5c 6a a7 39 5f 1d 55 3d
       0.058799315 0.03510543 0.00031931966 0.052029964
000070 8d 99 28 bc 22 7e 26 bd 7b 1c aa bb a6 81 3b bd
       -0.010290516 -0.040647633 -0.0051913834 -0.04577794
000080 e4 a7 21 3c 88 91 a4 3b ef bd d8 ba 42 70 1f bb
       0.009866688 0.0050222315 -0.0016536097 -0.0024328385
000090 e6 62 b6 3c 88 e6 c1 3c 8f 4f 2b be 87 27 b6 3d
       0.022263955 0.023669496 -0.16729568 0.08894258
0000a0 91 b7 2c bd cb 28 78 bc c6 c4 86 3d 94 5d 62 bb
       -0.04216725 -0.015146445 0.065805 -0.003454064
0000b0 c6 a4 bc 3c 00 16 00 bd d0 87 3d 3d e8 59 47 3c
       0.023027789 -0.03127098 0.0462721 0.012167431
0000c0 da 39 11 3d 2a a7 13 bd 3c 50 69 3d 71 57 0d 3c
       0.035455562 -0.036048092 0.056961283 0.008626805
0000d0 21 cf 0d bd 2c 93 08 3e ed 03 19 bd 25 cf 49 3d
       -0.03462136 0.13337392 -0.03735726 0.049269814
0000e0 66 bc c0 3c b9 bb 55 3c 94 fd d3 3c 3b 67 0e bd
       0.023527335 0.013045245 0.025877751 -0.034766417
0000f0 3c 6e 20 bb 17 dd f3 bc fd f3 fe bc c8 78 24 3d
       -0.0024479767 -0.02976851 -0.031122202 0.04015425
000100 12 0c 09 3b ef c0 ac 3b 86 67 05 3a 7d 82 49 bc
       0.0020911735 0.005272023 0.00050889736 -0.012299177
000110 f6 55 1a bd 49 76 12 bd 46 f9 60 bc 60 36 10 bd
       -0.037679635 -0.035757337 -0.013731306 -0.035208106
000120 94 e8 ba bc 04 9d 8f 3b 46 c1 ab bb 04 bf 8b bd
       -0.02281598 0.0043827314 -0.005241546 -0.06823543
000130 8d 17 75 bc 4a 8d 34 3d d6 b5 49 bd f4 fb 20 3c
       -0.014959228 0.044080056 -0.049245678 0.009825695
000140 ae c4 fd bb b2 2c 8f 3c 14 22 31 bc 8b 32 9c 3c
       -0.0077443933 0.017477367 -0.0108113475 0.01906707
000150 35 f2 8d 3d 74 dd b7 bd 49 b7 22 3d 64 7f 76 3d
       0.06930963 -0.08977786 0.039725576 0.060180083
000160 49 dd 21 bd eb a3 10 3d 7e 02 60 3d 0c 21 f4 bc
       -0.039517675 0.035312574 0.054689877 -0.029800914
000170 1b 70 e0 bc ae 1f 61 bd c9 31 66 3d ea 97 54 3d
       -0.027397206 -0.054961853 0.056199823 0.05190269
000180 5c 15 20 3d 32 3e 43 bd c2 5f 05 be c5 4e e2 bd
       0.03908287 -0.047666736 -0.1302481 -0.1105018
000190 a2 73 8a 3c 39 a8 02 3e da f8 58 bd b8 94 76 3d
       0.016900841 0.12759484 -0.0529717 0.060200423
0001a0 d9 c9 87 3d 4c fd a9 3d 81 c1 66 bd 60 a6 2e bd
       0.06630296 0.08300266 -0.056336883 -0.042639136
0001b0 63 75 c9 3d 80 1a 24 bd 80 7b 1d 3c ee 2d 0f bd
       0.09836843 -0.040064335 0.009611964 -0.03495591
0001c0 2a f2 c4 3d ee c7 56 bc 7f 48 1d bd f6 2b 33 bc
       0.09616502 -0.01310919 -0.038399216 -0.010935774
0001d0 37 a8 ea 3b 69 ea 3e 3d 18 2a 88 3d d7 ee 4e 3d
       0.007161166 0.04661027 0.06648654 0.050520744
0001e0 ad a9 d7 bc 83 27 1a 3e 81 08 b5 bc 11 e3 60 bd
       -0.026326025 0.15054135 -0.022098782 -0.054904047
0001f0 e0 66 74 bc 00 9c c1 bd 43 f0 16 3e a0 ca 15 bc
       -0.014917105 -0.09453583 0.1474009 -0.009142548
000200 0c 9a d5 3c bc 56 5d bd 0b c2 01 bc 0a 87 03 be
       0.026074432 -0.054037794 -0.007919799 -0.12844482
000210 a2 27 da 3c e1 b7 1c bd 69 35 00 3c f5 98 07 bc
       0.026630227 -0.038261298 0.007825234 -0.008276214
000220 86 51 a3 3d 7c 06 ec bc 10 cb 08 bd 83 3b 4a 3d
       0.07974534 -0.028811686 -0.03339678 0.04937316
000230 7e b4 25 bd 8f c8 18 3d 92 db 6a 3d c4 6d 4e bd
       -0.040455334 0.037300643 0.057338305 -0.05039765
000240 13 c9 63 3d ec 4f 57 bd 5f d5 64 3d c5 82 46 3d
       0.05561168 -0.052566454 0.05586755 0.048464555
000250 c6 03 9b 3d a1 c0 65 3d cc 9b 3e 3c 69 75 2d bd
       0.07569079 0.05609191 0.011633825 -0.0423483
000260 28 36 67 3c 4c 07 49 bd 14 bf 26 3e f2 a1 25 3d
       0.014112033 -0.049079224 0.16283828 0.040437646
000270 d1 a1 31 3e 16 25 da bb 68 7d d5 39 66 64 71 bd
       0.17346884 -0.006657253 0.0004071996 -0.058933638
000280 9b 4e ac 3d 06 db c8 3c b1 1c 07 3e 18 b7 a6 3a
       0.0841343 0.024518501 0.13194539 0.0012719361
000290 67 81 59 bc d6 7c c4 3b 96 46 33 bd 1a 80 00 be
       -0.013275481 0.005996327 -0.043768488 -0.12548867
0002a0 40 48 24 3d f0 60 a8 bd 84 46 82 3d be 22 90 bd
       0.040107965 -0.08221614 0.06361106 -0.070378765
0002b0 33 83 69 3d 26 dc 54 bd 8d 88 6a 3d ac 3e a3 3d
       0.057009887 -0.051967762 0.05725913 0.07970938
0002c0 fc 80 07 bc 7a 71 07 3e e3 73 82 bd f9 7b 96 3c
       -0.008270498 0.13226882 -0.0636976 0.018369662
0002d0 ea 6c 21 3d 88 04 0d 3c 1d c7 bb bc 6e 4c 2e 3c
       0.03941051 0.008607037 -0.022922093 0.010638339
0002e0 9b 40 68 3b 8e 7a 03 3d d1 36 be 3d 7a a3 3f bd
       0.0035438898 0.0320993 0.09287799 -0.046786763
0002f0 d7 1c 57 bb 4d 1c 73 3a 1b 71 68 3d 68 28 08 bd
       -0.0032823586 0.00092739315 0.05674849 -0.03324166
000300 70 be a4 bb fd cf fe 3d 83 bb fd 3c b4 94 07 bd
       -0.0050275847 0.12442014 0.030973202 -0.0331008
000310 b9 0c d7 bc fe 91 87 3d 54 9b 00 ba 36 69 34 3d
       -0.026251184 0.06619643 -0.0004905958 0.04404565
000320 88 d6 a8 bc 67 8c 2f 3b a5 62 d0 bb 36 be 2e bd
       -0.020610109 0.0026786567 -0.0063594156 -0.042661868
000330 23 ce 78 bc 57 2e 7c 3d 79 2e 61 bd 94 b9 8a 3b
       -0.015185866 0.06156763 -0.05497596 0.0042335484
000340 c6 a7 69 bd e5 cf 5b 3d 20 b4 7a 3d 2b 7f 80 bc
       -0.057044767 0.05366506 0.061206937 -0.015685638
000350 bb bc 28 bd 45 4d e3 bc 4b 6d 78 3d eb e1 8c bb
       -0.041195612 -0.027746806 0.060651105 -0.0042993925
000360 4e 23 13 bb 25 01 48 bd 4b df bd bc ae 11 8a 3d
       -0.0022451463 -0.048829217 -0.023177763 0.067416534
000370 08 a2 76 bd e0 75 3c 3d 72 a4 27 3d 10 a6 9d bc
       -0.06021312 0.04601085 0.04092831 -0.019244224
000380 a6 df 5a bd 52 4f 31 3d 02 a3 60 3d d3 43 33 bc
       -0.053435944 0.043288536 0.054842956 -0.0109414635
000390 5b 5f 33 ba af df c4 bc 98 eb 5b bd 12 bd 40 3e
       -0.0006842517 -0.024032442 -0.053691477 0.18822125
0003a0 be 75 67 3d bb 0f 15 bc 8f ee 46 3c 4c 6e d9 3b
       0.056508772 -0.009097989 0.012141838 0.006635463
0003b0 0d df 2d 3c e4 b2 4d bd c7 b2 08 3e e8 00 5b 3d
       0.0106122615 -0.05021943 0.13349448 0.05346766
0003c0 2e 90 06 3d eb 73 eb 3d 1b 69 12 3d 38 ee 8b bd
       0.032852344 0.11496719 0.035744768 -0.06832546
0003d0 53 72 21 3d 11 d2 d1 bb 76 05 c9 bc 3a ce 3a bd
       0.03941567 -0.0064032157 -0.024538737 -0.04560683
0003e0 b6 f7 60 bd b1 53 b1 3b c0 1e a9 bc 3a ec ec bd
       -0.054923736 0.005411588 -0.020644546 -0.11568494
0003f0 56 57 ae bc f7 ac 76 bd ab 0d 6c 3d 84 e8 c9 bd
       -0.02128188 -0.060223546 0.057630222 -0.09858802

layers.3.bias f4 [128]
000000 54 e8 cb bc f3 f4 c6 bc 79 22 4f bd c9 72 b9 39
       -0.024891056 -0.024286723 -0.050569985 0.0003537147
000010 e3 d4 2a bd 29 cb 57 bd 4d 31 23 3d 9c d1 74 b8
       -0.04170693 -0.052683983 0.03984194 -5.8369347e-05
000020 08 9c 78 3d d5 6e 4a 3d 45 ac 79 bc c8 c8 84 3c
       0.060695678 0.049422104 -0.015238826 0.016209021
000030 8e be ea 3b 51 de b3 3b 3f 71 db bb 75 b5 04 3d
       0.007163829 0.0054891487 -0.0066968496 0.032399613
000040 ef b4 18 bd 4b 8b 50 bd 1a 2c c4 3c a3 09 7e bc
       -0.037281927 -0.05091409 0.02394681 -0.015505227
000050 8c de 0f 3d 53 53 16 bd 8e 22 00 bd 29 56 bd 3b
       0.035124347 -0.036700558 -0.031282954 0.0057780934
000060 79 4e 54 bd 30 75 24 bd 28 34 85 3d 0b 9c be 3c
       -0.05183265 -0.04015082 0.06504089 0.023267766
000070 c3 c0 4e bd 6f 19 29 bd c7 b7 45 3d d7 2c bd bc
       -0.0504768 -0.04128402 0.048270967 -0.02309267
000080 2c d1 4c bd e0 97 47 bd 3e de 09 3d 25 46 ae 3c
       -0.05000417 -0.048728824 0.033659212 0.021273682
000090 10 38 7f 3b 9e b5 d8 3c 96 dc 2e 3d f8 30 73 bc
       0.0038943328 0.02645379 0.042690836 -0.014843218
0000a0 5d 9c 5a bd 98 96 15 3c e6 72 75 3d 9a 5a a9 bc
       -0.053371776 0.009130143 0.05992403 -0.020673085
0000b0 67 20 22 bd 4e f1 02 bd 60 69 05 bd 35 52 42 3d
       -0.039581683 -0.031968407 -0.032571197 0.04744168
0000c0 99 23 cd 3c 97 16 e6 3b e2 25 18 3d 65 79 27 3c
       0.025041388 0.007021736 0.037145503 0.010221814
0000d0 49 6d be 3c 4f 60 84 bd c2 97 63 3c 2e cd f0 3c
       0.02324547 -0.06463682 0.013891162 0.029394712
0000e0 76 dd 86 3d 78 28 38 bd ca 17 ee bb c0 5c bf bc
       0.06585209 -0.04496047 -0.0072660195 -0.023359656
0000f0 86 d4 2a bd 4c de 4b bd ee 2e 18 bd 86 c5 e0 bc
       -0.041706584 -0.049772546 -0.03715413 -0.027437937
000100 a6 8d 43 3d 96 87 6e bd f6 9c 69 3d 0b df 29 3d
       0.04774251 -0.058234774 0.057034455 0.041472476
000110 27 b8 eb 3c 9a 59 e7 3c d6 13 4a 3d 2f b2 51 bd
       0.028774334 0.028240968 0.049335323 -0.05119532
000120 ef 32 c5 3c 28 16 63 bc 75 80 07 3d 77 ef 11 3d
       0.024072139 -0.013860263 0.03308149 0.035628762
000130 ed 3b e1 bc 21 d5 4b 3c 29 e2 47 3d 4c ed 19 3d
       -0.027494395 0.012440951 0.048799668 0.03757982
000140 56 f8 55 3d 6d ce 3e 3c 9a 70 0f 3a 53 1a 5e 3c
       0.052238785 0.011645895 0.0005471796 0.013556081
000150 63 c1 b3 bc 45 d7 bc 3c 7c 23 43 3d da 6d 37 3d
       -0.0219428 0.023051867 0.047641262 0.044782497
000160 64 74 b3 bc 6f 97 82 bd 4d e7 bb 3c d0 ba cd bc
       -0.021906085 -0.0637654 0.022937441 -0.025113493
000170 a9 9b 7c bd c0 64 7e 3d e8 74 13 bd 0a 5d 52 3d
       -0.061671887 0.0621078 -0.036000162 0.05135826
000180 76 21 a0 3c 6b d0 d4 bc 5c 65 ee bc 65 4f 13 3d
       0.019547205 -0.025978288 -0.029101066 0.03596439
000190 af d8 82 bc d7 a6 25 bd 74 b2 79 3d 22 af 2e 3d
       -0.015972463 -0.040442314 0.0609612 0.04264749
0001a0 f6 01 78 bd 51 f9 98 bc 63 a6 40 3b fe e7 9d bc
       -0.060548745 -0.01867357 0.002939605 -0.019275662
0001b0 0d a9 1a bd cd 33 6c 3d 8e 3e 11 bd 05 0a 30 3d
       -0.037758876 0.05766659 -0.035460047 0.042978305
0001c0 8d f5 4c bd a0 e4 84 bd d5 71 dd bc be d7 5a bd
       -0.050038863 -0.06488919 -0.027031818 -0.053428404
0001d0 65 45 40 3b 74 8a c1 bc 65 1e c3 ba 15 f2 22 3c
       0.0029338237 -0.02362559 -0.0014886378 0.009945412
0001e0 95 a9 8e 3b cc a0 42 3d 0d 32 25 bd 30 9b 5b bd
       0.004353712 0.04751663 -0.040330935 -0.053614795
0001f0 bc 40 62 3d 39 97 10 bd a5 89 8b bc 80 6c 04 3d
       0.055237517 -0.035300467 -0.017033407 0.032330036

layers.6.weight f4 [64, 128]
000000 b9 70 93 3d 9d 97 91 bb fb a7 cd bc 7f 6d d8 3c
       0.071992345 -0.0044431225 -0.025104513 0.0264194
000010 7f 5b 55 bd b6 57 2c 3c 1b 9f d9 3d fd 66 8b bd
       -0.05208921 0.010518959 0.1062605 -0.06806753
000020 10 81 b9 3d cb be 7d 3c 68 20 07 3d bf 04 d9 bd
       0.0905782 0.015487383 0.03298989 -0.10596608
000030 b0 f1 80 3d f3 74 e0 3c 41 af 1b bd a8 87 d8 bc
       0.06296098 0.027399516 -0.038008932 -0.026431873
000040 fc bd 42 3d 98 60 9d bd 68 5e c5 3c e0 ef 42 3c
       0.047544464 -0.076844394 0.024092868 0.011898011
000050 39 72 98 bd cf 60 4e 3d 84 88 c3 bd f9 05 b4 bd
       -0.07443661 0.050385293 -0.09547523 -0.08790202
000060 e3 90 ab 3d 94 e5 27 bc 03 2e b4 bd 90 ae ac 3d
       0.08377244 -0.010247607 -0.087978385 0.08431733
000070 b7 b9 da bc 5c 8f 54 bd 11 4b a3 3c ab 13 94 3b
       -0.026699884 -0.05189453 0.019933255 0.004518946
000080 65 b8 83 3c 04 58 6a b9 f6 da 22 3d 3c 69 e1 bd
       0.016079137 -0.00022348767 0.0397596 -0.110064
000090 f3 f8 ee 3d 7b c7 a7 bd d3 db 8b bd 97 06 61 bc
       0.11668577 -0.08192345 -0.068290375 -0.013734481
0000a0 4f 31 03 bd 9f 17 1e bd d8 5d 62 3c af f4 b8 3d
       -0.032029446 -0.038596746 0.013816319 0.09031045
0000b0 b9 5a 39 bd 29 e8 9e 3d 82 ed 00 3d 8f 2e 18 3c
       -0.045252535 0.07759125 0.031476505 0.009288444
0000c0 ff 83 0b bc 77 6a 65 bd 37 05 9a 3d 86 ed df 3c
       -0.008515357 -0.056009736 0.07520526 0.02733494
0000d0 13 62 d4 3d fc 02 9a 3c c3 7a d5 3d fb 23 b4 3d
       0.10370269 0.018800251 0.104238056 0.08795925
0000e0 0d 1f 76 3d 5d c9 8e bb dc 57 7e 3b 5b b6 0a 3d
       0.060088206 -0.0043575005 0.0038809692 0.033865314
0000f0 9b b9 75 bd 4b 14 50 bd 9b cf 9a bd 73 f8 9c 3d
       -0.05999146 -0.050800603 -0.07559129 0.076645754
000100 19 d2 7a 3d 16 f0 50 3d 83 68 37 3d 9e 5c 97 3b
       0.06123552 0.051010214 0.044777405 0.004619195
000110 3e 22 66 bd 9f a1 00 3c 66 b6 0b bd cc 09 bd ba
       -0.056185 0.0078510335 -0.034109496 -0.0014422475
000120 0a a6 8e 3d ab bb 82 3d ce ee d3 bc 2c 07 d7 3a
       0.06965263 0.06383451 -0.025870707 0.0016405336
000130 8a d2 27 bd 35 9a 81 bb b0 f6 5a 3d 8b de a0 bd
       -0.04097227 -0.0039551505 0.053457916 -0.07854947
000140 dd 3d 0e bc 87 87 a9 3d 36 64 a8 3d f0 1f df bc
       -0.008681742 0.08277803 0.08222239 -0.027236909
000150 37 6e f0 3c e5 84 8c 3c 71 38 2d 3d 68 8e 62 bd
       0.02934943 0.017153213 0.042290155 -0.05531159
000160 c9 97 f6 bc 90 9a 54 bd dd 79 5d 3c d3 0c c2 ba
       -0.030101674 -0.051905215 0.013517824 -0.0014804847
000170 fc 16 35 3b 2f 09 a3 3d cd 32 96 ba 28 48 7f 3d
       0.0027632108 0.07960736 -0.0011459232 0.062324673
000180 e0 26 97 3d d8 a0 11 bd 67 8c b8 bd 0b e2 8c bc
       0.07380462 -0.035553783 -0.090111546 -0.01719763
000190 04 48 a3 bc b1 f9 1f 3d 17 de f2 3c 73 03 a8 bd
       -0.0199318 0.039056484 0.029646916 -0.08203783
0001a0 fc 43 01 bd 83 36 83 3d 67 f7 d7 3d 8e f6 ad 3d
       -0.031558976 0.06406882 0.10545235 0.08494292
0001b0 2e f7 49 3c 0d 59 7e bd 78 ac 33 3a aa 44 b2 3b
       0.012326999 -0.062096644 0.0006854008 0.0054403143
0001c0 5f 4d 6d 3a a8 78 83 3d e2 9d ec 3c 9c fd 0d 3d
       0.0009052362 0.06419498 0.028883878 0.03466569
0001d0 1d c0 8b bd 89 3c 6c 3d 85 cf 74 bd 12 19 09 bb
       -0.06823752 0.05767492 -0.05976822 -0.0020919484
0001e0 1d 00 b9 3d 09 6c 77 3d 34 97 9d bb 5d 71 85 3d
       0.09033225 0.060405765 -0.0048092846 0.06515763
0001f0 aa 4c 3c bd 84 36 cf bd b0 ef a4 3d f0 89 65 3d
       -0.04597155 -0.1011782 0.08053529 0.05603975
000200 67 a6 62 bd ad e6 8e bd 75 be 59 bd 92 1f ae bc
       -0.055334475 -0.06977592 -0.05316015 -0.021255288
000210 b0 d2 99 3d cd 29 68 3c 29 b8 fa ba 26 0d f2 bc
       0.075108886 0.014170122 -0.001912837 -0.029547285
000220 be c1 a5 bd 0d a0 d0 bb cb 9d 2c 3d 8f e4 3c 3d
       -0.08093594 -0.006366736 0.04214267 0.046116408
000230 b1 f1 c1 bc 4d 43 87 3d 0f ba 69 3d 9f 16 5e bc
       -0.023674818 0.066046335 0.057062205 -0.013555198
000240 26 e4 10 3c 68 77 54 3d a0 b6 b7 bc 67 50 3b 3d
       0.008843457 0.051871687 -0.02242595 0.045730975
000250 61 f4 ff 3c 53 fd 10 bd 5b 7a 44 bd 2d f6 2f bd
       0.031244459 -0.03539784 -0.04796825 -0.04295938
000260 dd 94 1c bd 43 55 7d bd 44 10 a1 3c e1 65 4d 3d
       -0.038227905 -0.06184889 0.019661076 0.050145987
000270 71 e3 af 3d 70 03 24 bb 95 30 34 3c 37 c2 a9 3d
       0.08588303 -0.0025026463 0.010997911 0.08288997
000280 11 26 bd 3c 67 d8 69 bd 0d b9 e9 bc da a5 e9 3d
       0.02308944 -0.057091143 -0.028530622 0.11408587
000290 9a 5d 79 bd d2 d6 41 3d ef 45 9f bd e5 3d 0b 3c
       -0.06088028 0.04732401 -0.07777011 0.0084986435
0002a0 79 db 84 bd c4 33 1f 3d 93 d3 ef bc bc 0b 54 bd
       -0.064871736 0.038867727 -0.029275691 -0.051769003
0002b0 ef e9 18 3c c8 80 7f bb 4d c3 77 3d d1 11 e3 bb
       0.009333118 -0.0038986672 0.060488988 -0.006929614
0002c0 b6 27 82 bd 1e f2 42 3d 05 72 83 bd 29 a5 af bd
       -0.063552305 0.047594182 -0.06418232 -0.08576424
0002d0 c7 70 96 3b 37 b3 83 bd 73 44 b2 ba ce 85 92 bd
       0.004591081 -0.06430667 -0.0013600722 -0.071544275
0002e0 92 82 0d 3d b4 bc b7 bc 03 ad bd 3b b5 7a e9 bc
       0.03454835 -0.022428848 0.005788447 -0.028500894
0002f0 b1 f2 39 3d 94 82 d7 bd 91 0e 11 3d c3 a2 09 bd
       0.045397464 -0.10522953 0.035414282 -0.033602487
000300 bf ce 2b 39 7f ae 53 3d ee ab 8e bb 7b 27 1b bd
       0.0001638485 0.051680084 -0.0043539917 -0.03787945
000310 d1 c9 49 3d 3a 81 16 3d 4a 2b 79 bd 39 36 b5 bd
       0.049264733 0.036744334 -0.0608323 -0.08848233
000320 72 14 cb bd 7e 52 b5 ba 11 bc 85 bd 82 26 e1 bb
       -0.09916009 -0.0013833789 -0.065300114 -0.0068710456
000330 17 fb 12 3c 33 45 9d 3d 1b 29 aa 3d e7 36 42 3d
       0.008970997 0.07679214 0.083086215 0.04741564
000340 0f cc ca bb 8d 4e 81 bd 35 73 21 3c 91 86 b4 3d
       -0.0061888765 -0.063138105 0.009854128 0.08814729
000350 ad 38 4c 3c bb 25 f7 bc 43 5c 0e bd 7f 22 18 3c
       0.012464684 -0.030169358 -0.034755956 0.009285568
000360 92 d5 ea 3b f8 0f 7a bc 9b 8e 89 bd 72 18 98 3d
       0.007166573 -0.015262596 -0.06716653 0.074265376
000370 d9 19 6d bd e3 8e bd bc cd 09 52 ba 3c b0 6b 3d
       -0.05788598 -0.023139423 -0.00080123247 0.057541117
000380 e6 11 cc bc 17 47 b7 bc 29 f1 13 3d 65 8e 4b bd
       -0.024910878 -0.022372765 0.03611866 -0.049696345
000390 1c 43 8c 3d 71 45 fa 3c b6 2a d8 3c ca 3b 02 bd
       0.068487376 0.03055069 0.026387554 -0.0317953
0003a0 31 52 5a 3d 1c fb 45 bd ff 28 87 bc 2b a9 77 3d
       0.05330104 -0.04833518 -0.01649904 0.060464066
0003b0 0d a1 38 3b 71 3e 69 3d 44 6d f2 bd 4b a7 28 bd
       0.0028172166 0.056944314 -0.11837247 -0.041175168
0003c0 d8 57 bd 3c b5 bf ac 3d ad ed 86 bd 7d 49 9d 3d
       0.023113176 0.08435003 -0.06588302 0.076800324
0003d0 53 30 3a bd c0 f6 1c bd 42 b1 f8 bb e8 0e c0 3b
       -0.04545624 -0.038321257 -0.00758949 0.005861152
0003e0 53 84 b4 bd 1f ae 7b bc b3 16 63 3d 7e c9 83 3d
       -0.08814301 -0.015361338 0.05544157 0.06434916
0003f0 e8 d8 4e bb b1 58 6f 3d df fb b8 3d 12 4a a5 bc
       -0.0031562392 0.058434192 0.090324156 -0.020176921

layers.6.bias f4 [64]
000000 ed e7 a9 ba 9b 25 81 bd e5 3d 93 bd f6 70 e9 bc
       -0.0012962796 -0.06306001 -0.0718954 -0.028496247
000010 e3 d7 d2 bc b8 a8 34 bd 41 79 57 3c 6a 78 96 bc
       -0.025737708 -0.044106215 0.013151468 -0.018367965
000020 bd 29 14 bd 04 fc 68 3d 77 be f0 bd 88 cb e5 bd
       -0.036172617 0.056880966 -0.11755078 -0.11220461
000030 0b 55 47 be 9e ea 4a 3d 88 34 5c bd cc a6 03 3c
       -0.19466035 0.049540155 -0.053761035 0.008035373
000040 f9 ea db bc 7a da 8a 3c 3f 8a 27 be 0b f3 83 3d
       -0.026845442 0.01694988 -0.1636133 0.06442841
000050 fb ff 91 3d e7 f2 cd bc 4f b9 1b bd ad fd 8e 3c
       0.071289025 -0.025140239 -0.03801852 0.017454946
000060 b3 3d 1d bb a1 df 85 bd 00 b1 38 bc 35 10 cd bd
       -0.0023993074 -0.065367945 -0.011272669 -0.10012857
000070 94 b3 7e 3d e7 95 88 3d 0c 34 df bc 8b a9 05 be
       0.062182978 0.066692166 -0.027246498 -0.13052957
000080 e9 61 5e bd 10 ae 13 be 2d e9 9d bc 73 71 0c be
       -0.054292593 -0.14421868 -0.019276226 -0.13715152
000090 fc 51 81 3b 2a 60 26 bd 87 02 98 3d 88 0a ac bd
       0.003946541 -0.040619053 0.07422357 -0.08400446
0000a0 f1 c3 0b bc 82 b7 47 3d 9b b7 33 bc 84 b2 24 3d
       -0.008530603 0.04875899 -0.010969068 0.04020931
0000b0 df af 37 be 4a a6 ab bd f2 9c fa 3d f4 8d ac bd
       -0.17938183 -0.083813265 0.12236966 -0.08425513
0000c0 a0 54 0e be 24 6e b7 3b d7 04 0c 3d d9 14 84 3d
       -0.1389947 0.0055978466 0.034184303 0.06449289
0000d0 2e 24 af 3d 64 2e 62 3c a3 1a 68 bd be c4 48 3c
       0.085518226 0.013805006 -0.056666028 0.012253938
0000e0 e5 9b 47 3d 53 9b ba 3b c1 fd 11 bd 98 7f b0 bd
       0.048732657 0.0056947856 -0.03564239 -0.086180866
0000f0 80 7f f4 bc c2 1d ad bd 66 7c a1 3d ae d7 bb 3c
       -0.029845953 -0.084529415 0.07885055 0.022929993

layers.9.weight f4 [32, 64]
000000 5c ec ac bb f7 45 37 bd 57 78 20 3d f2 6b 91 bd
       -0.0052771997 -0.044744458 0.039177265 -0.07100667
000010 c3 64 23 bd 71 79 52 3d e2 1e ab bc 26 1d 6d bd
       -0.039891016 0.051385347 -0.02088875 -0.057889126
000020 be 74 65 bd b9 50 23 3d 6f 42 0c bd fe 36 19 3c
       -0.056019537 0.039871905 -0.034243044 0.00935149
000030 45 e5 21 3d 9d 9c 09 be a9 4c b2 bd d1 f0 a6 bd
       0.03952529 -0.1343865 -0.08706028 -0.08151401
000040 d8 5f cf bc 2f 81 ac 3d 21 d0 9a bc 44 c3 2e 3d
       -0.025314257 0.08423077 -0.018898072 0.04266669
000050 d4 88 00 be a5 c2 89 3d f8 cc 24 3c 18 95 8b bd
       -0.12552196 0.067265786 0.010058634 -0.06815547
000060 c8 6b f9 3d 73 60 dd bc 43 47 cc 3d 1c 81 86 3d
       0.12178761 -0.02702353 0.099745296 0.065675944
000070 84 b2 a4 3d 3d c6 a3 3d 99 3e 07 3e 8e 7f 8a 3d
       0.08041862 0.07996795 0.13207473 0.067626104
000080 1c 3e d2 ba 03 1c 1a 3e 9e c3 a8 bd b6 e8 00 3e
       -0.0016040239 0.15049748 -0.08240436 0.12588772
000090 28 3c 89 3d 6e 1e 33 bc 3e c6 fe bc 53 82 4b bd
       0.06700927 -0.010932548 -0.031100389 -0.049684834
0000a0 45 a2 c5 bd 90 00 bb bc 71 01 31 bd 35 3a e8 3d
       -0.09650091 -0.022827417 -0.043214265 0.11339227
0000b0 30 66 1c 3b 37 1a 8f bd cf 18 83 3c 43 7d 62 3d
       0.002386462 -0.06987422 0.01600304 0.05529524
0000c0 df b5 9a 3d 98 d6 91 3c 0a 3a a4 bd 9a ad c0 bd
       0.075542204 0.017802522 -0.080188826 -0.09408112
0000d0 47 c2 e6 3c 22 8d db bd b6 d2 7e 3d f3 35 32 bd
       0.02816881 -0.10720278 0.06221267 -0.04350848
0000e0 12 da 1c bc cd 5b e2 bd e4 f0 a1 bd 7d 09 8b 3d
       -0.009573476 -0.11052666 -0.07907274 0.06788919
0000f0 24 d4 db bd 50 de 52 bd a4 ef 4b 3c 17 08 1e bd
       -0.10733822 -0.051481545 0.0124472715 -0.038581934
000100 d7 eb 4e bc 44 53 04 be ef 08 46 3d d8 4a 0f bd
       -0.012629471 -0.12922388 0.048348363 -0.034983486
000110 c4 da bb bd 78 07 1c bd f7 80 8e bd 6b df ca 3d
       -0.091725856 -0.03809306 -0.06958192 0.09905895
000120 43 cd 0f 3e 71 6c dc 3c 98 51 f4 bd 11 8d b5 3c
       0.14043145 0.026907178 -0.11929625 0.022161992
000130 aa 91 0b be b5 e2 a4 bd f7 07 55 3c 10 24 ad 3d
       -0.13629785 -0.080510534 0.013002387 0.08454144
000140 3e ce 0e be 37 21 53 3b 70 0a 04 3d 03 c0 83 3d
       -0.13945863 0.0032215843 0.032236516 0.06433108
000150 a2 19 94 bd cb dc 0b 3e 03 17 e4 bd 4b 98 c6 3c
       -0.072314516 0.13658445 -0.11137202 0.02424254
000160 89 28 9d ba 53 39 23 3d 5d ce a9 3c 9a 2b 11 be
       -0.001199023 0.03984959 0.020728284 -0.14176789
000170 ef 21 8f 3d 18 f1 e2 3d 6c f8 3a bc 4b 9f ec bd
       0.06988894 0.11081141 -0.011411767 -0.1155382
000180 3b 5a de bd 68 0f 9c 3b 93 37 0a bd b7 5b 1a be
       -0.10857054 0.0047625788 -0.033744406 -0.15074049
000190 3e 9d df 3d a9 9e 95 bd e1 44 29 bd b9 fe 00 3d
       0.109186634 -0.07305653 -0.041325454 0.031492922
0001a0 4c 56 c3 bd 90 82 54 3c d2 1e 64 bd 8c 20 fc 3d
       -0.09537944 0.012970582 -0.055693455 0.12310895
0001b0 0d 9d a0 bd 97 bd ed bd 52 0d b6 3c 4a 6d 4a bd
       -0.07842455 -0.11608427 0.022223148 -0.049420632
0001c0 0d 37 a9 3d d9 68 c1 bd 45 cc dc 3d d1 7f d4 3d
       0.08262453 -0.09443826 0.10781149 0.103759415
0001d0 4d 0e 90 3d 93 ae 28 3d 77 d6 b2 3c 1f 7f b4 3d
       0.07033978 0.041182112 0.02183078 0.08813309
0001e0 3a f9 38 3c 6a 20 67 bd 3c a7 fd bb 52 c4 d1 bd
       0.011289889 -0.056427397 -0.007740883 -0.10242523
0001f0 27 57 28 3d 7a 50 ab bd a0 cd c8 3c d7 ad e4 3c
       0.04109874 -0.08364959 0.024512112 0.027914925
000200 35 65 d6 3d 04 3a 05 be 56 89 c5 bd bf 04 fe 3d
       0.104685225 -0.13010412 -0.096453354 0.12403249
000210 ce 7c b4 bd 4e 24 bb 3d 56 bc 03 3d 0c 49 97 bc
       -0.08812867 0.09137784 0.032162033 -0.018467449
000220 52 99 28 3d 93 dc 02 3e 56 d7 f6 bd 87 5e 9a 3b
       0.041161843 0.12779455 -0.12052791 0.0047109756
000230 2f 0e 78 3d b3 60 fa 3c 21 6d 6f bd 08 e9 71 3d
       0.0605604 0.030563688 -0.058453683 0.059060127
000240 ea 5d 7d 3d 28 0a c3 bd 84 14 c7 bc bb f1 f4 3c
       0.06185714 -0.095234215 -0.024301775 0.029900422
000250 de fc f1 3d c2 1e e3 3d 79 e6 93 3d f7 b1 ef 3d
       0.11815809 0.11089851 0.072216935 0.11703866
000260 6a 13 c5 bd b6 1f 30 3d ca fb b4 3d a6 bd 28 bd
       -0.096228436 0.042998992 0.088370875 -0.041196488
000270 ff 91 0f 3c b2 54 cc 3d bd 56 a8 3c 16 1b 92 bd
       0.0087628355 0.09977092 0.020549173 -0.071340725
000280 e4 84 25 be 60 04 c7 bd d5 e4 0b ba 04 47 72 bd
       -0.16163975 -0.09717631 -0.0005336528 -0.059149757
000290 0e 1d 71 3d 67 a8 f9 bd dd f5 fa 3d 2c d0 38 bd
       0.0588656 -0.12190323 0.12253926 -0.045120403
0002a0 95 7a 84 bd 9b 45 21 bc b3 78 86 3d 4c 01 05 3e
       -0.06468693 -0.009843255 0.0656599 0.12988776
0002b0 0d fb 3b bd 27 5c 06 3c 90 63 ec 3d 10 35 10 be
       -0.045893718 0.008200682 0.115424275 -0.14082742
0002c0 86 f0 05 be 1c 9c 91 bd 60 86 94 3d c8 d5 21 3c
       -0.13080034 -0.071098536 0.072521925 0.00987763
0002d0 08 87 42 bc 73 58 34 bd 13 bc ae 3d a4 58 10 3d
       -0.011873014 -0.044029664 0.08531966 0.035240784
0002e0 b0 1c 42 3d b9 64 72 bc 59 4e d6 bd 02 ca 1a be
       0.04739064 -0.014794522 -0.104641624 -0.15116122
0002f0 16 fd 0d 3d f8 0a 6c bd 38 7a d5 3d 96 55 31 3d
       0.03466519 -0.057627648 0.10423702 0.04329451
000300 24 20 c4 bb 94 e5 12 bd 45 8c a1 3d d5 6e 05 bd
       -0.005985277 -0.035863474 0.078880824 -0.0325764
000310 a4 e6 a8 3d 4b 38 39 3d 73 fc 21 3d f2 a1 ec bd
       0.08247116 0.0452197 0.039547395 -0.11554326
000320 61 9f ac bd 6d 5b 11 3c 58 b0 95 3d 03 6b ab 3c
       -0.084288366 0.008871895 0.073090255 0.02092505
000330 0a 20 9f 3d 96 7b fa 3c 61 5f 4a 3d 95 a1 86 bd
       0.07769783 0.030576508 0.049407367 -0.06573788
000340 48 29 fe bd c4 60 9d bd a5 e7 14 bd 09 67 47 bd
       -0.124102175 -0.07684472 -0.036353726 -0.048682246
000350 5e ca eb bd f9 9d 8a 3d 72 65 19 bd 41 a7 0c 3d
       -0.11513208 0.06768412 -0.03745026 0.034339193
000360 c3 37 3e bd 11 c4 40 bc e7 dc 29 bd f9 56 6c 3d
       -0.046439897 -0.011765496 -0.041470435 0.05770013
000370 7e 0b 41 bc 08 50 1b be e8 e0 49 bc ca 0b bd 3d
       -0.011782525 -0.15167248 -0.012321688 0.09230764
000380 87 1e 9b bb 46 fa dd bb df 7d 6e bd 35 ab 36 bd
       -0.0047338638 -0.0067742197 -0.05822551 -0.04459687
000390 3b 14 b4 3d 93 c6 d3 3c 79 3f 07 3c 35 7e 9e 3d
       0.08792921 0.025851524 0.008254879 0.07738916
0003a0 15 18 33 bd 61 11 9b bd f3 85 ab bd 23 af 3d 3d
       -0.04372414 -0.07571674 -0.08375158 0.0463096
0003b0 48 aa 0f 3e f3 65 47 3b 90 9b 1a bc 16 fa 17 bc
       0.14029801 0.0030425757 -0.009436503 -0.009275934
0003c0 c7 cf 3b bc 45 1c ca 3d ba db 4f 3c de 75 f0 3c
       -0.011463112 0.09868673 0.012686664 0.029353078
0003d0 cc a0 8f bd b5 6a 63 bd 77 e1 55 bd 28 4b 6c bd
       -0.070130914 -0.055521686 -0.052216973 -0.057688862
0003e0 3d 35 6a 3d 5f a9 40 bd 7f 4e d3 bd a2 97 8c bd
       0.05717968 -0.047036525 -0.10317706 -0.06864859
0003f0 0b bc c8 3c da c5 22 3d db 32 c7 bd 24 f8 77 3c
       0.024503728 0.039739467 -0.09726497 0.015134845

layers.9.bias f4 [32]
000000 2b 01 8a 3c c8 bd c1 3d dc 9b 17 3d c1 fd 0e be
       0.01684626 0.09460026 0.037013873 -0.13963987
000010 48 0b 06 3e 9f e1 5e bd 02 c3 8a 3d 66 65 17 3e
       0.13090241 -0.054414388 0.06775476 0.14784774
000020 57 bf 9a bc 20 d0 99 bd 59 fd 19 bd cc 2e 1b bc
       -0.018890066 -0.075104 -0.037595127 -0.009471606
000030 a5 c6 96 bd df e3 1c bc 28 20 51 bd 78 be 83 bd
       -0.07362107 -0.009575813 -0.051056057 -0.064328134
000040 73 83 90 bd 93 c9 1d be bb 5e 94 3d 8e 3e 9b 3d
       -0.07056322 -0.15408926 0.07244631 0.07580291
000050 3d 86 31 bc 40 9f d1 bd 12 da c4 bd 46 e2 e3 3c
       -0.010835228 -0.10235453 -0.09611906 0.027817857
000060 90 6d 97 bd 1f 52 0c bc d1 1f 04 3e db 35 e7 3b
       -0.07393944 -0.008564501 0.12902762 0.0070559806
000070 bc 50 fc bd fb 4d 2a 3d cf b9 fd bd 59 a5 85 3c
       -0.12320086 0.041578274 -0.12388956 0.016314195

layers.12.weight f4 [1, 32]
000000 45 ad 3f be 79 f1 dc 3d 53 ab 63 3d ba b1 13 be
       -0.18718441 0.10788245 0.05558331 -0.14423266
000010 7c d9 0d 3e 0b d6 23 be 92 65 c4 3d e3 88 f9 3d
       0.13852495 -0.1599962 0.095896855 0.12184312
000020 db d6 67 be 3b 5d ff bd 4a 33 e6 3d 4d 4d 64 3d
       -0.22640555 -0.12468954 0.11240251 0.055737782
000030 2a 53 08 be 47 b5 cb 3d 61 11 47 3d 91 b8 17 be
       -0.13312975 0.09946685 0.04860056 -0.148165
000040 e7 70 1a be 17 2d 05 be f9 1d ee 3d fc e5 05 3e
       -0.15082131 -0.13005482 0.116268106 0.13076013
000050 68 47 da bd 52 da 1c be 99 a3 53 be 85 6b 30 be
       -0.10658151 -0.15317658 -0.20667876 -0.17228515
000060 5b 71 21 be 0a 7c 2a be 4e 2d be 3d ed 99 1e 3e
       -0.15765898 -0.1664888 0.09285985 0.15488406
000070 9a 01 fc bd ce c0 f4 3d 4f f9 f4 bd 6e 13 6a be
       -0.12304993 0.11950837 -0.11961614 -0.22858974
