models/nn/nn_bl_only_lf_mae.pth (torch, 12140 bytes, 5 tensors)

layers.0.weight f4 [64, 2]
0	0xbf54b88c	-0.83094096
1	0xbe002aef	-0.12516378
2	0x3f15bd5c	0.58492064
3	0xbd851699	-0.06498451
4	0x3eab6178	0.334728
5	0xbcb7ae85	-0.022422085
6	0xbf12438c	-0.5713432
7	0x3ec0f77d	0.3768882
8	0xbecb9538	-0.39762282
9	0x3ca4eaf7	0.020131571
10	0xbf571b2a	-0.84025824
11	0x3ed51d51	0.4162393
12	0x3f59a372	0.8501502
13	0xbeade1be	-0.3396129
14	0xbf707b2a	-0.93937933
15	0x3e9c5be2	0.3053885
16	0xbefbae85	-0.49156585
17	0x3e9123fe	0.28347772
18	0x3f77d374	0.96807027
19	0xbeb4a08d	-0.3527874
20	0x3f585e10	0.8451853
21	0xbd5fb48c	-0.054615542
22	0xbf2ac4af	-0.66706365
23	0xbeb9aa71	-0.3626285
24	0xbedf2afc	-0.43587482
25	0x3ebf24d3	0.37332782
26	0xbf346856	-0.70471704
27	0x3f20494c	0.6261184
28	0xbf2cd657	-0.67514557
29	0x3ed99199	0.42493895
30	0xbf1604ab	-0.5860087
31	0x3e08ab28	0.13346541
32	0xbf2af185	-0.6677478
33	0x3d475375	0.048663575
34	0xbf22cdbb	-0.6359517
35	0x3ea2fc5e	0.31833166
36	0x3f893e0f	1.0722064
37	0xbeaebbe2	-0.34127718
38	0x3ee1585c	0.44012725
39	0x3e8c2fb5	0.27380148
40	0xbf0d5249	-0.5520368
41	0x3d09ab44	0.033610597
42	0x3f83eca9	1.0306598
43	0xbed0a000	-0.4074707
44	0x3f8bca31	1.0921079
45	0xbea49931	-0.32148126
46	0x3f45c422	0.772524
47	0x3d5e73eb	0.054309767
48	0xbe15454d	-0.14577217
49	0x3c5593ab	0.013035695
50	0xbeeb37db	-0.45941052
51	0x3f1688a4	0.5880225
52	0xbef167b9	-0.47149447
53	0x3f5117bd	0.81676847
54	0xbef0720b	-0.46962008
55	0x3f1c171f	0.6097278
56	0xbebb1b47	-0.36544248
57	0xbe85ea47	-0.26155302
58	0xbea9414e	-0.33057636
59	0x3ea68877	0.3252599
60	0xbf303485	-0.6883014
61	0x3e8828fb	0.26593766
62	0xbf19ed15	-0.60127383
63	0x3d6313ec	0.05543892
64	0x3f5a8a11	0.8536692
65	0xbe8ca844	-0.27472126
66	0x3f8610a4	1.0473828
67	0xbd9dbab4	-0.077016264
68	0x3f702608	0.9380803
69	0xbed41a91	-0.4142652
70	0x3f32d812	0.6986095
71	0xbe5ba7d7	-0.21450745
72	0xbf03ce54	-0.51486707
73	0x3e821759	0.25408438
74	0xbf67d2b8	-0.90555906
75	0xbdcf672d	-0.10127101
76	0xbf0cc302	-0.5498506
77	0xbeae0b20	-0.33992863
78	0xbd8826b9	-0.06648011
79	0x3e9e4561	0.30912307
80	0x3f663309	0.89921623
81	0xbd6aa0b7	-0.057282176
82	0x3e0b2c60	0.13591146
83	0x3ddecd05	0.10878948
84	0xbf359cf3	-0.7094261
85	0x3e1a07f3	0.15042095
86	0x3f88aa88	1.0677042
87	0xbe04eca3	-0.12980895
88	0x3f65f96f	0.8983373
89	0xbe60c1af	-0.21948884
90	0x3f6cb1e5	0.92458946
91	0xbe80e083	-0.2517129
92	0xbefb693e	-0.4910373
93	0x3e94ac91	0.29037908
94	0xbf16d88c	-0.58924174
95	0xbec1c938	-0.3784883
96	0x3f81290e	1.0090654
97	0xbbaf4f00	-0.0053499937
98	0x3f36b58d	0.71370775
99	0xbc56d198	-0.0131114945
100	0x3f1d3eb5	0.6142381
101	0x3f145628	0.57943964
102	0xbf182c88	-0.5944295
103	0x3d61b396	0.055102907
104	0xbf209659	-0.6272941
105	0x3e0b8863	0.13626246
106	0xbf200be7	-0.6251816
107	0xbe9cc17d	-0.3061637
108	0x3f5a7699	0.85337216
109	0xbe1d2108	-0.15344632
110	0x3f65059b	0.8946168
111	0xbee018ac	-0.43768823
112	0xbf3e312d	-0.74293786
113	0xbec218a8	-0.37909436
114	0xbf2ff1e9	-0.687285
115	0xbe5af8d8	-0.21383989
116	0x3f3a647e	0.7280959
117	0xbdce645c	-0.10077736
118	0xbeb0d478	-0.345371
119	0x3f262a7f	0.64908594
120	0x3f272f04	0.65306115
121	0xbe7f10ce	-0.24908754
122	0xbf22b5b8	-0.6355853
123	0x3e12e2ba	0.14344302
124	0xbee81288	-0.45326638
125	0xbebb0b58	-0.36532092
126	0xbf1ae174	-0.60500264
127	0xbefbd8bc	-0.49188793

layers.0.bias f4 [64]
0	0xbe856089	-0.26050213
1	0xbedbe335	-0.42946783
2	0x3f1c67ea	0.6109606
3	0x3f09125b	0.53543633
4	0x3ed1baef	0.40962932
5	0xbf5ac1f3	-0.85452193
6	0xbea8ffed	-0.33007756
7	0xbf2dda0b	-0.6791083
8	0xbf2397a5	-0.63903266
9	0xbf26998c	-0.65078044
10	0xbf0cdf0e	-0.55027854
11	0x3f2f41ad	0.6845959
12	0xbf20d517	-0.6282515
13	0x3f2b5a05	0.66934234
14	0x3f22a366	0.63530576
15	0x3db76813	0.089553975
16	0xbf5ac464	-0.8545592
17	0x3f206af9	0.6266323
18	0xbf3bd937	-0.7337832
19	0xbf25ee70	-0.6481695
20	0x3f0b9e0b	0.5453803
21	0xbce2c437	-0.027681453
22	0xbf3fe70c	-0.74961925
23	0x3d8dc5b9	0.06922478
24	0xbf0ab9c2	-0.54189694
25	0x3ebcf892	0.36908394
26	0x3ec5a9e0	0.38606167
27	0x3f0a6703	0.54063433
28	0x3f1c4dd9	0.61056286
29	0x3ed5d408	0.4176333
30	0xbf5ac9d0	-0.8546419
31	0x3f132c27	0.57489246
32	0xbf11ccbe	-0.56953037
33	0xbf4d5b2a	-0.8021723
34	0xbf0c3ef7	-0.54783577
35	0xbef585e5	-0.47953716
36	0xbf501954	-0.8128865
37	0xbf3945b3	-0.7237198
38	0x3f0f7f97	0.5605406
39	0x3ebd4ca1	0.36972526
40	0xbf18cbbf	-0.5968589
41	0x3efa7a23	0.48921308
42	0x3f32d285	0.6985248
43	0xbf47d582	-0.7806016
44	0xbf14b894	-0.58094144
45	0xbf15fa74	-0.58585286
46	0x3ef4db3e	0.4782352
47	0xbf48ef08	-0.7848973
48	0x3dc6a1fb	0.09698864
49	0xbf08ad60	-0.5338955
50	0x3eb44568	0.35209203
51	0x3f1cce3a	0.61252177
52	0x3f177d10	0.59175205
53	0xbf4297e1	-0.76013
54	0xbf1b3f94	-0.6064389
55	0xbec062fb	-0.37575516
56	0x3f498b46	0.7872814
57	0xbf5808fc	-0.8438871
58	0xbf012a6b	-0.5045535
59	0x3e8d1ffe	0.2756347
60	0xbec21115	-0.37903658
61	0x3f193000	0.5983887
62	0x3f0c7f82	0.5488206
63	0x3f3551b5	0.708278

layers.3.weight f4 [32, 64]
0	0xbb2bed2e	-0.00262339
1	0xbd44a166	-0.048005484
2	0xbda677d9	-0.08128328
3	0x3d6447dc	0.055732593
4	0x3d0ba499	0.03409252
5	0xbe086fe8	-0.13323939
6	0x3c0fb670	0.008771524
7	0x3d03d6e5	0.03218736
8	0xbceb95ef	-0.028758017
9	0x3b847c33	0.004043126
10	0x3a44ec46	0.0007512014
11	0xbdb9edcf	-0.090785615
12	0xbd9837d9	-0.07432527
13	0x3d9fa584	0.077952415
14	0x3d509f91	0.050933424
15	0x3c997498	0.018732354
16	0xbd876df5	-0.066127695
17	0xbcd02a2f	-0.02541074
18	0x3cb3305a	0.021873642
19	0xbd8ef25b	-0.069798194
20	0x3bdbc084	0.0067062993
21	0x3b8ea112	0.004352697
22	0xbd8f7f00	-0.07006645
23	0xbdd1de3e	-0.102474675
24	0xbcf5d153	-0.03000704
25	0xbc9fa7e5	-0.019489238
26	0xbd9238ad	-0.07139716
27	0x3d8e9761	0.06962467
28	0x3d41befd	0.04730128
29	0x3d463b45	0.048396368
30	0x3d173478	0.036915272
31	0x3dbca306	0.09210782
32	0x3ce23854	0.02761475
33	0xbcc46b27	-0.023976875
34	0x3d4d33e5	0.05009832
35	0x3def0a6c	0.1167191
36	0xbde52f57	-0.1119067
37	0xbd628ea3	-0.05531181
38	0xbc390863	-0.011293503
39	0x3c365806	0.011129385
40	0xbd66a598	-0.056310266
41	0xba3ef052	-0.00072837353
42	0xbd631112	-0.0554362
43	0x3dbc32b9	0.09189362
44	0xbdf0bd3a	-0.11754842
45	0xbce35710	-0.027751476
46	0x3d198501	0.037480358
47	0xbce5efdc	-0.028068475
48	0x3b598c90	0.0033195354
49	0xbbd32864	-0.006444024
50	0xbd98ca8a	-0.07460506
51	0x3c2ec9ba	0.010668213
52	0x3dc41938	0.095751226
53	0xbd6b4847	-0.057441976
54	0x3d3a6e83	0.04551555
55	0x3cc1cc87	0.023657097
56	0x3dcba87c	0.09944245
57	0xbcb3308b	-0.021873733
58	0xbda74ccd	-0.081689455
59	0xbcfcae94	-0.030844964
60	0x3ad37dd0	0.0016135518
61	0x3d524139	0.051331732
62	0x3d3c2f6e	0.04594367
63	0xbd0090d3	-0.031388115
64	0xbeb0031b	-0.3437737
65	0x3eda8f23	0.4268733
66	0x3eb8ad57	0.36069748
67	0xbd1e38c4	-0.038628355
68	0xbdda12bb	-0.10648104
69	0xbe9404ee	-0.2891001
70	0x3f5c4404	0.86041284
71	0xbe2a529c	-0.16633075
72	0xbec97342	-0.39345747
73	0x3f2181b3	0.6308853
74	0x3f595272	0.84891427
75	0xbe67a5ad	-0.22621794
76	0xbec4d49d	-0.3844346
77	0xbcd1179d	-0.025523955
78	0xbe0588ac	-0.13040417
79	0xbf2f9f0f	-0.6860208
80	0xbe0ef411	-0.13960291
81	0xbddfe82e	-0.10932957
82	0x3f1a41ae	0.6025647
83	0xbe12293b	-0.1427354
84	0xbe88af1e	-0.26696104
85	0x3eeb82c7	0.45998213
86	0x3f013560	0.5047207
87	0x3f0f9eae	0.561015
88	0xbe9fb6b0	-0.31194067
89	0xbd35d456	-0.044391952
90	0x3b933b0a	0.004493122
91	0x3cc93892	0.024563108
92	0x3d544a44	0.051828638
93	0x3dd9b854	0.10630861
94	0xbe09a2d2	-0.13441017
95	0xbe9873a4	-0.29775727
96	0x3f353bd7	0.70794433
97	0x3f09b40c	0.53790355
98	0x3f65bd1f	0.897417
99	0x3ec8c419	0.3921211
100	0xbe83ee5f	-0.257678
101	0xbdad313b	-0.084566556
102	0xbea92725	-0.33037677
103	0x3e58485e	0.21121356
104	0x3f467ef7	0.7753748
105	0x3e67fd26	0.22655162
106	0xbe4ceeb8	-0.20012939
107	0x3f1d6e18	0.61496115
108	0x3f4a65b7	0.79061455
109	0x3f266b1e	0.650072
110	0xbdad5117	-0.08462732
111	0xbe322ed6	-0.17400679
112	0x3ebfdf12	0.37474877
113	0x3f16cd61	0.58907133
114	0x3ea091b6	0.3136117
115	0xbe3b036b	-0.18263023
116	0xbe61f8a3	-0.22067504
117	0xbdb4b1d4	-0.088229805
118	0x3f1ba600	0.6080017
119	0x3f649645	0.89291793
120	0xbe44c848	-0.19217026
121	0xbdf3528c	-0.11880979
122	0x3f32ec2b	0.69891614
123	0x3bd6db39	0.006556895
124	0x3f5cdd38	0.86275053
125	0xbe94f776	-0.29095048
126	0xbd9762b9	-0.07391877
127	0xbe368524	-0.17824227
128	0xbdde4116	-0.10852258
129	0x3e2b2174	0.1671198
130	0x3e0a0f05	0.13482292
131	0xbd03d493	-0.03218515
132	0xbc161907	-0.00916124
133	0xbde84867	-0.11341935
134	0x3e825115	0.25452486
135	0xbdd05de7	-0.101741605
136	0xbe14a441	-0.14515783
137	0x3e6f5490	0.23372102
138	0x3e93f353	0.2889658
139	0xbdc561b3	-0.09637775
140	0xbe28b0a8	-0.16473639
141	0xbcfa4fe0	-0.030555665
142	0xbd632c76	-0.055462323
143	0xbeb06d04	-0.34458172
144	0xbd4edacb	-0.050501626
145	0xbd0e984f	-0.03481322
146	0x3e45fc8e	0.19334623
147	0xbe1c826b	-0.15284126
148	0xbda652d6	-0.081212685
149	0x3e8bfeca	0.27342826
150	0x3e85d469	0.2613862
151	0x3edcde38	0.4313829
152	0xbe765d74	-0.24059087
153	0xba717a45	-0.000921164
154	0x3c8a48a6	0.016880345
155	0x3d3486cb	0.04407386
156	0x3df3b9fe	0.119007096
157	0x3d5ba930	0.053628147
158	0xbdda52c4	-0.106603175
159	0xbdb5b0f3	-0.08871641
160	0x3e429001	0.19000246
161	0x3e2579e5	0.1615978
162	0x3dfad5f6	0.12247841
163	0x3e8feb64	0.28109276
164	0xbd77ea70	-0.06052631
165	0xbd6029a0	-0.054727197
166	0xbde93a9a	-0.113881305
167	0x3e095488	0.13411152
168	0x3df553ba	0.1197886
169	0x3e85b8e2	0.26117617
170	0xbd9eaf75	-0.077483095
171	0x3ea40beb	0.32040343
172	0x3e8be228	0.2732098
173	0x3ddd328f	0.10800659
174	0xbcc6f8f8	-0.02428864
175	0xbda16aa8	-0.07881671
176	0x3e8d325c	0.27577484
177	0x3e4cabd6	0.19987425
178	0x3e22c282	0.15894511
179	0xbd678545	-0.05652358
180	0xbdc0a6b6	-0.094067976
181	0xbe1588a0	-0.146029
182	0x3e5e15d9	0.21688022
183	0x3ead8ffa	0.33898908
184	0xbd9078a2	-0.07054259
185	0xbd526a34	-0.051370814
186	0x3e60a4ee	0.21937916
187	0x3ca05fe6	0.019576978
188	0x3e7782f5	0.2417105
189	0xbdf04894	-0.11732593
190	0x3d0a43f8	0.033756226
191	0xbb847bae	-0.004043064
192	0x3cc800fd	0.024414534
193	0xbdfa890e	-0.12233172
194	0xbd90bd35	-0.070673384
195	0xbc9e0555	-0.019289652
196	0x3db67792	0.08909525
197	0xbd8d3648	-0.06895119
198	0x3c923b2a	0.017850477
199	0xbd49b056	-0.049240433
200	0xbdb69fc7	-0.08917194
201	0x3de53876	0.1119241
202	0x3db22f73	0.087004565
203	0xbc865a7c	-0.016400568
204	0x3da3e6d1	0.08003009
205	0xbd331c26	-0.043728016
206	0x3be25bbc	0.0069079082
207	0x3d01849e	0.031620614
208	0x3d8ab0df	0.06772017
209	0xbd4c67fb	-0.04990385
210	0xbd8e0010	-0.06933606
211	0x3d41d651	0.04732353
212	0x3cb7e8ca	0.02244987
213	0xbda686ca	-0.08131178
214	0xbc3f52ca	-0.011677453
215	0xbc7675ba	-0.015042717
216	0xbdafd38c	-0.08585271
217	0x3d152893	0.036415648
218	0xbc8d0c69	-0.017217832
219	0x3d77f377	0.06053492
220	0xbd8cbe25	-0.06872205
221	0xbca911e9	-0.020638423
222	0xbcbbfe8e	-0.02294853
223	0x3dbe5197	0.09292906
224	0x3c2fbaa6	0.010725653
225	0x3bdc529e	0.006723716
226	0x3dbb4108	0.09143263
227	0x3d279e8d	0.04092269
228	0xbd86a455	-0.065743126
229	0xbcaccfc0	-0.021095157
230	0x3d997e9b	0.07494851
231	0xbd9a3b4e	-0.07530843
232	0xbd0a3b42	-0.03374792
233	0x3cac795c	0.021053962
234	0x3cc36522	0.023851935
235	0xbd28d42b	-0.041217964
236	0xbdca6231	-0.0988201
237	0xb97cbe23	-0.00024103424
238	0xbd77f8f3	-0.06054015
239	0xbca3b808	-0.019985214
240	0xbcfcba65	-0.030850599
241	0xbd8b8811	-0.06813062
242	0xbd573d66	-0.05254879
243	0x3d7bfb40	0.061518908
244	0x3d96b2f5	0.07358352
245	0x3d7800f2	0.060547777
246	0xbd9532f1	-0.07285107
247	0x3b891f27	0.004184622
248	0x3d0e0ec3	0.034682047
249	0xbc88bfe0	-0.016693056
250	0xbd3366a0	-0.043799043
251	0x3d57f9c6	0.052728437
252	0xbe0be6fd	-0.13662334
253	0x3d24e661	0.04025877
254	0x3c5dc6c2	0.013536157
255	0xbd2d13b2	-0.04225511

layers.3.bias f4 [32]
0	0xbdf3e9ba	-0.11909814
1	0x3d73cec5	0.059523363
2	0x3eb2e31d	0.349389
3	0x3c03a9a6	0.008036053
4	0xbda94acf	-0.08266222
5	0x3d8d5156	0.06900279
6	0x3d8da3e0	0.06916022
7	0xbd8275b2	-0.06370105
8	0xbe8f1422	-0.27945048
9	0xbd7b2c34	-0.061321452
10	0x3d2fe8de	0.04294669
11	0x3d1c1dd6	0.03811439
12	0xbea15c94	-0.31515944
13	0x3e999214	0.2999426
14	0x3bd9801d	0.0066375867
15	0xbe8c553f	-0.27408788
16	0xbd339e21	-0.043851975
17	0xbca46b27	-0.020070625
18	0x3d3c047b	0.04590271
19	0x3d9f4d23	0.077783845
20	0xbeca1eb0	-0.39476538
21	0xbd8f406c	-0.06994709
22	0x3e8feac8	0.2810881
23	0x3e0e4912	0.13895062
24	0xbe137599	-0.14400329
25	0x3cfb41a6	0.030670952
26	0xbcba0d10	-0.022711307
27	0xbed19005	-0.4093019
28	0xbd7b4406	-0.06134417
29	0xbd9f133e	-0.07767342
30	0xbe29aed5	-0.165706
31	0x3dde3b03	0.10851099

layers.6.weight f4 [1, 32]
0	0xb81045b8	-3.4397206e-05
1	0x3b73559a	0.003712988
2	0x3a444606	0.0007487241
3	0xb7c56617	-2.353177e-05
4	0x3d2f16e0	0.042746425
5	0xb98600ed	-0.0002555916
6	0x3bf1c413	0.00737811
7	0xb8a3b9a5	-7.807025e-05
8	0xbefbf5e0	-0.49211025
9	0xb895466b	-7.11799e-05
10	0xb911c9d6	-0.00013903467
11	0x3cd629bf	0.026142953
12	0xbdf84cd1	-0.121240266
13	0x3ad5b482	0.0016304406
14	0xb96dc62f	-0.0002267591
15	0x3da3ffd5	0.080077805
16	0xb9aedafa	-0.00033351016
17	0xbb438ad1	-0.002983738
18	0xb7a90091	-2.0146634e-05
19	0xb7f3e986	-2.90766e-05
20	0xbed55bd6	-0.41671628
21	0xb80951c4	-3.2739496e-05
22	0x3a55d7a2	0.0008157437
23	0x3c8e770e	0.017390754
24	0x3d03551e	0.032063596
25	0xb9ee4941	-0.00045449476
26	0xba80705b	-0.000979911
27	0x3e0e5ed0	0.13903356
28	0xb8467386	-4.731447e-05
29	0xb91e3a3f	-0.00015089753
30	0x3d5fac17	0.054607477
31	0x3c4f5c10	0.012656227
