models/nn/nn_debug_mse.pth (torch, 179148 bytes, 9 tensors)

layers.0.weight f4 [256, 1]
00000000: 68b2 55bf ee45 b13b ea38 883e 9014 19be
00000010: aa07 16bf 9de8 6ebf bc9e 403e 01ec cf3e
00000020: 92cf 24bf b279 e3be 8eac da3e 06b4 1a3e
00000030: a42d 5dbf b7be 0d3f 5026 453f 4ccf 03bf
00000040: 334b 453e 94b9 d93e c325 d33c e1b4 3fbe
00000050: 59c1 4a3f 55e3 8dbe a3aa 4f3f 85cf 703f
00000060: da6a 73bf 40ff f53e a36d 183f 264e 693f
00000070: 1f3b 6fbd aa59 333f f0e3 3abf 2976 10bf
00000080: 2f15 ccbe f97d 7dbe a6a3 f5bc ca22 b23e
00000090: 7a0f 863d 6f1d 013e c47d 203e edb8 f7be
000000a0: 8c58 463e 6295 db3e dcf3 57bf 4d38 043f
000000b0: 74ef 0c3f 2ea0 56bf f822 333e cdb7 c13e
000000c0: 8f1e 533f 1aa5 0d3f e85c e13e e63c 5bbf
000000d0: 820a 0b3f 9789 743f ef02 7f3f 8341 1d3f
000000e0: 34c2 42bf 2c22 bc3e d9c5 4fbf 6cb6 5f3e
000000f0: 40f4 19be 9ac7 48bf 2283 50bf bced 5f3d
00000100: f5a7 523f 4c22 e6be 7fac 6cbf 5109 0dbf
00000110: 53b3 b53e 86fe 59be 5ba8 6abf 2fee fcbd
00000120: d266 b4be 67c8 473f 763c d1be 76d9 e8be
00000130: f9d2 d43e e9ab 22bf 3794 19be a3be 6fbd
00000140: 758c 713f 0388 e83d 56e3 a2bd cfe5 91be
00000150: 8c68 013f d4a3 313e c661 3f3d 3a73 4ebf
00000160: c37b 70bf bd1e ad3d 18d8 5abf 0ef7 363f
00000170: 1861 cf3d 2b8b f03d b88c 353f 821c c23e
00000180: 8e11 003f 102f 593e 19bc 60bf 8c23 0d3f
00000190: 6780 77bf 8b5b 743f 93c4 09bf b955 3b3f
000001a0: c8ca 423d f1b1 4d3d bf01 aebe 0ba0 32bf
000001b0: 0593 11bf fe98 cfbe dc11 b73e 8e35 fd3e
000001c0: ac5c 1a3f 3a2b 65bf 454f 6cbe b6f8 3e3f
000001d0: 939b 15bf 2a0e 35bf c659 263f 31e2 e33e
000001e0: d7f7 d8be b487 fbbe 8777 64bf 0fef ef3d
000001f0: 9655 1b3f 08d7 4dbf 886b e13d 4a7b 213f
00000200: f397 4b3f 3ee5 273f 50f2 033f df3a d1be
00000210: 09d8 6f3e 403e 253f 9d90 fbbe c6a0 2c3f
00000220: ba27 833b dbbf 77bf 2bc6 42bf 2b3f a3be
00000230: bec3 6fbf 4adb 603f 9e65 ddbe b79c 0ebe
00000240: d3f5 6e3f 0db9 85be 3175 2d3f 473a 56bf
00000250: 5bfa f8bd 4dda 04bf fd4b 063f 1a1d 4d3e
00000260: 939d 643f bf11 6ebf 0da7 66be 0e2d 743e
00000270: 8f12 fa3e 91d8 c33e 3bd2 bebe 820f 553f
00000280: ef4e a0be 219d 443f 8ad4 70bf 5eb2 633f
00000290: a5e0 7e3f 2844 41bf e0ae 413f 92cc 903e
000002a0: dea0 a4bb 7ab6 01bf 21d0 be3e 7b5a 7c3f
000002b0: e8f0 1c3e 3d24 7a3f 0246 bd3e b0bb ee3e
000002c0: f8fb 3dbe 4ae5 e03e 3827 1dbf 8bcc f03d
000002d0: 013d 36be 39af 5d3f e615 1c3f a204 1b3f
000002e0: 08d2 bcbe 66d8 62be 08a1 0ebf 88a8 0c3f
000002f0: ef96 483f 50d6 22bf d25e a0bd 858e 3cbf
00000300: 412f 70bf 4269 043f c92a 4f3f cd02 b03e
00000310: abbc ff3e f55a 43bd be98 44bf f614 2abf
00000320: f115 74bf b87e ec3e 4ae7 51bf 843b 5ebf
00000330: 0a2d 3f3f 4844 ab3e b277 913d a622 69bf
00000340: 0366 29bf 20e1 17bd fdf9 53bf f74b babe
00000350: b671 b5be 7cf1 0dbf bd17 5a3e 8d89 ddbe
00000360: 9e60 2abf 96cb 8cbe 68e2 7f3e 91e7 b03e
00000370: 0d17 463f 45f9 50bf 4178 623f f29a 553f
00000380: a60e 56be 6955 c53e 24bd 26bf e13f 2e3f
00000390: 0fd9 71be f2f4 ddbe 850a 47bf f91c 26bf
000003a0: 5267 91be eeb6 ee3e 93b4 f9be def9 eb3e
000003b0: b168 fd3e b70f 7abf e875 043f 8df6 643e
000003c0: c23e bd3e 6b68 73bf 456b 653d 5bc3 0a3f
000003d0: 7103 233c 419c 2f3f 9600 41bf b83d 843e
000003e0: ee83 723f 2d72 d9be d965 883e 73cd 8f3e
000003f0: 4954 1ebf 05d6 f03e 22a0 003f 2527 8bbe
-0.8347535 0.0054099476 0.26605922 -0.1494925 -0.58605444 -0.9332369 0.18810552 0.40609744
-0.6437923 -0.44428784 0.42709774 0.15107736 -0.8639777 0.5536913 0.77011585 -0.51488185
0.19266967 0.42524397 0.025774842 -0.18721344 0.79201275 -0.27712503 0.81119746 0.9406665
-0.9508492 0.48046303 0.5954229 0.9113487 -0.05840599 0.7005869 -0.73004055 -0.564303
-0.39859912 -0.24755086 -0.02998526 0.34792167 0.06545921 0.12608884 0.15672976 -0.48383275
0.19369715 0.42887408 -0.84356475 0.5164841 0.55052876 -0.83838165 0.17493808 0.3783554
0.82468504 0.5533005 0.44016194 -0.856398 0.5431291 0.95522445 0.9961385 0.6142809
-0.7607758 0.3674482 -0.81161267 0.21846932 -0.1503458 -0.7842957 -0.8145009 0.05467008
0.8228753 -0.4494804 -0.9245071 -0.5509234 0.35488376 -0.21288499 -0.9166314 -0.123501174
-0.35234696 0.78040165 -0.4086644 -0.4547841 0.4156721 -0.63543564 -0.14997946 -0.058531415
0.94354945 0.11354067 -0.07953517 -0.28495643 0.5055015 0.17347652 0.046724103 -0.8064457
-0.93938845 0.084531285 -0.8548598 0.71470726 0.10125941 0.11745294 0.70917845 0.37912375
0.50026786 0.21209359 -0.87787014 0.55132365 -0.966803 0.95452183 -0.53815573 0.7317768
0.04755667 0.050218526 -0.33985707 -0.69775456 -0.5686496 -0.4054641 0.35755813 0.4945492
0.60297656 -0.89519083 -0.23077114 0.7459825 -0.5844051 -0.7072474 0.64980733 0.44508508
-0.42376587 -0.4912697 -0.89244884 0.11715519 0.6067747 -0.80406237 0.11006838 0.6307875
0.7952873 0.6558417 0.51541615 -0.40865228 0.23422255 0.6454811 -0.4913377 0.6743282
0.0040025385 -0.96777123 -0.7608363 -0.3188413 -0.93658054 0.8783461 -0.4324159 -0.1392697
0.9334385 -0.26117745 0.67756945 -0.83682674 -0.121571265 -0.518956 0.524597 0.20030633
0.8930294 -0.9299583 -0.22524662 0.23845312 0.48842284 0.38251165 -0.37269768 0.8322679
-0.31310222 0.7680226 -0.9407431 0.8894404 0.9956153 -0.75494623 0.75657463 0.28281075
-0.0050240597 -0.5066906 0.37268165 0.9857556 0.15326273 0.97711545 0.36967474 0.4662757
-0.1855315 0.43924934 -0.6138797 0.117577635 -0.17796709 0.86595494 0.60970914 0.60553944
-0.3687899 -0.22152862 -0.55714464 0.5494466 0.78355306 -0.63608265 -0.078305855 -0.7365497
-0.93822104 0.5172311 0.8092466 0.34377137 0.4994863 -0.047694165 -0.76795566 -0.66438234
-0.9534598 0.4619043 -0.81993544 -0.86809564 0.746781 0.33450532 0.07102908 -0.91068494
-0.6617128 -0.03707993 -0.82803327 -0.36386082 -0.35438317 -0.554466 0.21298118 -0.43269005
-0.66553676 -0.27499074 0.24988711 0.3455167 0.7737892 -0.81630355 0.8846474 0.8343955
-0.20904025 0.38541725 -0.65132356 0.6806622 -0.23617958 -0.4335094 -0.77750427 -0.6488796
-0.2839914 0.4662394 -0.4877058 0.4608907 0.49493936 -0.9768023 0.5174241 0.22359677
0.36961943 -0.95081204 0.056010503 0.5420434 0.009949551 0.685978 -0.7539152 0.25828338
0.9473256 -0.42469922 0.26640204 0.28086433 -0.6184736 0.47038284 0.50244343 -0.27178302

layers.0.bias f4 [256]
00000000: 01cb 343f d53b 7fbd 6315 913e c87f 293f
00000010: a738 3c3f a1a7 c7be fbc0 aa3e 1d8b af3d
00000020: 1100 173f a9c4 1abd 9568 953e ab25 713f
00000030: c878 2a3f fe03 f33e cd6b 663f 62ec 133f
00000040: 6ac7 f9be 2eb4 0b3f a48b 763f 8cbb 7b3f
00000050: 8f7b f8be a15e 7ebf 2b14 83be 4a5f 723f
00000060: 59ab d13e af66 273f 77af d53e b2bc 043f
00000070: d273 6b3f 36fc 5bbe 1966 8a3e f4e5 233f
00000080: d312 6dbf e3ee 603e 30cf 8b3e 7f28 36bf
00000090: b567 95be 21f5 7c3e b332 7f3e 77e3 b6bd
000000a0: fbbc 0abf d7e0 413f 3166 05be f65d 29bf
000000b0: 87e8 8dbe 2b53 ea3e 5be7 01be 6a23 25bd
000000c0: 311e 8a3e 4dca 443f 4494 713e aeae 2dbf
000000d0: 3c41 f73e 2260 d1be 2d60 db3e 7145 603f
000000e0: 28e9 183f d753 54be 1bf6 b13e fee0 07bf
000000f0: 895f 383f 70ea bbbe cbe5 423f 4f1c 46be
00000100: 79c8 6d3f f1c9 72bf 614f 22bf abb9 803f
00000110: 5496 4dbf d327 7fbf 8b9b 18bf 98de 2ebf
00000120: d20d 563f 50d0 bdbc e602 5a3f 3604 5a3f
00000130: 2956 15bc 065e 043e 08cf 323f 2828 ab3e
00000140: 731a 12bf c507 583f 7d57 d1be 6a27 9a3e
00000150: 8a91 fb3d 26dc b9be 495a 5b3f b380 99be
00000160: e287 d83e f1b1 7a3d 4524 62bf 63b1 263f
00000170: 4fa9 89bd 9989 3b3f 9f2c 23be 6da4 ac3e
00000180: 0b9f 6cbf 70c2 fe3e 4b5a 173e c2d8 14bf
00000190: 6de5 783f d37f 1c3d d52a 533f 71a2 ed3e
000001a0: 7909 6a3f 02fa 45bf 72ee 6fbf 351f a3be
000001b0: e160 49be 1dbb 52bf 1d48 9b3e 9e10 3abf
000001c0: ee64 5bbf f3ed 3d3f ceaa 33bf 579c f83d
000001d0: caa3 063f 2164 14bf 1fa3 1fbe ad34 e0be
000001e0: cc57 5bbd 5cfd 83bd 9d49 7d3f d4bc 393f
000001f0: 2dab a5be c712 42bf e727 fe3d 518a 23be
00000200: 807f 46bf eb84 0dbf a94f 6b3d 5bc2 cfbc
00000210: 4424 f73e f0da 703f 0555 16bf d7ed 61bf
00000220: 1879 103f a562 013f 8fdf 38bf e387 bb3e
00000230: 2d4b 33bf b047 303f 84d8 34bf 1b3f 5e3f
00000240: b4db 7fbe e125 febe 5a23 403f fc86 d63d
00000250: b48d 60bf 09b2 f2be ba66 75bf 4370 9a3e
00000260: 5594 07bf 7e50 0f3f 5407 a83e 1a2d 3cbe
00000270: 5547 6b3e 4f53 cebd 16bd 3cbf 279c 02be
00000280: 4297 00bf 92fa 323f f6f2 5d3f 55b7 02be
00000290: 93c4 c4bc 710a 813f 389f 7d3f ee5f 97be
000002a0: 9efc 1fbf 2021 373f 5857 3f3d e6bf a83d
000002b0: 82e8 5bbf c039 603f e117 cdbd 3762 9dbe
000002c0: d18d 6e3f 6aee 4a3d e2bf 7dbf d3c9 453f
000002d0: e1d5 3e3f d7cd 673f f75c 0d3f 7e39 2b3f
000002e0: f742 90be 2832 74bf 982b 0fbf 529e 8f3c
000002f0: 66c7 9abe 32d5 6dbf 785e 60bf 5c01 b8bd
00000300: 1957 fa3e 5e1f 3dbf 2094 95be 7f43 03bd
00000310: 34dc 353f adc9 b8be 568e a93e b1b9 6cbf
00000320: 76cd 0c3f cc10 99be 4576 4ebf 26fb 833e
00000330: 4a0c 3b3e 0474 8cbc d202 86bb e3d0 63bf
00000340: 4fa9 74bf b851 d63e f7dc 4c3f 508a 0d3f
00000350: c84a 9b3b 6ff9 0b3f c3dd 953e 164c 04bf
00000360: 1fea 6dbf d09a 093d 85c7 0fbb ee88 7f3e
00000370: df1d 08bf 5afa 233f 011b c7be 61c5 dcbe
00000380: b165 573e 39ff 07bf c5fe 0fbe 6aab a53e
00000390: bb02 843e d863 18bf 93d1 febe 4439 7d3e
000003a0: 6b5e 24bf 3c5f ac3e c964 233d c3e2 323f
000003b0: bad9 65bf 57a3 4dbf 5284 8f3e f968 c7be
000003c0: 5909 1dbf 9a99 47bf 17a7 39bf 4eb1 5d3f
000003d0: a537 5e3f 01e9 80bf a467 5abf f404 d9bc
000003e0: 70c6 183b ca21 4fbf b319 1ebf 07de f83d
000003f0: 9b00 39bf 9d77 b9be b948 c73e cf79 5f3f
0.7062226 -0.06231292 0.2833663 0.66210604 0.73523945 -0.38995078 0.33350357 0.08571456
0.58984476 -0.037785206 0.29181352 0.941981 0.6659055 0.47463983 0.9000824 0.57782567
-0.48784953 0.5457181 0.96306825 0.9833305 -0.48531768 -0.9936314 -0.25601324 0.9467665
0.4095104 0.6539106 0.41735432 0.51850426 0.919736 -0.2148293 0.2703102 0.64022756
-0.9260685 0.21966128 0.2730651 -0.7115554 -0.29180685 0.24702884 0.24921684 -0.08930104
-0.5419461 0.75733703 -0.13027264 -0.66159 -0.27716467 0.45766577 -0.12685911 -0.040316977
0.2697616 0.76871186 0.23591715 -0.67844665 0.48291957 -0.40893656 0.42846814 0.8760596
0.5973077 -0.20735107 0.34758076 -0.53077686 0.72020775 -0.367023 0.76131886 -0.19346736
0.9288402 -0.9483939 -0.6340237 1.0056661 -0.8030751 -0.9967014 -0.5961234 -0.683084
0.8361484 -0.02317062 0.8516067 0.85162675 -0.00911478 0.12926492 0.69847155 0.33429074
-0.5707161 0.84386855 -0.4088706 0.30108196 0.12283619 -0.36300772 0.8568464 -0.29981002
0.4229117 0.061204854 -0.8833659 0.6511442 -0.06721746 0.7325683 -0.1593499 0.33719197
-0.9243018 0.4975772 0.14780538 -0.58143246 0.97225076 0.03820784 0.8248723 0.46412995
0.91420704 -0.77334607 -0.93723214 -0.31859747 -0.19665863 -0.8231676 0.30328456 -0.72681606
-0.8570088 0.74191207 -0.701825 0.121391945 0.5259367 -0.57965285 -0.1558957 -0.43790188
-0.053550526 -0.06444809 0.9894045 0.72553754 -0.3235716 -0.758099 0.124099545 -0.15970732
-0.775383 -0.5528094 0.057449017 -0.02536123 0.48269856 0.9408407 -0.5872348 -0.8825354
0.56434774 0.50541145 -0.72216123 0.3662711 -0.70036584 0.68859386 -0.70642877 0.8681504
-0.24986154 -0.49638274 0.7505394 0.10474965 -0.8771622 -0.47401455 -0.95859873 0.30163774
-0.5296071 0.55982196 0.3281809 -0.1837658 0.2297643 -0.100744836 -0.7372602 -0.1275488
-0.502308 0.6991359 0.86698854 -0.12765248 -0.024019515 1.0081311 0.99071074 -0.29565376
-0.6249484 0.7153492 0.046714157 0.08239727 -0.85901654 0.8758812 -0.1001432 -0.30738994
0.93185145 0.049543776 -0.99120915 0.77261084 0.74545103 0.9054846 0.5521998 0.668846
-0.2817609 -0.9538903 -0.55925894 0.017531548 -0.30230254 -0.92903435 -0.8764415 -0.08984634
0.48894575 -0.7387599 -0.29214573 -0.03204679 0.7103913 -0.36091366 0.33116406 -0.9247084
0.5500101 -0.29895627 -0.80649215 0.2577755 0.18266407 -0.017145164 -0.0040896917 -0.8899061
-0.95570844 0.4185922 0.80024666 0.55289173 0.004739139 0.5467748 0.29270753 -0.516786
-0.92935365 0.033594906 -0.0021938991 0.24954578 -0.5317058 0.6405388 -0.3888779 -0.43119338
0.21034886 -0.53123814 -0.1406203 0.3235734 0.25783333 -0.5952735 -0.49769267 0.24728876
-0.6420657 0.33666408 0.039891038 0.6987726 -0.8978535 -0.8032736 0.2803064 -0.38947275
-0.6134239 -0.7796875 -0.72520584 0.8659867 0.86803657 -1.0071107 -0.85314393 -0.02649162
0.0023311637 -0.80910933 -0.61757964 0.12151723 -0.7226655 -0.3622407 0.3892267 0.8729524

layers.2.weight f4 [128, 256]
00000000: a738 9bbc eafa 373d aa2c 8d3d b30f e33a
00000010: 3074 a13c cbed 703d 03b9 183d 67b1 a0bb
00000020: 2d3f 57bd aa31 80bd 33fc 4e3d 4d16 103d
00000030: c42b f03c 79d0 233d 6795 5b3c ef81 f2bb
00000040: a68f 103d adde 0a3d 4c8b 023b c231 0c3d
00000050: be0e b13d 2e00 133b 7cca 073c ffd2 2ebd
00000060: 01d6 69bd 48d4 6c3c b05a 4d3d 21f4 d83c
00000070: 9c38 673d 8ac9 133c 7ffe 32bd 7006 39bd
00000080: e540 26bd 42cc e8bc 419d 75bd 934d cdbb
00000090: bb87 1d3d 08eb 33bd ce0c 0cbb 78b8 883c
000000a0: e71b eb3c 3963 163d baa7 ecbc 1a19 18bc
000000b0: 064d 9d3d 36e6 853b ed82 3bbc f7f2 01bd
000000c0: 1e76 083d a988 25bd b97c fcbc 841e 31bd
000000d0: b718 0ebd 2b93 30bb 84d0 1a3d 15eb 513d
000000e0: ecdb 96bd b588 88bc dbc5 52bd 6e42 64bc
000000f0: 83d4 143d addb debc 63d4 26bd 43db 893d
00000100: 6b1e 013d 1be8 ab3b 661d af3b 5442 92bd
00000110: 5f73 39bd 5afb 793d c91e 16bd 057e 003d
00000120: af7e 85bc 5702 8a3d 4dcb 99bc 96c5 a5bd
00000130: 2e39 69bc 35ae 9fbb 9052 63bd ef65 4b3d
00000140: 4adf 2a3d 162a 35bd 10b5 80bd 8a8c 183c
00000150: 663d a43d 761b 933d 3d0b 82bc 81df 15bd
00000160: bc49 3cbd f16c c83a 6b33 353b 4aed 1dbd
00000170: 05d6 373d 6605 f7bb c6f0 993c 5119 6c3d
00000180: 3b7d 933d f8c6 7c3d 628d 8cbc 3306 a03d
00000190: c23f afbd e982 bd3b 953a df3c 1b4e 9dbc
000001a0: 19fd 22bd 1da4 eabb 7686 7a3d 7e7f c53b
000001b0: f8d2 80bd 6980 173c c13e 803d 4f18 d53c
000001c0: 8d92 04bd 1ae4 40bc 33f2 51bd c923 08bd
000001d0: 6b81 42bd f275 8e3d df22 1f3d 3269 443c
000001e0: 55d5 a33c 03e4 fe3c 5f68 bb3c 2902 833d
000001f0: 7856 8c3d 8e85 2dbd 4776 e83b 976e 553c
00000200: e101 ad3c d1b6 dd3d 8952 853d 86b1 24bd
00000210: bda6 61bc c61d 94bc 966c 703d f797 0dbc
00000220: f3ac 86bb 6cc6 893c 7089 793d cac9 f2bc
00000230: f914 093d c008 683d 16ab b93a 92b8 3dbd
00000240: 2664 02bd e7ce 803d fb13 bf3c 9b93 fd3c
00000250: dadc d33c 5379 4f3c 0b83 253d 83b4 84bc
00000260: fc39 7cbc 4b9e 26bd 7aed c93c abcf c23d
00000270: d297 6b3d 1004 dc3c 844f aa3c 484c b2bc
00000280: 9f06 5c3d 4d97 813d 57d0 60bd feb6 1c3c
00000290: 5e44 353c ed1e c1bc cae0 11bc 4480 cb3d
000002a0: ce20 d53c 110d 2fbc 69ce 3bba 1dca 943d
000002b0: 92ab f2bc 39fc a13c 0668 b13d 03cd 693d
000002c0: 3d0a 16bd cb04 b5bc d062 e2bc 4a3b a2bb
000002d0: b724 06bd 25c5 7b3d c9fd 8c3d 95ce 5a3b
000002e0: 4751 4dbd 7f0d fabc 354a 1e3d 5969 c63c
000002f0: c468 babc 196a 4e3d 9593 443c ce7f 733d
00000300: 9726 b23c 2135 833d ca84 3c3d f1f1 e63b
00000310: 7db1 09bd c1fe 64bd de0f 033d dcf6 913d
00000320: 8e51 7cbd 5ff6 a93d 3882 b6bc c7a3 adbb
00000330: f6fe c4bc d951 5c3d 9a09 6f3d e296 8d3d
00000340: 5efc 923d f04c 353d 87e9 8e3c ef7b abbc
00000350: a6ef 89bd 1964 8abd b250 59bb 9baf c5bc
00000360: caf7 64bc 2cf1 e6b9 fe4f 353d 8f0d 25bd
00000370: d696 86bc 71fa 94bd ca9a ddbc 5770 c4bc
00000380: 0785 a9bd 71f7 8d3d f006 0abd 78a8 10bd
00000390: d6a3 49bd 17e8 2f3c 2b2f 8b3d 7da2 9dbd
000003a0: 0b2b fdbc bd52 f3bc 77ce 93bd 7888 51bd
000003b0: 90ca a93c 898f b63c 581e 4f3d 24e5 923d
000003c0: ea5d d53b 31a9 00bd 1646 163d 490c 2a3d
000003d0: 0527 003d a4b2 debc 8f63 3a3c c9a4 ee3b
000003e0: dcfc cc3c 2f59 eabc 23c8 3dbd a96c 2f3d
000003f0: fafa a93c 16e4 b13c b6e9 183d 5562 02bd
-0.018947912 0.044917025 0.068932846 0.0017323404 0.019708723 0.058820527 0.037285816 -0.0049039605
-0.052550483 -0.06259473 0.050533485 0.035177518 0.029317744 0.039993737 0.0134023195 -0.007400743
0.035293244 0.033903766 0.0019919453 0.03422714 0.0864539 0.0022430527 0.008288022 -0.04268169
-0.057088856 0.014454909 0.050135314 0.026483597 0.05645047 0.009020219 -0.043699738 -0.045172155
-0.040589232 -0.02841771 -0.059964422 -0.006265351 0.03845952 -0.043925315 -0.0021369937 0.016689524
0.028699828 0.03671572 -0.028888572 -0.009283328 0.07680707 0.004086281 -0.011444789 -0.03172585
0.03331577 -0.040413532 -0.030821191 -0.043241993 -0.03469154 -0.0026943188 0.037796512 0.051249582
-0.073661655 -0.01666675 -0.05145822 -0.013931854 0.03633548 -0.027204359 -0.04072989 0.06731274
0.03152315 0.005246175 0.0053440807 -0.07141557 -0.045276042 0.061030723 -0.036650453 0.03137018
-0.016295759 0.067387275 -0.0187737 -0.08094327 -0.014234824 -0.004873062 -0.05549866 0.04965776
0.04171685 -0.04422959 -0.06284535 0.009310851 0.08019523 0.07182972 -0.0158745 -0.036590103
-0.045968756 0.0015291256 0.0027649056 -0.038556375 0.04488184 -0.0075384853 0.018791568 0.05764133
0.0720162 0.06171319 -0.01715726 0.078136824 -0.08557083 0.005783428 0.027249614 -0.019202283
-0.039792154 -0.007160677 0.06116339 0.006027161 -0.06290239 0.009246924 0.06261969 0.026012568
-0.032366324 -0.011773134 -0.05125637 -0.033237252 -0.047486704 0.0695609 0.038851615 0.011987971
0.019999186 0.031114584 0.022876916 0.063968964 0.0685243 -0.042363696 0.007094178 0.013026855
0.02111906 0.10825885 0.06509883 -0.040208362 -0.013772664 -0.018080603 0.058697306 -0.008642188
-0.0041099726 0.016818248 0.060922086 -0.029637236 0.033467267 0.05664897 0.0014165367 -0.046318598
-0.03183379 0.062894635 0.023324957 0.030954173 0.025862146 0.012663203 0.040408175 -0.016199356
-0.015394684 -0.040678304 0.02464937 0.09512266 0.057517834 0.026857406 0.02078987 -0.02176489
0.053717252 0.063276865 -0.05488619 0.009565113 0.011063663 -0.023574317 -0.008903692 0.09936574
0.026016619 -0.010684268 -0.00071642414 0.072651125 -0.029622827 0.01977359 0.08662419 0.05708028
-0.036630858 -0.022097012 -0.027635008 -0.0049509155 -0.032749858 0.06146731 0.06884343 0.0033387293
-0.05012634 -0.030524014 0.038644988 0.024220156 -0.022755034 0.05039415 0.011998077 0.059448056
0.021746917 0.06406618 0.046025075 0.0070478846 -0.03361653 -0.055907015 0.031997554 0.07127163
-0.061601214 0.08298945 -0.02227889 -0.005299065 -0.024047356 0.053788994 0.058358766 0.06913544
0.071770415 0.044262826 0.017445339 -0.02093312 -0.067351624 -0.06757373 -0.003315967 -0.024131587
-0.013975093 -0.00044048706 0.04426574 -0.040296134 -0.016429346 -0.072743304 -0.027051348 -0.023979349
-0.08277326 0.06931961 -0.033698022 -0.035316914 -0.04922851 0.010736487 0.06796106 -0.07697008
-0.030904314 -0.029702539 -0.072171144 -0.051155537 0.020726472 0.02228524 0.050566047 0.07172611
0.0065114396 -0.031411353 0.036687933 0.041515622 0.031287212 -0.027184792 0.011376276 0.0072828275
0.025022916 -0.02860698 -0.046333443 0.042828236 0.020749558 0.021715205 0.03733226 -0.031832058

layers.2.bias f4 [128]
00000000: 4f1f 703d 47bb 213d f236 48bd 365c bebc
00000010: 03dd 4bbd 6d3d 2bbd 1802 21bd bd04 5abc
00000020: dc7b 3a3d 468c d5bc 9144 9e3c 6a1d 453c
00000030: de68 eabb 9200 1c3d 624d 7cba d44e d8bc
00000040: 3718 8abc 7ce3 3abd b2fb a5bc 6aa8 4f3c
00000050: 6d24 59bb 4c3f 1d3d 0f05 b03b 24f8 7e3c
00000060: c676 3c3d dfd9 36bc 83d5 e8bc c684 99bc
00000070: c99b a33c 4969 8cbc 5e0d 983c 551f 2abd
00000080: 015f 2cbd c56e 6ebd 3b99 f13c 3cdf 21bd
00000090: 9653 1abd 2277 e63c d734 513c 3061 5c3c
000000a0: dc36 dbbc 6c2f 7b3c f499 c4bc 26c5 3abc
000000b0: 501f 3bbd 2479 5dbc 1bf0 903d 9a65 5abc
000000c0: 97ec f8bc 86f1 5c3d f417 753d 04eb 21bd
000000d0: a61e d93c 2f16 403c 84fd 033d e3e4 19bd
000000e0: 2a25 86bd 2b26 66bc 2f0f 303c a51d 5bbd
000000f0: 5ab0 64bc 2c83 553c 817c aabb f37c 363c
00000100: 6795 723d 66d4 873c 961d cc3a 05b7 7b3c
00000110: 21f3 403c cc1e 7aba abeb e1bc d10f fabc
00000120: 06bb 803d 3527 113c 690e 90bc e263 17bd
00000130: 8ad1 853d 0364 adbb d71f 38bd 0e4e 0bbd
00000140: 2a35 3ebb 0c8c 2d3c d204 cebc 6a02 8a3c
00000150: 2f6f 903c 9583 f5bc 8a91 2a3c d2b5 8e3d
00000160: a0ae 34bc fa40 37bc af41 95bc b556 4abd
00000170: df37 433d 4f89 59bd 5774 6e3d decd 973c
00000180: d1aa 233d dfe0 91bd 07c4 0e3d fd85 b3bc
00000190: 03c8 3ebc 895a 4bbd 3a94 593d d0ff 973c
000001a0: 32bc 693c 3bc6 a23d ad78 7d3d 1d17 2ebd
000001b0: c0ae bc3c c7e8 633c 2fe7 203d bfcd ffbc
000001c0: b353 203d 3bce 813d d8cc 973a 6d9c 603c
000001d0: 8fb9 47bc 5e36 20bd 28eb f6bc 2e62 acbc
000001e0: 8686 00bd 82ae d6bb 5444 3f3a 57c5 b03c
000001f0: 255a 21bc b8d9 343c d4ce 40bd 9289 da3c
0.05862361 0.039485242 -0.048880525 -0.023237329 -0.04977132 -0.041806627 -0.039308637 -0.013306794
0.045528278 -0.026067864 0.019319804 0.012030939 -0.0071536144 0.03808648 -0.0009624568 -0.026404776
-0.01685725 -0.045627102 -0.02026162 0.01267443 -0.0033133284 0.038390443 0.005371697 0.015562091
0.04601171 -0.011160343 -0.028422123 -0.01874007 0.019971745 -0.017140048 0.018561061 -0.041533787
-0.04208279 -0.058211107 0.029492011 -0.039519534 -0.03767737 0.028132979 0.012768946 0.013450906
-0.026759557 0.0153311305 -0.023999192 -0.011399543 -0.04568416 -0.013517652 0.070770465 -0.013329888
-0.030386252 0.053941272 0.059837297 -0.03953077 0.026503872 0.011724039 0.032224193 -0.0375718
-0.06550057 -0.014047186 0.010745808 -0.053495068 -0.013958061 0.013031762 -0.0052028303 0.011138189
0.059224512 0.016580772 0.0015572782 0.0153634595 0.011776716 -0.0009541332 -0.027578196 -0.03052512
0.06285672 0.008859445 -0.017584996 -0.03696049 0.06534107 -0.0052914633 -0.04495224 -0.034009986
-0.0029023387 0.010592472 -0.025148783 0.016846854 0.017631141 -0.02996997 0.010410676 0.06968273
-0.011027962 -0.011184925 -0.018219797 -0.049399097 0.047660705 -0.053109463 0.05821642 0.018530782
0.039957825 -0.07122969 0.034854915 -0.021914477 -0.011644366 -0.049646888 0.053119875 0.018554598
0.014266061 0.07947966 0.061882664 -0.04250251 0.023032546 0.013910479 0.039282974 -0.031226037
0.03914232 0.063381635 0.0011581434 0.01370917 -0.012190237 -0.03911435 -0.030141428 -0.02104291
-0.03137829 -0.0065515647 0.00072962535 0.021578474 -0.009848152 0.011038236 -0.047072247 0.026676927

layers.4.weight f4 [64, 128]
00000000: 3a61 aabd 48ec a53d 1917 87bd d318 a13d
00000010: 5d6b b1bd 6755 6c3d 2dbc 133d eaf6 bdbc
00000020: e988 013d 3e1c ac3d 50ed 42bd d831 d4bc
00000030: 74f3 ba3d 1126 4abd 8fd3 1cbd d339 57bd
00000040: c59c 6a3c e689 a2bd bb7f 383d a66f 413b
00000050: cc6b 0c3d 20ab a0bd afa4 863c 0061 7d3d
00000060: 29df 953d d0c1 48ba 21eb 76bd 8020 853d
00000070: 6949 8bbd a2b3 7cbd 20b5 813d 3496 823d
00000080: 548e 9ebd 83df de3c 6d88 c93c f704 e8bc
00000090: 0ed3 1bbc 7426 cdbd 92c2 9ebd b085 14bd
000000a0: 8fab 9bbd 1ef6 e33c d1bc 7f3d f529 85bd
000000b0: f4f7 4dbb e6f1 b0bd f62a 1c3d 243d 74bb
000000c0: bd3f c03b 9d79 22bc b29f 673d c880 2fbd
000000d0: c086 6ebc e873 063c cef6 2bbb ea68 06bc
000000e0: 5803 863d be3e abbc 7a2d f2bc 2c19 ae3d
000000f0: 7983 a9bd 6db1 2ebd f7d8 fdbb f75f 86bd
00000100: 25aa 1c3c 3fd4 943d 6e92 cf3c 07af 603d
00000110: 4310 65bc 507a aa3d 65c3 86bc c131 a1bd
00000120: ffdf 683d 2d93 8b3a 212a acbd f9af 8a3d
00000130: d3b7 abbd 6c77 413d 547e 19bd 89a4 27bd
00000140: 636d 38bd 700a f13c d9ba f03c 9c82 863c
00000150: 7f37 8e3d 64bb 983d 7d43 82bd c7d8 993d
00000160: 4dea d9bb 28c1 ba3d ccf6 0fbd 92a4 df3c
00000170: ffd1 aebd dedb ad3d 7cb1 973d 45d7 73bd
00000180: 58d1 6fbd cd8f a73b 3c66 c73c 7282 fabc
00000190: 41af 133d c977 bfbd 3756 4e3d 64a7 163d
000001a0: b950 2c3c eecf 933d 5726 413d 89b6 92bc
000001b0: c4e4 7ebd cf5b cfbc f90a 70bc 1f28 20bd
000001c0: 230b 91bd be19 4d3c 7331 663d 7bc3 ac3d
000001d0: da4e 983d 90ef e5bc 86c5 9bbd f806 0d3d
000001e0: f861 963b c5b9 e9bc de13 ab3d 3144 15bc
000001f0: 67e6 2cbc ac8c 16bd c91e f4bc cf90 9b3b
00000200: 068c fb3c 4063 c83d 2aa1 a0bd 0645 1039
00000210: 4edc 54bd 96aa 863d 05bb b13d ec69 49bd
00000220: af67 9f3c 5c7c 1ebd e138 26bd bed8 153d
00000230: bd1f b4bd 9755 d23c 8f8f 5c3c dd44 35bd
00000240: 1bf7 253d bee9 4fbd 91dd fabc 6544 12bd
00000250: ffdb 9c3d c80c 24bc 0d0b 7d3b 52f4 ac3d
00000260: 574a 04bd e5b0 1d3d fe28 34bd ee29 8e3d
00000270: 32cf 92bb c52a 3cb9 9757 12bd 4e6b 8fbd
00000280: e367 cebc 0a82 bf3d 0d6c a43d 8c79 073d
00000290: 942d 49bc 22a9 73bd 2a38 b73d fc52 c23d
000002a0: 4d40 a33d 9e96 8a3d 1f88 a6bd 20f4 c83d
000002b0: 9165 d23c 64ef 8cbc 94c6 173d 2d95 87bd
000002c0: 8e9e d03b f546 5b3d 9e40 533c 6b8e 9b3d
000002d0: ab23 8abd b477 9abc c064 c13d a867 8ebc
000002e0: 0104 bb3c 52a8 9e3d fca3 2ebc cddf debc
000002f0: 13bc 903d f343 843d 49c0 1ebd 3bc5 9c3d
00000300: 8e3b 06bd 30ed 4eba 0e4f 6dbd cb17 6cbc
00000310: 8123 3abd 2447 bfbd 5d4d a53d 5019 64bd
00000320: 7c36 8d3c 68bf 843d a6ce ce3c d938 d1bc
00000330: 5569 573c c6fc 33bd b8bc a3bc ce65 80bd
00000340: 70fe 36bc 19e2 973d 6623 ef3c 3b7b 28bd
00000350: 0e11 94bd 935e 3cbc b88f 7dbd e6d1 c1ba
00000360: 2e8b ac3d 980c 8bbd 6752 06bd 7c9b a43d
00000370: e5d5 2cbd 63c7 e9bc 546d 85bb f467 b53d
00000380: 00d0 cf3b 9236 30bd aa92 c73d 4be5 593d
00000390: 46c4 783c 97b2 10bd c336 aa3c a112 633d
000003a0: 8515 1b3d 3657 813c b971 6f3d 562b 253c
000003b0: 8013 bb3c 294f 683d e3ad 113d 5d8c 89bc
000003c0: 2f02 c53d d2a0 033d fa90 9cbd e874 873d
000003d0: 0f54 0bbc 4c8c 96bd a7e9 b33b b139 2ebd
000003e0: 8b1a 7c3d c412 a93d b0d0 69bd d1b8 b0bd
000003f0: 178a b33d b81b edbc 228f 123d cb27 91bd
-0.08319326 0.08101708 -0.065962024 0.07866063 -0.08663056 0.057698634 0.03606813 -0.023189027
0.03162471 0.08403824 -0.0475896 -0.025902674 0.09128466 -0.04935271 -0.038287695 -0.05254538
0.014319603 -0.07936458 0.04504369 0.002951601 0.03428249 -0.078451395 0.01643595 0.061860085
0.07317955 -0.0007658275 -0.06028283 0.065003395 -0.06801111 -0.06169475 0.06333375 0.06376305
-0.07741991 0.027206188 0.024601186 -0.02832268 -0.009510769 -0.100171 -0.07751955 -0.036260307
-0.076010816 0.027827319 0.06243593 -0.06502143 -0.003142831 -0.086398885 0.03812691 -0.0037267888
0.005866973 -0.00991669 0.05654878 -0.042847425 -0.014558494 0.008206345 -0.0026239636 -0.008203724
0.065436065 -0.020903941 -0.0295627 0.08500895 -0.082770295 -0.042649675 -0.0077468115 -0.065612726
0.00956205 0.07267045 0.025338378 0.05485442 -0.013980928 0.083241105 -0.016450593 -0.07870818
0.056854244 0.001064872 -0.08406473 0.06771845 -0.08384671 0.04723303 -0.03747399 -0.040928397
-0.045026194 0.029423922 0.02938597 0.016419701 0.06944179 0.07457617 -0.063605286 0.0751205
-0.0066502453 0.09118873 -0.035147473 0.027300153 -0.08536147 0.08489202 0.07406899 -0.05953147
-0.058549255 0.005113578 0.024340741 -0.03057978 0.036055807 -0.09349019 0.05037519 0.03678073
0.010517293 0.07217394 0.047155704 -0.017909305 -0.062229887 -0.025312332 -0.014651054 -0.039100762
-0.07082202 0.012518344 0.056199502 0.084357224 0.07436915 -0.028068334 -0.07606034 0.034430474
0.0045893155 -0.028530965 0.08353399 -0.009110496 -0.010552979 -0.03675525 -0.029799836 0.004747487
0.030706417 0.097845554 -0.078432396 0.00013758623 -0.05196791 0.065755054 0.08678249 -0.04917328
0.01945862 -0.038692817 -0.040581588 0.036583655 -0.08795116 0.025675578 0.013461961 -0.044255126
0.04051886 -0.050760023 -0.03062323 -0.035709757 0.076591484 -0.010012813 0.0038611323 0.08445038
-0.03229746 0.038498778 -0.043984406 0.06941591 -0.004480266 -0.0001794501 -0.035728063 -0.070028886
-0.025196021 0.09350975 0.080284216 0.0330749 -0.012278933 -0.05948747 0.08946259 0.09488484
0.07971249 0.06767009 -0.08131432 0.09812188 0.025683196 -0.017203994 0.037054613 -0.0662025
0.0063665574 0.053534467 0.012893824 0.075955234 -0.067450844 -0.018855907 0.09443045 -0.017383412
0.022829058 0.07746948 -0.010659214 -0.027206326 0.07067122 0.06458273 -0.038757596 0.07654806
-0.03277164 -0.000789362 -0.05793672 -0.01440997 -0.045444015 -0.09339741 0.080713965 -0.055688202
0.017237894 0.0648182 0.025245022 -0.025539802 0.013147672 -0.043942235 -0.019987449 -0.06269418
-0.011169061 0.074161716 0.029191684 -0.041133147 -0.072298154 -0.011497158 -0.06190464 -0.0014787286
0.08424984 -0.067895114 -0.03279343 0.08037469 -0.042196173 -0.028537458 -0.004071871 0.08857718
0.006341934 -0.043020792 0.09744771 0.053197186 0.015183514 -0.035326567 0.020778066 0.055437688
0.03786232 0.015788656 0.058458064 0.010081133 0.022836447 0.056716118 0.035566222 -0.016790563
0.09619557 0.032135792 -0.076448396 0.06614095 -0.008503928 -0.07350978 0.0054905 -0.042535488
0.06154875 0.082555324 -0.057083786 -0.08629001 0.08766573 -0.028943881 0.035781033 -0.07087668

layers.4.bias f4 [64]
00000000: 893b f5bc 5016 2fbd eef0 273c eaf6 17bd
00000010: bfbf e33c 0cf0 943d 68cc 3dbd 5718 463c
00000020: a306 a73c 9505 513d a159 40bd 940a 803d
00000030: db9e 383d 46f0 493d 5e80 b33a 9813 8abc
00000040: 6d00 1cbd ea33 96bc bc73 9dbd f411 80bc
00000050: 33af 823d b4de 6ebc cd85 8d3d 063f e5bc
00000060: b97a 60bd 1f2d 273c 9e2d 7fbc 8d47 d73c
00000070: 3b2c 303d 1499 3cbd 30a7 10bb c16c 5e3b
00000080: 2f4c 8bb9 058b 513d f258 d73c eead 5b3d
00000090: 8354 c9bc ca90 553d 3fa3 bc3d ba88 58bd
000000a0: ec7f 28bd ea4a 4a3d 3aca 95bd a2d8 523d
000000b0: 89b5 af3d c1f0 8cbd 0117 a63d 0e83 99bb
000000c0: e60f 34bd 8069 45bd b538 6fbc b6f6 6e3d
000000d0: 9e46 9fbc 0511 36bd 9ee6 debc c785 03bc
000000e0: 755c 8b3d 1545 91bd 1426 8c3c 3876 223d
000000f0: 5698 73bd 44a7 09bc 6d3e 8f3d 6211 993d
-0.029935615 -0.04274589 0.010250313 -0.03710071 0.027801393 0.07272348 -0.046337515 0.012090764
0.020388907 0.051030714 -0.046960477 0.062520176 0.04507337 0.04930141 0.0013694873 -0.016855046
-0.038086344 -0.018335301 -0.0768809 -0.01563356 0.06381073 -0.014579464 0.06910286 -0.027984153
-0.054804537 0.010203629 -0.015574841 0.026279235 0.04301093 -0.046044424 -0.0022072308 0.0033939334
-0.00026568907 0.05115797 0.02628753 0.05363267 -0.024576431 0.052140035 0.09210824 -0.052864768
-0.04113762 0.04938785 -0.07313962 0.05147613 0.08579547 -0.06881858 0.081098564 -0.0046848124
-0.043960474 -0.048196316 -0.014600922 0.05834075 -0.019442853 -0.044449825 -0.027209576 -0.0080275005
0.06804744 -0.070932545 0.017108 0.039663523 -0.05947145 -0.008401696 0.06994329 0.07474019

layers.6.weight f4 [32, 64]
00000000: 4d0a 9cbd f824 39bd b523 a53d f4d5 863c
00000010: 8650 6bbc 367c f8bd 3b7d 003d e1e9 5bbc
00000020: 5132 18bd dfde 13bd 21a8 4fbd 5d66 3ebd
00000030: 500f 9d3c 3184 a13a a775 783c 4f99 f1bc
00000040: df04 a2bc 1337 7b3d f41d c23d 7867 2c3c
00000050: 4e9c dc3d 80b4 c53c 697d efbd c3e9 9cbd
00000060: f3e3 9f3d dff0 efbd 4c05 9a3d 0e6b dfbd
00000070: c321 f8bc 451a a1bc 7603 2dbd 7efc edbc
00000080: 719a ee3d 2878 923d fedb d53d b9d7 f03c
00000090: 730b 143d 32dd d1bd 7266 573d 8b8b 523d
000000a0: 9ecb 0ebe fc00 c93d a9e7 a8bd f7a1 8bbd
000000b0: 1d4f 3ebd 3bc6 0b3d 2ec2 a53d 7f74 fe3d
000000c0: 30ec a4bd d601 303d d9cb 13bd a80a 9cbc
000000d0: f033 8dbd 2d3d ae3c f0a8 013e 5451 803d
000000e0: 0c09 8e3d 5fdf 08be ef4c babd e249 a93d
000000f0: e5c3 a63d 8802 0e3e 64a3 e83b 91cd 4fbd
00000100: 9273 783d e971 a2bc e7fa b7bd d17b ec3b
00000110: 85a1 6dbd 774c 33bd 9aac 08bd 3547 2f3d
00000120: 4bc7 d3bc 4590 1d3d fcf3 823c 3a75 aabd
00000130: f084 a63d 156a b43d 6547 22bd a0c8 d83d
00000140: 9b07 313b c905 b43d 4fd2 b73d 67b9 4d3d
00000150: 0567 3a3d edc2 c33d 5978 e3bd 5633 71bc
00000160: 033c 9a3d c40a 323c 11d2 9f3d f91e bebc
00000170: e61c ee3b b9a1 b5bd 3f4d 9ebc 6395 693d
00000180: 884b c9bd dfa3 353d 76f4 d83d 8fb1 9b3d
00000190: e0fa 10bd 4e30 ccbd 9aec 2dbd 4e77 953d
000001a0: 8b59 343d e92d 2abd 6763 00be 9ef7 2a3d
000001b0: 9660 f53d 5605 833d 8a03 c7bd 3785 c23d
000001c0: 039d b73d a7c9 e13c 783a 14bc 87eb 41bd
000001d0: c308 e53c f100 63bb 3430 cb3c 4e77 063c
000001e0: 05f4 f2bd a0fc f93c a8a1 c83c b9f6 4cbc
000001f0: 6174 603c 3ba6 163e d93e 59bd 515c d6bd
00000200: e2c8 f33d 6f11 bd3d 069e 8dbd d27c 9dbd
00000210: 892d d2bc 7251 b83c cc18 cfbc f165 263c
00000220: 8b02 e4bd 5e74 aa3d 3da4 aabc cc2c 8c3b
00000230: 5403 1abd c13a 3ebb 581b e0bd bca5 ae3d
00000240: 074f d9bd 681a 2b3d 4802 a23d 61c7 513d
00000250: 3b21 163d 9c98 5abd 4ced 2cba c711 dd3b
00000260: 98fa debc ada8 ddbb c3b1 cfbc 0d64 2c3d
00000270: 2a43 e9bc 499e 653d 3c83 9e3d 7f6a 94bc
00000280: 58eb f83d 4b73 e5bd ef03 88bc ee52 803d
00000290: 8999 063d a07a acbd 5fcc bb3d 6141 fbbd
000002a0: da53 233d 62d8 c0bc 2e88 28bc b9b2 bbbc
000002b0: c0c8 5e3c f352 dd3c 2513 e6bd 8eb1 963d
000002c0: 8ec9 c33d 003f 70bd d34f 7dbd 4e0c 9e3d
000002d0: d52e c9bd 4235 6bbd ee46 39bd d4e8 3d3d
000002e0: 32aa b73b 7125 5e3d f7a2 a43d b5dc 97bc
000002f0: 853f 023e 9352 d93d 126c 8d3c 51ec e6bd
00000300: 4078 df3c 8c62 1ebd ec6a e73d 18d8 98bd
00000310: 9240 8fbc b323 873c 5b00 06be c77c fbbc
00000320: daec a0bd 8c76 bcbd 7577 86bc 5b97 8c3d
00000330: 9e04 e23d e241 c0bd 12d7 8b3b cae7 11be
00000340: 27b2 f73b 7434 8c3b 544d 16bb 0e7c f4bc
00000350: e978 823c ce85 3fbd 52c7 b4bd 47b1 ea3d
00000360: 14ed cabd e97c 3b3d 6539 633d 281c 433d
00000370: 6957 d2bc e6e0 8cbd 366d 0bbd 4306 dabd
00000380: 1aca c03d f21a e13d 7e5a 893d d42c 9d3d
00000390: 841c 1fbd a792 7cbd 23db b6bb 6094 6d3d
000003a0: e2de 7cbd b2ef 26bd 665b 0ebd d411 e33d
000003b0: ec7b 1fbd 9d04 12bd c1f2 c23d 9392 f4bc
000003c0: 73ba be3d c716 623d 7bf2 953d 0367 abbd
000003d0: d0be 7d3d 47ca da3d a81d e23d 3cf0 093d
000003e0: 3028 363d be2a bebc 249b c13d 39b0 32bc
000003f0: f7e9 57bd 2acc 41bd fafd e33d aa1d b0bd
-0.07619152 -0.04520127 0.08063451 0.016459443 -0.01436246 -0.12133066 0.03136943 -0.01342246
-0.03715736 -0.03610122 -0.05069745 -0.04648434 0.01917234 0.0012322721 0.015164769 -0.029492049
-0.019777713 0.06133182 0.09478369 0.010522716 0.10772 0.02413392 -0.11693842 -0.07661774
0.0780715 -0.117158644 0.075205415 -0.10909091 -0.030289536 -0.019665847 -0.04223963 -0.029051062
0.11650551 0.07151824 0.10442351 0.02939974 0.03614373 -0.10247268 0.052587934 0.05140261
-0.13944861 0.09814641 -0.08247311 -0.06818002 -0.046462167 0.034124594 0.080936775 0.124245636
-0.08052862 0.0429705 -0.036083076 -0.01904805 -0.06894672 0.021269405 0.12662101 0.06265512
0.06935319 -0.1336646 -0.09096705 0.08266045 0.08142833 0.13868153 0.007099556 -0.050733153
0.06065709 -0.019829707 -0.08983403 0.0072169085 -0.058015365 -0.043774094 -0.03336773 0.042792518
-0.025851866 0.038467664 0.015985481 -0.083231404 0.081308246 0.08809296 -0.03961887 0.10585141
0.002701259 0.08790166 0.0897566 0.05022564 0.045508403 0.095586635 -0.11106939 -0.014721712
0.075309776 0.010866825 0.07803739 -0.023208128 0.0072666286 -0.08868737 -0.019323943 0.057027232
-0.098288596 0.044345733 0.10593502 0.07602226 -0.035395503 -0.09970151 -0.04246197 0.07298146
0.044030707 -0.04154769 -0.12537919 0.041740052 0.11981313 0.06397502 -0.09717472 0.09498065
0.089654945 0.027561976 -0.009047143 -0.047343757 0.02795828 -0.0034638012 0.024803258 0.008207155
-0.11862949 0.030515969 0.024491146 -0.012509995 0.013699622 0.1471185 -0.05303845 -0.10466827
0.1190355 0.09231841 -0.06914906 -0.07689823 -0.025656478 0.022499774 -0.025280379 0.010156141
-0.111332975 0.083229765 -0.020830268 0.004277801 -0.03760083 -0.002902672 -0.109427154 0.08527705
-0.106107764 0.04177323 0.07910591 0.051215533 0.036652785 -0.053368196 -0.0006596639 0.006746504
-0.027219102 -0.0067644925 -0.025353318 0.042087603 -0.02847441 0.056059156 0.07739875 -0.018117188
0.12154263 -0.11203631 -0.016603438 0.062658176 0.032861266 -0.08421826 0.0916984 -0.122683294
0.03987489 -0.02354068 -0.010286374 -0.02291237 0.013597667 0.027017092 -0.1123412 0.073580846
0.09559928 -0.05865383 -0.061843704 0.07717191 -0.098233856 -0.057423837 -0.04523366 0.04636462
0.0056050057 0.054234926 0.080388956 -0.018537859 0.12719543 0.10611453 0.017263446 -0.112755425
0.02727902 -0.0386682 0.112996906 -0.074630916 -0.017486844 0.016496515 -0.13086073 -0.030699147
-0.07857676 -0.092022985 -0.016414383 0.06864806 0.11036037 -0.09387566 0.0042675817 -0.14248577
0.007559079 0.004278714 -0.0022934275 -0.02984431 0.015926795 -0.046758465 -0.0882708 0.11459594
-0.099085 0.04577342 0.055474658 0.047634274 -0.025676446 -0.068788335 -0.0340397 -0.106457256
0.09413548 0.109914675 0.06706713 0.07674566 -0.038845554 -0.061663296 -0.0055803224 0.05800283
-0.061735995 -0.040755935 -0.034755133 0.11087385 -0.03893654 -0.03564893 0.09518958 -0.029855048
0.09312906 0.055197503 0.0732164 -0.08369257 0.06194955 0.106831126 0.11040813 0.03367637
0.04447192 -0.02321374 0.09453419 -0.010906273 -0.05271336 -0.047313847 0.111324266 -0.08599408

layers.6.bias f4 [32]
00000000: fb82 cabd d9cf f03d 501f 35bd ab5f 6fbc
00000010: b61a 5fbd 2076 bcbc e244 413d 89ff e3bc
00000020: b27c 063e b31b 89bd 1fe1 53bd 716b 833c
00000030: 19db a33d b45f 1bbd f024 dc3c 77eb 8bbd
00000040: bdd9 133d f5b1 713b 1df1 ab3c 91f4 0b3d
00000050: b88e fcbb e9a0 32bd 967c 7abd 159f 023d
00000060: 8167 093d 6b62 20bb 36b5 ec3b 4771 0d3c
00000070: bfa0 95bd ffb3 cfbc d754 02be 185c 963d
-0.09888264 0.11758394 -0.044219315 -0.014610211 -0.054468833 -0.023005545 0.047184832 -0.02783181
0.13133505 -0.06694736 -0.051728364 0.016042443 0.08000774 -0.037933066 0.026873082 -0.06832021
0.036096323 0.0036879752 0.020988995 0.034168784 -0.007707443 -0.043610487 -0.06115397 0.031889994
0.033545975 -0.0024472724 0.0072237505 0.008632964 -0.073060505 -0.025354384 -0.12727676 0.07341784

layers.8.weight f4 [1, 32]
00000000: e3bd 05be 7f26 bdbd 8e12 c6bd e191 d6bc
00000010: e909 cabd e739 60bd 0fd3 693d 1653 033e
00000020: 98d0 3b3e aad6 113e c828 7fbc b2f1 14be
00000030: 27b0 e9bb 8bad 983d 9dcd afbc c06f 633d
00000040: 44a2 a1bd 2336 11be 3267 103e 7b3e fd3d
00000050: 8b1f 0cbd 3709 34be 8246 35be 4d6f 533e
00000060: 896b 003e 7fcb a1bd 5a27 133e 82cb debc
00000070: 7db3 1fbe 39ee 05be 9b42 00be 66ef abbb
-0.13060717 -0.09235858 -0.09671508 -0.026192607 -0.098651715 -0.05474272 0.057086047 0.12824664
0.18341291 0.14242044 -0.015573688 -0.14545324 -0.0071315947 0.07454976 -0.021460349 0.055526495
-0.07892278 -0.14180808 0.14101866 0.12365433 -0.03420977 -0.1758164 -0.17702678 0.20647927
0.12541021 -0.07900142 0.1437048 -0.02719665 -0.15595813 -0.13079156 -0.12525408 -0.0052470444
