models/nn/nn_exp1_mse.pth (torch, 180208 bytes, 9 tensors)

layers.0.weight f4 [256, 2]
000000 db 58 03 be 35 98 f8 bf 74 23 f0 3e f4 e6 c3 bd
       -0.12826864 -1.942145 0.4690205 -0.09565535
000010 d9 5f ac bf 71 e6 2c bf b2 fa 73 bf 1a 7e 47 bf
       -1.346675 -0.67539126 -0.95304406 -0.7792679
000020 96 22 c2 be 6d 91 b9 3d 42 5a d0 3e c6 47 8b be
       -0.37917012 0.09060941 0.4069386 -0.27203196
000030 c6 44 c7 bf b8 11 9e be e3 ae bf 3d b4 58 94 ba
       -1.5567863 -0.30872893 0.09359529 -0.001131794
000040 af ec de 3e 0e 6f 2d bd 25 56 cd 3e 3d c5 d2 bd
       0.4353995 -0.042342238 0.40104786 -0.102915265
000050 fa 1a ca 3e ba 00 70 bd 8d 0a 1e be 88 7b 93 bc
       0.39473706 -0.058594443 -0.15433712 -0.01800324
000060 07 e2 25 be 9b 87 e0 bf 2d 66 82 be f7 38 ca 3c
       -0.16199504 -1.7541384 -0.2546858 0.024685366
000070 cd f1 9c be 75 59 2f bd 31 2b 08 bf 9a 66 0d 3e
       -0.3065323 -0.042809922 -0.53190905 0.1380867
000080 53 be 6c 3e db 30 07 bc 8c 06 a9 3e 2a 6f 1c bd
       0.23119478 -0.008251394 0.33012807 -0.03819195
000090 26 d0 b3 be 28 78 4f 3c be aa 5a 3e e8 35 68 bd
       -0.35119742 0.012662925 0.21354195 -0.056692034
0000a0 e0 23 24 be 05 83 14 3f 22 b1 b8 3d cc f6 27 bc
       -0.1602931 0.5801242 0.090181604 -0.010251712
0000b0 44 4e ac be 9f 68 28 3c 52 18 ce be b8 59 86 3e
       -0.33653462 0.01027885 -0.4025293 0.26240325
0000c0 8d d2 4d 3e b9 48 6d 3d 05 a4 d5 be d5 6b 7e be
       0.2009985 0.05793068 -0.417267 -0.24845822
0000d0 1c bb 7d be c8 d3 f2 3e 66 b2 c0 be ff ce 45 3e
       -0.24778408 0.474272 -0.37636107 0.19317244
0000e0 3e 03 91 be d0 4d 92 3d f6 c8 0a 3e e7 cd c3 bd
       -0.28322786 0.07143748 0.13553223 -0.09560757
0000f0 65 56 a1 3e dd dc 5f 3d 88 ad f4 be b1 4e 4e bd
       0.31511226 0.05465399 -0.47788644 -0.050368015
000100 43 7c 6f be cf 8c cf 3c 71 23 c9 bf 33 2d 82 be
       -0.23387246 0.025335697 -1.5713941 -0.2542511
000110 8d 4e 1a 3f 0c 96 17 3e d4 00 9f bc c3 b1 aa bb
       0.6027611 0.14803332 -0.019409575 -0.005209179
000120 7b 72 10 bf 4b 15 8c 3d 40 d5 f3 be 9f d7 6e 3b
       -0.56424683 0.06839999 -0.47623634 0.0036444438
000130 9c 0c 94 be 83 45 cc bf 7c 37 1a 3f 86 f0 a7 bd
       -0.2891587 -1.5958713 0.6024091 -0.08200173
000140 4e b3 c7 3e a0 65 bd 3b 9d 9d a3 be 8b ec bb bf
       0.39003986 0.005779937 -0.31956187 -1.4681562
000150 04 c3 88 be c5 fd 84 3e bd 6f 0b bf 33 34 36 3e
       -0.26711285 0.2597486 -0.54467374 0.1779335
000160 b2 90 ab bf 6f 61 1f be f6 c4 a6 3e 69 f4 3f be
       -1.3403533 -0.15564512 0.32572144 -0.18745579
000170 b4 e5 1b 3d 0e 37 98 bb 3d af 14 3e be 5d da ba
       0.03806086 -0.004645235 0.14519973 -0.0016660017
000180 4a 7e 6c be d9 ef f5 3a 6c e3 ff be 13 d7 6b 3d
       -0.2309505 0.0018763497 -0.49978197 0.057578158
000190 a1 3b b5 be 69 54 38 bd cc 0e 0a bf 0c ee a5 bf
       -0.35397056 -0.045002375 -0.5392883 -1.2963271
0001a0 eb f4 6f bf 9b 88 5a bf df 3d 15 bf 03 a3 c6 bd
       -0.9373309 -0.85364693 -0.5829753 -0.09699061
0001b0 c3 e0 24 bf f3 f7 4b 3e 66 11 34 3f 22 fd d4 bd
       -0.6440546 0.19918804 0.7033905 -0.10399844
0001c0 39 ca 01 be 96 65 20 be 0f 05 f2 be 12 90 f5 3d
       -0.12674798 -0.15663752 -0.47269484 0.1199037
0001d0 3b a7 ab bb 6c 49 98 3b c3 36 c5 bf f1 5b c5 bd
       -0.0052384413 0.0046474244 -1.5407337 -0.09636677
0001e0 38 39 e7 bd c3 67 94 bb a2 6d ae be e0 57 8b 3d
       -0.112902105 -0.004528971 -0.34068018 0.0680387
0001f0 8c d2 80 bc c9 91 20 3c 16 34 20 be 38 ae 1c bc
       -0.015725397 0.009800383 -0.15644869 -0.009563021
000200 e7 ed 8c bf ec 37 7a 3d 6d 46 f1 be f3 2c 9f bd
       -1.1010102 0.061088488 -0.47124043 -0.07772245
000210 84 8f 2c 3f db 48 d5 bd e7 c7 00 bf 0d 45 a4 bd
       0.6740649 -0.10414287 -0.50305027 -0.08020983
000220 fc 6a db 3e 99 80 38 3e e1 3a 92 be 42 5c 2b bd
       0.4285506 0.18017806 -0.28560546 -0.04183603
000230 fc 21 28 3f 7f 86 bf bd 9a e0 a4 bf 23 82 37 bf
       0.65676856 -0.09351825 -1.2881043 -0.7168295
000240 83 ce 5c be d5 27 6f 3c a1 1d 0d bf e8 eb 66 bb
       -0.21563153 0.014596899 -0.55123335 -0.0035235826
000250 63 82 20 3f bf 93 c7 bd 83 9b fe be a8 cb bd 3d
       0.62698954 -0.09744977 -0.4972802 0.0926736
000260 8f 94 ec be 08 99 50 3f 2d 79 9d bf 4b af 89 bd
       -0.4620709 0.8148351 -1.2302605 -0.067228876
000270 78 c3 85 be 9b 03 68 3f ab e1 c6 be cb e0 3e bd
       -0.26125693 0.906305 -0.38844046 -0.046601098
000280 83 6e f5 3e 83 ed c4 c0 ce f2 16 3f 84 39 5f be
       0.47935876 -6.153993 0.5896424 -0.21799284
000290 68 77 e2 bd 97 c2 34 3f f8 b5 c1 3e c1 76 5a bd
       -0.11057931 0.7060942 0.37834144 -0.05333591
0002a0 26 13 0b 3d df 23 64 be fa e1 ee be ab 42 bc 3d
       0.03395381 -0.22279309 -0.4665678 0.091924034
0002b0 29 64 f5 be 64 63 e1 bf d3 88 2b bf a1 03 76 3c
       -0.4792798 -1.7608457 -0.6700565 0.015015514
0002c0 df a9 1d be 7b b1 ff 3c 7c a2 3a 3f 4c ab ca bd
       -0.15396832 0.031212559 0.7290418 -0.098959535
0002d0 77 21 2b 3f 33 42 48 bd 1e 9f a7 be 13 c7 2a bc
       0.6684794 -0.048891257 -0.32738584 -0.01042344
0002e0 c6 9d e9 be be 10 fa bc 79 34 1f be b5 f4 5d 3e
       -0.45628184 -0.030525561 -0.1554736 0.2167538
0002f0 99 16 4d 3e 53 d0 80 be 4d a9 0d 3f 8d e6 83 bd
       0.20028152 -0.2515894 0.5533646 -0.064404584
000300 ef 82 90 3e 09 2d 07 bd 8e f5 c3 bc 6e d9 f9 bf
       0.28224894 -0.033001933 -0.0239208 -1.9519479
000310 18 01 09 bf 07 0f 16 bd 32 3d 0a 3f d7 2e 5f be
       -0.53517294 -0.036635425 0.53999627 -0.21795212
000320 84 79 07 bf 1a df 04 3e 9e 40 b8 be 7e f1 51 3e
       -0.52919793 0.12975731 -0.359868 0.20502278
000330 9c 48 bf 3e f7 18 de bc d9 84 cb 3e 37 64 99 3c
       0.37360084 -0.027111514 0.39749792 0.018724544
000340 b3 ce 02 3f 31 ce db bd cb 14 0b bc 92 e4 40 3b
       0.5109665 -0.10732687 -0.008488844 0.0029433114
000350 6c 08 27 bf f3 eb 73 3d 45 cc 83 3e c8 85 1b 3c
       -0.65247226 0.05955119 0.25741783 0.009492345
000360 2c c0 cc 3a 09 51 c2 bb a9 3b 9f be 95 ad 37 3f
       0.0015621237 -0.0059300703 -0.31100205 0.7174924
000370 5c 11 17 3f 6e d1 f2 bd ea 58 32 3e ee 53 36 bd
       0.59010863 -0.11856352 0.1741673 -0.044513635
000380 c9 26 d3 be d1 a5 0f 3f 29 8f 1b bf 69 d0 6a 3f
       -0.41240528 0.5611239 -0.6076532 0.9172426
000390 82 5f 11 3f f5 34 ad 3d 37 00 14 bf 6a 88 85 3e
       0.5678636 0.084573664 -0.5781283 0.26080638
0003a0 9b 4e 0a bf 88 08 9f 3e 5d e7 1a bf 4d b8 76 3f
       -0.5402619 0.31061196 -0.6050928 0.9637497
0003b0 e2 51 e3 3e 80 62 fd 3d 70 58 ae 39 36 e9 72 3b
       0.4439841 0.12372303 0.00033253757 0.0037065274
0003c0 2d b8 8d bd dd ba bb be e1 c6 c7 be cb 07 a1 3d
       -0.06919894 -0.36666003 -0.3901892 0.078628145
0003d0 0f 58 b2 be c4 cf 08 3f da 81 5a 3d 8e 45 0b bb
       -0.34832808 0.53442025 0.053346492 -0.0021251175
0003e0 e2 9c 67 3e 13 99 19 bc 85 66 bc 3e 56 f3 27 3c
       0.2261844 -0.009374875 0.36796966 0.010250887
0003f0 9a 67 13 bc 0c fe cd bb a8 c7 9b 3e 80 fd 06 3d
       -0.0089968685 -0.0062863883 0.30425763 0.0329566

layers.0.bias f4 [256]
000000 3d 93 96 3d 5f 21 c5 be 25 02 83 bf 16 1f 9e bf
       0.07352302 -0.38502023 -1.023503 -1.2353237
000010 fd d5 96 3e c8 c0 8f be 87 16 6d bf 40 a3 a6 bd
       0.29460135 -0.28076768 -0.926125 -0.08136606
000020 fe 68 b2 be d0 0e ae be 1e cb a6 be 51 05 00 3e
       -0.34845728 -0.33995676 -0.3257684 0.12502028
000030 51 f9 e1 3d 58 70 5c 3e fa cb a0 3e 7a d3 0c 3f
       0.110338815 0.2152723 0.31405622 0.5501019
000040 ad 47 4f be fe 9e 8e be 76 7c 9e 3e 84 a8 22 be
       -0.20242186 -0.27855676 0.3095433 -0.15884596
000050 2d 54 a7 be a5 00 c6 bd e4 34 a2 3e 70 c8 8c 3e
       -0.3268141 -0.09668092 0.31680977 0.27496672
000060 f7 65 36 be 59 86 c5 3e 30 db fb bd 81 00 ac 3e
       -0.17812334 0.38579062 -0.12297666 0.33594134
000070 72 01 81 3e 9f 7d e7 bd c6 13 8c be f8 d8 ee 3e
       0.25196415 -0.11303257 -0.27358836 0.4664991
000080 c3 92 5c 3e 53 d1 40 bf 4d 98 08 bf 23 43 4e 3c
       0.2154036 -0.75319403 -0.5335739 0.012589249
000090 f0 80 20 3f c6 e6 bd 3e 0a 37 52 3e bf ce 1e bf
       0.62696743 0.3709013 0.20528808 -0.6203422
0000a0 29 3e b6 be 82 4a 2c 3e 4a d8 8c 3e cb 14 05 3f
       -0.355943 0.16825297 0.27508765 0.5198485
0000b0 67 56 70 bf 8f 61 75 be 69 96 42 bd 29 ba 05 be
       -0.9388184 -0.23962997 -0.047506724 -0.13059296
0000c0 de 50 58 3e c6 eb f7 3e 78 16 a4 3e c6 55 c7 3e
       0.21124598 0.48422068 0.32048392 0.38932627
0000d0 e5 19 9c bf 81 a7 0f 3f 88 05 14 3f a9 60 1f bf
       -1.2195402 0.56114966 0.5782094 -0.62256867
0000e0 26 61 22 3e 90 9a f1 3e 47 9e 0b 3c cf 26 34 bf
       0.15857372 0.47188234 0.008521623 -0.7037172
0000f0 26 1e d6 3d 7b ad b1 3e 0e 6c 50 3c b7 f0 1b 3e
       0.10454969 0.34702668 0.012721075 0.15228544
000100 1e 43 81 bf c5 db cd 3e 0b eb 1b bf 06 d6 ec 3e
       -1.0098608 0.40206733 -0.6090552 0.46257037
000110 9d e9 dd be 0a 1a 8b 3e 12 a4 18 bf 36 ef 63 bf
       -0.43342295 0.27168304 -0.5962535 -0.8903688
000120 f5 24 3d 3e bc 83 0a 3f 9f 61 1a bf 9a b4 fc 3e
       0.18471129 0.5410726 -0.6030521 0.49356538
000130 06 97 82 be ef 6c 61 bf d0 65 06 bf 9a 3a b2 3e
       -0.25505847 -0.88056844 -0.52499104 0.34810334
000140 50 35 da be ef 81 cb be 28 e3 f6 be ed 97 8b be
       -0.426188 -0.3974757 -0.4822018 -0.27264348
000150 b8 ec 28 3c ba a0 f7 3e 40 2a b1 3e 35 59 26 3f
       0.010310344 0.48364812 0.34602547 0.6497987
000160 ca 02 d5 3d 45 e0 22 bf 7e d5 1b bf e8 4e b5 3e
       0.104009226 -0.6362346 -0.6087264 0.35411763
000170 6f 8a f2 3e 41 b4 f0 3b 0e 30 1a bd 68 9b e5 be
       0.4737124 0.0073457067 -0.037643485 -0.44845128
000180 9e 93 59 be f0 b5 6d bc aa 79 0d 3f 1f aa e1 be
       -0.21247718 -0.014508709 0.5526377 -0.44075105
000190 eb 42 03 3f 8f dd b4 3e a5 97 aa be 89 9f a7 be
       0.51273984 0.35325286 -0.3331882 -0.32738903
0001a0 f5 63 00 bf ee 1d f2 3b ff 5b 3a 3f c0 6a 60 be
       -0.5015252 0.007388822 0.72796625 -0.21915722
0001b0 77 50 eb 3b 7e f8 b5 be b9 d6 0b bf f5 bc 19 be
       0.007181223 -0.35541147 -0.54624516 -0.15013488
0001c0 ce ff 8a bd f9 0e 6b be 6a 74 e9 be 07 da fe 3e
       -0.06787072 -0.2295493 -0.4559663 0.49775717
0001d0 18 35 e4 3e 14 0c 8d be 12 17 cc be 0c ff 13 bb
       0.44571757 -0.27548277 -0.3986135 -0.002258244
0001e0 cf 3e 82 3e d6 29 bd 3e 36 9b a8 bd 90 a5 69 bd
       0.25438544 0.3694598 -0.08232729 -0.05704266
0001f0 4a b0 6d be 9e 6e 8f be 92 c7 05 3c 92 92 7e be
       -0.2321178 -0.28014082 0.008165257 -0.248606
000200 3f cf 2e bb 1e 4d dd be f1 69 ac 3d 4a 3c 35 bf
       -0.0026673821 -0.43222898 0.08418644 -0.7079512
000210 d9 64 0b 3d ab 10 95 3e 4e cc cb be 87 7e 16 bf
       0.034031723 0.2911428 -0.3980431 -0.58786815
000220 7a a3 2f 3e ce 4a f6 be d4 f0 f5 3e 54 31 35 3a
       0.17152205 -0.48103946 0.480353 0.00069119525
000230 54 c9 ec 3d 0f 32 89 3e 11 b3 e9 3e 96 30 a5 bf
       0.11561838 0.26796004 0.4564443 -1.2905452
000240 98 27 e3 3e 1c 75 ea 3e b3 21 e7 3e 16 5b 86 3d
       0.44366145 0.45792472 0.45142898 0.06560342
000250 3e 93 75 bf ec f9 71 3e 70 4f bf bd 08 c0 c3 be
       -0.959278 0.23630494 -0.093413234 -0.38232446
000260 52 68 2d 3f f5 ad be 3d 40 71 1b bf 76 92 a0 3e
       0.67737305 0.093105234 -0.6071968 0.3136174
000270 b1 b9 94 be 6b a3 87 be be 59 3b 3e a5 03 91 be
       -0.2904792 -0.26491866 0.18295953 -0.28323093
000280 aa 46 d8 3e d4 fd bc be 97 b5 32 3f 3e 04 4b 3e
       0.42241412 -0.36912405 0.69808334 0.19825837
000290 0c 4a 59 3e d2 ae d9 bb 60 8f 1a be 43 d5 29 3f
       0.21219653 -0.0066431547 -0.15093756 0.66341037
0002a0 c9 e9 c6 3e 18 52 58 be 06 65 e5 be 1f c1 97 be
       0.3885024 -0.21125066 -0.44803637 -0.29639527
0002b0 cc cd 39 3b 90 18 df be 7a 56 50 3e 27 17 1a 3e
       0.0028351424 -0.43573427 0.20345488 0.15047894
0002c0 49 09 1a 3f 0b d2 34 be ce 3f 9a be 10 53 a9 be
       0.6017042 -0.1765825 -0.30126804 -0.33071184
0002d0 c6 5f 17 3f 70 2b 0a be 8f 5c e7 be 7a d9 05 bb
       0.59130514 -0.13493133 -0.45187804 -0.0020423816
0002e0 4c 2b a0 be cb 7f d0 3d a1 e2 23 bf d6 29 4a 3e
       -0.31283033 0.101806246 -0.64017683 0.19742522
0002f0 23 8d ad be 44 02 b5 bd 7f 82 7a be c9 c4 e3 3e
       -0.3389674 -0.08838323 -0.24463843 0.44486073
000300 fd 01 3b be 37 8e 61 be 82 40 0c bf cc 53 d5 be
       -0.18262477 -0.22026907 -0.5478593 -0.41665494
000310 7f 33 cb be d8 b9 05 bf 28 2d 3b 3d ac 43 b2 3d
       -0.39687726 -0.522367 0.04569736 0.08704314
000320 12 d6 2a 3f 25 16 a2 be 88 1d ef be b1 bc 08 3f
       0.66732895 -0.3165752 -0.46702218 0.5341292
000330 25 ca d4 be 46 32 24 3e 0b c2 2b 3f d1 e3 70 ba
       -0.41560474 0.16034803 0.6709296 -0.0009189221
000340 ee 67 07 3f 6e bf 50 be 16 0d 64 bb e1 f3 91 be
       0.5289296 -0.20385525 -0.003479784 -0.28506377
000350 91 f9 1e bf 4c 37 8a 3e cf 83 1f bd 0e c8 84 be
       -0.6209956 0.26995313 -0.03894406 -0.2593388
000360 39 93 80 be 9c 6e 2e be e8 7b 0e bf 7a 57 23 3e
       -0.25112322 -0.17034382 -0.55657816 0.15951338
000370 02 6f b7 be 32 ff 08 be ee a2 22 bf 5c c9 82 be
       -0.3582688 -0.133786 -0.6352986 -0.2554425
000380 91 54 18 bf 83 02 60 be 08 b5 4f bf 59 8b 07 bf
       -0.5950404 -0.21875958 -0.81135607 -0.52947
000390 aa 34 b3 be b4 b7 d8 be 6e 75 86 bc 9c 9e 11 bf
       -0.35001117 -0.42327654 -0.016413417 -0.56882644
0003a0 0b e3 9e 3b 0b fe 09 3f bf 3b 8d 3b 13 cb 29 bc
       0.004848843 0.53903264 0.004310101 -0.010363358
0003b0 5c 9a b8 bd 45 8e 95 bf 2b 0e b1 be 05 ce 1a 3f
       -0.09013817 -1.1684042 -0.34581122 0.6047061
0003c0 0e 50 21 bf c9 c7 10 bf 34 d0 a0 3d f9 e0 dc bd
       -0.6301278 -0.5655485 0.078522116 -0.10785098
0003d0 ea f6 10 3e b3 91 90 3e cb d4 07 be f3 e0 5f 3e
       0.1415669 0.2823616 -0.13264768 0.21863155
0003e0 0c 24 85 3e 9a 27 33 3e 2d e1 d8 3e c9 ee 14 bf
       0.26004064 0.17495576 0.42359295 -0.5817686
0003f0 4e 62 8f bf 1b 27 cc 3b d0 a3 24 bf 05 7e 3d bf
       -1.1201875 0.0062302477 -0.6431246 -0.74020416

layers.3.weight f4 [128, 256]
000000 1c 2b 0d bc a0 f0 16 3e b7 87 b8 3d c5 33 82 3c
       -0.008616235 0.14740229 0.090102606 0.015893826
000010 e2 c8 49 bd 1e f9 26 3e fc 5f 07 3d 3a 2a 92 bb
       -0.049263842 0.16305968 0.033050522 -0.0044606
000020 e2 ee a6 3e ef 43 0d 3e cd e8 58 3e 94 60 9d bd
       0.32604128 0.13795446 0.21182556 -0.076844364
000030 40 13 b0 bd 6d 21 dc bd 94 e6 de bd 4e 44 f8 3c
       -0.08597422 -0.10748563 -0.10883823 0.030306008
000040 09 23 5c 3e 3c c9 30 3d e6 d6 be bc 0f 8a 00 3e
       0.2149774 0.043160662 -0.023295831 0.12552665
000050 f0 44 2f bd 87 61 8c 3d e2 56 2e be 2b d3 c9 bd
       -0.042790353 0.06854539 -0.1702533 -0.0985473
000060 27 c8 f9 3d 99 d6 bf bd 60 84 4f bd 74 13 47 3c
       0.12196379 -0.09367103 -0.050663352 0.012150634
000070 14 c6 07 be d2 d9 1b 3d 5f 74 5e 3d 46 2f 4a bd
       -0.13259155 0.038049527 0.0543102 -0.04936149
000080 9b d8 fb bd 07 e6 bf bc cc 24 b1 bd 1f 55 d3 bc
       -0.122971736 -0.023425115 -0.086495966 -0.025797425
000090 a2 52 99 3d 16 93 9e be b5 d5 1b be c7 6c 35 be
       0.07486464 -0.30971593 -0.15218242 -0.17717277
0000a0 55 45 0e 3d 85 56 cc bd 6b 6f 3a 3d 53 87 40 3d
       0.03473409 -0.0997744 0.045516413 0.047004055
0000b0 2f 40 8a bd 67 2d 9f 3d 03 fa 99 3a 3f 1f 82 bc
       -0.06750523 0.07772332 0.0011747483 -0.01588404
0000c0 76 a8 d3 bd 80 6f 9d 3d 4d 7c 02 be 75 c2 36 be
       -0.10334866 0.076872826 -0.1274273 -0.17847617
0000d0 00 11 ca bc 4b 72 c2 bd 48 ed c1 3d 0d e9 46 be
       -0.02466631 -0.09494456 0.09469086 -0.1942484
0000e0 d6 a4 49 bd 28 58 f7 3b e2 ac 09 bd 8f ab 0e be
       -0.049229465 0.007548351 -0.03361214 -0.13932632
0000f0 5d a8 0a 3d d3 43 4a bd 08 a3 be bc a4 99 05 bd
       0.03385197 -0.04938109 -0.023271099 -0.032617226
000100 e9 54 ab bd 48 0c 37 be d3 f9 11 be 9f 6d 19 be
       -0.08365805 -0.17875779 -0.14255457 -0.14983223
000110 2d 20 9f bc f9 a4 47 be 81 f7 d5 3c 31 7a 9f bd
       -0.019424522 -0.19496526 0.026118996 -0.07786978
000120 f2 84 db bc 6d 17 82 bc fd d8 65 bd 9e 59 78 3d
       -0.026796792 -0.01588031 -0.05611514 0.06063234
000130 11 dc c1 bd 76 51 21 bd 62 54 07 be 1f 16 7c bd
       -0.094658025 -0.039384328 -0.13215783 -0.061544534
000140 46 68 d7 3d c2 a7 bd 3d 10 3e 23 be 40 ff 1d 3e
       0.105179355 0.09260513 -0.15941644 0.15429401
000150 7b c9 2a bc 85 35 d3 3c 86 97 02 be cd 2c b7 bc
       -0.010424013 0.025782356 -0.12753114 -0.02236023
000160 a2 05 c4 bd 7f 60 81 bd 37 7a 38 be 2c 1e 9e bc
       -0.09571387 -0.06317233 -0.18015371 -0.019301496
000170 5c c2 8a bd 39 3f ca bd 40 27 ff 3d d2 ad e9 ba
       -0.06775352 -0.0987534 0.12458658 -0.0017828292
000180 79 2e 0d 3e 5d 40 47 be e8 2c 88 bd 69 27 90 3d
       0.13787259 -0.19458146 -0.0664919 0.07038767
000190 6f 93 a0 3c 21 0a 5e 3d ca 76 77 3e e4 ca ef 3d
       0.019601552 0.05420888 0.24166408 0.1170862
0001a0 21 13 8e bd 2a 50 6f bc 7f 52 ad bc 7a d5 bf 3d
       -0.06937242 -0.014606515 -0.021157501 0.09366889
0001b0 22 d9 15 3d 3c 55 59 bd 10 13 92 bd 0d 30 f1 3c
       0.036584027 -0.0530598 -0.07132542 0.029441858
0001c0 9e da 73 bd 7d a6 eb bd 14 b2 00 3e 2f ef d1 3b
       -0.05953466 -0.115063645 0.12567931 0.0064066867
0001d0 3e 8f 98 bc d6 b9 6a bd e2 fe 41 3e 40 95 09 bb
       -0.01862299 -0.057306133 0.18944886 -0.00209935
0001e0 3e 0c 05 bc e0 c4 d9 bd da 00 13 bd c7 ef 03 3d
       -0.008120595 -0.10633254 -0.035889484 0.03221109
0001f0 9e 99 0d 3e e0 4b 65 3e c6 bc 0f bd c4 43 2d 3e
       0.13828132 0.22392225 -0.035092138 0.16920382
000200 ed a3 5b 3d 23 9a 14 3c bf aa 85 3d 7f 0f aa bd
       0.05362313 0.009069952 0.06526708 -0.08303737
000210 a7 a6 ea bd 65 5e 0d bd 6c 8e 32 3e 5d cb 7d bc
       -0.11457568 -0.03451385 0.17437142 -0.01549038
000220 62 0f 2f bd 46 52 2c 3e bd 3d f7 bc cc 8b 28 3d
       -0.04273928 0.1682826 -0.030180806 0.041148946
000230 8b 9d e0 bd 48 aa 98 bd 88 88 60 bd df 5d 6b 3b
       -0.10967549 -0.074543536 -0.054817706 0.0035914106
000240 62 b8 a6 3d 56 f4 17 be b4 ca 83 3d 39 9e a2 bd
       0.08140637 -0.148393 0.06435147 -0.07940335
000250 e5 53 67 bd d2 5a 27 be ee 29 31 3d d8 81 5f bd
       -0.056476492 -0.16343239 0.043252878 -0.054567188
000260 f4 66 c4 bd e2 09 8c bd 95 fe 00 bd fc 05 80 be
       -0.09589949 -0.068378225 -0.03149279 -0.25004566
000270 03 2c cc 3c 41 ff d8 3d d1 5e c4 bd 3e 6c 64 3e
       0.02492333 0.10595561 -0.09588397 0.22306916
000280 39 58 10 be 0b 4e 5a bd 7d 0f 5e 3c 60 07 c7 bd
       -0.14096154 -0.053297084 0.013553497 -0.097182035
000290 0b f2 4e bb 1d c5 cc bd d9 f7 ee 3d 42 c5 20 3d
       -0.0031577374 -0.09998534 0.11668367 0.03925062
0002a0 6c 73 97 bd d2 80 9d 3d cd 93 11 bd 6f 60 9e 3d
       -0.07395062 0.07690586 -0.035541344 0.07733237
0002b0 f1 63 22 3c 34 6f f3 3d 5b 4b 46 bd 6f 46 a2 bd
       0.009911523 0.11886445 -0.04841171 -0.079235904
0002c0 b0 ae b4 bd 76 43 90 3d 4c f2 ab 3b 1c d1 f7 3d
       -0.088223815 0.07044117 0.00524739 0.12100431
0002d0 ce 78 08 be cb d1 82 3d ed 75 17 3e f0 8b 2e bd
       -0.13327333 0.06387671 0.14791079 -0.042613924
0002e0 bf f3 4e 3e 6a 5c 8d 3b c9 29 cf bd 07 4f f9 bd
       0.2021017 0.004313995 -0.10115392 -0.121732764
0002f0 0e 0b 51 3e ba 27 f9 3c 7f 4c ea 3d a5 99 a7 3b
       0.20414373 0.03041445 0.11440372 0.0051147514
000300 40 81 57 bd 58 67 b6 3d 88 57 73 3b da 4f 8c 3c
       -0.052613497 0.0890643 0.003713103 0.01712792
000310 da d8 54 3d 2a 09 25 3d e2 c1 a8 3b 7a 53 18 be
       0.05196462 0.040291943 0.0051500658 -0.14875594
000320 54 be f1 3c 4a bf 23 3e 38 c9 1d 3d a0 34 6f bd
       0.0295097 0.1599094 0.038521975 -0.058399796
000330 cb 54 b9 3d b6 89 e2 3c 05 25 e0 ba 95 d7 2f bd
       0.09049376 0.027653556 -0.0017100876 -0.042930204
000340 ca 6e 33 3d 16 64 6f 3d 04 56 41 bd 69 a9 3a 3e
       0.04380683 0.05844506 -0.04720117 0.18228687
000350 7d cf f2 bd 13 f4 0c be 95 4a 09 be 3a 0c 88 bd
       -0.118559815 -0.13764982 -0.13407357 -0.06642957
000360 a1 c6 08 3e 26 b6 18 3e b6 4e 52 3d 30 ed 98 3c
       0.13357021 0.14913234 0.051344596 0.018667787
000370 73 ec 87 3c 31 0e d8 3d 5b f9 1d 3d c0 0b 26 bd
       0.01659224 0.10549582 0.038567882 -0.04053855
000380 1b 01 3d bd c7 c9 0b bb b3 68 9d bd f9 83 38 be
       -0.046143632 -0.0021329985 -0.076859854 -0.18019094
000390 2b c8 2d 3e e7 63 5c bd f4 0b e2 bd 0e f8 66 bd
       0.1697089 -0.05380621 -0.11037436 -0.056388907
0003a0 07 db 69 3d 94 ea 7c bc 78 a7 98 bc c2 3e 53 bd
       0.057093646 -0.015436787 -0.018634543 -0.051573522
0003b0 48 b3 e3 3c 16 4b e4 bc b8 e3 0e 3e 20 ae 43 bb
       0.027795449 -0.027867835 0.13954055 -0.0029858425
0003c0 ec 54 3a be a1 23 fe bd c2 39 49 3d 26 78 91 3d
       -0.18196458 -0.124091394 0.049127348 0.071029946
0003d0 62 f2 09 be 54 bb 41 be e4 b2 c1 bc 65 01 b7 3d
       -0.13471368 -0.18919116 -0.023644872 0.08935813
0003e0 2b fd 95 bd 85 48 f0 bd a6 1a 24 be 83 ee 2d bd
       -0.073236786 -0.11732582 -0.1602579 -0.04246379
0003f0 f2 38 ca bc c6 c0 ac 3d d8 f1 39 be 91 3c 0f bd
       -0.024685357 0.08435206 -0.18158662 -0.03496987

layers.3.bias f4 [128]
000000 61 cc 6b 3c 05 0d de be cd 0a 89 be b3 7f 8b be
       0.014391989 -0.43369308 -0.26766053 -0.27245864
000010 7e cd bb be e0 a9 1e be 45 de 82 bd dc 46 2c 3d
       -0.36680216 -0.1549449 -0.06390051 0.042059764
000020 46 2b 04 be b8 36 bf 3c f5 be 93 3d bd 20 3c bd
       -0.12907133 0.023341522 0.072141565 -0.04592966
000030 37 b6 dc be e9 26 d2 be 6a 08 e4 ba 08 c0 cf 3c
       -0.4310777 -0.4104531 -0.0017397527 0.025360122
000040 a6 f4 b5 be 8a 71 83 bd 8f 1f 99 bd 4f c8 22 be
       -0.35538214 -0.0641814 -0.074767224 -0.15896724
000050 29 32 5f 3d f1 0d 2e be c5 6b eb bd 3c 75 b2 bd
       0.054491196 -0.16997506 -0.11495165 -0.08713767
000060 76 6a d6 be 4f 5c ce bd 63 9c 69 be 77 f1 dc bd
       -0.41878098 -0.100762 -0.22813563 -0.10788243
000070 c2 e0 2f 3c 71 a9 9a bd 2b e3 e0 bc cd 74 a6 3c
       0.010734739 -0.0755185 -0.027452072 0.020319367
000080 82 71 21 bd 53 ec b8 bc 36 4f a4 3c c8 5f fc 3c
       -0.03941489 -0.022573626 0.020057302 0.03080739
000090 a9 6f ca bd e1 8d d1 bb 9f 52 6e 3d 4d e8 16 bd
       -0.09884579 -0.006395087 0.058184262 -0.036842633
0000a0 3a c3 73 bd 8d 85 03 bc f4 3b 3a bd 88 6b eb be
       -0.059512354 -0.008027446 -0.045467332 -0.45980477
0000b0 dc 36 a4 bc 08 7c b0 3d 25 08 58 be 35 ab c3 bd
       -0.02004569 0.08617407 -0.21096857 -0.095541395
0000c0 17 8b a6 bb 4f 93 62 bd 1d 3c f4 bc c3 fa e6 bd
       -0.005082499 -0.055316266 -0.02981382 -0.11278298
0000d0 cc 5e 56 be 92 54 5e bd 4f fd 0e 3d df dd 88 ba
       -0.209346 -0.05427987 0.034909543 -0.0010442099
0000e0 4a df 1e 3d 09 43 a3 bd fc bf 23 3c 01 4c ec bd
       0.038787164 -0.0797177 0.009994503 -0.11537934
0000f0 eb b3 d3 bd 4e 8e 34 be 1a 7d a7 3c de fe 92 be
       -0.10337051 -0.1763241 0.020445395 -0.28710073
000100 c2 00 55 bc 79 3a 27 be 60 7b a7 be c6 20 02 be
       -0.013000669 -0.163309 -0.32711315 -0.12707815
000110 14 44 90 bd e3 5b b8 3c 54 f5 e2 be d6 ea 90 be
       -0.07044235 0.022504753 -0.44327796 -0.28304166
000120 48 f4 15 bc e8 12 24 be 8e 0f c2 bd 16 9f 68 be
       -0.0091524795 -0.16022837 -0.09475623 -0.22716936
000130 d9 2c b3 be c2 8e ae bc c3 09 be be ff 9a 02 be
       -0.34995154 -0.021308307 -0.37116823 -0.12754439
000140 33 27 be 3c 3a 20 8a 3d 7f ff cd be d5 8a b4 3d
       0.023212051 0.06744428 -0.4023399 0.088155426
000150 eb 0b 91 bd 36 e1 b8 ba 4c be 89 bc c6 eb 6f be
       -0.07082351 -0.0014105204 -0.016814373 -0.23429784
000160 06 c0 69 be 6b a2 12 bd a6 d8 5f be 58 76 64 be
       -0.22827157 -0.035799425 -0.21859989 -0.2231077
000170 18 10 d1 be a4 2a bc bd 39 c6 b7 bc 76 da 12 bd
       -0.4083259 -0.091878206 -0.022433387 -0.03585287
000180 56 1f e4 bd bf cf 07 bd 2c 45 ca be 31 d9 2b be
       -0.11138789 -0.033157106 -0.395059 -0.1678207
000190 c8 e5 31 bd bd bb 55 be 5f 9e 2e 3c b2 d9 28 bd
       -0.043432027 -0.20872398 0.010657876 -0.041223235
0001a0 01 b5 d8 be 20 54 11 be ae aa 2d 3d 87 54 a4 be
       -0.42325595 -0.14192247 0.0423991 -0.3209574
0001b0 bf 38 d1 bd 08 62 5d bd 26 fc 06 be 9e ec 08 be
       -0.102159016 -0.054048568 -0.13182124 -0.13371512
0001c0 11 8a aa be 3c 9e ac bd 57 d5 cf be 76 f4 64 be
       -0.3330846 -0.08428618 -0.40592453 -0.2235888
0001d0 9a c2 9a 3c 6c 4b c5 bd 6c 22 a2 bd 74 93 00 be
       0.018891621 -0.09633526 -0.07916722 -0.12556249
0001e0 d0 f8 3c 3d 58 f0 49 3c 8f 41 a7 be 29 fb 38 bd
       0.046135724 0.012325369 -0.32667205 -0.0451614
0001f0 a1 62 cd bd 65 1e 77 be f3 2a c7 bd e6 36 d2 bd
       -0.100285776 -0.24132688 -0.09724989 -0.10264377

layers.6.weight f4 [64, 128]
000000 d1 ca 8c 3d 77 2d 20 be ce 18 20 bd 86 bb 4d bd
       0.06874622 -0.15642343 -0.039086156 -0.050227664
000010 d3 98 ce bd a7 2b cb bd dc 39 2d 3d 1a a1 ea 3a
       -0.10087743 -0.099204354 0.042291507 0.0017900795
000020 e8 fd 96 3d 89 00 6f bc 44 76 d0 3c a4 f0 a9 3d
       0.073726475 -0.01458753 0.025447018 0.08297852
000030 a8 31 17 be 2b 6c 34 be 1f cd e8 bc 11 6b 44 bc
       -0.14765036 -0.17619388 -0.028418122 -0.011988417
000040 00 14 a7 bd a7 99 b7 3c e8 81 5e 3d 42 44 e9 bc
       -0.081581116 0.022412134 0.054323107 -0.02847493
000050 9d 6f 11 3e 57 db aa 3c 3d 3e cd 3c d7 f8 52 3d
       0.14202733 0.020856543 0.025054092 0.051506843
000060 4c eb 1a bd 4c ba b5 3d e4 94 7b bd 11 7d c9 bc
       -0.037822053 0.08873424 -0.06142129 -0.02459577
000070 a0 ae 49 3e 59 07 69 bd 6d d0 53 bc c9 e5 c9 3c
       0.1969552 -0.056891773 -0.012928111 0.024645703
000080 8b 42 c8 bc f0 1c cf bc 14 10 67 3d 84 40 19 3c
       -0.024445793 -0.025282353 0.056411818 0.009353761
000090 d2 b5 18 3b 63 57 ea 3c 24 df 57 3d 4e d6 d2 bc
       0.0023301733 0.028606122 0.052703038 -0.025736954
0000a0 66 17 18 bc 3c 67 99 3c 06 fe 66 3c 55 f7 dd bd
       -0.009282922 0.018725984 0.01409865 -0.108381905
0000b0 17 27 f2 bb 5b 14 84 bc 02 cb 2b be 79 20 d1 3b
       -0.007389914 -0.016122987 -0.1677666 0.006382045
0000c0 8c 44 09 bd ac 9e 17 be 72 b7 bd 3d 8c 83 67 bb
       -0.033512637 -0.14806622 0.09263505 -0.003532621
0000d0 00 97 97 bf 1a b9 d4 bc eb ca b7 bc 38 e7 aa 3b
       -1.1842957 -0.02596717 -0.022435626 0.0052155517
0000e0 c5 39 e0 bc 07 ca 69 3d 33 8e d2 3d d8 6e ca 3d
       -0.027371297 0.057077434 0.102810286 0.09884423
0000f0 62 4f 2e bd bf eb 97 3c c7 24 63 bd ad 2a af bc
       -0.042556174 0.01854503 -0.055454995 -0.021382654
000100 db c4 95 3c 30 68 4f 3c 21 73 fb bd bf 31 fb bc
       0.018282345 0.012659118 -0.122778185 -0.03066337
000110 37 6b 22 bc 5b 86 82 bb 00 da 36 bd 87 68 31 be
       -0.009913257 -0.0039833016 -0.044641495 -0.1732503
000120 a9 f4 83 3c 97 f6 0b be a0 29 20 be c4 4b 36 be
       0.016107874 -0.13668285 -0.15640879 -0.1780234
000130 e2 ea ff bd 44 39 69 3c a4 22 d6 bd b0 af f2 bc
       -0.12495972 0.014234845 -0.10455826 -0.02962479
000140 76 94 2c 3e 84 15 36 bc 40 bb b9 bd b4 7b e7 bb
       0.16853508 -0.011113528 -0.09068918 -0.007064307
000150 d0 ca 30 bd 18 43 e3 3d ab 12 e2 3c 60 f0 c7 bc
       -0.043162167 0.110967815 0.027596792 -0.024406612
000160 0c 24 b7 bd 76 56 94 3d 70 1d aa bd f0 8e 49 be
       -0.08942422 0.072430536 -0.08306396 -0.19683433
000170 9e 7c 6a bd 61 21 b6 bc 3a 61 a6 3d bd e4 82 3c
       -0.05724775 -0.022232713 0.08124013 0.015978212
000180 5b 97 2f bd 7f 14 ab bc fb c9 13 be ef 33 ad 3d
       -0.042868953 -0.020883797 -0.14432518 0.08457171
000190 c4 ba bd bd 4a 1e 13 3d 42 2c b2 3d 66 ef 42 bb
       -0.09264138 0.035917558 0.08699848 -0.0029744743
0001a0 ce 5f 22 be 87 e1 a6 bf 80 c3 5d bc d8 f8 81 bd
       -0.15856859 -1.3037575 -0.01353538 -0.06346291
0001b0 07 e7 9b 3d 40 71 70 bd d7 02 85 bf 20 3e 61 3d
       0.07612424 -0.058701754 -1.0391492 0.054990888
0001c0 63 1a 1c be 80 7f 6e 3d 18 29 c4 bd 53 3a 6d bd
       -0.1524444 0.058227062 -0.095781505 -0.05791695
0001d0 76 df 51 3d 66 74 09 3e 12 c2 c0 3d 98 85 22 be
       0.0512385 0.13423309 0.09412016 -0.15871274
0001e0 9d 73 a0 3b db 72 82 3d f4 4b cf bd 72 58 82 3d
       0.0048965947 0.06369563 -0.10121909 0.06364526
0001f0 de 6f 78 3d 95 d7 f0 bd 47 8f b4 3c 41 99 1b be
       0.06065356 -0.11759869 0.022040976 -0.1519518
000200 49 38 14 be bd 2f 14 3e 9c 2a fb 3d 92 a5 20 3e
       -0.14474596 0.14471336 0.122639865 0.1568816
000210 e9 f8 0c 3e fb b7 dd 3d ae 6c 91 bc 2f 5a 56 bd
       0.13766827 0.10826107 -0.017752018 -0.0523321
000220 04 5a 82 3d 69 f2 b9 3d b3 c5 1a bd c6 3d c4 3c
       0.06364825 0.09079439 -0.037786197 0.023955237
000230 44 37 74 3e da 22 fa 3d d1 cc f1 bc dc ee 09 3e
       0.23849207 0.12213679 -0.02951661 0.13470024
000240 fc b8 18 3e c1 70 8e 3d 9e 20 28 bd fa 38 60 bc
       0.14914316 0.069551 -0.04104673 -0.013685459
000250 8e 91 e4 bc 6d b7 4a 3c 10 b5 8d 3d 2d 9b 80 3c
       -0.027901437 0.012372834 0.069193006 0.015698994
000260 98 6c 54 3e 47 18 9c 3c f9 dc 13 3e e1 4f 9e bd
       0.2074455 0.019054545 0.14439763 -0.077300794
000270 ea b3 5a bd cc 13 c4 3d 64 d8 f8 bc 28 76 78 bd
       -0.053394236 0.095740885 -0.03037662 -0.060659558
000280 b9 1d 09 3d 81 01 be 3d a4 bc ab bb b7 23 4a 3d
       0.03347561 0.092776306 -0.0052409936 0.049350467
000290 03 43 97 bd 1a f9 05 bc 1d 7a b1 bd b9 62 98 bd
       -0.07385828 -0.008177066 -0.086658694 -0.07440705
0002a0 e4 6a 2d bd b3 53 68 bd 2b b2 39 3d ff f8 50 3e
       -0.042338267 -0.056720447 0.04533593 0.20407484
0002b0 c1 bb 0e 3d c6 0a bb bd 8c 0a 0d 3e 7e 82 8a bc
       0.034847025 -0.09132914 0.13773555 -0.016907927
0002c0 9e ac c2 3c a4 4b 2a 3d cf 3e f9 bd 73 ad 5f 3d
       0.02376395 0.041576043 -0.12170183 0.054608773
0002d0 54 ee b4 bd 7f 86 bb 3a a1 76 8a 3c 74 47 ba 3c
       -0.0883452 0.0014307051 0.01690227 0.02273915
0002e0 9f 05 51 bd 8d ab a6 3d d7 74 bb bd e0 ab 5d 3d
       -0.05103075 0.081381895 -0.09153145 0.05411899
0002f0 58 ea 57 3d c8 04 3b 3d 15 23 17 3c 2c b2 8c 3d
       0.052713722 0.045658857 0.009224673 0.06869921
000300 7e 13 d0 3d 2a 82 2b bd fb e3 a0 3b 10 ce f6 bc
       0.10159968 -0.04187218 0.00490999 -0.030127555
000310 dd 26 c2 3c 3a d1 8a bd 3e e2 5f 3e b5 44 43 3e
       0.023700172 -0.06778188 0.21863648 0.19069178
000320 08 fc 0e 3d 88 f6 80 3e 25 ce 20 bd 32 7e b3 3c
       0.034908324 0.25188088 -0.039259095 0.02191076
000330 88 fd ca 3d 36 86 87 3d ee fb 1e 3e b3 19 0f bd
       0.099116385 0.066173956 0.15525791 -0.034936618
000340 28 12 96 bd 86 e1 d2 3d 01 92 08 3d 26 e3 98 3c
       -0.07327682 0.102969214 0.033342365 0.018663
000350 3c 6e 0b 3d bc 90 99 bd e2 d4 0a 3e df 38 5c 3d
       0.034040675 -0.07498309 0.13557771 0.053765174
000360 4c 7f e4 bc 4d 8e 80 bd 16 e2 17 3e e8 58 0c 3e
       -0.027892731 -0.06277142 0.14832339 0.1370579
000370 11 e9 95 3e 10 f2 15 be 47 5c a5 bc c0 a4 08 be
       0.29279378 -0.14643121 -0.020185603 -0.13344097
000380 7b 34 72 bc 66 5d fd 3c 41 b9 83 3d 94 11 4e bd
       -0.01478302 0.030928325 0.06431819 -0.050309733
000390 d4 11 5f bd 08 21 50 3e 2e 13 b3 bc c1 15 0d bd
       -0.05446036 0.203251 -0.021859732 -0.034444574
0003a0 cd aa 5b 3e f1 82 ed 3d 0d 4b b4 bb fb c9 ca 3d
       0.21451874 0.11597241 -0.005502111 0.09901806
0003b0 8f 05 e2 3c 2d 35 27 3d cf cf d8 3c d9 4d 8b bd
       0.027590541 0.040822197 0.026466278 -0.06801958
0003c0 22 ab a4 3d 98 05 94 3d d7 24 84 3e 02 8e d4 3d
       0.080404535 0.072276294 0.25809357 0.10378648
0003d0 63 53 e7 bc 8a dc 05 be 04 b8 e4 3b f1 c4 26 3d
       -0.028238004 -0.1307241 0.006979944 0.04071516
0003e0 db 59 3e bc 5a 58 88 bb 86 1f e8 3d 1e 9c 44 bd
       -0.011618103 -0.004160923 0.113341376 -0.048000447
0003f0 88 b1 bd 3d 72 be 22 bd e5 7e d7 3d 50 74 0e 3c
       0.09262377 -0.039732404 0.1052225 0.008694723

layers.6.bias f4 [64]
000000 48 df 19 3d 4c 21 e5 3c d9 f1 4a 3d dc e6 1d bd
       0.037566453 0.027969979 0.04954705 -0.038550243
000010 d0 e4 52 39 a5 d2 86 3d 05 2a 7c bd 02 a7 ef be
       0.000201124 0.06583146 -0.06156351 -0.46807104
000020 32 ef 52 3d 51 83 22 3e 12 18 24 3e 44 a9 58 3d
       0.051497646 0.15870406 0.16024807 0.0528958
000030 61 b3 39 3e c4 9f 0a 3e c8 a9 17 bd 42 0e 07 bc
       0.18134834 0.13537508 -0.03702715 -0.008243145
000040 e7 e9 75 bc 46 a8 25 bf 6f cf 24 bd 6e 30 b0 bd
       -0.01500938 -0.6470989 -0.040236887 -0.08602987
000050 5d f3 dd be b3 98 94 3d 6a b7 02 3c 37 89 fb 3b
       -0.43349734 0.072556876 0.0079783 0.0076762694
000060 c4 88 4f 3d 15 98 f1 be ae 6f 5f bd 6b 78 89 bb
       0.05066754 -0.47186342 -0.054549865 -0.004195263
000070 97 3a 9a be 8d e7 e2 be 44 31 1a 3d 74 5e 03 3d
       -0.30122826 -0.44317284 0.03764464 0.0320725
000080 f4 35 05 bf a7 cf 10 bf 45 70 29 3e 24 7a 8f bd
       -0.5203545 -0.5656685 0.16546734 -0.07005718
000090 12 bd 5b be 02 30 2e be 8c 60 28 3e 5b fa 75 3c
       -0.21458843 -0.17010501 0.1644308 0.015013303
0000a0 2b be 57 3c ba 89 ee 3d 8a cc 0d bf 0f 09 e6 3d
       0.013167898 0.11647363 -0.55390227 0.112321965
0000b0 70 d5 c0 3d a4 3a e0 bd aa c9 2c 3d 83 b0 20 bf
       0.0941571 -0.10948685 0.04218451 -0.62769336
0000c0 96 35 5b bd d9 12 7e bd f1 b6 89 bd 38 4f 87 3d
       -0.0535179 -0.062029693 -0.067243464 0.06606907
0000d0 84 86 d5 3c 2e 37 52 bd 41 94 13 3d 69 35 73 3d
       0.026065119 -0.051322155 0.036030058 0.059377108
0000e0 76 d1 e9 3d 12 70 3b bd 51 9f 19 bd 47 fa 08 be
       0.11416905 -0.045761175 -0.03750545 -0.13376723
0000f0 ca cc 19 3d 03 d8 c6 be 73 fe b9 bd 27 86 41 3e
       0.037548818 -0.3883668 -0.090817355 0.18898831

layers.9.weight f4 [32, 64]
000000 71 89 b6 bd d3 ff 44 3b 27 93 95 bc 7a 58 be bb
       -0.089129336 0.003005971 -0.018258644 -0.005808887
000010 ee b8 81 3d 95 99 80 bc 36 db 90 ba 43 62 33 bd
       0.06334101 -0.015698234 -0.0011051658 -0.04379488
000020 8b 31 db bd 9c c2 c0 bd 00 3a f2 bc a9 cb d9 bc
       -0.10702809 -0.09412119 -0.029568672 -0.02658637
000030 02 79 77 bc 14 3f b9 3c 13 ec 4b bd e2 93 8d bc
       -0.015104534 0.022613086 -0.049785685 -0.01728243
000040 93 57 da bb 29 8c 7a 3e 38 5a 22 be 75 2d 1d 3c
       -0.0066632717 0.2446753 -0.15854728 0.009593357
000050 2a b9 93 ba 96 9d 11 be b6 ab 6d 3d 7e f0 a5 3c
       -0.0011270393 -0.1422027 0.058025084 0.020256277
000060 42 36 c1 3a 0d f2 8e 3d e1 66 fc bb fd 06 7b 3a
       0.0014740902 0.06979761 -0.007702694 0.00095759315
000070 b1 6f b0 3d f8 73 8b 3c 61 2d cc 3a 3b 11 d2 3a
       0.086150534 0.017023072 0.0015577489 0.0016026864
000080 a2 55 01 3d 12 db c4 3e 1d 41 4f 3c a5 b1 9b 3c
       0.031575806 0.38448387 0.012649802 0.019005606
000090 3a 10 3e 3d c0 de 34 bd 3f 64 c6 bc 3a c8 81 3c
       0.046402194 -0.044157743 -0.024217723 0.015842546
0000a0 5f 25 19 3c 49 83 b8 3c b1 76 a8 bd 9d 05 4f bd
       0.009347289 0.02252354 -0.082257636 -0.050542463
0000b0 da 67 18 bd dc 59 bf 3d 6d 80 94 3b 8b 7b 9a 3e
       -0.037208416 0.09343311 0.004531911 0.3017238
0000c0 99 0a de 3b 6b 1e c9 3a a2 77 d6 3b 7f a0 c8 bc
       0.0067761657 0.0015344148 0.006545023 -0.024490593
0000d0 37 57 6e bd d6 40 36 3c b3 1f 50 3c e2 f3 b2 3b
       -0.058188643 0.0111238565 0.01270287 0.005461202
0000e0 d4 7a 5e 3d 1e 95 2c bb 41 6e 1f 3c 3f ac 3e bd
       0.054316357 -0.0026333998 0.009730876 -0.046550985
0000f0 41 59 e8 bb d7 1c 21 bd 4d c5 8e 3b 38 18 9f bc
       -0.007090718 -0.039334144 0.004357016 -0.019420728
000100 16 06 67 bd 1e be 23 bc df 31 4b bc 02 af d0 3b
       -0.05640229 -0.009994058 -0.012402027 0.006368519
000110 36 e2 69 3d 87 ec 89 bb 30 52 e3 3a 26 7c 26 3e
       0.057100497 -0.0042091045 0.0017343219 0.16258296
000120 ea 53 d9 bc 2a 02 77 bd 71 f7 01 bd 8d 1f b3 bc
       -0.026529271 -0.0603048 -0.03173012 -0.02186563
000130 34 74 99 bc c8 48 92 3d 7e 2e df bc f8 7f f8 3b
       -0.018732168 0.07142788 -0.027243849 0.0075836144
000140 37 37 5b 39 fb 96 ba 3e 50 fe 86 bd 2b 51 16 3c
       0.00020906037 0.36443314 -0.06591475 0.009174625
000150 2b fa 57 3e a5 95 22 bd 90 fe 06 3d 55 46 52 3b
       0.21091525 -0.039693493 0.032957613 0.0032085378
000160 2c 3a b7 bb df 33 7c 3e 6b c9 11 3c c7 f0 6d 3c
       -0.0055916514 0.24629162 0.008898119 0.014522738
000170 5f df 1d 3d 1f 2b d0 3d 3a 35 52 3c 3a ec 07 bd
       0.0385431 0.10164475 0.012830073 -0.033184268
000180 ed c2 6a 3e 9c a7 f0 3e f4 53 4e 3c c2 90 30 3c
       0.22925921 0.47002876 0.012593258 0.0107767
000190 5e a6 82 bc da f1 24 bb 64 c4 20 bc a8 90 8e bc
       -0.01594847 -0.0025168569 -0.009812448 -0.017402962
0001a0 5e 8a 70 3c 46 1b 44 3d 5c d8 80 3e ca 75 17 bc
       0.014681427 0.047877572 0.2516507 -0.009244392
0001b0 b6 61 75 bd 4f a7 e6 3b 52 4a 49 3b 25 e4 0a 3f
       -0.059907638 0.0070389877 0.0030714464 0.5425437
0001c0 12 c4 ff bb 15 3b 26 3c 45 fc 8c 3c 06 36 6f bc
       -0.007805356 0.010145922 0.017210135 -0.014600283
0001d0 59 d3 38 bd c0 25 84 3c 49 20 f4 ba 34 f6 3a 3b
       -0.04512343 0.016131282 -0.0018625344 0.0028528096
0001e0 3d c7 9d bb f6 c3 a4 3c d2 24 79 bb 98 d5 e1 3c
       -0.004815011 0.020112973 -0.0038016331 0.02756767
0001f0 76 ec ac 3c a3 fc 16 3e 96 61 ea 3b 14 81 81 bb
       0.021108847 0.14744811 0.0071527464 -0.003952155
000200 a3 40 26 bd 03 f6 be 3a e7 42 25 bc c7 a3 11 3b
       -0.040588986 0.0014569167 -0.010086752 0.0022222863
000210 9c ac 60 3d 71 39 d4 bc e7 cf 11 bc 5d c6 3f 3e
       0.054852113 -0.025906296 -0.008899665 0.18728013
000220 2a 44 89 bd 35 26 c0 bd 81 6e 54 bc c5 00 99 bb
       -0.067024544 -0.093822874 -0.012965799 -0.004669281
000230 71 9f 71 bc d2 07 dc 3c de 9c 0d bc 0c 31 33 bc
       -0.014747486 0.026859198 -0.008643357 -0.010936987
000240 04 ed a9 3b c3 d2 bd 3e 7f e0 8c bc eb 9c 84 3c
       0.005185725 0.3707486 -0.017196892 0.016188106
000250 e5 cd 14 3e 0e b7 9c bd d1 10 6d 3d 6b f4 44 3c
       0.14531668 -0.076521024 0.057877365 0.012021164
000260 5f b2 ad 3d f9 67 6f 3e fd ab a3 3b 12 9d d5 3b
       0.08481287 0.23379506 0.004994868 0.0065189684
000270 d4 1e 0c 3d f1 b1 4c 3d 92 6a 7b 3c 56 d2 42 bd
       0.034209087 0.049974386 0.015345233 -0.047563873
000280 c7 61 80 3e 1f 78 cd 3e 7c e6 5b bc da 96 43 3c
       0.25074598 0.40130708 -0.013421651 0.011937821
000290 f4 44 b9 bc 53 ab bc bc 5c 7d 05 3b d9 10 f4 3b
       -0.022615887 -0.023030913 0.002036891 0.0074482975
0002a0 25 e5 69 3c bd 2e 33 3d 65 35 56 3e 39 a9 94 bc
       0.014275824 0.043745745 0.20918806 -0.018147098
0002b0 60 ad 8e bc 3f 18 4c 3d 07 b7 4e 3c 7c 92 e2 3e
       -0.017416656 0.04982781 0.012616879 0.44252384
0002c0 0e 6d 61 3b 48 33 16 3b bd 56 81 3c f8 3c e4 bc
       0.0034397277 0.002291875 0.01578843 -0.027861103
0002d0 19 df 57 bd 08 67 34 3c 89 7b 89 bb e5 27 18 3c
       -0.052702997 0.011010893 -0.0041956347 0.009286855
0002e0 47 17 4b 3c 00 8d 92 bb bb 40 c8 bb a8 3f fb bc
       0.0123956865 -0.004472375 -0.006111232 -0.030670002
0002f0 8d b0 df 3c e2 99 40 3e 6e 37 b1 3b 4a 4a dc ba
       0.027305866 0.18808702 0.005408219 -0.0016806808
000300 6d 89 0a 3e ad a3 eb bd da c2 84 bb 6a 52 ef bd
       0.13528986 -0.11505828 -0.0040515484 -0.11685641
000310 d0 e5 08 3e 74 16 ae 3c 93 79 01 be 61 0e 09 be
       0.13368917 0.02125094 -0.12644033 -0.13384391
000320 e8 a0 d9 bc 6d bc 96 3d b5 64 d2 3d 3c e3 40 3d
       -0.026565984 0.07360158 0.102731146 0.047091708
000330 f2 94 fa 3c 4b 28 cd 3c 5a 1a fd 3c b4 c7 2b be
       0.0305886 0.025043627 0.030896354 -0.167754
000340 43 26 21 be 57 a4 d6 bd 2a 6c 70 3d 1e ec 26 be
       -0.15737252 -0.10480564 0.058696903 -0.16301009
000350 1c 5f ec bd e4 64 5c 3d d7 cd c5 3c 99 c5 d8 bd
       -0.11541578 0.053807154 0.024146004 -0.10584564
000360 f9 7b 21 3e 83 e0 e9 bc 0c 0d 15 be f8 64 40 be
       0.15769948 -0.028549438 -0.14555758 -0.18788517
000370 49 a4 29 3e ac dc 60 bd 7e a8 c9 bd a1 4e a4 bd
       0.16566576 -0.05489795 -0.098465905 -0.0802281
000380 0f 16 e8 bd db 53 ee 3b d9 5c 38 bc 67 3c 15 be
       -0.11332332 0.00727318 -0.011252605 -0.14573823
000390 69 61 f2 bc 29 fe b0 3d cd 32 b1 3d 39 be 4e 3d
       -0.029587464 0.08642227 0.086522676 0.05047438
0003a0 23 3c 1b be c1 e9 10 3e bb 03 36 ba 2d b3 08 3e
       -0.15159659 0.1415167 -0.0006943305 0.133496
0003b0 a3 30 8a bd d4 10 29 3d e9 5c a0 bd b9 a6 13 3d
       -0.06747558 0.041275814 -0.07830221 0.03604767
0003c0 37 51 d3 bd e1 19 13 be 63 cd 80 bd da b2 14 3d
       -0.10318225 -0.14365341 -0.062891744 0.03630338
0003d0 b3 4f c4 3d 1b 33 23 be a0 bb 09 be 5b 89 51 bd
       0.09585514 -0.15937464 -0.1345048 -0.051156383
0003e0 5b fe 32 3d b5 7b 6f be 27 fc 47 be 3d 72 2c bd
       0.043699604 -0.23387034 -0.19529782 -0.042101134
0003f0 f2 4a 05 be 24 4e 86 3c 42 83 8e bd a5 6b d1 3d
       -0.1301687 0.016394682 -0.06958629 0.1022561

layers.9.bias f4 [32]
000000 4e a2 59 bc 71 76 8f bb 71 cb 45 bc fd 7e a2 3e
       -0.013283325 -0.004378133 -0.01207243 0.3173751
000010 19 81 e3 3c 8b 3d 25 bc c4 f9 c1 3e b0 f5 18 bc
       0.02777152 -0.010085474 0.3788587 -0.00933592
000020 db 55 b5 3e ad ce 12 3d d7 a7 f1 bb ff b5 bd 3e
       0.35417065 0.035841633 -0.0073747444 0.37052915
000030 dc 2d 70 3c 63 16 e8 3c 04 80 a5 3e de b7 e6 3b
       0.014659371 0.028330987 0.3232423 0.0070409616
000040 a6 ff a7 3e ea 2e c4 3e 6d f7 26 3c 4a 95 ca 3e
       0.32812232 0.38317043 0.010190827 0.39567024
000050 88 b9 69 3d f2 af c2 3e 91 42 b3 3c 89 5d 85 3c
       0.057061702 0.3802486 0.021882327 0.016279953
000060 9b 17 c1 3e 53 2f d5 3b bf c7 b4 3c 79 1c 7c 3b
       0.37713322 0.0065058856 0.022067903 0.003846912
000070 95 68 b2 3e a1 1f 99 3e a1 f2 69 3c 1b 4e c0 3e
       0.34845415 0.29906943 0.014279039 0.3755959

layers.12.weight f4 [1, 32]
000000 6a 2a 9e be 57 8d 93 be 10 ea 9d be d2 19 54 3d
       -0.30891734 -0.2881877 -0.30842638 0.051782437
000010 42 52 83 be 46 7f 9b be cf 48 78 3d 77 53 90 be
       -0.25648695 -0.3037054 0.06061631 -0.2818868
000020 86 bd 85 3d 3c f5 83 be db 37 92 be ba 2f 4d 3d
       0.06530289 -0.25773036 -0.2855824 0.050094344
000030 dc 46 81 be 75 10 83 be 9d 1d 6d 3d dd 61 82 be
       -0.25249374 -0.25598493 0.05788957 -0.2546529
000040 ba 4d 76 3d 96 78 63 3d fb a8 85 be 1d 5e 6a 3d
       0.06013272 0.05553492 -0.26105484 0.05721866
000050 27 07 80 be ce 57 64 3d 8f eb 90 be cd 97 8f be
       -0.25005457 0.0557478 -0.28304717 -0.28045502
000060 fb d0 8d 3d f2 22 9c be c2 0b 86 be f2 00 92 be
       0.069246255 -0.3049541 -0.26180845 -0.28516346
000070 a1 b4 60 3d 6f b8 78 3d 4b ff 83 be e8 62 78 3d
       0.05485976 0.060722765 -0.2578071 0.0606412
