models/nn/nn_exp_1.pth (torch, 179078 bytes, 9 tensors)

layers.0.weight f4 [256, 1]
00000000: cd73 57bf ff99 a1be 03d8 e5bd 1d04 8fbd
00000010: abf4 2c3f ae6c 20be 0b75 ab3e a8cc 823f
00000020: 0726 18ba 26e5 033f 6cce 03bf d888 dcbe
00000030: 3dd3 d63e 70f9 713e 5aa8 903e 1f0b aebe
00000040: adac 03bf c6fa e6bd 8669 073f f865 743f
00000050: fa50 6b3d b7ed 51bf 7e7e fabd 041a 13be
00000060: 9253 1cbe 4a72 00bf db32 653c 2edb 68bf
00000070: bad5 04bf 23a0 25bf 372b 5dbe 1919 56be
00000080: 7e0f abbd d640 83bf a308 0abf c6bf 69bf
00000090: 3145 58bf b2a6 a63e 23b2 97be cf8a 053f
000000a0: d0fb b8be 9cc7 c53e fc71 55bf a544 3dbe
000000b0: 6010 4bbe b16f 203f ff8c 13be 2960 6abf
000000c0: 5908 3c3f e5f8 4b3f 4536 f0be d90e 6abf
000000d0: 3ffd 1bbe 085d be3e 68c4 4fbf edc1 c83d
000000e0: 7bc0 213f 9c72 32be 8b6a df3e 6f47 3dbf
000000f0: 49e1 5abf a03e aebe 6199 803f e4dd 1b3f
00000100: b720 97be 3798 0d3f 24f1 203f 295d 1c3f
00000110: f91b 753f e768 033f 77dc 2cbf fa9b fd3e
00000120: 63e6 f1be ad0e 7ebf 99ed 413f 1e28 15bf
00000130: fe36 2d3f e929 3fbf 0f4e 063f d7ed 19be
00000140: 7043 2a3f 429f 913e b941 38bf 7c37 c4be
00000150: e9d8 093f 05aa 443f cbed 923e 8fc9 97be
00000160: 7f10 57bf 018e 4fbf 114a 8b3f 753a fcbe
00000170: 5a39 1bbe ac5f 27bf d722 80bf 6611 29bf
00000180: db11 af3d 0a95 bebe af41 bebd 2097 90bd
00000190: 2405 563f d3e3 12bf b51d 223f 2e2a 0d3f
000001a0: b463 25bf 1663 cf3e 3cbb 01bf be70 623f
000001b0: a35a bebe d92d 7c3f 235f 2ebf aa23 713f
000001c0: 86d6 35bf 804e 34bf f8a4 0abf ccf5 f8be
000001d0: 883b 70bf b1ea 04bf f988 4cbf a42d 21bf
000001e0: 5a04 bb3e 9649 6dbf 1af1 e7be c978 13bf
000001f0: 523e e23e ac74 4d3e 01f3 583f 3862 2e3f
00000200: 1373 8a3e a641 933b a6b1 1e3f 0dfb 723d
00000210: 00fb 6bbf 2561 6f3f a919 5cbf 4849 c53e
00000220: 867a 493f 2221 0f3f e0b3 ecbe 24f3 0a3f
00000230: 992b 093d e985 62be 2d9d 58bf 57e2 1a3f
00000240: b0c3 b03d 562a b6be 6c9a ce3e ebec 44bf
00000250: eb72 183f 8a0f 17bf 4c66 7f3e be5a 323e
00000260: 6873 553f 07af e93e c056 30be 9c6d 8fbe
00000270: ad39 d93e 9fab 5abf f896 bebc 29cc 413f
00000280: 7016 ef3d b3b6 3bbe 5ed6 31be ac80 7a3f
00000290: b4bd 0abf fcd8 b3be 5933 563f 923b 49bf
000002a0: 275f 5cbf c901 46be 0804 0dbe 871a c1be
000002b0: b34f 78bf be52 eebe 68d4 0a3e dc79 083c
000002c0: 6ccc 9dbd 5dd3 1bbe 0c62 0ebe 5dd9 283f
000002d0: 02ba 443f 982e b93e 2058 1bbe 24a7 0c3f
000002e0: 1d80 523f 4723 7dbf 9307 03bf c984 9c3d
000002f0: 0a5a b03e dfb0 b5bd e52f 5d3f 43bf 603f
00000300: 534d d8bd e955 efbe d716 e4be 9a25 8a3e
00000310: 5049 2c3f 993a f6be 131f 00bf 7f18 5a3e
00000320: 88d2 393f bf4d f5be bf51 2ebf a489 dcbe
00000330: 7fdc 9e3d a353 53bf ad35 073f d929 b9be
00000340: 8923 4abf 9269 e6be 9395 78be 7cba 933e
00000350: 914d c63d 3891 9f3e 6977 843f c863 243d
00000360: 643e 223f 657a 7d3f 7d70 3cbe 1e0e 47bf
00000370: 0b70 24bf 393d 1b3f 1e5b c53e de36 f3be
00000380: a1e5 78bf b0cb 47bf e195 843d 5840 54bf
00000390: 4ea2 3bbc 45d2 143f 2991 39be 4478 1e3e
000003a0: 53c4 333e 424c 0d3f f921 59bf 1330 70be
000003b0: 5e6a dabe 6164 693f 539a db3e 9e19 863f
000003c0: 610b 67bf 5f47 3dbe ee53 6f3f 2bb3 473f
000003d0: 1b97 2ebf f57a 503f cc87 eabe c16d 2abf
000003e0: 29de 4f3d dc59 63be 1556 25bf 3e28 66bf
000003f0: e672 d63e bfbe fd3d b824 6d3e 68d9 81be
-0.8416107 -0.31562802 -0.112228416 -0.069832064 0.67560834 -0.15666458 0.33487734 1.0218706
-0.00058040064 0.5152153 -0.5148685 -0.43073153 0.41958037 0.23630309 0.28253442 -0.3399286
-0.5143536 -0.112783 0.5289539 0.9546809 0.057450272 -0.8200335 -0.12231158 -0.14365393
-0.15266255 -0.5017439 0.013989176 -0.9095944 -0.5188862 -0.64697474 -0.21598516 -0.20908011
-0.08352564 -1.0254161 -0.5391943 -0.9130825 -0.8448058 0.32549053 -0.29628095 0.5216493
-0.36129618 0.38628852 -0.8337705 -0.18483217 -0.19830465 0.6267043 -0.14409254 -0.9155298
0.7345024 0.7967666 -0.46916404 -0.91428906 -0.15233324 0.37180352 -0.8115907 0.098026134
0.63184327 -0.17426533 0.43635973 -0.73937124 -0.8550001 -0.34032154 1.0046808 0.60885453
-0.29517147 0.55310386 0.6286795 0.6107965 0.9574581 0.51331943 -0.675239 0.49533063
-0.47246084 -0.99241143 0.7575317 -0.5826434 0.67662036 -0.74673325 0.5246286 -0.15032135
0.6650915 0.28441817 -0.71975285 -0.3832358 0.53846604 0.7682193 0.28697047 -0.29645965
-0.84009546 -0.81076056 1.0881978 -0.4926335 -0.15158597 -0.6538036 -1.0010632 -0.6604217
0.085483275 -0.37223083 -0.09289872 -0.07060075 0.83601594 -0.5737888 0.6332658 0.55142486
-0.6460526 0.40505284 -0.5067632 0.8845328 -0.37178525 0.9850746 -0.6811392 0.94195044
-0.7103046 -0.7043228 -0.5415797 -0.48625028 -0.9384084 -0.5192061 -0.79896504 -0.6296027
0.36526757 -0.9269041 -0.45301133 -0.5760618 0.44188172 0.20064038 0.84745795 0.6811862
0.2704092 0.00449391 0.6198982 0.059321452 -0.9217987 0.93507606 -0.85976654 0.38532472
0.7870258 0.5590993 -0.46230984 0.54277253 0.033488844 -0.22121395 -0.8461483 0.6050162
0.086310744 -0.35579175 0.4035219 -0.7692401 0.5955035 -0.59008086 0.24941367 0.17417428
0.8337922 0.45641348 -0.17220592 -0.28013313 0.42426816 -0.85418123 -0.023265347 0.7570215
0.116742015 -0.18331413 -0.17366931 0.9785259 -0.54195714 -0.35126483 0.836721 -0.7860652
-0.8608269 -0.19336618 -0.13771069 -0.3771555 -0.9699661 -0.46547502 0.13557589 0.008329835
-0.07705006 -0.15217347 -0.1390459 0.6595667 0.76846325 0.3616836 -0.15170336 0.54942536
0.82226735 -0.98881954 -0.5118343 0.07642514 0.34443694 -0.08871626 0.86401206 0.8779184
-0.105616234 -0.46745232 -0.44548675 0.26981813 0.67299366 -0.4809158 -0.50047415 0.21298407
0.7258687 -0.47910878 -0.68093485 -0.4307376 0.077569 -0.82549495 0.5281628 -0.3616474
-0.7896047 -0.4500242 -0.24275808 0.28853214 0.09682763 0.3116548 1.0348941 0.04013422
0.6337645 0.99014884 -0.18402286 -0.77755916 -0.64233464 0.60640293 0.3854608 -0.47502798
-0.97225386 -0.7804518 0.064739 -0.8291068 -0.011452271 0.58133346 -0.1812178 0.15475565
0.1755536 0.55194485 -0.84817463 -0.23455839 -0.42659277 0.9116879 0.42891178 1.0476568
-0.9025174 -0.18484257 0.9348744 0.78007764 -0.6819932 0.8143762 -0.4580673 -0.6657372
0.050748978 -0.22202247 -0.64584476 -0.89905155 0.41884536 0.123898976 0.23158538 -0.2536118

layers.0.bias f4 [256]
00000000: ecaa 6cbe 89d7 173f 0016 9dbf c9dd eb3e
00000010: ddcf 193f e162 5e3e d2ea f5be 4eff 33bf
00000020: d966 2d3f 19bc 08bf 2004 4abc f7d6 8e3e
00000030: d611 42bf ac97 23be e534 1b3f 1743 b43e
00000040: ec99 053f 55e1 fd3d 68e5 18bf 2f49 513d
00000050: 405d 52bd 970c c73e cb76 c83d 797f 573d
00000060: d8af ad3e d6ba 3c3e fb51 37bd b18a 713f
00000070: 866c 093f 0598 84bf 819e b73e 48a8 e43e
00000080: a027 ba3d a434 ebbe 1037 553f f645 3a3f
00000090: d3b5 b3be 4fd6 fb3e 81bd 1a3d b43e d1be
000000a0: 1e9e c23e 48c2 e2be fff4 2dbf a3c0 483f
000000b0: a9fe 473f 8873 26be 4410 443f 3902 7c3f
000000c0: 175c 3bbd d7e9 f43e 26da 7cbf ba43 443f
000000d0: 10ee 94bf 7450 fd3e de50 bf3e 735d 0dbe
000000e0: eba5 28bf e97b 623f 94a9 3c3f 812e 3fbf
000000f0: 8e2a 603f 1f7b 4ebf 4e77 33bf c82f 2dbf
00000100: efb3 673f 20a5 d13d c24a eebe 956b 893d
00000110: 769c dbbe 92a5 2ebf 0998 fa3e ddbc fdbe
00000120: d2c0 74bf 2219 00bf 1860 f33d c324 66bf
00000130: 9fc1 7fbe b00d 77bf 10c2 1ebf a1dd 9ebf
00000140: 6a7b be3e fe5e 9cbe 8eef 1d3f ab21 b33d
00000150: cff9 363f 8503 debe fee8 fc3e 4900 0a3e
00000160: 9719 d23e dd63 7bbf b319 71bf 358b 5abf
00000170: abff e73e 76cc 2e3f 20dc 1ebf 7241 8cbf
00000180: 04ab e6bd 5a4b b23e 49b5 823c a57d 393f
00000190: f62c 0cbf b338 913e fbd2 8dbc 7c2e bdbe
000001a0: 0c63 a4bf ccfe 02be d82a 8bbf 3d6f 533f
000001b0: 5fba 193f f389 01bf f0a3 373f ba3c e4be
000001c0: 99bc 8dbf 7550 83bf ea49 68bf ddfa 2d3f
000001d0: 6de2 5f3f dac1 a23d 6ae1 db3e 4aee 63bf
000001e0: d72c c8be 7fcd 4b3f a478 273f af5f 543e
000001f0: 12c9 f6be c2d2 143f 31ed 4c3f cdac b13e
00000200: 1537 8dbe 7baa 86be 50fa 643e c176 053d
00000210: 1021 56bf 7308 5abf 532e 303f d0f2 d1be
00000220: d195 193e cba9 2bbf 435e 86bf 5a5e 1b3f
00000230: 097b 643e 403b 1e3f 3b40 e53e c6a4 2dbd
00000240: 9ea5 093e 79f2 2c3f 7a19 86be 753d 30bf
00000250: 8d0d 33bf 4748 81bf 2ce2 c73e f2c1 49be
00000260: 92c9 11bf 6380 df3e 7f82 1d3f 056b 073f
00000270: 7af3 eabe ccef a93e b70b a03c 43e4 0f3f
00000280: 57c8 863e 7482 283e 9c76 83bd 05e5 d6be
00000290: 5a58 70bf d075 943e 3472 b13e afd1 55bf
000002a0: 1a22 683f 6ba7 023e 4fe1 f93e d2b7 173d
000002b0: 5fa7 04be ff58 acbf 897c 4bbe f2be 3e3f
000002c0: 6920 fa3d 89d5 eabd 615a 1c3e 8b26 07bf
000002d0: 5d05 a23d 0356 533f 8df1 e03d 2156 923d
000002e0: d343 d23e ef9b 07bf 49ad 253f c185 21be
000002f0: 1dd6 68be 8bfc 72bd aaab 65bf 5a4d c3be
00000300: 6559 2d3d 1ea5 203e 6597 093f 681f 8fbe
00000310: f0be 2d3f 1c73 8ebf b31b 4d3e 420c a13c
00000320: 58e4 85bd 8f09 2c3f 17a1 7dbf 48eb 78bf
00000330: f0b0 8fbb 57ff 7e3f 1c03 7b3e 8c52 92bd
00000340: 5280 71bf 7536 9abf 6308 313f 298b 97be
00000350: 07a3 c9bd 77bb d2be 7e71 34bf 8133 2c3f
00000360: 4c23 15bd a4ec 773e 62dd f0bc a8dd 2ebf
00000370: 7661 1d3e 519d 3d3f 366e 123f d4ac 073f
00000380: 5325 7f3f cf29 66bf c0df 7b3e dc00 293f
00000390: 6e7b d93e 0daa 263d 7e35 b93e 5791 183f
000003a0: dd7b 36be 1dad 84bd b285 123f 1259 1c3f
000003b0: ce7a 92bf 25cf 4f3e 1ae9 b03d ab54 4cbf
000003c0: 55c5 73bf 6626 eb3e 4838 583f c8a3 8c3e
000003d0: 62ba 3b3f 2161 e6be 8468 553f 1498 09bf
000003e0: 4df9 0d3f 9cc7 703b a6da 4f3d 7c3d 503f
000003f0: 035e 743c c05e c6bd ce6d 493f 1ca9 033f
-0.23112077 0.59313256 -1.2272339 0.46067646 0.600828 0.21717407 -0.48030716 -0.7031144
0.6773506 -0.53412014 -0.012330085 0.2789838 -0.75808465 -0.15975827 0.60627586 0.35207435
0.5218799 0.12396494 -0.59725046 0.051095184 -0.05135846 0.38876793 0.09788283 0.0526118
0.3392322 0.18430647 -0.044755917 0.9435225 0.5368122 -1.0358893 0.35863116 0.44659638
0.09089589 -0.459386 0.83287144 0.72763 -0.35099658 0.49186942 0.03777838 -0.4086815
0.3801126 -0.4428885 -0.6795196 0.7841894 0.78122956 -0.16255009 0.7658732 0.9844089
-0.04574212 0.47834656 -0.9877037 0.7666584 -1.1635151 0.49475443 0.37366384 -0.1380518
-0.6587817 0.8847032 0.73696256 -0.74680334 0.87564933 -0.8065662 -0.7010392 -0.67651033
0.9050893 0.10236573 -0.4654141 0.06709973 -0.42892808 -0.6822139 0.4894412 -0.49558154
-0.9560672 -0.5003835 0.11883563 -0.89899844 -0.24976204 -0.9650526 -0.62014866 -1.2411386
0.37203532 -0.30541223 0.61693656 0.08746656 0.7147493 -0.4336206 0.4939651 0.13476671
0.41035149 -0.98199254 -0.9417984 -0.85368663 0.45312247 0.6828073 -0.62054634 -1.0957472
-0.112630874 0.34823114 0.015955584 0.72457343 -0.54756105 0.2836357 -0.017312517 -0.36949527
-1.2842727 -0.1279251 -1.087245 0.8259161 0.60050005 -0.5060112 0.71734524 -0.4457758
-1.107318 -1.0258929 -0.90737784 0.6796091 0.87454873 0.079471305 0.42945415 -0.89035475
-0.3909671 0.7961044 0.6541846 0.20739625 -0.4820028 0.5813409 0.80049425 0.3470215
-0.27581087 -0.2630194 0.22361112 0.032583956 -0.836442 -0.8516914 0.68820685 -0.41005564
0.14998557 -0.6705596 -1.0497516 0.60690844 0.22312559 0.6180916 0.44775566 -0.04239347
0.13442084 0.67557484 -0.26191312 -0.68843776 -0.6994255 -1.0100182 0.39039743 -0.1970289
-0.56948197 0.4365264 0.61527246 0.52897674 -0.45888883 0.33190763 0.019536836 0.56207675
0.26324722 0.16456014 -0.06419107 -0.41971603 -0.93884814 0.28996134 0.34657443 -0.83523077
0.90677035 0.12759177 0.4880471 0.03704054 -0.12954472 -1.346466 -0.19871725 0.7451011
0.12213213 -0.1146651 0.15268852 -0.52793187 0.07911179 0.8255312 0.10983572 0.07145334
0.4106737 -0.5297231 0.6471754 -0.1577368 -0.22737928 -0.059322875 -0.89715064 -0.38144952
0.04232158 0.15687987 0.53746635 -0.2795365 0.6786947 -1.1128879 0.20030098 0.019659165
-0.06537694 0.67202085 -0.9907393 -0.9723401 -0.0043851063 0.9960837 0.24512905 -0.07144651
-0.94336426 -1.2047869 0.6915342 -0.29598358 -0.09845548 -0.4115865 -0.70485675 0.6726609
-0.036410615 0.24211365 -0.029402439 -0.6830697 0.1536921 0.7406817 0.5719942 0.5299809
0.9966633 -0.89907545 0.24597073 0.66016936 0.42476982 0.040689517 0.36173624 0.5959677
-0.17820688 -0.06478331 0.5723525 0.6107341 -1.1443727 0.20293863 0.086382106 -0.79816693
-0.9522298 0.45927733 0.8446088 0.27468705 0.7333127 -0.44995978 0.83362603 -0.5374768
0.5545853 0.003674007 0.05074563 0.8134382 0.014914992 -0.09686041 0.78683174 0.51429915

layers.2.weight f4 [128, 256]
00000000: d5bd 8fbc 5f4c 543c 1584 1e3c 2dbc 843b
00000010: ee68 0fbb 1dd7 dc3b 51dc 2bbb ef43 cebc
00000020: 09ea 0abd 0618 0e3b 6961 1d3d 697d e2bc
00000030: e864 b53d fb46 3ebc 4f47 b4bd 1ca5 99bd
00000040: 93a7 643c 61f9 38bd e8d9 993d 8b0a c5bd
00000050: bcfb 2a3c 2e33 2e3d 477e 99bd df15 533c
00000060: d188 26bd 38fc a03b dbec 8bbb 6604 ddbc
00000070: a0f3 103d dd6b a83b 9195 723b 57a3 b1bd
00000080: 30b1 97bd 1b83 89bd 77c1 433c 3326 f9bc
00000090: 3347 b83c 44a4 48bc 8bf1 1bbd f173 93bd
000000a0: 98f6 57bd 8b9c cb3d b292 673a d264 29b8
000000b0: 1aa2 0dbd 1b51 69bd bf5c d1bd 5498 25bd
000000c0: 06a4 a03c 374a 823c 256f ac3c 9c1b bdbc
000000d0: 08bb bab5 8d35 45bd 2c1a a3bd af24 bb3d
000000e0: 9533 bb3d c9d7 05bd 7b47 57bd 9b2a 213c
000000f0: 0f83 9ebb 9133 403c bef2 c2bd f090 373d
00000100: 1d95 abbc e530 04bc ac38 cbbc 46ac 85bd
00000110: 7afc 21bd c490 3fbc 81e1 1a3c d88e 6c3c
00000120: 50f5 ec3c e4eb e93c 6ea1 b1bd 3e48 15bd
00000130: adf1 783c f2e9 d1bc 9389 bb3d 7c7a 183d
00000140: 7478 88bd 0d88 d53c ade5 6bbd 1b22 3c3d
00000150: 7d70 aabd 79b9 48bd fd8a 27bd c44c 41bb
00000160: 4076 243d b746 97bb 01ca b4bd 5c59 ae3d
00000170: d761 b1bd 5b60 04bd 163d a0bd 8247 16bc
00000180: 67a5 5a3d 5cf4 13bd 8eb9 8f3d 968a 27bc
00000190: 1b56 74bd 3ece 06bd b7df 1fbd cafe 7bbd
000001a0: ce2e f03b 5fd6 c6bb e07d 203c 935e b6bd
000001b0: 400d 73bc 7aba 13bd b998 05bd 3dcb 14bd
000001c0: 0038 b1bb c6d1 5e3c d288 783d e10e a2bd
000001d0: 9e94 d03c e21a 8bbd 2de9 45bb bb8b debc
000001e0: bc03 a3bb 1034 95bc 7814 27bd 71c6 ebbc
000001f0: 1928 3e3d a170 5b3c 2b04 bcbd e7bd dcbc
00000200: daca 773a 98da b33d 6d11 6c3c ccf9 9f3c
00000210: 5867 ccbb 359a 223b 7d40 73bd 1c48 a33b
00000220: 4583 91bd 9e77 dd3c 4c94 ca3d 949a cdbb
00000230: 329b 3a3c 2de9 00bd 68f9 163d 4c68 51bd
00000240: b132 04bd 9bf5 89bd a922 29bd 56df 543c
00000250: f3b0 d13c f4d2 d6bc 87f8 9a3c 8a68 b93d
00000260: 2277 edbd dc24 b8bd eb52 1abd cd6c d8bd
00000270: 5e02 793d 0db2 36bd 539f dcbc 4902 c4bd
00000280: 7678 2bbd 0506 53bc 5448 2bbd 8397 89bd
00000290: 6afa 8b3c d2d0 e2bc af9a bcbd 2e00 b13c
000002a0: 44e6 95bd 41a0 b1ba 78a5 dfbc 374d f1bc
000002b0: 7cdc a13c 7f83 913d 62f6 933d 2cb1 053c
000002c0: 472f 98bd cfaa 8d3d dd39 60bd fd60 6fbd
000002d0: 70e0 7cbc 84fb 71bd d016 973c ec45 603b
000002e0: a012 60bd 056f 8a3c f1f7 d1bc 129d 8d3d
000002f0: 8bc0 093c f755 56b9 1414 803d 2a6e 84bd
00000300: 6260 533d 628e f0bc e575 cfba b301 9ebc
00000310: d77c ba3b 9df2 153d b531 22bd c4b9 abbd
00000320: a5d4 63bd 9e0b 543c 6f77 8c3d 5a79 763c
00000330: 7236 99bd 6eeb 98bd 0087 a1bc d4a6 1fbd
00000340: 53c0 81bd d52a d23d d6c7 5dbd 6fea 21bc
00000350: 42e1 2a3d 5823 263d 80e1 f4bd 9456 4ebd
00000360: 6005 063c e6f2 90bc 8955 933d c5fb 06bd
00000370: 83ac 42bd 8fd8 783c d9a8 333c dda6 45bd
00000380: d2f2 ed3c 35a4 383b 9512 9cbd b22d 1f3c
00000390: 9520 afba f980 10bd a2a9 d7bd 8bd4 82bb
000003a0: 19fa c43d d7c4 7bbd d129 a73b 29bf 01bd
000003b0: 8ab3 c43c 4fed f7bc f95a 623c 22db 04be
000003c0: 1757 31bc 32f8 9ebd c1b1 8ebb 3b55 29bd
000003d0: 448f e63c d7c7 3cbd 1513 21bd 463c d33b
000003e0: 02b3 47bd df34 863d 7215 29bd 0be9 ffbc
000003f0: 4f3e 7d3c 7157 003d 37b3 52bd 164e 84bd
-0.017546574 0.012957661 0.0096750455 0.0040507526 -0.0021882611 0.0067395107 -0.0026223848 -0.025178878
-0.0339146 0.00216818 0.038422976 -0.02764769 0.08857137 -0.011613603 -0.088026635 -0.07502195
0.013955968 -0.0451597 0.075122654 -0.096211515 0.010435995 0.042529278 -0.074947886 0.012883632
-0.040657822 0.0049128793 -0.0042701787 -0.026979636 0.03538859 0.0051398114 0.0037015418 -0.08673733
-0.07406843 -0.067144595 0.011947981 -0.030413723 0.022494888 -0.012246195 -0.03807215 -0.071998484
-0.052725405 0.099419676 0.000883381 -4.0386636e-05 -0.03457842 -0.056962114 -0.10222768 -0.040428475
0.019609462 0.015904529 0.021049092 -0.023084454 -1.3912513e-06 -0.048146773 -0.07963976 0.09137856
0.09140698 -0.032676492 -0.052558403 0.009836818 -0.0048374007 0.011731044 -0.09518956 0.044815958
-0.020945126 -0.008068298 -0.024807297 -0.06526999 -0.03954742 -0.01169223 0.009453178 0.0144383535
0.028925568 0.028554864 -0.086733684 -0.03644585 0.015194339 -0.02562425 0.091570996 0.037226185
-0.066635996 0.02606585 -0.057592083 0.045930963 -0.08322237 -0.049005006 -0.040904034 -0.0029495219
0.040151834 -0.004616584 -0.08827592 0.08513138 -0.086612396 -0.032318454 -0.07824151 -0.009172322
0.053380396 -0.03612171 0.070178136 -0.010225913 -0.05965243 -0.03291153 -0.03903171 -0.061522283
0.0073297983 -0.0060680355 0.009795636 -0.08904757 -0.014834702 -0.03606651 -0.03261635 -0.036326636
-0.005408287 0.013599819 0.060677357 -0.07912994 0.025461491 -0.06792237 -0.0030198798 -0.027166238
-0.0049748104 -0.018213302 -0.040791005 -0.028781148 0.04642496 0.013393552 -0.091804825 -0.026946021
0.00094525295 0.08781928 0.0144084515 0.019528292 -0.0062379055 0.0024811153 -0.059387673 0.0049829613
-0.07105116 0.027034577 0.09891567 -0.0062745307 0.0113895405 -0.031472374 0.036858946 -0.051124856
-0.032274906 -0.06736299 -0.04129282 0.012992701 0.025597071 -0.026223637 0.018917335 0.09053142
-0.115949884 -0.08991405 -0.037676733 -0.10567627 0.060793273 -0.044603396 -0.02693144 -0.09570748
-0.041862927 -0.012879853 -0.041817024 -0.06718352 0.01708718 -0.027687464 -0.09209191 0.021606531
-0.0731931 -0.0013551788 -0.027300581 -0.029455764 0.019758455 0.07105159 0.07224728 0.008159917
-0.074308924 0.06917345 -0.054742683 -0.058442105 -0.015434369 -0.059077755 0.018443495 0.0034221364
-0.054705262 0.016898641 -0.025630923 0.069147244 0.008407722 -0.00020440655 0.062538296 -0.064663246
0.05160559 -0.029364768 -0.0015827982 -0.01928792 0.0056911516 0.036608327 -0.039598186 -0.08385041
-0.055622716 0.012942223 0.06858718 0.015043581 -0.07481088 -0.0746678 -0.019717693 -0.03897746
-0.06335511 0.10262076 -0.054145657 -0.0098825535 0.04171873 0.04056105 -0.11957073 -0.050375536
0.008179992 -0.017693948 0.07194049 -0.03295495 -0.0475278 0.01518835 0.010965549 -0.048254836
0.02904645 0.0028174047 -0.07620732 0.009715484 -0.0013361151 -0.035279248 -0.10530402 -0.0039926223
0.09618015 -0.061467018 0.0051014205 -0.031676445 0.024011392 -0.030264525 0.013815635 -0.12974218
-0.0108239865 -0.07762183 -0.004354686 -0.041341048 0.028144486 -0.04608902 -0.03932484 0.006446394
-0.0487547 0.06553053 -0.041280217 -0.031239053 0.01545675 0.03133339 -0.051440444 -0.06460206

layers.2.bias f4 [128]
00000000: b92b f8bb 3fbe 32bc 9e44 8c3c 6843 17bb
00000010: b8d2 a6bd 0ac2 85bd bbc9 c2bd 665a 0bbd
00000020: 24af af3b dd25 9b3c a10a c33c 5661 9dbd
00000030: 9ba3 153d 39fa 59bc 7bc2 95bd b220 853a
00000040: 017f 343d 35b8 8ebd 2e57 05bd bca2 0bbd
00000050: befe 05bd e23d 22bd 82bc 53bd a15c 133a
00000060: a1b0 cfbc 83e7 36bc e69b ba3c ab44 f23c
00000070: 02be 5f3c c946 54bc 83e8 c03c 2f46 48bc
00000080: fcb1 0ebd 044b d53c cc98 1d3d 2620 1bbd
00000090: 1f06 ffbc e240 09bd 8676 1cbd 2454 f5bc
000000a0: ec18 9ebc 7377 843c 8132 803c 24d9 76bd
000000b0: abba bebd 108d a6bc 1971 1f3d b6dc c8bd
000000c0: 21a6 e6bc a651 063d 4d7f 963d 8fc6 fcbb
000000d0: 6f64 133c e7ea 153d 1dd8 06ba defb 3fbd
000000e0: 886b 90bd e7cd 583c 2a94 9ebd 8a10 8b3d
000000f0: ad0e 29bd e95f 9ebb e828 133d ce6b 833a
00000100: 2d17 95bd cd01 42bd ed8b f7bc 7313 ba3c
00000110: bbb7 d1bc 1326 493b 3cb9 35bc f5e2 2f3c
00000120: 9981 87bd a636 413d 1d5a 253d 687b 9dbd
00000130: 3464 60bd 90ba ebbb 3796 743c 49f9 ebbc
00000140: 350f 9fbd 8e35 8dbd 1bcc 773d a69b b3bd
00000150: afab 3c3d 36e7 4cbd da71 49bd b6a7 f83c
00000160: 5160 92bd f138 d43c 56a8 a6bd 3d7c 813d
00000170: e400 96bd 0f0e afbd 8758 7abc 752c 6fbc
00000180: 5c4b 90bd 88df 47bd 4980 723d 7cf3 22bd
00000190: 7395 cbbc f25b c3bc caa2 803c d5c7 113d
000001a0: d683 07bd 21d9 f63c f83c a1bc dbd2 053d
000001b0: 54ce 8b3d 51bc ccbd cbee 42bb ed8d 96bd
000001c0: 05b8 2a3d 42a3 6ebc be5f 81bb 70aa 423d
000001d0: 363a 9d3d 54e4 1e3d 6fa6 c43c 99d3 12bd
000001e0: a333 533d aeea b93c 3f66 83bd 090f b33c
000001f0: fe43 303d 299c 46bc 65f3 713d 58df 923c
-0.0075735715 -0.010909616 0.017122563 -0.0023080949 -0.0814566 -0.06531151 -0.09511133 -0.034021758
0.0053614546 0.018938953 0.02380878 -0.07684581 0.03653298 -0.013304287 -0.07312485 0.0010156839
0.044066433 -0.069687285 -0.032553844 -0.034090742 -0.032713644 -0.039609797 -0.051693447 0.0005621408
-0.025352778 -0.011163595 0.022779416 0.029573759 0.013656141 -0.01295633 0.02354837 -0.012223764
-0.034837708 0.026036747 0.038475797 -0.037872456 -0.031130848 -0.033509143 -0.03819897 -0.029947348
-0.019298993 0.01617024 0.015649082 -0.060265675 -0.09312948 -0.020330936 0.038926218 -0.09807722
-0.028155388 0.03279271 0.073484994 -0.0077140997 0.008996113 0.036600973 -0.0005143898 -0.04687106
-0.0705176 0.013232685 -0.07743104 0.06790264 -0.04127376 -0.0048332107 0.035927683 0.0010026635
-0.07279811 -0.047365 -0.030218089 0.022714352 -0.025600305 0.003069286 -0.011091527 0.010735263
-0.06616516 0.047171257 0.04036914 -0.076895535 -0.05478306 -0.007193871 0.014928392 -0.028805392
-0.077665724 -0.0689498 0.060497385 -0.08769922 0.046062168 -0.050025187 -0.049180843 0.030353408
-0.07147277 0.025906058 -0.08137576 0.06322525 -0.073243886 -0.08547603 -0.015279896 -0.014598002
-0.07045624 -0.04879716 0.059204374 -0.039782986 -0.024851536 -0.023847554 0.015702624 0.035590965
-0.033084713 0.030132832 -0.019682392 0.03267179 0.06826463 -0.09996856 -0.0029744382 -0.07351289
0.0416794 -0.014565291 -0.003948181 0.047525823 0.076771185 0.03879197 0.024005143 -0.035846327
0.051562916 0.022694912 -0.06415986 0.021857755 0.043033592 -0.012122192 0.05907001 0.017928764

layers.4.weight f4 [64, 128]
00000000: e6fd 2b3d 51b6 7a3d 7cc8 20be 4ac4 d4bc
00000010: 3097 0dbd 2696 a73b 8d67 49bc 03d2 363d
00000020: 9e19 b1bc b1a6 5fbd 0586 8c3c eed0 adbc
00000030: 63a3 b1bd 76ab 2a3d d382 313d a3f2 9cbc
00000040: 4b2d c03d ed3d 51bc ce9e 84bd adb1 6b3d
00000050: fd93 d6bd a018 3c3c 646f 97bd 4f7e 98bd
00000060: 6733 073e 12cb b5bd cb10 7fbc cb72 82bd
00000070: 7448 3cbd 1eaa ff3c 0886 f1bc ccaf 503d
00000080: 4e00 e8bb 8505 84bd 9118 1ebe 9376 3f3d
00000090: 4822 68bd 44c2 1c3c bd28 963c 7230 30bd
000000a0: 7f78 c5bc 4093 f2bd e77e 9ebb 9797 6fbb
000000b0: 84e4 993c ec54 313b e30f bcbc 37c0 4e3c
000000c0: 2045 95bd b39e 06bd 34dc 9fbd 2762 14bd
000000d0: e27f d2bd 60f9 20bd ee99 963d 5025 9fbd
000000e0: 7820 473c 340c c43c 1c7d 003d 54af 40be
000000f0: 5196 0d3c 10d9 f8bc b249 823d dab2 aebc
00000100: 910a 143a 7c85 293d 9dc7 28bd c0f9 0fbe
00000110: 3b44 8cbd 206a 27be 92d1 e8bd 5190 e3bc
00000120: 37ee 98bd ba97 56bd 1cd6 d0bd cfdf f43d
00000130: 48ac 8cbd 8578 b23d bc4f bbbd 8c93 693d
00000140: a8a5 893c 2861 ab3c b5fa dabb 7067 3c3d
00000150: 712f 933d 9dd6 303c 77f4 00bd 356c 34be
00000160: 9ab9 0a3d 3781 cf3c cc26 8dbc d6f4 15bc
00000170: a2a5 143d db09 e03d f8be 063c bdfe 9d3c
00000180: d1e4 91bc 75fc 8abc edd4 d4bd aadc 0fbc
00000190: 7de5 dabd 2681 963c b94e b4bd 4e68 d5bd
000001a0: f228 0fbd 9031 1fbd d0c9 1ebe ba10 933d
000001b0: 7487 a0bd fa71 7f3d 0643 963d c805 f0ba
000001c0: 07bb 1b3d 404f 2f3d 3463 f9bc d686 3abe
000001d0: 862e 1abe 82fc d13d f8a1 d3bd e1fa 4e3d
000001e0: e9e2 eebc c450 76bd ee70 d33c aa3b a1bd
000001f0: 0cff 05bd 29e0 543d c369 40bd 42ae b5bd
00000200: 6a62 55bd f9fe 303d 3448 debd acaf 06be
00000210: ec34 c6bc ae3d 45bd 82ad 90bc deb7 9abc
00000220: 6441 02be f2c1 773d c9d3 57bd 0504 183d
00000230: 490a 8d3d 007c 4dbd 1fdb ac3c 7752 afbd
00000240: 8692 b33d 97b9 6ebd 266e 7bbd 4c98 46bd
00000250: 6d0a 50bd b5f0 8f3d b458 88bd c7ab e7bd
00000260: 56f2 843d 1d23 153d b114 9f3d 353a 96bc
00000270: e1c9 06be d3c2 58bd f9b0 9e3d 43d5 a33d
00000280: 22f6 86bd eebb 81bd 870b 9fbd 0d7f 49bd
00000290: ffe5 c03c 11e8 cc3b d62f c1bd 1c1c fabd
000002a0: a442 adbc b64e 84bd d41c d0bc 1512 c53d
000002b0: 99e3 adbd 3393 5e3d 6398 36bd e0f7 2fbc
000002c0: f3c2 0bbe 22da 24be d5c3 efbd c6ba adbc
000002d0: 3ec8 a7bd 4f22 dc3b 70d5 f23c ca43 903d
000002e0: 1ea5 bf3d 12a7 903c c3a9 c7bd 2ec6 f7bd
000002f0: 45b2 493c 247e 30bd 121c 64bc 9311 0c3d
00000300: 7012 7bbd 88cc 5d3d 7692 92bd f08f 3c3d
00000310: 6779 f1bc ed8f 3ebe 67c5 a13c 0184 533d
00000320: 552a 25bd 1dd4 0abd 461f 453d 104d 7bbd
00000330: 239b a13c a8f9 f03c ae5a 8fbd b63e 91bc
00000340: 6365 9b3d 5be6 f33c 1a46 9ebd 3a34 7fbc
00000350: 64de 933d b101 933c 3e78 043c b1d9 c53b
00000360: 973d 983d 8a0f 25bd fdbf 14bc 4e4d 97bc
00000370: 1e75 313d 94f4 0ebc 5acf e5bd f460 19bd
00000380: b7f3 44bd 1c1b 8c3d 88eb 27be 2b48 d6bc
00000390: c557 07be 3a4e 953b 19f8 363d 2962 2bbd
000003a0: e90f 2fbd fcb1 62bd 946c afbd 13c2 a4bd
000003b0: 7ff4 26be 9596 bc3d c8f8 593d 36ec e33c
000003c0: a291 54bd c9ee 563d 8b9a 18bd 17e6 2a3b
000003d0: 927d 75bd 32bf 503d 376d 30be 0e4d 9cbd
000003e0: ec33 e23c d270 12be c2c4 813d 8b05 53bd
000003f0: 6d2f ef3c ac6c 99bd 71e1 61bd bb8a ae3c
0.041990183 0.061209027 -0.15701479 -0.025972504 -0.03456801 0.0051143346 -0.012292755 0.044633877
-0.02161866 -0.05460233 0.01715375 -0.02121779 -0.08673742 0.041667424 0.043337654 -0.019158667
0.09383639 -0.012771112 -0.06475602 0.05754249 -0.10477445 0.01148048 -0.07394293 -0.074459665
0.13203202 -0.08876623 -0.015567969 -0.06369551 -0.045967534 0.031209048 -0.029482856 0.050948903
-0.0070801144 -0.06446365 -0.15439059 0.04674394 -0.05667332 0.009567801 0.018329972 -0.04301495
-0.024105309 -0.11844492 -0.0048369053 -0.003655886 0.018785723 0.0027058674 -0.022956794 0.01261907
-0.07288575 -0.03286619 -0.07805672 -0.036226418 -0.10278298 -0.039300323 0.073535785 -0.07770789
0.012153737 0.0239316 0.031369314 -0.18816882 0.008641795 -0.030376941 0.063617125 -0.021325517
0.00056473265 0.041387066 -0.04120599 -0.14060116 -0.068489514 -0.16349077 -0.11368097 -0.027778776
-0.07467311 -0.05239079 -0.10197088 0.119567506 -0.068687975 0.087143935 -0.091460675 0.057025477
0.016802624 0.020920351 -0.0066827186 0.045997083 0.07186783 0.010793355 -0.03148314 -0.17619403
0.03386841 0.02533017 -0.017230414 -0.009152612 0.036290772 0.1093938 0.008224241 0.019286508
-0.017809303 -0.016966084 -0.10392175 -0.008780638 -0.10688303 0.01837213 -0.08804078 -0.10420285
-0.034951158 -0.038865626 -0.15506673 0.07180925 -0.07838336 0.062364556 0.073370025 -0.001831227
0.03802016 0.042800188 -0.030442812 -0.18215498 -0.1505681 0.1025324 -0.103336275 0.050532226
-0.029160934 -0.060135618 0.025810685 -0.07872708 -0.032713935 0.05197159 -0.046975862 -0.08871128
-0.052095808 0.04321191 -0.108536154 -0.13152951 -0.024195157 -0.048154525 -0.01766086 -0.018886503
-0.12720257 0.060487695 -0.05269221 0.03711321 0.06886727 -0.050167084 0.021100579 -0.08560651
0.087681815 -0.05828246 -0.061384343 -0.048485085 -0.050791193 0.07028333 -0.06657544 -0.11312061
0.064915344 0.03641044 0.077676184 -0.018338302 -0.13162948 -0.052920174 0.077485986 0.07999661
-0.06589915 -0.06334673 -0.077658705 -0.04919343 0.02354717 0.0062532504 -0.09432952 -0.12212393
-0.02114994 -0.064603254 -0.025404371 0.096225895 -0.084906764 0.0543396 -0.04457892 -0.01074025
-0.13648586 -0.16098836 -0.11707274 -0.021207225 -0.0819249 0.006717957 0.02964279 0.0704418
0.093576655 0.01765779 -0.09749176 -0.12098347 0.012310569 -0.043089047 -0.013922708 0.034196448
-0.06129688 0.054150134 -0.071568415 0.046035707 -0.029476834 -0.18609591 0.01974745 0.05163956
-0.040323574 -0.033893693 0.048125528 -0.06135279 0.019727295 0.02941592 -0.06999718 -0.017730098
0.07587697 0.029772928 -0.077282146 -0.015576417 0.07220152 0.017945142 0.008085309 0.0060379137
0.07433622 -0.040298022 -0.009078977 -0.018469479 0.043324582 -0.008725304 -0.1122119 -0.037445977
-0.048083987 0.06841108 -0.16398442 -0.02615746 -0.13217075 0.0045564445 0.044670198 -0.04184166
-0.042739782 -0.05534552 -0.085656315 -0.08044829 -0.16304205 0.09208409 0.053215772 0.027822595
-0.0518967 0.052473817 -0.03725676 0.0026077086 -0.059934206 0.050963588 -0.17229162 -0.076318845
0.027612649 -0.1430085 0.06336357 -0.051518958 0.029197419 -0.07491431 -0.05514664 0.021306386

layers.4.bias f4 [64]
00000000: aae5 a4bd b771 edbc 3bdd 8dbd bb46 0cbe
00000010: a752 b23d 8a30 9bbd 4470 6cbd 531f 8fbd
00000020: 3a57 323d 1320 49bd 05f5 273d 022c a4bd
00000030: d38c 163d 478d e53d 6695 f3bd 6bb7 b9bd
00000040: f134 a2bd cf93 a6bc fdda 3a3d f64d b0bd
00000050: 976b 3bbc 746a bfbd ce2e 37bd 68d7 5ebd
00000060: a0d9 373d ec8f 0e3d a660 52bd 76fe 38bd
00000070: a413 f5bd 965b 203c f9ca e1bd 8725 97bd
00000080: 6207 103c 1a75 703c aff8 abbd ff23 10bd
00000090: 9b7e aebd 4031 0fbc 24b7 043d cae2 6f3d
000000a0: a3a4 72bd bafa 40bb ca88 bfbd eec5 84bb
000000b0: 1805 82bc f78f babd 4770 2abd 907b 7abc
000000c0: c3e1 943c edf9 a0bd 0af7 0abe 91a7 e83d
000000d0: 661e cebd f55e ae3d cb84 72bd fd96 5ebc
000000e0: db6b 773d ce1c f33d 222f 3ebd 044e 513d
000000f0: 4075 d23c aae7 17bd 60fb 9d3c 6f5e ea3d
-0.080516174 -0.028984888 -0.06926962 -0.13698857 0.08707171 -0.075776175 -0.057724252 -0.069883965
0.043540217 -0.049102854 0.041005153 -0.08016206 0.036755394 0.11208587 -0.1189373 -0.09068187
-0.07920254 -0.020334153 0.045619 -0.0860862 -0.011439226 -0.09346476 -0.04472237 -0.054404646
0.044885278 0.034805223 -0.051361702 -0.045164548 -0.11966637 0.009787461 -0.11025042 -0.07380205
0.008790823 0.014676357 -0.08397042 -0.03519058 -0.08520242 -0.008739769 0.03240122 0.058565892
-0.05923904 -0.002944632 -0.09352262 -0.0040519154 -0.01587157 -0.0910949 -0.041610982 -0.015288249
0.018174058 -0.078601696 -0.135708 0.11360086 -0.10064392 0.08514205 -0.059208672 -0.013585803
0.060405593 0.118707284 -0.046431668 0.051099792 0.025690675 -0.037086166 0.019284904 0.11443793

layers.6.weight f4 [32, 64]
00000000: 5038 babd a687 ba3d 2fce b93c 352a 033d
00000010: 78ad b53d 85ee 49bc c9ed ea3c 7078 f33d
00000020: e3c3 05be 23f0 70bd c235 94bc 173a a53d
00000030: 4145 cebc da60 3d3d 4bec f3bd ec5a 7dbc
00000040: 2efa 973c f070 d3bc c32f cfbd 3aa7 91bb
00000050: 587c eabd 46d5 e1bd c08f a73d eab1 e03d
00000060: 6ef7 62bd 4a03 9bbd 32ed 2cbd 8410 4dbd
00000070: 3d19 633d 00b9 793b 1bc4 8cbd e011 04bd
00000080: 5ef9 0fbd 8b59 b13d 4a55 393d 3711 b23b
00000090: 6be4 97bc 90f7 8d3d 99db cfbc 35cf 73bd
000000a0: dd9e eebd 2434 3d3d 0bb3 a63d 320e a53d
000000b0: 92f5 06be 14b5 313d edad 3ebd dcd6 0f3e
000000c0: 760b 58bd ee09 03bd 3fa8 9f3d 25e5 563d
000000d0: 9754 b0bd da05 b83d 350f d93d 9c98 f8bd
000000e0: 30e8 56bc 067a c7bd 68c2 993c c243 6f3d
000000f0: b965 953d 4223 a1bc 1416 dcbd 70a9 b8bc
00000100: f743 43bd a08a bc3d 11db 003d 81ad efbd
00000110: 5ac8 053e 04dc 85bd 08e2 dd3c 48df f53d
00000120: 573b 0abd 6273 f3bd ed7a 1ebe 5c3a 3e3d
00000130: 3fd4 9a3d 7e23 203e 0d96 97bd 2b2a e0bd
00000140: 1cee 7d3d bf3b ed3c 66ab d03d 9cbf 083d
00000150: 6588 16be b651 af3b c50a 203c 7b87 cd3d
00000160: 1832 c5bc 0079 bb3d 5b51 ea3d 77d8 e5bc
00000170: 1251 d73d a0c8 513d 7548 8bbd 02f4 a33b
00000180: 2d02 b43b 953b d5bd 9436 ad3a f5ad 6b39
00000190: 24c0 ecbd 8907 fdbd eaea a83c 11bb 2cbd
000001a0: deb5 e9bc e682 b6bd 5240 003d 7e5d 18be
000001b0: 7504 93bd 5ca9 62bc 7c70 01be aa8e 1ebe
000001c0: 3b76 203d bcf5 8fba 3f2a ec3c 6652 153e
000001d0: 9b43 1ebe a62b 5b3d 3b09 d5bd 5446 8a3b
000001e0: 2ed1 a43d d631 f53d a39d debd b78a d83d
000001f0: f411 11bc d804 30be d896 9abd c699 d63d
00000200: 7a2d 1cbc 9660 0bbe 3197 a3bd 5193 ddbd
00000210: fbc6 473d 1512 233b a196 313d 028f ba3d
00000220: b781 01be 875e 613d a125 eebc 2aae 7b3d
00000230: 15c6 383b 3388 ad3d 9998 bdbd e689 0e3e
00000240: 3bed 58bd 7d60 e4bd 9dce ea3c 6c9c 20bd
00000250: dc9e c6bd 9106 cc3b af5c 1ebe 2d09 d83c
00000260: 2c11 293d 7d3c 24be 3b45 4ebc 803d 51bc
00000270: 31ea de3b 0310 dfbd b9eb 8cbd b194 83bd
00000280: ec75 c73d 8fc5 97bd 51bf bc3d 3ae4 733d
00000290: b9fb e33c e6b4 a53d 7f82 803d 6ebc 1bba
000002a0: 56fc b7bd 07d7 883d b688 d23d 7b46 84ba
000002b0: 4a8a 41bd f0b9 c83d 1f67 a83c 9e02 88bd
000002c0: ad64 22bd 1144 3ebd 5e19 06be e3a1 b6bd
000002d0: 21b0 aabd ec35 a3ba 73d1 3ebd a0eb 043e
000002e0: eddf 363d b17f 75bc fa96 f6bd 8e9b 10be
000002f0: 4b42 3a3d db89 2dbe dfef 723d 1a82 a73d
00000300: 44a5 bdbc a355 ffbd 724c 9a3d 6150 903d
00000310: cdb0 a8bd dd13 ee3d 4781 19bc d126 013e
00000320: b75d ab3d 6918 7ebd 956c d13d ae0e 17bd
00000330: b7ce 2abd 789f 923d 8296 0a3d 08da cb3c
00000340: 0d09 cbbd 3794 92bc c364 2e3d c085 163e
00000350: eed7 fe3b 812d a8bd 7c6f 0cbe 102d 4bbc
00000360: 37b1 a33d 4b00 c3bd dd11 9b3c 4546 b6bd
00000370: a114 fbbb 6d7f b6bd 3f6d 06be f244 b9bd
00000380: f255 723d 4b1f d2bd add2 e2bd a420 1b3d
00000390: 7361 b0bd ee4f aebd 46f9 0d3d 352a c3bc
000003a0: 857a 38bd d268 f8bc 17ca 3d3b 6d23 83bd
000003b0: fe97 b63d a3e9 04be dfee 1e3d 31df 19bd
000003c0: 5ece 933d 1022 23bb 9c21 b73d 9078 1cbd
000003d0: 75af f2bd 7e48 bbbd 675a 46bd 6dd2 86bd
000003e0: 3e8d 05bd af7b b63d 068c c5bd 8e04 acbd
000003f0: dac4 2bbd ffa2 51bd 9e7e d5bd 4476 083d
-0.09092772 0.09107904 0.022681324 0.032022674 0.08870977 -0.012324934 0.028677838 0.11888206
-0.13063006 -0.058822762 -0.01809204 0.080677204 -0.025179507 0.046234943 -0.11910304 -0.015463572
0.018551912 -0.025810689 -0.10116532 -0.004444984 -0.11449498 -0.11027007 0.08181715 0.109714344
-0.05541175 -0.07568987 -0.042218395 -0.05006458 0.05544399 0.0038104653 -0.06873342 -0.03224361
-0.035149924 0.08659657 0.045247354 0.005434181 -0.018541535 0.069319844 -0.025373267 -0.05952378
-0.116513945 0.046192303 0.081396185 0.08059348 -0.13179615 0.04338558 -0.046552587 0.14046806
-0.052745305 -0.03199189 0.07795762 0.052464623 -0.08609884 0.08985491 0.10598604 -0.12138483
-0.013116881 -0.09740071 0.018769458 0.05841423 0.07294793 -0.019670133 -0.107463986 -0.022541732
-0.04767224 0.09206128 0.031458918 -0.11703015 0.1306471 -0.06536105 0.02708532 0.12005478
-0.033747997 -0.11887242 -0.1547658 0.046442375 0.07560014 0.15638539 -0.07401667 -0.10945543
0.061994657 0.028959153 0.10188942 0.033385858 -0.14700468 0.005350317 0.009768193 0.100356065
-0.024071738 0.09153938 0.114412986 -0.02805732 0.1051351 0.05121672 -0.068009295 0.005003453
0.0054934234 -0.10411755 0.0013215118 0.0002247615 -0.115600854 -0.12354953 0.020619828 -0.042170588
-0.028529104 -0.08911686 0.03131134 -0.14879414 -0.071785845 -0.013834324 -0.12640566 -0.1548411
0.039175253 -0.0010983269 0.028828738 0.14582214 -0.15455477 0.053508423 -0.10402151 0.0042198095
0.0804771 0.11972396 -0.108699106 0.10573333 -0.008854378 -0.17189348 -0.075483024 0.10478549
-0.009532327 -0.13611063 -0.07987822 -0.10819114 0.048773747 0.0024882604 0.04335654 0.09109308
-0.12647139 0.05502179 -0.029070677 0.061445393 0.0028194238 0.084732436 -0.09257621 0.13919792
-0.052960616 -0.11151216 0.028662974 -0.039211676 -0.09698269 0.0062263687 -0.15465043 0.026371563
0.041276142 -0.160387 -0.012589748 -0.01277101 0.00680282 -0.10891726 -0.06880898 -0.06424845
0.09739289 -0.07410728 0.09216178 0.059543826 0.027829992 0.08091144 0.0627489 -0.0005940859
-0.08983676 0.06681638 0.10279982 -0.0010091806 -0.047251023 0.0980109 0.020556984 -0.06641124
-0.039646793 -0.046451632 -0.13095614 -0.08917596 -0.08334375 -0.0012451983 -0.046586465 0.12980509
0.044647146 -0.014984057 -0.12040515 -0.1412184 0.04547338 -0.16947119 0.05931079 0.08179112
-0.023150094 -0.12467506 0.07534112 0.07046581 -0.08236847 0.11624882 -0.009369201 0.12612464
0.08367484 -0.062034998 0.102257885 -0.036879234 -0.041701045 0.071593225 0.03383494 0.024884239
-0.09913836 -0.01789294 0.042576563 0.14699459 0.0077772057 -0.08211804 -0.13714403 -0.01240088
0.079927854 -0.0952154 0.018929416 -0.089001216 -0.0076623713 -0.08911023 -0.13127612 -0.090463534
0.059163995 -0.10259875 -0.110753395 0.037872925 -0.08612337 -0.08511339 0.034661554 -0.023823837
-0.04503872 -0.03032342 0.0028959566 -0.06403241 0.08915709 -0.1297975 0.038802024 -0.037566368
0.07217096 -0.002489213 0.08941957 -0.038200915 -0.11849872 -0.09144686 -0.04842606 -0.06583104
-0.032605402 0.089103095 -0.09645848 -0.08399306 -0.04193578 -0.051180836 -0.10424541 0.033315912

layers.6.bias f4 [32]
00000000: 1fae 84bc 9b0b 063e 7bef 60bd a1ac 7f3d
00000010: 339a 9f3d 87f8 863d 1a6f 193e 38dc a4bd
00000020: 45cd 58bd 52ad 93bd f0c7 b1bc 9566 b0bc
00000030: 47cf 1fbd 4817 e73c 859b 4abb a148 09be
00000040: 08a3 91bb cf1d ad3c 9c06 a43c 4d45 d43d
00000050: acb3 88bd 9734 c13d 1fd5 d6bc a6c0 a73d
00000060: 7cf6 193e bb00 33be aed6 51bd 2dee 09bc
00000070: 8352 36bb a6e2 0e3e 1973 66bc fd74 2e3b
-0.016196309 0.13090365 -0.054915886 0.06242049 0.07793083 0.065903716 0.14983788 -0.08049816
-0.052930135 -0.072107926 -0.021701783 -0.02153329 -0.039016034 0.028209344 -0.003091545 -0.13406612
-0.0044444837 0.021132378 0.020022683 0.103647806 -0.06674895 0.09433859 -0.026224671 0.08191042
0.15035433 -0.17480747 -0.051230125 -0.008418602 -0.0027820177 0.13953647 -0.014065527 0.0026620023

layers.8.weight f4 [1, 32]
00000000: 9885 53ba aec0 273e 18ca a83c 8477 f53c
00000010: 87ca 70ba 3a61 c5ba 913c e03d 2c83 da3d
00000020: 4d1b b6bd 97d2 b63d 58b4 ec3c fcec 31bc
00000030: 134b b93d c763 01be 26ec 073c 1be7 3ebd
00000040: 4f2d 8cbb 4e24 573c 98e8 4fbd 0a40 de3d
00000050: 6d6f 823a fe33 af3d 81d1 19ba d418 c4b9
00000060: 0ae2 d63d f62a f1bd 5919 483a 9207 a0bc
00000070: 1c7c e6bd 2931 073e cbd1 91bc 292b 1fbc
-0.0008068918 0.16382095 0.020604178 0.029964216 -0.00091854524 -0.0015058883 0.10949052 0.1066955
-0.08891926 0.089268856 0.028894588 -0.010859724 0.090475224 -0.12635718 0.008296048 -0.046607118
-0.004277862 0.013131214 -0.050758928 0.10852058 0.000995142 0.085548386 -0.00058677053 -0.00037402532
0.10492332 -0.11775772 0.00076331716 -0.01953486 -0.11254141 0.13202347 -0.017800232 -0.00971488
