models/nn/nn_mse_lf_thetaeprime_18.pth (torch, 196309 bytes, 9 tensors)

layers.0.weight f4 [256, 17]
00000000: 53d5 15be 763d 3f3e 359f 413e ae2d a1bc
00000010: 1e86 ba3d c9eb 143e 1405 c2be af8c dfbc
00000020: 8abf 463c 12a5 71be de81 fbbd ec67 843e
00000030: ab24 85be e3e8 903a 6e01 203f 9f94 10bf
00000040: 816e 2bbd ba3e d3be 3737 92bf 2e92 ec3e
00000050: e047 8b3f a757 f23e 649b 7e3e c1d0 17be
00000060: 0400 57bf cc5c 6db9 dba6 aa3e 34e3 b73e
00000070: 32f3 88be a20a 0c3e 349c d6bc 3cf9 833c
00000080: 3e63 9ebd d3ae 0bbf 988f 3fbd ea85 f73c
00000090: 7aff e13d 00c3 75bf 8b39 923f a386 35be
000000a0: 5751 5b3d 5723 273d 61a7 8bbe 8078 da3e
000000b0: be5d d73e 8cdc 8abe 8283 febe fc82 6d3e
000000c0: 55df a4bd 9218 f93e dfde e4be 6ad0 cabd
000000d0: d467 c33d e4d5 30bf 6dac b5be b242 fc3f
000000e0: f82a ef3e af4d 3e3e b96a 83bd d294 8fbe
000000f0: d9d7 10bd bbbf cd39 c64d b73e e346 8abd
00000100: 7a01 0bbe 9fec de3e 4c66 55be 671d e9bd
00000110: 26bf c5bd 0ada ff3d 8677 ad3d 766c 973e
00000120: d90d d1be 2fbc 043f d8fa 483e 8264 2bbe
00000130: 3da9 48be 678c cebe 3d32 8c3e d1e7 093f
00000140: 77f3 01bf 7c44 05be 0636 f73e 45a0 68be
00000150: 5194 a9be 6d34 943b 5db1 5bbf c9cc 2b3f
00000160: 9d91 f13e 28d2 79b9 e13d bf3c 6908 853d
00000170: 3f94 d4bc 55f7 72be 517c 2bbe 646a b63d
00000180: 38e6 e53e 2d0a dfbd 89a7 cebc e3c0 3abe
00000190: f0d0 223d 0953 90bd d2c7 7dbe 3aa1 013e
000001a0: a803 f13e afab a5bf 22bb 1f3f 65e3 863f
000001b0: a0dd 2abe decd 18be 57ab 593e 5424 c0bd
000001c0: 2a25 4dbe f676 0f3e a932 4fbe 5e43 b43e
000001d0: dedf 013e 7fdc c73d 804d 10bf 8055 473e
000001e0: 590f 1abe 48ca 03be 2e23 083f 7eb6 0dbf
000001f0: 9499 213f 643b 40be 0321 9bbe 5edb d83b
00000200: 87f0 943d 43c9 313e 17da 6a3e 04fb 403e
00000210: 3504 a8be 88ac b5be 97bd 9f3d 7def be3e
00000220: 907c eb3d 6493 c83e 2a1d 69bf beca 433f
00000230: 6178 e03e f57d 0dbe 3235 8b3e 2b4c 94be
00000240: cbe4 8abe 429d 973e 86f6 283d 1a4b 423c
00000250: 7699 f1bd 81c7 4b3e 4f59 b63e 6bea dcbe
00000260: a2db 1c3e 924b 913e a430 5cbf ffc4 2f3f
00000270: 39c3 ae3e 4dac 0a3c f94a a1be c524 793e
00000280: a7e9 ea3e 3884 d1bd 65ff c0be 8d3a 4dbe
00000290: 1e42 e33e f9da 50be 12f8 f93d 78f6 7fbe
000002a0: 1089 163e 5fe4 843c c020 a53e c0e9 0ebf
000002b0: 3901 ce3e 38e6 e9bc e5fe d43e 2a0a 9ebe
000002c0: 47bc 31be 2a25 583e 8b86 78be 93ab 87bd
000002d0: 0070 92bc 6c8c 053e ffcd 613e 2531 863e
000002e0: 1f37 5bbe f684 013f b9e3 13bf aaf7 ba3d
000002f0: 8352 bf3e f18d 81bb 4865 703d a729 f23c
00000300: 1d03 81be 44dd 8ebe 23c9 df3d 9619 213e
00000310: 6157 733e b5da 4d3e e651 bcbd 3334 413c
00000320: 4ec5 8d3e 57a8 63bd 4189 23bf 8d98 813e
00000330: 0454 27bd da29 82bf 4773 4f3f 3d52 303f
00000340: 6eea 76bc c80f f6be bc07 cfbd 9bfd b63e
00000350: 5eb1 a93e a55c e7bd 99ba 73be 48ae b6be
00000360: 6774 f53e f41c 0abe 1cea f13d b73a 97be
00000370: 3e48 93bd 84ee 24be ad01 053f dedd c1be
00000380: 6236 9bbe 0924 57be c19f 07be 7175 dc3e
00000390: 8788 b0be dbd4 83be e06e a9bd 1224 05bd
000003a0: 8645 84be 5eca a03e f98e bebd f029 823e
000003b0: 834b c2be 4cd1 5c3e 5bdd c3bb 6bf6 bf3d
000003c0: 7f4e 91bd 0665 15bf 7634 423f 158f 0cbf
000003d0: ed58 de3e 1e70 9cbe 46c4 41be 4aad df3e
000003e0: bf10 043f ff20 e33e 085b 8d3d 926c 12bc
000003f0: d8f8 87be da89 f73d 2517 a3be e2e1 5abf
-0.14632158 0.18675789 0.18908389 -0.019675102 0.09107612 0.1454307 -0.378945 -0.027288763
0.012130627 -0.23598126 -0.122806296 0.25860536 -0.26004538 0.0011055734 0.6250218 -0.5647678
-0.04185343 -0.41258794 -1.14231 0.46205276 1.088131 0.47332498 0.24863964 -0.14825727
-0.839844 -0.00022636651 0.33330426 0.3591553 -0.26748043 0.13675931 -0.02619753 0.016110055
-0.07733773 -0.54563636 -0.0467678 0.030215222 0.110350564 -0.9600067 1.1423811 -0.17727141
0.05354437 0.040805187 -0.27276137 0.4267006 0.42063707 -0.2712139 -0.49709707 0.23194498
-0.0805041 0.48651558 -0.44701287 -0.09903033 0.09541288 -0.6907637 -0.35483113 1.9707854
0.4671247 0.18584321 -0.0641684 -0.28043228 -0.0353621 0.00039243497 0.35801524 -0.06751802
-0.13574782 0.43539903 -0.20839804 -0.11382561 -0.09655599 0.124927595 0.08470063 0.29574937
-0.40830877 0.51849645 0.1962694 -0.1673756 -0.1959581 -0.40341493 0.2738208 0.5386935
-0.5076212 -0.13014406 0.48283404 -0.22717388 -0.3312097 0.004522851 -0.8581751 0.6710935
0.47181407 -0.0002382478 0.023344936 0.06495745 -0.025949595 -0.23727162 -0.16746642 0.08907011
0.44902205 -0.10890613 -0.025226371 -0.18237643 0.03975004 -0.07047088 -0.24783257 0.1265916
0.47073102 -1.2943019 0.62394917 1.0538145 -0.16686106 -0.14922282 0.21256767 -0.09381929
-0.20033708 0.14010224 -0.20234169 0.35207647 0.12683055 0.09758853 -0.56368256 0.1946621
-0.15044917 -0.12870133 0.5317868 -0.55356586 0.63124967 -0.18772656 -0.30298623 0.0066179475
0.072724395 0.17361932 0.22934757 0.18845755 -0.3281571 -0.35483193 0.07799833 0.3729209
0.11498368 0.3917495 -0.91060126 0.76481235 0.43841842 -0.1381758 0.27189022 -0.28964362
-0.2712768 0.29612166 0.041250728 0.011858726 -0.117968485 0.19900323 0.35615012 -0.43147597
0.15318158 0.28377968 -0.8601172 0.6865997 0.34133318 0.008463931 -0.31502512 0.24330433
0.45881388 -0.10230297 -0.3769485 -0.20041867 0.4438638 -0.20396031 0.12205519 -0.24996364
0.14700723 0.016222177 0.3225155 -0.55825424 0.40235308 -0.02855216 0.4160072 -0.3086713
-0.17356978 0.21107927 -0.24270074 -0.06624522 -0.017875671 0.13041848 0.22051238 0.2620937
-0.21407746 0.5059351 -0.5776935 0.091292694 0.3736764 -0.0039536883 0.05869034 0.029560877
-0.25197688 -0.27903187 0.10927036 0.15732417 0.23763801 0.20102961 -0.091953084 0.01179223
0.27689594 -0.055580463 -0.6388131 0.253117 -0.040851608 -1.0169022 0.81035274 0.68875486
-0.015070541 -0.48058915 -0.10108897 0.3574036 0.33143133 -0.112969674 -0.2380165 -0.3567984
0.4794037 -0.13487607 0.11812231 -0.29536983 -0.071915135 -0.16106611 0.5195568 -0.37864584
-0.30314928 -0.2100984 -0.13244535 0.4305835 -0.34479162 -0.25748333 -0.08273101 -0.032505102
-0.25834292 0.31404394 -0.093046136 0.2542262 -0.37948236 0.21564215 -0.0059773154 0.093731724
-0.0709505 -0.58357275 0.758613 -0.54905826 0.4342722 -0.3055429 -0.18922529 0.43686897
0.5158805 0.44361112 0.069021285 -0.008937018 -0.2655704 0.1208684 -0.31853595 -0.8550092

layers.0.bias f4 [256]
00000000: ed20 8c3e a856 0cbf f89a 7cbd bd56 b5be
00000010: 42df 663e 6d0e aabe b6ac c03c ba52 3d3c
00000020: 03d9 6ebc 483b 6cbe eb6f 82be db6f a63e
00000030: 0902 d2be e646 833e a623 1abe b3d7 19bf
00000040: 55b2 0ebf e12a 843e ed0c 193e bc58 b6be
00000050: fcb7 86be 419e 813e c02f 26bd 4f83 083e
00000060: 7694 6b3f b087 8b3e cc21 dabd 82a2 f0bd
00000070: bc6a 2e3e 0524 513e 172e 873d 98d5 2f3e
00000080: 4652 813e 593d 4b3f 27fc f03d a8d3 ebbd
00000090: 6359 50be c483 26bf 77e1 413d 7ec1 6abe
000000a0: c21b 12be d0fe 81be d0aa 5d3c 7a71 a0be
000000b0: 865f 95be 5e24 5d3e 05d9 053e 827d 8ebe
000000c0: 6962 1c3d cc70 c83d 6fdc 43be f97c 1dbe
000000d0: 3fdb a8bd 574a 963e 7c77 06be c234 dabe
000000e0: 3b66 473e 9e23 4a3d 58f9 f23d 6aaf f53d
000000f0: 4afa 633e d949 a2be 05df 293e 3464 f33e
00000100: ac3e fa3d 60fc febe 604b cfbc a73a 11be
00000110: df09 2e3e 5dda 413d c43d 963c 17a5 92be
00000120: 7ed1 d0bc 1b82 503c f8ed 30be 8bbd 43be
00000130: ddb9 5d3e 3d5b 71bf c5f2 5cbd 5e0a 6b3d
00000140: 201c e6be 2ace 143d c0b5 fe3e f882 ae3e
00000150: e39e 073d 84fe 633e 2d5f 3bbd a4c8 87bd
00000160: 4723 813e 8f42 d6be ed30 95be 4cd6 6a3e
00000170: a364 e43d 8167 303d 37b4 03be 51a9 c0bd
00000180: 8c23 b7be 4b17 81be 9095 0fbd e637 edbd
00000190: 98ae 17bf 967f a1be f9e3 403f 6209 21bd
000001a0: aed8 90be 80e8 193e 3e17 9cbe 47f4 de3d
000001b0: 06cc 82bc 7247 0f3e 5c34 31b9 706a d7bb
000001c0: 77c7 3cbe 0e0b 3dbd 2fe0 533d 1097 aa3c
000001d0: aee8 7a3d 7bc0 95be 18ff 43be 313c 583d
000001e0: 7b1f 50bf b35f 7ebd 0357 d0be 86fa 3ebe
000001f0: 90f7 febc a613 b13e f784 53bd 15fc b63c
00000200: 5f6d 68be 4b73 0dbe 510c 84be 2869 4dbc
00000210: 1f9d b4bd a2ee 09be ca97 5b3e 4564 02be
00000220: 69db 39bd dee8 d53d 3137 1fbe 53e1 743d
00000230: 4b6d 233c a0ad 86be eea6 af3d be77 92be
00000240: 44ee 863e dbef eabd eadd 24be b027 70bf
00000250: 1720 1a3e fc6c cfbd 8e2f 82be ad8a 90bd
00000260: 1b24 0cbd cca6 47bd 5a46 bf3e c225 6cbc
00000270: 9856 fbbd 3622 913d d032 3f3e 845b 503d
00000280: e1a4 8fbe 9a6e 08bf cece 453e 9901 79be
00000290: b79b 14be 0226 40bd 461b 3dbe 8e26 8b3e
000002a0: fbb9 233c 5f6c f2be 928b f6bd 5ceb ad3e
000002b0: 7780 033d d001 e7be 5f75 79be fd73 0f3e
000002c0: 0213 07bf 424a 5abf c5d0 98bd 1da5 88bd
000002d0: a9e1 4f3e 1c8f 19bf fbef 6a3e b1c0 aabd
000002e0: f431 863d e587 313e 556d 47be 288c 68bd
000002f0: 0618 65be 590e 0a3e 57dd 173e dfde 7f3d
00000300: f72d 71be e3ea 15be 2c76 d1be 3da8 113e
00000310: a98c 9a3d 03a0 03bc a3bd 463d 7b70 e4bd
00000320: 1e52 4abd 7fd9 0a3f 31fa 853e d8f2 a03d
00000330: c9d5 cf3a 5a6b fabd 2b0d 503e 3223 08bf
00000340: b6cb 30be c4d8 0bbd 36c6 29be 7d23 0ebd
00000350: 8a3f af3d 19d9 3ebe b1d3 773d c721 30be
00000360: 129d 15be 6aa9 f23d 2a68 3f3d 4cf6 41bb
00000370: 8936 0a3d 57a9 063d 871a 47bd 182d 00be
00000380: b586 7ebd c953 98bd 4c58 8a3e b399 bdbe
00000390: 907e 223c 6e6a 10be 6362 483e 9b8e f0bd
000003a0: 53cd 1d3e d921 86be 3221 64bd f7a4 8d3d
000003b0: 3d43 cebe 98bc dd3e eb19 40be cded 79bc
000003c0: 4a41 54bc 31cf c33e 6161 25bc 6ff7 5cbe
000003d0: 1bf3 aabe d98e a73e 4a08 813e e704 a2bc
000003e0: 6790 76bd ad37 dfbd 1c06 3d3d 4210 923d
000003f0: 8641 76bd f2e9 38be 85db 4d3e 9857 ecbe
0.2736887 -0.54819727 -0.061671227 -0.3541774 0.22546104 -0.3321413 0.023519855 0.011555368
-0.014578107 -0.23069489 -0.25476012 0.32507214 -0.41017178 0.2564003 -0.15052661 -0.60094756
-0.55740863 0.25813964 0.14946337 -0.35614574 -0.26312244 0.2531605 -0.04057288 0.1333134
0.9202341 0.2725196 -0.106509775 -0.11749746 0.17032903 0.20423897 0.06600588 0.17171323
0.25258082 0.79390484 0.11766844 -0.115149796 -0.20346598 -0.6504481 0.04733416 -0.22925374
-0.14268401 -0.2538972 0.013529494 -0.31336576 -0.2917444 0.21595904 0.13071068 -0.2783013
0.03817979 0.09787139 -0.19127057 -0.15379705 -0.08244943 0.29353592 -0.13131517 -0.42618376
0.19472592 0.049350373 0.11863965 0.11996348 0.22263446 -0.31696966 0.16588981 0.47537386
0.12218985 -0.49801922 -0.025304496 -0.1418253 0.16995953 0.047327388 0.018339999 -0.2864158
-0.025490519 0.012726332 -0.17278278 -0.19115274 0.21652932 -0.94279844 -0.05394246 0.057382934
-0.44943333 0.036329426 0.4974804 0.34084296 0.03311051 0.22265059 -0.045745064 -0.06630066
0.25222227 -0.41847655 -0.2913889 0.2293331 0.111520074 0.04306746 -0.12861715 -0.094072945
-0.35769308 -0.25213084 -0.035054743 -0.115829274 -0.59250784 -0.31542653 0.7534786 -0.03931559
-0.28290313 0.15030098 -0.30486482 0.10886436 -0.015966427 0.13992098 -0.00016899541 -0.0065739676
-0.18435465 -0.04615312 0.05172747 0.020823985 0.061257057 -0.29248413 -0.1914028 0.052791778
-0.81298035 -0.062102985 -0.40691385 -0.18650255 -0.031123906 0.34585303 -0.051640477 0.022336999
-0.22697972 -0.13813512 -0.25790647 -0.012537278 -0.08819031 -0.13469937 0.21444622 -0.12733562
-0.04537526 0.104448065 -0.15548398 0.0597852 0.009974788 -0.2630434 0.08576761 -0.2860698
0.26353657 -0.1147153 -0.16100278 -0.9381056 0.15051304 -0.10128209 -0.25426906 -0.070577
-0.03421412 -0.048743054 0.3735836 -0.014413299 -0.12272376 0.07086603 0.18671727 0.050868526
-0.2805548 -0.53293765 0.19317171 -0.24317016 -0.14512525 -0.046911247 -0.18467435 0.27177852
0.009993072 -0.47348306 -0.1203834 0.33968627 0.032104935 -0.4511857 -0.2436118 0.1400909
-0.5276338 -0.8526956 -0.07461695 -0.06672118 0.20300926 -0.5998399 0.22943108 -0.08337534
0.065524966 0.17336996 -0.194753 -0.05677429 -0.22372445 0.13482036 0.14830528 0.062468406
-0.2355269 -0.14640383 -0.4091047 0.14224334 0.0754636 -0.008033755 0.048520695 -0.111542664
-0.04939472 0.5423812 0.26167443 0.07858819 0.001585656 -0.12227507 0.20317523 -0.53178704
-0.1726521 -0.03414227 -0.16579518 -0.034701813 0.08557041 -0.18637504 0.06050462 -0.17200385
-0.14610699 0.118487194 0.046730198 -0.0029596267 0.033743415 0.03287634 -0.048609283 -0.12517202
-0.062140185 -0.07437856 0.2702049 -0.37031326 0.00991787 -0.141031 0.19568782 -0.1174595
0.15410356 -0.261977 -0.05569572 0.0691623 -0.40285674 0.43307948 -0.18759887 -0.01525445
-0.012955019 0.38244012 -0.010094018 -0.21578763 -0.333886 0.32726172 0.25201637 -0.019777728
-0.060196307 -0.10899291 0.046148404 0.07132007 -0.06012108 -0.18057993 0.20103271 -0.4616058

layers.3.weight f4 [128, 256]
00000000: 623f 0e3e 5f0d 33be 5921 66bd 2eeb 95bd
00000010: e202 ab3d 69a5 09be 9cc1 363e 10d0 febe
00000020: 3fe6 7e3d aabd 16bd bd63 6fbd a201 d4bd
00000030: ce8d 0fbe 400d d9bd 0735 89be 0f57 dc3e
00000040: 4181 a9bd a239 ed3b 3f4f 54bd 9ba2 dd3d
00000050: 9632 14be adaa d7be 0108 063e 3b9f 02bf
00000060: ce2e 003e 9c67 eebd d476 203d 8471 ba3c
00000070: 979c ca3d cbbc 95bf d845 13be 0df5 06be
00000080: d2ca f13c 6320 323e 161d f3bc b270 dd3d
00000090: 8ce9 f4bc 5e81 093c ed48 1ebd ee23 04be
000000a0: 42ed 103c 24d3 6bbe ab90 8a3e 0efb 8f3e
000000b0: c467 c8bd 49bc 873e a6bc bfbe 0351 cf3d
000000c0: 4238 08be 6e0d 32bf 4783 e1be 68ba 793d
000000d0: 73ed 26bf 9874 5dbe 4ed4 0b3e bc80 023e
000000e0: e382 85bf 959d 9d3e 04fc 243e 6f92 dbbe
000000f0: 2201 5ebb e6d2 d3bd 43e5 e73e c99a 20be
00000100: cfe2 a6be a0e8 6dbe 32ff 8cbe 027c 483e
00000110: 1798 24be d42e a13e 09de 9cbc d1f8 84be
00000120: 9d4c adbd 3525 4e3f a413 a8be 0428 c03d
00000130: 2fe9 63be ee22 9b3d df42 aebe 5bb8 7c3d
00000140: 14cb e93e f410 163e 8f4c 3cbe 95e3 6b3d
00000150: 0913 563f ec79 843d 7878 f2bd f1ba 22bd
00000160: aa58 c2bd a906 c83c 1d70 9c3e 0460 bdbd
00000170: da76 83bd b0b3 15be a14e e63d 777d 6b3e
00000180: cc1d 193e af9a 903e da8e 75be 3553 02be
00000190: 8c48 5d3d c2a7 3e3d 31e5 ec3d fdbf 5f3e
000001a0: 4837 8b3e 73a3 92bc e31e 92bd 042b c73d
000001b0: 0b27 c2be 9ba4 85bc df3b dcbb d405 7abe
000001c0: d117 f4be e438 46bf 05a8 8a3c aa48 03be
000001d0: 95f3 4bbe 0727 85be 1dce 733b 65cf 8fbe
000001e0: 3968 9f3d 8861 3fbe 1a86 82be 97d3 00bc
000001f0: 5b4f de3d 8f0c 4ebd 20c9 5bbe 6064 02bf
00000200: e9fa 9e3e 57ed fe3d c93d a5bc cc35 eb3d
00000210: 89f2 a3bd f6c1 c53e 39e5 95be 5f21 a63d
00000220: 2531 29be c237 043d 0905 f8be 8f87 88bd
00000230: 8eac 71bd ac80 d0bd 3ed8 3e3d f8ac bdbe
00000240: cc80 50be 2e63 e4be 5b92 64be 03c4 323e
00000250: 7104 bcbe 4358 31be be3c 66bd ac2a 233e
00000260: a53f 6f3e ef1e 773d c7af 50bd 7317 a9be
00000270: 70d2 86be ba91 7dbe 7625 f8be fba2 4ebe
00000280: 052e 163e 8041 a53d d6f9 e7be a6be a33e
00000290: ed84 d43d 9946 e73d 4bc5 fe3d 5055 743d
000002a0: 26b9 203e d7b5 563e bf94 b0bc 9e74 a43d
000002b0: c13d b7bc e2bf 43bd ee65 39be c5ab c6bd
000002c0: 28cf 593e 6a32 243e 4795 54be 3013 96be
000002d0: cc76 5ebf 9c7f 953d 1a93 513d 9b8d 773e
000002e0: ddb9 c3be de7c 21bb 0cd8 22be 19af 02be
000002f0: f667 f23c cbda 693e c219 ccbe 8777 bbbd
00000300: 43b3 8ebe 5bf6 723e 3561 df3d a12e 45be
00000310: 1226 c4be d623 0fbe 258e 2fbe a693 02be
00000320: 37bb c03d 830c 1cbb 275b 3abe bf17 c73d
00000330: 25ae e9bd 7342 263d 5048 9c3e f3bb a53d
00000340: ccd0 26be 3a7f 4b3d 8f41 aa3e eae8 25be
00000350: d4d6 7a3e 11f2 20be a922 1dbd ac9b 4a3e
00000360: e4ea 4cbe 005b de3b beee 163e c3d0 8b3e
00000370: e28c 673d 3fdb da3e 9bd8 8fbe b95f 85be
00000380: 3277 833d 9d9f 943e 8f99 16bd 5a3e 58bd
00000390: a89d b83d 54ac fb3e bfbc 19bc e0ca c93d
000003a0: 82ba 40bf e8c3 5cbe f88d 95be cc5f 71bb
000003b0: 19da 283d 775f 66be fc53 ea3e a8ba bebd
000003c0: b1b8 d5be 81e3 963d 58f1 d33b 52af 01bc
000003d0: 3793 33be 72d3 b0bd ff57 ddbe b75d 6fbe
000003e0: fc54 e13e 6393 0abd 1d3d cebe 3c6a 21bd
000003f0: 42ac 2bbf 22b5 62bd 338e adbe 1000 573e
0.13891366 -0.1748557 -0.056184147 -0.073202476 0.08350159 -0.13442005 0.17847294 -0.49768114
0.0622313 -0.03680197 -0.058444727 -0.10351874 -0.14018938 -0.1059823 -0.2679827 0.4303517
-0.08276606 0.0072395364 -0.051833387 0.1082203 -0.14472422 -0.42122403 0.13088991 -0.51024216
0.12517855 -0.11640856 0.039175823 0.022759207 0.098931484 -1.169824 -0.14382112 -0.13179417
0.029515658 0.17395167 -0.029676955 0.108125106 -0.02989652 0.00839266 -0.038643766 -0.12904331
0.008845629 -0.23029763 0.27063498 0.28121227 -0.09785417 0.26510838 -0.37448615 0.10122874
-0.1330271 -0.6955174 -0.4404547 0.060968786 -0.6520607 -0.21626508 0.13655207 0.12744421
-1.0430568 0.30784288 0.16111761 -0.42885157 -0.0033875187 -0.1034296 0.452921 -0.15684046
-0.32594916 -0.2323327 -0.2753845 0.19578555 -0.16073643 0.3148104 -0.019148843 -0.25971082
-0.084618784 0.80525523 -0.32827485 0.093826324 -0.22256921 0.07575022 -0.34035394 0.061699253
0.4566275 0.14654905 -0.1838858 0.057590086 0.83622795 0.06468567 -0.11839384 -0.039729062
-0.094895676 0.024417238 0.30554286 -0.09246829 -0.064191535 -0.14619327 0.11245466 0.2299708
0.14952773 0.28243014 -0.23980275 -0.12727053 0.054024264 0.046546705 0.11567152 0.21850581
0.27190614 -0.017900204 -0.071347974 0.097250015 -0.37920412 -0.016313842 -0.0067210044 -0.24416286
-0.4767442 -0.7743056 0.016925821 -0.12820688 -0.19917138 -0.26006338 0.003720171 -0.28087917
0.07783551 -0.18689549 -0.25492936 -0.007862947 0.108549796 -0.050304946 -0.21463442 -0.5093441
0.31050804 0.12447613 -0.020171063 0.1148487 -0.08005244 0.38624543 -0.29276446 0.08111834
-0.16522653 0.032279737 -0.48441342 -0.06666481 -0.05900245 -0.10180792 0.046592943 -0.37046027
-0.20361632 -0.44606918 -0.22321455 0.17457585 -0.3672214 -0.17318825 -0.056210272 0.15934247
0.23364122 0.060332235 -0.050948884 -0.33025703 -0.26332426 -0.24762622 -0.4846608 -0.2017936
0.14665993 0.08069134 -0.45307797 0.3198139 0.10376916 0.11292762 0.124399744 0.059651673
0.15695629 0.20967804 -0.021555303 0.080300555 -0.022368314 -0.047790416 -0.1810529 -0.09700731
0.2127043 0.16034856 -0.2076007 -0.29311514 -0.8690002 0.0729973 0.051165678 0.24175112
-0.3822774 -0.0024641077 -0.15902728 -0.12762107 0.029590588 0.22837369 -0.39863402 -0.091536574
-0.2787114 0.2372679 0.10907213 -0.19256069 -0.38310295 -0.13978514 -0.17144068 -0.12751636
0.094107084 -0.0023811169 -0.18198834 0.09721326 -0.114101686 0.040590715 0.3052392 0.08092489
-0.16290587 0.04968188 0.33253142 -0.16202131 0.24496013 -0.15717341 -0.038363133 0.19785947
-0.20011479 0.0067857504 0.1473951 0.2730771 0.05653084 0.42745396 -0.28094944 -0.26049593
0.06419219 0.29028025 -0.03676754 -0.052793838 0.090144455 0.49154913 -0.0093833795 0.098531485
-0.7528459 -0.21559107 -0.29209876 -0.003683078 0.04122362 -0.22497354 0.457672 -0.093129456
-0.4174247 0.07367612 0.0064679794 -0.007915335 -0.17536627 -0.0863408 -0.43231198 -0.23375593
0.4401015 -0.033831965 -0.40281 -0.039407954 -0.6705972 -0.055348523 -0.33897552 0.20996118

layers.3.bias f4 [128]
00000000: fe50 bbbe 9b86 0cbf fb60 0fbf 02c6 ccbe
00000010: 3e16 99be 8c4c fdbe 4823 cabe 984d 823c
00000020: bf82 f4be f566 bfbe b3fa 6dbf 30b5 dfbd
00000030: 3907 2fbe c122 46be 1b21 1abe 5d9d 3abf
00000040: cd2a 9abd 188f 4abe 5e2c 29bd 9dc8 e4be
00000050: d1a4 fcbe b718 e6be badc 43bf d64f fdbe
00000060: 9c53 743d ce0a c3be bae2 83be c349 90be
00000070: 14aa b6bd 7bec 61bf 7dd0 a0be 725d f1bd
00000080: 9cee f6bc 97fd f4be 202a d8bc be11 0ebf
00000090: d47c 00bf 3229 213c 366a c2be 24ab 0bbf
000000a0: 64f6 14be 260a 41bc 288b 65bf f89a dbbe
000000b0: 0e50 50be c111 53bf 2e70 36be 90ff 1bbf
000000c0: 22db 00bf 4427 92be 6091 cdbe 7037 36bf
000000d0: 7a47 e0be ac18 19bf a612 1bbf 1db8 5ebe
000000e0: accb 04bf 6576 d5bd 045a dabe bcae d7be
000000f0: 6351 a9be 833d 07bf fcfa 90be 4d67 8abe
00000100: 198b 0bbf 2ff1 23bf 9fd8 4a3e 8ecb 2e3c
00000110: 3248 52be 45e7 98bd e687 95be ac76 e8be
00000120: f0c1 84be 4b92 66bd ff34 1bbe 2b6a 2ebe
00000130: 31c4 92be 7535 19bf 84ec d9be 4904 5dbe
00000140: 1fa7 f3be c948 403d 807b 56be cd22 54be
00000150: e28b 59be 5688 a0be 69ce a5be e282 7dbe
00000160: ea13 27be 8a0f c8be 2c77 b8be 25c7 3bbf
00000170: 7d9a 83be fd96 d4be 326a b0be b24e ccbe
00000180: e9aa 97be 48b0 47bd df6b e4be 1bbb 9bbe
00000190: eaae 2ebf 66d8 38be 8104 89be 3283 efbe
000001a0: 3b59 babe 879e b1be 31f9 7abd 2431 15bf
000001b0: 97c3 d5be 5369 f8bd 7bb9 6abe 5b30 e5be
000001c0: 1bd8 bcbe 6bc2 20be 264e 85be 25c1 e4bc
000001d0: 9fdc 3abe 97ff ffbe 413e bcbe 94b5 0ebf
000001e0: a8a3 8b3d 6481 1fbf 8dd6 62be 8ef0 53be
000001f0: 8e21 cfbe 0959 0cbe b735 82bf 9a80 8ebd
-0.3658523 -0.5489289 -0.56007355 -0.39994818 -0.29899782 -0.49472463 -0.39480042 0.01590614
-0.47756 -0.37383237 -0.9296066 -0.10923231 -0.17092599 -0.19349195 -0.15051691 -0.7289637
-0.07527695 -0.19781148 -0.041302077 -0.44684306 -0.49344495 -0.4494073 -0.76508677 -0.49474972
0.05965005 -0.3809418 -0.25758916 -0.28181276 -0.089191586 -0.88251466 -0.31409064 -0.117854014
-0.030143075 -0.47849724 -0.026387274 -0.5549582 -0.5019047 0.009836482 -0.37971658 -0.54558015
-0.14547116 -0.011782205 -0.8966546 -0.4289167 -0.20343038 -0.82448965 -0.1781623 -0.6093683
-0.5033437 -0.28545582 -0.40149975 -0.7117834 -0.43804532 -0.5980327 -0.6057533 -0.21749921
-0.5187328 -0.104229726 -0.426468 -0.421255 -0.33069906 -0.52828234 -0.28316486 -0.27031937
-0.5450912 -0.6403989 0.19809197 0.010668648 -0.20535353 -0.07465986 -0.29205245 -0.4540304
-0.25929213 -0.05629186 -0.15156935 -0.17032687 -0.28665307 -0.59847194 -0.4256326 -0.21583666
-0.4758844 0.046944413 -0.20945549 -0.207164 -0.21244767 -0.31354016 -0.3238404 -0.24756959
-0.1631619 -0.39074355 -0.3602842 -0.73350745 -0.25703803 -0.41521445 -0.3445602 -0.3990379
-0.29622582 -0.0487521 -0.4461355 -0.30416188 -0.6823565 -0.180513 -0.2676125 -0.46779782
-0.36396202 -0.3469126 -0.061272804 -0.5827811 -0.41750786 -0.12129464 -0.22922318 -0.44763455
-0.36883625 -0.15699165 -0.26036185 -0.02792413 -0.18248223 -0.49999687 -0.36766246 -0.55745816
0.06818324 -0.6230681 -0.22152157 -0.20697233 -0.40455288 -0.13705839 -1.0172642 -0.069581226

layers.6.weight f4 [64, 128]
00000000: 2162 9d3d e876 613e 7439 853e aa9e 903e
00000010: 175a 10be e2df 163e 12bd 05bf d010 13be
00000020: 3624 473e 7928 473e 222a 28be b25a 16be
00000030: 876a a7bd 3789 183e 7e10 4abe 920d 80bd
00000040: f8a1 113d 2ad6 e13d f16f 993e f9d8 41bc
00000050: 9d48 7cbd c0b9 76be 8230 a3be 626a 7bbe
00000060: 0a06 f53b a861 a3bc f8c8 9abb cab0 a7bd
00000070: 5626 0abe 7767 a23e 73f8 1cbc de44 e3bd
00000080: ffde ae3d ca8c 0f3e 3aca 1d3e 55dd ec3c
00000090: fb52 df3d f98a 1fbe 4ab1 b93d 2049 6a3e
000000a0: d4fa 2dbf 55bd 23bd b815 523e 6237 9b3e
000000b0: 5d1e dc3d c1c3 6e3e 18e3 a23d f584 07be
000000c0: d395 1a3a 0230 7abc 6806 903d 4f64 1ebd
000000d0: 3dad b13e 1a90 83be bfbd d5bd 01c2 df3d
000000e0: eafc 743d a59a 0abe 5623 9bbe da22 cbbc
000000f0: ffcb ec3c f552 273e 1268 643b 5dca 2abe
00000100: d786 96ba 269a abbe ed7f 66bd 5c01 6abd
00000110: f11e 9f3e c0b8 49bd 05ce 54bd afcf a0be
00000120: a2f0 0ebe 53f1 c03e 67f2 4ebe a72b 0b3e
00000130: c8d3 273c 0f79 9cbd 744a 713d d29a 3fbe
00000140: ecfc bdbd ad8a 9d3d 7685 6cbe f8bf 81bd
00000150: 4ad5 8d3e 6c84 ba3e 2b5a 25be 1329 5d3e
00000160: f331 8a3e 45e2 babe b3be f5bd 68a8 54bd
00000170: 4567 7e3d 019c d9be 0614 883e 5ce8 633b
00000180: fdcf c5b8 3f84 4abe 5389 02bf 511a 6fbc
00000190: a8b2 33be eb33 b1be 63a0 0ebe 888e 9fbd
000001a0: 9728 2dbe 938c a43a cde4 aa3e 1a81 6a3c
000001b0: 27ec bdbd ecf6 88bd 4be7 02be 37ef 52bc
000001c0: 5f0f 44be 79e6 ba3d 17e2 69be f7b2 81bd
000001d0: 7d74 e33d 2544 5ebe 6416 09be a2ab 8ebe
000001e0: 62ad 853d 011d eabd 5a99 263b 9578 aa3e
000001f0: d8a0 dbbd 6c96 34be f470 8abd 4f31 13be
00000200: 4b72 aebc 643a a3be 5e56 9ebe a7f7 0abc
00000210: b9d4 ec3e 5737 ba3d f153 793d d7d6 e7bb
00000220: 1ee5 363e d35b 05bf dd80 56be 0586 43bf
00000230: 5827 fd3c 2a15 f23d a3de 62bd adc6 ab3e
00000240: c46d 093e d8d5 80be da84 39bd ea1b 623d
00000250: 5f1a 26bd 17a2 acbe 8334 013f 23b9 bcbe
00000260: 4c7e 743d 3bd9 6c3e 65af 9e3d 4143 75bb
00000270: f24a 34be 72c5 bc3d c65d a23e 5dbb 52bf
00000280: 72d4 22bf 39cb 46bc fb24 a73e 5cdb 4ebe
00000290: aa43 f9bd 57f3 12be 147b 8cbf 4597 57bf
000002a0: 12af ff3d a426 4ebe 4c9e d43d a4e3 e03d
000002b0: 19d5 91be e092 b0bd 4d13 4abe 0ea9 3e3e
000002c0: 37e9 bf3e 052b 1b3c d445 173f 0bbb 7dbe
000002d0: 6317 80be aa0b d7be 559d cc3e ab5d 3abe
000002e0: e950 1ebd d7d3 cd3d 1693 d53d cb88 81bd
000002f0: 5f5a 21be b3b2 8abd f6df 21bf 10c6 b2be
00000300: 1322 74bd 4a37 883e 4ea1 8b3e 9e32 97bd
00000310: 85fb 8d3e f0ef 3abf f491 803e 4001 b73e
00000320: 89b3 3bbd fa96 9a3d 240f 483e c892 603b
00000330: 17f7 f2be 4821 af3b 2465 c3bc de49 893e
00000340: ac42 83bd 0a2e 2dbe 8b32 4b3e 9c79 f33d
00000350: 19f5 1d3f f1f7 723e 88ec 293d 63e1 803e
00000360: 0021 d2bd f116 5ebe ef65 8fbc da7a 6c3f
00000370: 05f2 f73e 9f0e 223e 1551 41be d0fc 05bd
00000380: aa8e f23c 2dc5 8cbe 3cd6 4cbd 674a 37bf
00000390: 2416 2a3d a88a ac3e 3832 efbe 42fc 103f
000003a0: 5799 8cbd d3ce 92bf 2ff8 d4bd ac95 74bf
000003b0: e71a 183e f28d 07be d805 e3bd 3ae0 ef3e
000003c0: e811 9e3d 5b65 293e 4f54 fa3d 2fb7 d83d
000003d0: d567 b6be dab1 443f 2595 ad3e 4bc3 603e
000003e0: 9f6f b53c 23f1 703c 9f1e 53be bb3f a73e
000003f0: cd6a df3d a931 fabd df37 29bf 9ca7 75bf
0.07684732 0.22018015 0.26020396 0.2824605 -0.14096867 0.14733842 -0.52241623 -0.14361882
0.19447407 0.19449033 -0.16422322 -0.14683035 -0.08174615 0.14896093 -0.19732854 -0.06252588
0.035554856 0.11027177 0.29968217 -0.0118315155 -0.061592687 -0.24094296 -0.31872946 -0.245523
0.0074775266 -0.019944027 -0.0047236644 -0.08188017 -0.13491186 0.31719562 -0.009580719 -0.1109712
0.08538627 0.1401855 0.15409175 0.028914133 0.10904499 -0.15580358 0.09067018 0.22879457
-0.6796086 -0.039975483 0.20516098 0.3031569 0.10747979 0.23316862 0.07953471 -0.13234313
0.00058969593 -0.015270235 0.07032472 -0.03866988 0.34702483 -0.25695878 -0.10436582 0.10925675
0.05981151 -0.13535555 -0.30300397 -0.024796892 0.028905867 0.1634024 0.003485207 -0.16678758
-0.0011484277 -0.33516043 -0.056274343 -0.057130203 0.31078294 -0.049248457 -0.051954288 -0.3140845
-0.13958982 0.37684116 -0.20209657 0.13590871 0.010243364 -0.076402776 0.058908895 -0.18711403
-0.09276757 0.07692466 -0.23097786 -0.06335443 0.2770179 0.36429155 -0.16147678 0.215977
0.26991233 -0.36500755 -0.119992636 -0.051918417 0.062110204 -0.42501834 0.26577777 0.0034775948
-9.432433e-05 -0.1977701 -0.5099079 -0.014593677 -0.1754862 -0.34609923 -0.1392837 -0.077908576
-0.16910015 0.0012554101 0.33377686 0.014313007 -0.09273558 -0.066877216 -0.12783544 -0.012874416
-0.19146489 0.091259904 -0.22840153 -0.06332963 0.11106203 -0.21705683 -0.13387448 -0.2786532
0.06527211 -0.11431313 0.0025420994 0.33295122 -0.10724038 -0.17635506 -0.06759825 -0.14374278
-0.021294734 -0.31880486 -0.30925268 -0.0084818965 0.46256045 0.090925865 0.06087107 -0.0070751715
0.17860839 -0.5209324 -0.20947595 -0.7637637 0.03090255 0.11820443 -0.055388104 0.33550015
0.13420779 -0.2516315 -0.045292713 0.055202402 -0.040552493 -0.33717415 0.5047075 -0.36859998
0.05969076 0.23129742 0.077482976 -0.003742412 -0.17606714 0.09217347 0.31712168 -0.82317144
-0.63605416 -0.012133413 0.326454 -0.20200866 -0.12171109 -0.1435064 -1.097506 -0.84215194
0.12484564 -0.20131928 0.10381755 0.10980919 -0.28482893 -0.08621764 -0.19733925 0.18619177
0.37482616 0.009470706 0.59090924 -0.24778382 -0.25017843 -0.42001086 0.39963785 -0.18199794
-0.03865138 0.10050171 0.10428445 -0.06324919 -0.1575713 -0.067723654 -0.6323236 -0.34916735
-0.05960281 0.26604682 0.27271503 -0.07382701 0.27730957 -0.73022366 0.25111353 0.3574314
-0.045825515 0.07548328 0.19537026 0.0034267176 -0.4745414 0.0053445436 -0.023851939 0.2681417
-0.06409201 -0.16912094 0.198435 0.118884295 0.61702114 0.23727395 0.04148534 0.25171956
-0.102602005 -0.21688439 -0.01750466 0.92374957 0.48426834 0.1582589 -0.18878587 -0.032711804
0.029609043 -0.27494183 -0.050008997 -0.71597904 0.04152502 0.33699536 -0.46718 0.56634915
-0.06865185 -1.1469368 -0.103989 -0.9554088 0.14854012 -0.13237742 -0.11085099 0.4685076
0.07718259 0.1654257 0.12223112 0.105818145 -0.35626093 0.7683388 0.3390285 0.21949498
0.022147952 0.014705929 -0.2061715 0.3266581 0.109090425 -0.12216503 -0.6610088 -0.95958877

layers.6.bias f4 [64]
00000000: 2132 7e3e 8657 bfbe 0942 42be c30a 9bbe
00000010: 9fd1 d4be 7b22 a5be a4dd 8abd 924a b8bd
00000020: 62ff 02bf f3fc 75bf 38fc 50bf f326 dfbe
00000030: 246d c3be 175f 90bf be2d 04bd 1778 27be
00000040: 59ed a4bd a9a0 61be 32e0 b7be dcac 64bf
00000050: 7f8d 8ebe b8ac 7d3e 1574 35be 667b 05bf
00000060: 3e3c fbbe ebfa 99be 87c6 5fbe bc1c 0dbf
00000070: a7bb 01bf 6a2c 4bbd 2c0d efbe dfcd fc3c
00000080: df06 81bf 7849 ecbe f969 36bd ab2d fabd
00000090: 924b bdbc 5e0a 3c3e 7a83 7abe 1b32 11bf
000000a0: 9fcf a3be c24f a4bf f884 75be e78b 53bf
000000b0: dcce dabe 75a7 59be 0d9d 25bf fc85 30be
000000c0: b068 47be 441d acbe d70d f0bd 3e32 b4bd
000000d0: 286a a03d 067c 84be 4402 5cbe c4e9 00bf
000000e0: 2d6c 31bf f9ca b7be 2887 08bf efbe 04bf
000000f0: 6154 4dbe d364 73bf 0bb2 39be 53d3 75be
0.2482381 -0.37371463 -0.18970503 -0.30281648 -0.41566178 -0.3225287 -0.06780556 -0.08998598
-0.51170933 -0.96089095 -0.81634855 -0.43584403 -0.38169205 -1.1279019 -0.032270186 -0.16354404
-0.08053083 -0.22033943 -0.35913235 -0.8932626 -0.27842328 0.24772918 -0.17720063 -0.52141416
-0.490694 -0.30074248 -0.21853076 -0.5512197 -0.5067696 -0.049602903 -0.46689737 0.030859886
-1.0080222 -0.46149802 -0.044534657 -0.12215742 -0.023107324 0.1836333 -0.24464217 -0.5671708
-0.3199434 -1.283684 -0.23976505 -0.8263535 -0.42735946 -0.21255286 -0.64692765 -0.17238611
-0.19473529 -0.33616078 -0.1172139 -0.087986454 0.07832748 -0.25875872 -0.2148524 -0.503567
-0.6930569 -0.35897043 -0.5333123 -0.5185384 -0.20051719 -0.9507572 -0.18134324 -0.24006395

layers.9.weight f4 [32, 64]
00000000: 44d4 0fbc 9e49 8fbd f7d5 583d 23e8 e8bb
00000010: dee7 003d 808e fbbb 8248 59bd af81 4fbb
00000020: 0772 c0bc 3a6b 82bc 7579 09be a4db 1d3d
00000030: b10c 3fbd 0abd 0abd 6271 96bd 254e 9c3c
00000040: 6c06 14bc dbda 81bb 195d 3dbc 059d 0ebd
00000050: daec d4bd 4bd6 89bc 55f9 f93d d9aa fcbd
00000060: 5801 0a3d 9ca2 aa3d 649f a6bc 4a6b 803d
00000070: 754a d83c 837c 9bbc 6cec 7b3c 01cf 5e39
00000080: d1f7 393d a423 be3d 8030 96bc db89 c4bd
00000090: 6c82 043c d829 8d3d fbf5 d9bc c780 f6bc
000000a0: cf50 0bba 3952 9abc 334d 423d 14e3 25bd
000000b0: 7f90 c83d 8248 223d 0596 773c b142 cc3d
000000c0: a75e 35bc b6a8 b4bc 6ace ba3c 16fb e93d
000000d0: 71cb 3fbc 9198 d2bc e737 ec3d 7242 01bd
000000e0: f740 7abc ab0b edb8 d6c2 40bc 0c7a c9bd
000000f0: f891 39bd 0ccf 9ebc edb2 1ebd 5838 cb3c
00000100: b378 e3bb 6815 27bd 4129 9d3d e1a9 b5bc
00000110: 5e8d 203c f627 c1bc 7e84 02bd 00db 803b
00000120: 87b8 ffbc 7d33 08bd ed86 4c3c 9bac aa3d
00000130: 90cb 23bd d8bd 11bd 62c8 32bd 26b2 b23c
00000140: 8cbc 96bc a877 8a3d df51 cabc eac4 7dbd
00000150: 925b ee3c 8597 2ebb 75ba 893d 3c3b bcbd
00000160: 20c6 c33d f814 0bba 2650 c8bc 3f3b 103b
00000170: 2f86 453b f0d9 31bc af1b b8bb b938 babb
00000180: 6e7a fc3c 1e5f 993d ca3c 91bc 7264 1dbd
00000190: 7148 55bc e0bc de3d 406b 6d3c a8fb aabc
000001a0: 15a0 ebbb 77b4 79bc 3804 eb39 9d9f 0fbd
000001b0: d0bc 503d c8cd 563d 5e5d d63c d49a 393d
000001c0: 4a13 abbc 79e1 583c 361f d33c 9d46 c43d
000001d0: ce86 d1b9 6e85 44bc 933c 763d c630 82bc
000001e0: ab30 94bc 76c1 a2bc f997 91bc 60e4 3b3d
000001f0: 339d 17bd b501 2ebd b2ed c9bd 3b49 9f3b
00000200: 1d13 51be 1fcd b7be f2b8 c6bd 2899 6abe
00000210: 27c7 983e afda d8be 81cc 8cbe cccd afbe
00000220: 0dc6 bebe ec24 b5be dc09 4d3e d136 60bc
00000230: f561 bfbd b7dd dabe ed39 36be 345d d73d
00000240: 3e1b 8ebe a8cc 4f3e c767 75be 4d72 cfbe
00000250: c813 423e a68b 83be b637 5dbd ddd5 4cbe
00000260: 4976 093e 5f62 28bd 25ad 3cbe 70d8 b43d
00000270: 8e4b b5be 9027 57be 2bda 5abe 883d 52be
00000280: 627c fe3e 4176 47bc 7065 8ebe 5324 8d3e
00000290: bf2b 9dbe 406c 73bd fc62 893e fadf 35be
000002a0: 640b 24be 252a 1abf e7c0 0a3e eaad aebe
000002b0: 2508 903d 38e8 5abd 930f 693e 38da 20bd
000002c0: f875 a6be da2c 483e fab9 72ba 0065 15bc
000002d0: 212b 80be 3cd8 5e3e 2929 4f3b f109 63be
000002e0: d048 92be b147 8fbe f551 adbe 5728 b43e
000002f0: 2e77 3fbe ecd4 aebe 2c42 073e 0916 083e
00000300: 5367 343d 8778 2f3e 4dce 8fbd 18aa 8c3d
00000310: dce7 a2bd 4a88 b73c f9d7 a03d aad1 2a3d
00000320: b0da ca3d add5 40ba c12c 663d 9d40 d4bd
00000330: a69d 863d 3489 9d3d a339 9a3d ae6c 873e
00000340: 1a4e 413d c6ee 523e b710 a83d fd52 ea3d
00000350: 3f18 043e e060 663c 76af 56be 2fc7 a33d
00000360: 1cae 93bd 40fc d23a 7b59 a1bb 3bfb 6a3d
00000370: 7c50 12bd 774b 423d e338 e0bc 5ef6 ea3b
00000380: bfa8 85bd c738 cc3d 28f5 f4bc 9804 b63d
00000390: 944c 0f3d 8141 12bf 7697 113d 73f4 3bbb
000003a0: d04a aeb9 58b9 943c 2290 483e f83d b03d
000003b0: 4dbf 59bd 3805 c0be 4205 b23d 0843 cdbb
000003c0: dfb5 053d 2ea3 b33c 4e94 6bbe 066c 3cbe
000003d0: 7d28 873c 62e7 4f3d a676 243e ee20 4dbb
000003e0: 7ea2 ff3c 4d26 f3bb 9356 fb3c 7b4b 043f
000003f0: 6be0 a23d db95 723d 248d 3f3e 0acf 3f3d
-0.008778635 -0.06996463 0.052938428 -0.007107751 0.031471126 -0.0076768994 -0.053047664 -0.003166299
-0.023491872 -0.01592027 -0.13425238 0.038539544 -0.046642963 -0.033871688 -0.07345845 0.019080231
-0.009034734 -0.003962857 -0.011557841 -0.034817714 -0.10396738 -0.016825816 0.122057594 -0.12337274
0.033692688 0.083317965 -0.020339675 0.06270464 0.026402691 -0.01898027 0.015376192 0.00021248685
0.04540235 0.09284142 -0.018333673 -0.09596606 0.008087736 0.06892747 -0.02660655 -0.030090703
-0.00053144706 -0.018838035 0.047436904 -0.04049976 0.097931854 0.03961993 0.015111451 0.09973658
-0.01106993 -0.022053104 0.022803504 0.11424844 -0.011706219 -0.025707515 0.115341 -0.031557508
-0.015274278 -0.00011303214 -0.0117652025 -0.09837732 -0.045305222 -0.019385837 -0.038744856 0.02480714
-0.0069418787 -0.0407919 0.07673884 -0.022175731 0.00979933 -0.023578625 -0.031864636 0.003932357
-0.03121592 -0.033252228 0.012483341 0.08333703 -0.039989054 -0.03558144 -0.04364813 0.021813463
-0.018400453 0.06761104 -0.024697242 -0.06195537 0.029096399 -0.0026640606 0.06725017 -0.091909856
0.09559274 -0.0005305554 -0.02445228 0.002200797 0.0030139794 -0.010855183 -0.0056185345 -0.0056830314
0.030820098 0.07488845 -0.017729182 -0.03842587 -0.01301776 0.10875869 0.014490902 -0.020871952
-0.007190714 -0.01524078 0.00044825836 -0.03506433 0.050961316 0.052442342 0.026167568 0.04531367
-0.020883221 0.013237351 0.025771718 0.09583781 -0.00039964024 -0.011994703 0.06011636 -0.015892398
-0.018089613 -0.01986764 -0.017772662 0.045872092 -0.03701515 -0.042482097 -0.0985979 0.0048610247
-0.20417447 -0.35898682 -0.09703244 -0.22909987 0.2983944 -0.42354342 -0.27499774 -0.34336698
-0.37260476 -0.35379732 0.20023292 -0.013684944 -0.09344856 -0.4274728 -0.17795534 0.10515824
-0.2775516 0.20292914 -0.23965369 -0.40516892 0.18952858 -0.2569248 -0.05400821 -0.20003457
0.13424028 -0.04110944 -0.18425424 0.08830345 -0.35409206 -0.21011186 -0.21372287 -0.20531285
0.49704272 -0.01217419 -0.27811766 0.27566776 -0.30697438 -0.059429407 0.26833332 -0.17761222
-0.1601997 -0.6022056 0.13550149 -0.3411706 0.070328034 -0.053444117 0.22759847 -0.03927061
-0.32511878 0.1954836 -0.000925928 -0.009118319 -0.25032905 0.21762174 0.0031610227 -0.22171761
-0.28571177 -0.27984384 -0.3385159 0.35187027 -0.18697807 -0.34146821 0.13208836 0.13289656
0.04404385 0.17135821 -0.070217706 0.0686838 -0.0795438 0.022403855 0.078536935 0.041703857
0.099049926 -0.0007356059 0.056195024 -0.103638865 0.06573038 0.07692185 0.075305246 0.26450104
0.047193624 0.20598897 0.08206313 0.1144161 0.12899874 0.014061183 -0.2096537 0.07996976
-0.07210943 0.0016096905 -0.004923997 0.0573685 -0.035721287 0.04743525 -0.027370876 0.0071704825
-0.065263264 0.09971767 -0.029902056 0.08887595 0.03498514 -0.571312 0.035544835 -0.0028679639
-0.00033243606 0.018154785 0.19586232 0.086055696 -0.053160954 -0.37503982 0.08692409 -0.0062640943
0.03264415 0.021928396 -0.23005792 -0.18400583 0.016498799 0.050757773 0.16060886 -0.0031300145
0.031205412 -0.0074203373 0.03068093 0.51677674 0.079529606 0.059224945 0.18706185 0.046828307

layers.9.bias f4 [32]
00000000: 5d3e 8e3e 8013 9c3e 5cda 423f 3d17 a33d
00000010: 1648 9dbf 4538 953b 7efa 5b3f 0c0d 8e3e
00000020: 8d9e 663d 6acf 553f af47 74bf fd7e 3cbe
00000030: 1e77 46bd 3289 473f bb00 01be 1322 903e
00000040: 28c6 0a3f de6a d33e 38b1 283f 830a 85bf
00000050: a31f 503f 01f9 2f3f 9add dabb 947f 1ebe
00000060: e293 423f 1977 353f 10b2 57bf 14f0 f53e
00000070: 0924 3a3f 425c d4bd 6e9b eb3e 7fea 583e
0.27781954 0.30483627 0.7611444 0.07963417 -1.2287624 0.004553827 0.85929096 0.2774433
0.05630355 0.83519614 -0.9542188 -0.18407817 -0.048453443 0.7794372 -0.12597935 0.28150997
0.5420861 0.4129247 0.65895414 -1.0393833 0.81298274 0.68739325 -0.006679249 -0.15478355
0.760069 0.70884854 -0.84256077 0.48034728 0.72711235 -0.10369159 0.4601702 0.21183203

layers.12.weight f4 [1, 32]
00000000: 19e4 0a3e 196f 0f3e 22e7 643d 541c efbb
00000010: b1c6 afbe 91cc 46be 9a52 6e3d f6cf 1e3e
00000020: 42ae 06be 827b 663d c8a5 d3be 45c3 29bc
00000030: fead 0ebc 7050 713d 20e0 29bc 319d 173e
00000040: 4f93 9b3d c060 d53d b34d 853d 6f90 babe
00000050: 129e 613d 3b40 713d f43a 62be bcd3 88be
00000060: 8aa8 6a3d 422d 823d cde0 93be 6bb2 943d
00000070: 8ba4 803d 9079 ee3d 6da6 b13d f29b 853d
0.13563575 0.14007224 0.055884488 -0.007297078 -0.34331277 -0.19413973 0.058184244 0.15509018
-0.13152412 0.05627013 -0.4133742 -0.010361497 -0.008708475 0.0589146 -0.010368377 0.14806058
0.07596456 0.10418844 0.065089606 -0.3643832 0.05508239 0.058899146 -0.22092801 -0.2672404
0.057289638 0.063562885 -0.28882447 0.07260593 0.06281384 0.1164428 0.08674321 0.06523885
