models/nn/checkpoints/exp_1/epoch_001.pth (torch, 565578 bytes, 59 tensors)

0.weight f4 [256, 1]
0.13629045 0.6424107 0.48505613 -0.15186955 -0.40871474 -0.84389 -0.8439638 0.36884278
-0.8510533 -0.3575343 0.42043805 -0.22997557 -0.53071487 -0.6882212 -0.876975 0.053387213
0.18455303 -0.4948378 -0.52623165 0.94946694 -0.70365983 0.49300155 -0.013469318 0.016763376
0.0933512 -0.43074936 -0.57667965 -0.16111745 -0.6095595 0.13103338 0.2570927 -0.6772501
-0.7992594 -0.5348454 0.94615364 -0.059860554 0.4106635 0.9287964 -0.46709016 0.9883826
0.8842895 0.951511 0.84125215 -0.9807003 0.845067 -0.79981315 -0.11665231 -0.61072606
-0.56434876 0.35681716 -0.0133361425 0.8084128 -0.57409626 0.56429577 -0.99302757 0.93852115
0.8254194 -0.15341578 -0.2389122 0.23272951 0.3193369 0.20826146 -0.07069205 0.870319
0.060481887 0.18181749 -0.8749782 -0.94386065 0.32831094 -0.24944678 0.7365745 0.14645992
-0.17361 0.42300284 0.6367962 -0.40456817 -0.694361 0.8852802 -0.8015241 -0.1116448
0.69276226 -0.9398506 0.47887665 -0.0648633 0.7365434 -0.10637574 0.6109473 -0.6352398
-0.7642631 0.021044284 -0.504136 0.5176191 -0.78893846 -0.5659452 -0.505335 -0.62334085
-0.059864532 -0.3131919 -0.18031311 0.43887353 0.01072156 0.5315751 0.123834245 0.39765853
-0.34148777 0.6420747 -0.64751333 -0.38664263 0.6840941 -0.45480105 -0.0072490405 -0.9739598
0.31727934 -0.99630636 0.77859575 -0.363771 -0.7693473 0.565779 0.64699787 0.35671452
-0.014730854 -0.01235227 0.6635427 0.8091988 -0.7023987 -0.6491326 -0.8874038 -0.6882575
0.37340522 -0.6779623 0.883235 -0.21175224 0.6557762 -0.7266335 0.58563864 0.32339308
0.21878472 -0.4327731 0.32859245 -0.13397862 0.053814784 -0.28495514 -0.855159 -0.84422755
0.09487173 0.056442548 0.9532437 0.2115616 -0.027112035 -0.14482722 -0.5009452 0.42347464
-0.12690176 0.37618995 -0.4394827 -0.5190676 0.7091129 -0.5046472 0.032706577 0.53367025
-0.24017355 -0.60326403 -0.44463944 0.39192718 0.549161 0.60669976 0.020166697 0.74946207
0.06275295 0.6064694 -0.33052933 0.890899 -0.7226714 -0.5742757 -0.031192493 0.78205556
-0.9732434 0.50470376 0.53579086 -0.39222726 0.714258 0.36030602 -0.5455416 -0.6932353
-0.18495364 -0.99137515 0.45378572 -0.06243407 0.42730552 0.84196407 0.27655768 -0.6825473
0.5809979 0.39132342 0.5462674 0.13452835 0.5615874 0.97369456 -0.5077385 -0.34599218
0.08285134 -0.5116679 -0.28719306 0.76384103 -0.66685784 0.27450377 0.42738566 0.83713037
-0.6170645 0.2672777 0.02755781 -0.20713295 -0.72945035 -0.25685543 0.5015967 0.6422597
0.48783922 -0.09862076 0.52597547 -0.36992246 0.7369572 0.78424305 0.4687061 -0.7678463
-0.4247267 0.36607888 0.24891552 0.25511673 -0.22878447 -0.29500562 0.2579463 0.62832344
-0.12690033 0.013125215 -0.21982148 0.8757627 0.36030453 -0.7061198 -0.20644072 -0.35809082
-0.45432007 0.3201116 0.26911747 -0.0049620434 0.9549978 0.3822093 0.43963516 -0.5198108
0.19678198 -0.30117026 0.992052 0.30896923 -0.055741295 -0.87040144 -0.7350699 0.74512565
00000000: b98f 0b3e 0775 243f 4759 f83e b183 1bbe
00000010: 0f43 d1be 2d09 58bf 030e 58bf f6d8 bc3e
00000020: a1de 59bf bc0e b7be a843 d73e b77e 6bbe
00000030: eedc 07bf 442f 30bf 6f81 60bf 8dac 5a3d
00000040: 78fb 3c3e 615b fdbe 1eb7 06bf 4410 733f
00000050: 0d23 34bf b36a fc3e 6aae 5cbc 5953 893c
00000060: ea2e bf3d 2e8b dcbe 47a1 13bf f9fb 24be
00000070: 170c 1cbf 9d2d 063e a8a1 833e 4360 2dbf
00000080: 449c 4cbf a1eb 08bf 2037 723f 5730 75bd
00000090: 7c42 d23e 9ac5 6d3f 7126 efbe a406 7d3f
000000a0: cc60 623f 3a96 733f 4d5c 573f 2d0f 7bbf
000000b0: 5056 583f 8ec0 4cbf 68e7 eebd 8b58 1cbf
000000c0: 2979 10bf bdb0 b63e d67f 5abc 24f4 4e3f
000000d0: f9f7 12bf b075 103f 0e37 7ebf ec42 703f
000000e0: b04e 533f 0719 1dbe 66a5 74be a550 6e3e
000000f0: 2080 a33e 7e42 553e fec6 90bd 3acd 5e3f
00000100: dbbb 773d 5d2e 3a3e 92fe 5fbf daa0 71bf
00000110: 5f18 a83e fa6e 7fbe 2590 3c3f 97f9 153e
00000120: d2c6 31be d493 d83e 1305 233f 8f23 cfbe
00000130: a4c1 31bf b9a1 623f af30 4dbf 07a6 e4bd
00000140: de58 313f 0d9a 70bf 522f f53e 0dd7 84bd
00000150: 1c8e 3c3f 86db d9bd 0b67 1c3f 139f 22bf
00000160: bfa6 43bf 1065 ac3c 0f0f 01bf af82 043f
00000170: dff7 49bf c9e1 10bf a25d 01bf 4493 1fbf
00000180: 8334 75bd b05a a0be 00a4 38be 08b4 e03e
00000190: 7ba9 2f3c 4e15 083f cf9c fd3d e699 cb3e
000001a0: 7cd7 aebe 025f 243f 6fc3 25bf 06f6 c5be
000001b0: ca20 2f3f afdb e8be 5c89 edbb 6e55 79bf
000001c0: 7072 a23e ef0d 7fbf 0d52 473f 3140 babe
000001d0: f2f3 44bf e4d6 103f a7a1 253f 49a3 b63e
000001e0: ae59 71bc 2d61 4abc efdd 293f a727 4f3f
000001f0: 67d0 33bf 8e2d 26bf e52c 63bf a531 30bf
00000200: f82e bf3e f08e 2dbf b01b 623f 94d5 58be
00000210: f3e0 273f a704 3abf 6aec 153f c793 a53e
00000220: 1a09 603e 7094 ddbe 453d a83e b131 09be
00000230: e46c 5c3d a4e5 91be b3eb 5abf 4c1f 58bf
00000240: 1c4c c23d 4d30 673d c707 743f 9ba3 583e
00000250: 0f1a debc 964d 14be f23d 00bf abd1 d83e
00000260: 89f2 01be f89b c03e e003 e1be 9de1 04bf
00000270: 6c88 353f 8f30 01bf 55f7 053d 9d9e 083f
00000280: 0ef0 75be 836f 1abf c8a7 e3be aeaa c83e
00000290: d195 0c3f ad50 1b3f a134 a53c bfdc 3f3f
000002a0: 9e84 803d 9441 1b3f 243b a9be f511 643f
000002b0: fe00 39bf bb03 13bf 6687 ffbc cb34 483f
000002c0: 7b26 79bf 4434 013f 9729 093f 03d2 c8be
000002d0: 9dd9 363f 087a b83e 9da8 0bbf de77 31bf
000002e0: 7d64 3dbe c3ca 7dbf 9a56 e83e deba 7fbd
000002f0: cac7 da3e f58a 573f f898 8d3e 6bbb 2ebf
00000300: 47bc 143f 8b5b c83e 2ed8 0b3f cdc1 093e
00000310: 31c4 0f3f 0c44 793f 26fb 01bf e325 b1be
00000320: f7ad a93d abfc 02bf f80a 93be 168b 433f
00000330: 32b7 2abf c28b 8c3e 4bd2 da3e 2d4e 563f
00000340: f0f7 1dbf 9fd8 883e ebc0 e13c a91a 54be
00000350: 42bd 3abf 8e82 83be a468 003f 226b 243f
00000360: 10c6 f93e aef9 c9bd 54a6 063f 7a66 bdbe
00000370: 3aa9 3c3f 27c4 483f 3ffa ef3e 9391 44bf
00000380: c775 d9be b16e bb3e b6e3 7e3e a99e 823e
00000390: 7a46 6abe fa0a 97be 8a11 843e ced9 203f
000003a0: 29f2 01be 240b 573c e218 61be fc31 603f
000003b0: d679 b83e 44c4 34bf 3265 53be ae57 b7be
000003c0: a49c e8be abe5 a33e c4c9 893e a398 a2bb
000003d0: bc7a 743f f0b0 c33e dc17 e13e 5212 05bf
000003e0: 3781 493e fd32 9abe 1ff7 7d3f 3731 9e3e
000003f0: fc50 64bd a1d2 5ebf 8a2d 3cbf 8ec0 3e3f

0.bias f4 [256]
0.6129425 -0.0566321 0.74108124 0.89283276 -0.2157352 -0.8550849 -0.5602331 0.7903335
0.84796935 0.042061385 -0.79018074 -0.1852802 -0.13876903 -0.6116134 0.25140354 0.35783103
-0.8022669 0.9385907 0.0031752372 -0.8442004 -0.7903514 0.74578375 0.09087016 0.4931897
0.1359206 -0.98828435 -0.8182724 -0.8271413 -0.33086622 -0.8656931 -0.22195223 0.8008384
-0.28762266 0.14606062 0.93138814 0.78016335 0.34935123 0.07450335 0.1436468 -0.25571454
-0.9508069 -0.88759094 -0.83332866 0.9252519 -0.8981665 0.44970584 0.9902002 0.6921089
-0.33242825 0.78885037 -0.1251375 0.8259082 -0.00819607 0.8523123 -0.14392146 0.17688085
0.6234147 -0.3408412 -0.46796128 -0.4547533 -0.5969453 0.027897947 -0.4215078 0.46738046
0.5093708 -0.17575175 0.550308 -0.6739782 0.32351565 0.29024407 0.7251226 0.37801045
-0.36625272 0.14499784 0.10511059 0.13873278 -0.2760444 0.45746413 0.19777486 0.09007803
0.99470264 0.36164653 -0.98560286 0.46031487 0.4949748 0.55170494 0.38972008 -0.71968544
-0.87030274 -0.12283662 0.89524615 0.98528963 -0.7169138 -0.99029964 0.65880024 0.8949824
-0.08339493 0.501201 0.93566555 0.16860175 0.7609228 -0.40360773 0.2164556 -0.59790224
-0.89518046 -0.32122183 0.58588207 -0.04379508 0.9085793 -0.66334665 0.04201701 0.26855695
-0.38836664 0.66299266 0.33158597 -0.038776264 0.65624803 -0.69422996 -0.06151287 -0.16548999
0.34252867 -0.8134157 0.20214467 0.2908972 -0.9351037 -0.7584668 0.4370058 0.31609818
0.713081 0.5573002 -0.9726865 -0.29374287 -0.24495873 0.022034649 0.5541912 0.50316805
-0.23742706 -0.1766778 -0.4585638 0.54767334 0.7969221 -0.027065009 0.100607716 -0.0928457
-0.57648724 0.49445492 0.25945655 0.9609565 0.9646849 0.37523466 -0.0027201592 0.013614419
-0.66080236 0.17139633 0.58478665 0.25305256 -0.7823436 -0.6773938 0.005254579 -0.37597468
0.09260907 -0.033151004 -0.6178691 -0.00828965 0.9795533 -0.8975659 -0.93773603 -0.23584403
-0.591062 0.6111143 0.29465985 -0.25675514 0.31758443 -0.32056192 -0.9817473 -0.13584396
-0.45788813 0.41460988 -0.7077453 0.26900622 0.2665967 0.1686838 0.98663414 -0.47268176
0.4106721 0.65986997 0.04627069 -0.5289369 -0.29937062 0.21935336 0.9764807 0.12670958
0.94710857 -0.56661457 -0.509374 0.4700773 -0.7790139 0.88417816 -0.50276494 -0.14820825
-0.95415634 -0.6654971 0.7970627 -0.37867624 0.18487363 0.89676 -0.5633139 0.6994061
-0.45211142 0.6840212 0.9425755 0.79512036 -0.28060266 -0.0067688525 0.8403804 -0.07942494
0.21214199 -0.060679793 0.22153564 -0.057205986 -0.7926144 0.30845544 -0.07017831 -0.07256051
0.22168371 0.7399358 -0.41616073 0.44811034 -0.16779973 0.09875057 -0.3416726 -0.04339292
0.91099197 -0.2733358 -0.6472736 0.8803555 0.04514022 0.410306 -0.36778268 -0.23688552
0.25095788 -0.11830201 -0.5219999 0.88947093 0.85685 0.9553864 -0.93357146 -0.7468351
0.1405555 0.40341243 0.7398855 -0.5511385 -0.40386736 -0.2484548 -0.2394744 0.8949888
00000000: cde9 1c3f 10f7 67bd 80b7 3d3f b090 643f
00000010: b0e9 5cbe d8e6 5abf 706b 0fbf 4c53 4a3f
00000020: 8514 593f 8f48 2c3d 4949 4abf 18ba 3dbe
00000030: 7819 0ebe b292 1cbf f7b7 803e a135 b73e
00000040: 5d61 4dbf 7b47 703f a417 503b 841d 58bf
00000050: 7854 4abf afeb 3e3f 221a ba3d 5c83 fc3e
00000060: c52e 0b3e 3400 7dbf 4d7a 51bf 88bf 53bf
00000070: 4c67 a9be 109e 5dbf 7247 63be bf03 4d3f
00000080: 4743 93be ea90 153e 746f 6e3f c9b8 473f
00000090: 2ade b23e 3695 983d 2618 133e 04ed 82be
000000a0: 1568 73bf 2939 63bf 0755 55bf 4fdd 6c3f
000000b0: 3dee 65bf d83f e63e c37d 7d3f 0d2e 313f
000000c0: 0934 aabe 19f2 493f 0b24 00be b86e 533f
000000d0: cf48 06bc 2431 5a3f 2660 13be 4120 353e
000000e0: 1b98 1f3f bd82 aebe 9f98 efbe 6dd5 e8be
000000f0: 68d1 18bf 3c8a e43c dfcf d7be 7e4c ef3e
00000100: 2066 023f 44f8 33be fce0 0c3f d689 2cbf
00000110: d8a3 a53e df9a 943e a2a1 393f 968a c13e
00000120: 7a85 bbbe 507a 143e 3944 d73d f70f 0e3e
00000130: b155 8dbe bd38 ea3e 7e85 4a3e d57a b83d
00000140: d5a4 7e3f bc29 b93e 7850 7cbf 64ae eb3e
00000150: 566d fd3e 893c 0d3f 6489 c73e 4e3d 38bf
00000160: 29cc 5ebf c491 fbbd da2e 653f f13b 7c3f
00000170: aa87 37bf 4784 7dbf 22a7 283f 911d 653f
00000180: f6ca aabd b54e 003f c787 6f3f f0a5 2c3e
00000190: d6cb 423f aca5 cebe 89a6 5d3e 1f10 19bf
000001a0: 8c2a 65bf 3077 a4be 5efc 153f 7862 33bd
000001b0: a798 683f 16d1 29bf 071a 2c3d 4c80 893e
000001c0: fed7 c6be e3b9 293f a3c5 a93e dcd3 1ebd
000001d0: dfff 273f 0eb9 31bf ebf4 7bbd 3576 29be
000001e0: eb5f af3e 033c 50bf 03ff 4e3e 7af0 943e
000001f0: f562 6fbf e12a 42bf 39bf df3e 9fd7 a13e
00000200: 7a8c 363f 3aab 0e3f fc01 79bf 7765 96be
00000210: 76d6 7abe 0282 b43c 79df 0d3f 9fcf 003f
00000220: 1420 73be 06eb 34be e0c8 eabe 5234 0c3f
00000230: 1603 4c3f 70b7 ddbc 6b0b ce3d e325 bebd
00000240: ab94 13bf 3229 fd3e 7dd7 843e 3f01 763f
00000250: 97f5 763f c21e c03e b344 32bb 030f 5f3c
00000260: 582a 29bf 8582 2f3e 94b4 153f 1b90 813e
00000270: ac47 48bf ae69 2dbf 9a2e ac3b c17f c0be
00000280: d3a9 bd3d 59c9 07bd ab2c 1ebf 50d1 07bc
00000290: 01c4 7a3f e1c6 65bf 780f 70bf 1981 71be
000002a0: d74f 17bf fd71 1c3f a8dd 963e 6975 83be
000002b0: 6d9a a23e b120 a4be cb53 7bbf ae1a 0bbe
000002c0: 5070 eabe bf47 d43e cc2e 35bf 2fbb 893e
000002d0: 5d7f 883e 72bb 2c3e 0e94 7c3f 5803 f2be
000002e0: 9d43 d23e 3ded 283f 5686 3d3d 6968 07bf
000002f0: 1b47 99be 2b9e 603e a4fa 793f 28c0 013e
00000300: b575 723f a70d 11bf 5666 02bf f9ad f03e
00000310: 746d 47bf 8059 623f 34b5 00bf e7c3 17be
00000320: 9743 74bf 055e 2abf 4d0c 4c3f dae1 c1be
00000330: 834f 3d3e 1092 653f 5735 10bf 470c 333f
00000340: 267b e7be 031c 2f3f a14c 713f 028d 4b3f
00000350: 27ab 8fbe 40cd ddbb 2b23 573f 8ba9 a2bd
00000360: c03b 593e 608b 78bd 3dda 623e d350 6abd
00000370: c7e8 4abf dfed 9d3e a5b9 8fbd 9b9a 94bd
00000380: 0e01 633e 6f6c 3d3f 0513 d5be b86e e53e
00000390: b1d3 2bbe bd3d ca3d b6ef aebe c6bc 31bd
000003a0: c536 693f acf2 8bbe b9b3 25bf fa5e 613f
000003b0: f4e4 383d a113 d23e 034e bcbe 1e92 72be
000003c0: 8d7d 803e 5348 f2bd c9a1 05bf 5eb4 633f
000003d0: 865a 5b3f 3494 743f 8afe 6ebf 9630 3fbf
000003e0: c8ed 0f3e 138c ce3e 2369 3d3f 6a17 0dbf
000003f0: b4c7 cebe ef6a 7ebe c738 75be fc1d 653f

1.weight f4 [256]
0.9991044 1.0014673 0.99259365 1.0057155 0.99928373 0.9926834 1.0078224 1.0055834
0.9960364 0.9989461 0.99416286 0.9914563 0.9882051 0.9989354 0.99574065 1.008647
1.0084705 0.99454063 0.9926277 1.0091704 0.9950247 1.0082972 1.0064987 0.9992211
1.0093772 0.9943377 0.9903218 0.9919575 1.0061435 1.0025183 0.99665904 0.99486786
1.0033903 1.0058172 1.0068576 1.0060854 0.9956028 1.0001853 0.9927137 0.9948256
1.004091 0.99928784 0.99508905 0.9962656 0.99110204 0.99454767 1.0052525 1.0075876
1.0066252 0.9957758 1.0050018 1.0002959 1.0051843 1.0085043 0.993565 1.0029854
0.99238145 1.0045829 0.9948394 0.9980196 0.9998549 1.0107702 1.0070488 0.9917408
1.0052388 1.0060521 1.0033398 1.0068866 0.99451053 1.0044428 1.002312 0.9915499
0.9988788 0.99325866 0.99650496 1.0008991 1.0035324 0.99047834 0.994598 1.0055151
1.0113276 0.9977205 0.9944796 0.9919364 0.9927087 0.9983791 0.9899836 0.99391407
0.99995404 0.99213594 0.9990934 0.9930719 1.0113493 0.99251586 1.0067396 0.99137735
0.99453384 1.0002012 0.99218875 1.0013033 1.003636 0.9982486 0.9931468 1.0066863
0.9932172 0.999297 1.0059527 0.99243146 1.0113951 1.0028294 0.9961465 0.9976613
1.0006887 1.006546 0.99157065 1.0040852 1.0115231 0.9914843 0.98920286 0.99102384
0.99224585 0.99802214 1.0058805 0.9985852 0.9998917 1.0039458 0.998785 1.0018655
1.0036446 1.0050238 1.0088245 1.0057936 0.99317116 0.99021256 0.9949103 0.991999
1.0016922 0.9944953 1.0044618 1.001805 0.9968497 0.99922186 1.0094157 0.99560297
0.9947927 0.9912694 1.0091376 0.99513596 1.008432 0.995807 0.9935331 1.0076838
0.99362946 1.006341 1.0026151 0.99309677 0.991585 0.9927018 1.0081102 0.9941646
1.0012033 1.0019525 1.0048057 1.008098 1.0078264 1.0082054 0.9932161 0.99407494
0.99751735 0.9912234 1.0068083 1.001175 0.9987292 1.0055972 0.9917141 0.9915478
1.0029006 1.0085294 1.0012958 0.98793644 1.0063086 1.0004762 0.99685895 1.0070944
1.008316 1.006804 0.9957814 0.99502444 0.9925524 0.99037904 0.9970293 0.99485844
1.0063865 0.99429655 0.99137574 0.99289525 1.0110669 0.9986554 1.006465 0.9988437
0.9989728 0.99824154 1.0082839 0.99784863 1.0094318 1.0098507 1.0052165 1.0048718
0.9931294 1.0053082 1.0045568 0.99974865 0.99505347 0.9921102 0.9948799 0.9994886
1.0065908 0.9961494 1.0052693 0.99638295 1.0022334 1.0063641 1.0061432 1.0084255
1.0055925 1.0097312 1.0009887 0.9956689 1.0052276 1.0061704 0.99749136 1.009371
1.004429 0.9942501 0.9939778 1.0078107 0.9959513 0.993653 0.9963867 1.0048612
1.0035481 1.0091034 0.99482685 0.99398214 1.0121402 1.0040267 1.0092292 0.99332833
0.999125 0.99109066 1.0060841 1.0048639 1.0080669 0.9945797 0.99288386 1.0093919
00000000: 4ec5 7f3f 1530 803f 9e1a 7e3f 49bb 803f
00000010: 0fd1 7f3f 8020 7e3f 5300 813f f5b6 803f
00000020: 3efc 7e3f eeba 7f3f 7581 7e3f 14d0 7d3f
00000030: 02fb 7c3f 3bba 7f3f dce8 7e3f 581b 813f
00000040: 9015 813f 379a 7e3f d91c 7e3f 7f2c 813f
00000050: f0b9 7e3f e20f 813f f3d4 803f f4cc 7f3f
00000060: 4633 813f ea8c 7e3f bb85 7d3f edf0 7d3f
00000070: 4fc9 803f 8552 803f 0c25 7f3f a9af 7e3f
00000080: 186f 803f 9ebe 803f b6e0 803f 68c7 803f
00000090: d3df 7e3f 1206 803f 7c22 7e3f e4ac 7e3f
000000a0: 0e86 803f 54d1 7f3f 28be 7e3f 430b 7f3f
000000b0: ddb8 7d3f ad9a 7e3f 1dac 803f a1f8 803f
000000c0: 18d9 803f 2aeb 7e3f e6a3 803f b209 803f
000000d0: e1a9 803f ab16 813f 475a 7e3f d361 803f
000000e0: b60c 7e3f 2c96 803f cbad 7e3f 367e 7f3f
000000f0: 7ef6 7f3f eb60 813f fae6 803f bae2 7d3f
00000100: aaab 803f 51c6 803f 706d 803f a9e1 803f
00000110: 3e98 7e3f 9591 803f c24b 803f 37d6 7d3f
00000120: 85b6 7f3f 3346 7e3f f31a 7f3f 761d 803f
00000130: c073 803f fd8f 7d3f f99d 7e3f b8b4 803f
00000140: 2f73 813f 9c6a 7f3f 3796 7e3f 8bef 7d3f
00000150: 2822 7e3f c695 7f3f 916f 7d3f 2771 7e3f
00000160: fdfc 7f3f 9ffc 7d3f 96c4 7f3f f639 7e3f
00000170: e573 813f 8515 7e3f d8dc 803f e8ca 7d3f
00000180: c599 7e3f 9806 803f 1500 7e3f b52a 803f
00000190: 2577 803f 388d 7f3f de3e 7e3f 19db 803f
000001a0: 7b43 7e3f eed1 7f3f 0fc3 803f fd0f 7e3f
000001b0: 6575 813f b75c 803f 7503 7f3f bb66 7f3f
000001c0: 9116 803f 80d6 803f 93d7 7d3f dd85 803f
000001d0: 9779 813f ead1 7d3f 663c 7d3f bdb3 7d3f
000001e0: d303 7e3f 617e 7f3f b1c0 803f 48a3 7f3f
000001f0: e7f8 7f3f 4c81 803f 60b0 7f3f 213d 803f
00000200: 6d77 803f 9fa4 803f 2921 813f d8bd 803f
00000210: 7740 7e3f 927e 7d3f 71b2 7e3f a5f3 7d3f
00000220: 7337 803f 3e97 7e3f 3492 803f 253b 803f
00000230: 8b31 7f3f 01cd 7f3f 8934 813f d6df 7e3f
00000240: bcaa 7e3f d5c3 7d3f 6c2b 813f 3bc1 7e3f
00000250: 4d14 813f 35ed 7e3f 2f58 7e3f c8fb 803f
00000260: 805e 7e3f c8cf 803f b155 803f 973b 7e3f
00000270: 84d8 7d3f b521 7e3f c109 813f 9281 7e3f
00000280: 6e27 803f fb3f 803f 799d 803f 5b09 813f
00000290: 7500 813f e00c 813f 6943 7e3f b27b 7e3f
000002a0: 4c5d 7f3f d1c0 7d3f 18df 803f 8126 803f
000002b0: b8ac 7f3f 69b7 803f fae0 7d3f 14d6 7d3f
000002c0: 0c5f 803f 7e17 813f 762a 803f 67e9 7c3f
000002d0: b8ce 803f 9b0f 803f 2632 7f3f 78e8 803f
000002e0: 8010 813f f4de 803f 88eb 7e3f ecb9 7e3f
000002f0: ea17 7e3f 7b89 7d3f 503d 7f3f 0baf 7e3f
00000300: 46d1 803f 388a 7e3f cdca 7d3f 622e 7e3f
00000310: a46a 813f e1a7 7f3f d8d3 803f 39b4 7f3f
00000320: aebc 7f3f c28c 7f3f 720f 813f 0273 7f3f
00000330: 1035 813f ca42 813f efaa 803f a49f 803f
00000340: ba3d 7e3f f0ad 803f 5195 803f 87ef 7f3f
00000350: d3bb 7e3f effa 7d3f 73b0 7e3f 7cde 7f3f
00000360: f8d7 803f a603 7f3f aaac 803f f412 7f3f
00000370: 2f49 803f 8ad0 803f 4dc9 803f 1614 813f
00000380: 41b7 803f df3e 813f 6620 803f 28e4 7e3f
00000390: 4cab 803f 31ca 803f 985b 7f3f 1233 813f
000003a0: 2191 803f 2d87 7e3f 5475 7e3f f1ff 803f
000003b0: aaf6 7e3f 0b60 7e3f 3313 7f3f 4b9f 803f
000003c0: 4474 803f 4d2a 813f f9ac 7e3f 9d75 7e3f
000003d0: cf8d 813f f283 803f 6c2e 813f c44a 7e3f
000003e0: a8c6 7f3f 1eb8 7d3f 5dc7 803f 619f 803f
000003f0: 5608 813f c69c 7e3f a32d 7e3f c133 813f

1.bias f4 [256]
0.009062021 -0.007377434 -0.0027206976 0.0053957165 0.007227737 -0.009582555 0.0066493456 0.005578809
-0.00939014 0.0064351344 -0.008627065 -0.008331523 -0.0067044897 -0.005017625 -0.006510033 0.006342165
0.0069917217 -0.009183418 0.012327067 0.012122159 -0.006342875 0.0051610055 -0.007783446 -0.0065761707
0.00061084575 0.0026348587 -0.011510943 0.0075184503 -0.0048588417 0.010767275 -0.006169593 0.012035845
-0.014759933 -0.008708762 0.0071736057 0.003569645 -0.005107825 -0.0068894094 -0.007057171 -0.007787494
0.0065546655 0.011192858 -0.00491513 -0.009917597 -0.004524439 -0.0039436603 0.0074518016 0.008068178
0.007660152 -0.004564543 -0.0032716491 0.005264466 0.006931273 0.006837807 -0.0066999216 0.00958711
-0.008659957 -0.0043973336 -0.0039920253 -0.006689125 0.002434907 -0.005278776 0.0030836759 -0.0070319725
0.006367936 0.0061316327 0.0063691726 0.0016212306 -0.0051028035 0.0020618131 0.010768988 0.0016817084
-0.00077335694 -0.0035612616 0.0032486566 -0.00022827806 0.0050447593 0.0033661202 -0.009814552 0.0010505372
0.0102868965 0.0071096565 -0.010433146 -0.006825848 -0.0050889975 0.00075399067 0.005096682 -0.010425658
0.005115427 -0.00821714 0.0047609 -0.005965142 0.0065740873 -0.0029707311 0.008177121 -0.009808005
-0.008376156 -0.004946319 -0.007062943 0.0031082064 0.0072050877 -0.0025290353 -0.0069379886 -0.0037362862
-0.0035291153 -0.0031279956 -0.0028507921 -0.0012794755 0.008240322 -0.0034600124 -0.0031290827 0.00456509
0.006837004 -0.010245312 -0.008132322 0.0036014835 0.005410792 -0.005628216 -0.006389814 -0.0037061875
-0.0038289311 0.008644336 0.005431693 -0.005105281 -0.0076140123 0.007237332 0.0013087564 -0.006583955
0.0030947188 0.004438127 0.0059194705 0.005712257 -0.0084688505 0.005060205 -0.0041207685 -0.00682519
-0.0076158666 -0.010520987 0.0026494814 0.0027075617 -0.002044837 0.008067537 0.0019674064 0.012284254
-0.007521518 -0.007993348 0.009474433 -0.004169963 0.005696527 -0.0072218487 -0.0076217353 0.0025172369
-0.0034146223 -0.0029296097 0.0045254724 -0.004354838 0.0025472192 0.0065941587 0.006543361 -0.003074526
-0.006378485 0.0013987536 0.0021002197 0.011646093 -0.004918301 0.008896612 -0.0051253117 -0.0071245874
-0.003695287 -0.0044414806 0.0066717216 -0.0064525045 0.005482508 0.0024852 -0.006448178 -0.0055179363
0.012844461 0.0016869406 -0.0069469265 -0.0051610316 0.0061534587 -0.010430534 -0.0037685016 -0.0058130287
0.0053727296 -0.014302079 0.003961074 -0.009005747 -0.008626509 -0.010394957 0.012987233 0.005331528
-0.0074895564 -0.0061505586 -0.004531336 -0.0056044813 0.0097497385 0.0038462898 -0.0024602867 -0.0037767342
0.0031275284 0.0059687733 0.0056432374 0.007634544 0.0057299808 0.00069693645 0.0071520465 0.008625633
-0.0050245672 0.007916705 0.0048974706 0.0019247581 0.006517051 -0.008682249 0.0074578985 -0.00470995
0.00793829 -0.007050937 0.0050307144 -0.0057251123 0.005210365 0.0039566597 0.0067700087 0.0047289007
0.002317214 0.010536699 -0.0027206263 -0.009363698 0.009347273 0.0036677818 -0.0045774723 0.0027743191
-0.010497814 0.009259129 -0.008537695 0.009142395 -0.003968264 0.0015257458 0.008391316 0.004494981
0.0052271597 0.001249205 -0.004185214 -0.005029323 -0.008073514 0.0065647285 0.010680419 -0.007921155
-0.008716633 -0.00095131615 0.0065146037 -0.0022625017 -0.0027754977 0.0021647764 -0.0029393085 0.008612184
00000000: df78 143c 67be f1bb bb4d 32bb 8dce b03b
00000010: a7d6 ec3b 2600 1dbc c1e2 d93b 71ce b63b
00000020: 1ad9 19bc d2dd d23b 8958 0dbc f180 08bc
00000030: 56b1 dbbb e46a a4bb 1d52 d5bb f0d1 cf3b
00000040: d01a e53b 0c76 16bc 77f7 493c 059c 463c
00000050: e4d7 cfbb a71d a93b 470c ffbb eb7c d7bb
00000060: 2a21 203a 98ad 2c3b 6598 3cbc 555d f63b
00000070: eb36 9fbb 3969 303c 4c2a cabb fe31 453c
00000080: a5d3 71bc 32af 0ebc 9110 eb3b b5f0 693b
00000090: 8b5f a7bb 8ec0 e1bb d73f e7bb 3c2e ffbb
000000a0: 85c8 d63b 4062 373c 190f a1bb 6b7d 22bc
000000b0: bf41 94bb d239 81bb 3e2e f43b 6430 043c
000000c0: 0302 fb3b 2992 95bb 2a69 56bb 8b81 ac3b
000000d0: bb1f e33b af0f e03b 048b dbbb 4113 1d3c
000000e0: 7ee2 0dbc 8217 90bb 89cf 82bb 7330 dbbb
000000f0: f692 1f3b 95f9 acbb 7f17 4a3b 766c e6bb
00000100: 1eaa d03b ddeb c83b 7eb4 d03b 797f d43a
00000110: 6b35 a7bb 7c1f 073b 6970 303c c56c dc3a
00000120: 1bbb 4aba 0e64 69bb 6ae7 543b ed5d 6fb9
00000130: 824e a53b 209a 5c3b 37cd 20bc 2eb2 893a
00000140: 5f8a 283c 1ff8 e83b c9ef 2abc 5dab dfbb
00000150: 9bc1 a6bb 75a7 453a 1102 a73b 61d0 2abc
00000160: 509f a73b 2fa1 06bc 5301 9c3b 3d77 c3bb
00000170: 716b d73b 99b0 42bb 55f9 053c c1b1 20bc
00000180: 253c 09bc bb14 a2bb 4370 e7bb 0db3 4b3b
00000190: a818 ec3b 2cbe 25bb 1158 e3bb 7bdc 74bb
000001a0: bb48 67bb 0fff 4cbb 5bd4 3abb 13b4 a7ba
000001b0: 6a02 073c 60c1 62bb 4c11 4dbb c096 953b
000001c0: f208 e03b f4db 27bc 6e3d 05bc de06 6c3b
000001d0: 034d b13b e66c b8bb a561 d1bb 82e3 72bb
000001e0: ceee 7abb f9a0 0d3c 58fc b13b 334a a7bb
000001f0: f77e f9bb 2427 ed3b 948a ab3a 38be d7bb
00000200: c4d0 4a3b b56d 913b 1ef8 c13b e32d bb3b
00000210: efc0 0abc 13d0 a53b 8307 87bb d8a5 dfbb
00000220: 858e f9bb 3860 2cbc eca2 2d3b 5971 313b
00000230: ac02 06bb b42d 043c 9aef 003b e543 493c
00000240: 1177 f6bb 88f6 02bc a73a 1b3c 2fa4 88bb
00000250: efa9 ba3b 42a5 ecbb c0bf f9bb 3af8 243b
00000260: dbc7 5fbb b2fe 3fbb 6a4a 943b 07b3 8ebb
00000270: 3fef 263b d013 d83b b169 d63b fd7d 49bb
00000280: 9c02 d1bb 6256 b73a d7a3 093b 41cf 3e3c
00000290: b329 a1bb 18c3 113c 3bf2 a7bb 5f75 e9bb
000002a0: a12c 72bb d789 91bb 759e da3b 886f d3bb
000002b0: 9ca6 b33b bdde 223b 3d4b d3bb cecf b4bb
000002c0: 9371 523c 551c dd3a 0ba3 e3bb df1d a9bb
000002d0: f4a2 c93b d5e4 2abc f7f8 76bb 387b bebb
000002e0: b90d b03b 4453 6abc e6cb 813b d78c 13bc
000002f0: 3456 0dbc 9c4f 2abc 67c8 543c 19b4 ae3b
00000300: f46a f5bb a08a c9bb 9a7b 94bb cca5 b7bb
00000310: 5ebd 1f3c 0912 7c3b c33c 21bb 1683 77bb
00000320: 38f7 4c3b b395 c33b e8ea b83b 322b fa3b
00000330: 90c2 bb3b 9db2 363a b75b ea3b 8752 0d3c
00000340: 20a5 a4bb 11b5 013c f67a a03b 2a48 fc3a
00000350: fc8c d53b fe3f 0ebc 6361 f43b ed55 9abb
00000360: 9a0f 023c 8c0b e7bb b1d8 a43b b999 bbbb
00000370: b6bb aa3b dea6 813b f3d6 dd3b e5f4 9a3b
00000380: 66dc 173b 1ea2 2c3c 894c 32bb 326a 19bc
00000390: 4e25 193c 2b5f 703b 9ffe 95bb 5ad1 353b
000003a0: 06ff 2bbc 9ab3 173c b0e1 0bbc fcc9 153c
000003b0: 3608 82bb 89fb c73a bb7b 093c a24a 933b
000003c0: 9848 ab3b 5dbc a33a 1f24 89bb 05cd a4bb
000003d0: c646 04bc ef1c d73b edfc 2e3c bbc7 01bc
000003e0: 35d0 0ebc bf61 79ba 7578 d53b 7b46 14bb
000003f0: 20e5 35bb ecde 0d3b 6aa1 40bb 1e1a 0d3c

1.running_mean f4 [256]
0.6129698 -0.056503143 0.7411786 0.8928021 -0.21581723 -0.8552542 -0.56040245 0.7904074
0.8477984 0.041989613 -0.7900962 -0.18532634 -0.13887557 -0.61175144 0.25122747 0.3578418
-0.80222976 0.93849134 0.0030696073 -0.8440098 -0.79049253 0.7458827 0.090867445 0.49319297
0.13593933 -0.98837084 -0.81838804 -0.82717353 -0.33098856 -0.8656668 -0.22190063 0.80070245
-0.2877831 0.14595322 0.9315781 0.7801513 0.34943363 0.07468979 0.14355303 -0.25551614
-0.9506293 -0.8873999 -0.83315974 0.9250551 -0.89799684 0.4495453 0.99017674 0.69198626
-0.3325415 0.7889219 -0.12514016 0.8260704 -0.008311306 0.85242546 -0.1441208 0.17706923
0.62358034 -0.340872 -0.4680092 -0.45470652 -0.5968811 0.027939748 -0.42152196 0.4675552
0.5093829 -0.17571521 0.55013233 -0.6741677 0.32358158 0.290194 0.72527033 0.37803978
-0.36628756 0.14508274 0.10523841 0.13865155 -0.27618375 0.45764184 0.19761394 0.09005562
0.9948417 0.36145788 -0.9855066 0.46030182 0.49512258 0.5516836 0.38984272 -0.71981305
-0.87045616 -0.12283238 0.8951449 0.9853934 -0.7170721 -0.99041325 0.65869874 0.8948572
-0.08340694 0.5011381 0.9356293 0.16868982 0.7609249 -0.403501 0.21648046 -0.5978223
-0.89524895 -0.32109296 0.585752 -0.043872684 0.9087165 -0.66343796 0.04201555 0.26836148
-0.3883029 0.66279256 0.33174223 -0.038849287 0.6560936 -0.69411635 -0.061382987 -0.16541839
0.3425257 -0.81341803 0.20227784 0.2910596 -0.9352446 -0.7585969 0.4368276 0.31596
0.7131558 0.5571641 -0.97250915 -0.29378536 -0.24482709 0.021888787 0.5543087 0.50323296
-0.23738313 -0.17676465 -0.4584978 0.5476464 0.7969328 -0.027122207 0.10043604 -0.09301516
-0.5764681 0.49446625 0.2596479 0.96099895 0.9646794 0.37520552 -0.0028207107 0.01369942
-0.6608279 0.17147185 0.5846984 0.25294843 -0.7822013 -0.67749494 0.005261144 -0.37586755
0.09256085 -0.033272102 -0.6179583 -0.008210978 0.9796635 -0.89744407 -0.93773186 -0.23569359
-0.59104943 0.611236 0.29459348 -0.25657627 0.31743932 -0.3206772 -0.9817535 -0.13568696
-0.45808345 0.41471118 -0.70763767 0.2689275 0.26674002 0.16875611 0.9865245 -0.47282094
0.41063493 0.65967095 0.046361778 -0.5289494 -0.29928485 0.21952237 0.97653615 0.12657256
0.9472251 -0.56653595 -0.5092644 0.4701043 -0.77890104 0.8843735 -0.5028668 -0.14827771
-0.95413965 -0.66559976 0.79700494 -0.3785229 0.18473974 0.8968151 -0.563228 0.699574
-0.45223522 0.6840748 0.94258094 0.7950787 -0.28074902 -0.0068204105 0.840481 -0.07929601
0.21223989 -0.06069959 0.2216412 -0.05728024 -0.79246634 0.3086129 -0.07008421 -0.07271463
0.22159845 0.74000925 -0.41611075 0.44816154 -0.16784564 0.09869135 -0.34162077 -0.04326679
0.91096646 -0.27333316 -0.6473177 0.88053125 0.04521254 0.41016424 -0.36782414 -0.23695736
0.25086668 -0.11823774 -0.52194583 0.88946986 0.8570417 0.955463 -0.9334832 -0.7469394
0.14059497 0.40335193 0.74008465 -0.5510764 -0.40387848 -0.2486295 -0.23962197 0.8951382
00000000: 97eb 1c3f d76f 67bd e1bd 3d3f ae8e 643f
00000010: 31ff 5cbe f0f1 5abf 8976 0fbf 2458 4a3f
00000020: 5109 593f 4dfd 2b3d bf43 4abf 30c6 3dbe
00000030: 6635 0ebe be9b 1cbf e3a0 803e 0a37 b73e
00000040: ee5e 4dbf f840 703f 772b 493b 0711 58bf
00000050: b85d 4abf 2bf2 3e3f b618 ba3d ca83 fc3e
00000060: ae33 0b3e df05 7dbf e181 51bf a5c1 53bf
00000070: 5577 a9be 579c 5dbf eb39 63be d6fa 4c3f
00000080: 4e58 93be c374 153e e77b 6e3f ffb7 473f
00000090: f7e8 b23e f6f6 983d 91ff 123e 03d3 82be
000000a0: 715c 73bf a42c 63bf f549 55bf 69d0 6c3f
000000b0: 1fe3 65bf cd2a e63e 397c 7d3f 0326 313f
000000c0: e142 aabe c9f6 493f be24 00be 5a79 533f
000000d0: 252c 08bc 8e38 5a3f 6794 13be a351 353e
000000e0: f6a2 1f3f c686 aebe e79e efbe 4bcf e8be
000000f0: 33cd 18bf e6e1 e43c bad1 d7be 6563 ef3e
00000100: eb66 023f b0ee 33be 79d5 0c3f 4196 2cbf
00000110: 7cac a53e 4f94 943e 51ab 393f 6e8e c13e
00000120: 0b8a bbbe 9290 143e 3c87 d73d acfa 0d3e
00000130: f567 8dbe 0850 ea3e 4f5b 4a3e 156f b83d
00000140: f2ad 7e3f 0211 b93e 294a 7cbf aeac eb3e
00000150: b580 fd3e 233b 0d3f 7799 c73e ab45 38bf
00000160: 37d6 5ebf 8b8f fbbd 3728 653f be42 7c3f
00000170: 0a92 37bf b98b 7dbf 7ba0 283f 5d15 653f
00000180: 42d1 aabd 964a 003f 6785 6f3f 06bd 2c3e
00000190: f9cb 423f af97 cebe 0ead 5d3e e20a 19bf
000001a0: 092f 65bf 4c66 a4be d8f3 153f d8b3 33bd
000001b0: a5a1 683f 12d7 29bf 7f18 2c3d ad66 893e
000001c0: a3cf c6be c6ac 293f 1eda a93e 6e20 1fbd
000001d0: c0f5 273f 9cb1 31bf ba6c 7bbd 7063 29be
000001e0: 875f af3e 2a3c 50bf ec21 4f3e c405 953e
000001f0: 316c 6fbf 6833 42bf dea7 df3e 82c5 a13e
00000200: 6191 363f 4ea2 0e3f 5cf6 78bf 096b 96be
00000210: f4b3 7abe 1d50 b33c 2de7 0d3f e0d3 003f
00000220: 9014 73be cb01 35be 39c0 eabe 8e32 0c3f
00000230: ca03 4c3f 642f debc 69b1 cd3d bb7e bebd
00000240: 6a93 13bf ae2a fd3e 92f0 843e 0704 763f
00000250: 3bf5 763f f01a c03e acdb 38bb 8873 603c
00000260: 042c 29bf 5196 2f3e cbae 153f 7582 813e
00000270: 583e 48bf 4f70 2dbf ad65 ac3b b671 c0be
00000280: 8b90 bd3d 5448 08bd 8432 1ebf 5687 06bc
00000290: 3acb 7a3f e5be 65bf 320f 70bf a959 71be
000002a0: 044f 17bf f679 1c3f f5d4 963e f75d 83be
000002b0: 6887 a23e cd2f a4be 3354 7bbf 86f1 0abe
000002c0: ea89 eabe 0655 d43e be27 35bf deb0 893e
000002d0: 2692 883e 67ce 2c3e df8c 7c3f 9615 f2be
000002e0: be3e d23e 32e0 283f d9e5 3d3d 3a69 07bf
000002f0: dd3b 99be 79ca 603e 46fe 793f 3d9c 013e
00000300: 587d 723f 8008 11bf 275f 02bf 83b1 f03e
00000310: 0f66 47bf 4d66 623f e1bb 00bf 1dd6 17be
00000320: 7f42 74bf bf64 2abf 8408 4c3f c1cd c1be
00000330: 6a2c 3d3e ad95 653f b62f 10bf 4817 333f
00000340: 608b e7be 871f 2f3f fc4c 713f 478a 4b3f
00000350: 56be 8fbe c07d dfbb c329 573f f265 a2bd
00000360: 6a55 593e 22a0 78bd e9f5 623e af9e 6abd
00000370: 13df 4abf 8302 9e3e 4f88 8fbd 68eb 94bd
00000380: b4ea 623e 3f71 3d3f 780c d5be 6e75 e53e
00000390: badf 2bbe b11e ca3d ebe8 aebe 8538 31bd
000003a0: 1935 693f 53f2 8bbe 9db6 25bf 7f6a 613f
000003b0: c930 393d 0c01 d23e 7253 bcbe f3a4 72be
000003c0: 9971 803e a126 f2bd 3e9e 05bf 4cb4 633f
000003d0: 1667 5b3f 3999 743f c1f8 6ebf 6c37 3fbf
000003e0: 21f8 0f3e 2584 ce3e 3076 3d3f 5813 0dbf
000003f0: 29c9 cebe bb98 7ebe 765f 75be c727 653f

1.running_var f4 [256]
0.018551111 0.41215876 0.23497576 0.023034591 0.16683212 0.7112311 0.71135557 0.13586941
0.72335684 0.1276658 0.17653999 0.052820493 0.28129467 0.4730371 0.7680925 0.0028465157
0.034015857 0.2445484 0.27656233 0.9003239 0.49449804 0.2427368 0.00018118837 0.00028064806
0.008703197 0.18530552 0.33213016 0.025925327 0.37108317 0.017147584 0.066011354 0.4580757
0.6379911 0.2856904 0.8940512 0.003578661 0.16842683 0.8615492 0.2178916 0.9756391
0.7809586 0.9042046 0.7067917 0.96053183 0.7132164 0.6388753 0.013590198 0.37250495
0.31807843 0.12715414 0.00017762314 0.6526877 0.32916108 0.3180187 0.9848309 0.879685
0.6804379 0.023506021 0.057005364 0.05409311 0.101844415 0.04331685 0.004990916 0.7564774
0.0036533368 0.03301493 0.76459855 0.88972306 0.10764894 0.062143385 0.5418416 0.021422824
0.03010153 0.17870045 0.40498596 0.16346413 0.4815149 0.7827095 0.64161164 0.012448473
0.47930008 0.88217896 0.22902685 0.004201818 0.5417959 0.011301192 0.37277484 0.4030087
0.58334416 0.00044229027 0.25382507 0.26758367 0.62162054 0.31988057 0.25503382 0.38805225
0.0035791364 0.09796255 0.032470856 0.19236137 0.000114803464 0.2822073 0.015315127 0.1579282
0.116463386 0.4117278 0.41873235 0.14929958 0.4673807 0.20657702 5.2480755e-05 0.9473734
0.10053624 0.9913451 0.60542893 0.13215852 0.59113127 0.31969267 0.41806594 0.127081
0.00021671798 0.00015238165 0.43972063 0.6539574 0.4927272 0.4208292 0.7864691 0.473087
0.13925146 0.4590396 0.7790971 0.044781137 0.42948732 0.5273148 0.34252998 0.104448095
0.047804978 0.18705079 0.10783364 0.0179271 0.002892293 0.08109463 0.730353 0.7118002
0.008989026 0.0031816491 0.90750057 0.04470054 0.00073411356 0.02094785 0.25062218 0.17909929
0.016083272 0.14133623 0.19289574 0.26908338 0.50219196 0.25434005 0.0010683395 0.2844363
0.05760888 0.36345783 0.19744904 0.15340863 0.3011886 0.3676095 0.0004061707 0.5609684
0.00393285 0.36733046 0.10910861 0.79267645 0.5215798 0.32936686 0.00097171566 0.6108215
0.94598013 0.25439706 0.2867013 0.15364365 0.5095059 0.12965287 0.29723147 0.4799548
0.0341637 0.98155606 0.20565566 0.0038929817 0.18235435 0.70798856 0.07638543 0.4652695
0.33712283 0.15293634 0.2980229 0.018074516 0.31497335 0.94685745 0.25746557 0.11955607
0.0068554846 0.26146615 0.08237338 0.58270013 0.44412535 0.07525505 0.18242276 0.6998827
0.3802771 0.07134515 0.00075845263 0.042848684 0.53141093 0.06588955 0.25127447 0.41196507
0.23767993 0.009713501 0.27629307 0.13666598 0.54240495 0.6142433 0.21940187 0.58882695
0.18015994 0.13384075 0.061878964 0.065000534 0.05227477 0.086915985 0.06645042 0.3942807
0.016082907 0.0001720489 0.04825911 0.7659703 0.1296518 0.49796152 0.042562764 0.12806353
0.20614034 0.10233916 0.072330736 2.4590092e-05 0.9108435 0.14589538 0.19302958 0.26985452
0.03867317 0.090586446 0.98289686 0.09533876 0.0031030816 0.75662076 0.5396303 0.55449563
00000000: 80f8 973c 7906 d33e 7c9d 703e 0ab3 bc3c
00000010: 0ad6 2a3e 3e13 363f 661b 363f 5a21 0b3e
00000020: ea2d 393f d3ba 023e e6c6 343e 4d5a 583d
00000030: db05 903e eb31 f23e b6a1 443f 9c8c 3a3b
00000040: 3654 0b3d e56a 7a3e 9499 8d3e a17b 663f
00000050: d92e fd3e ff8f 783e 62fd 3d39 f223 9339
00000060: db97 0e3c bbc0 3d3e f70c aa3e 5a61 d43c
00000070: 9dfe bd3e 1779 8c3c f630 873d e688 ea3e
00000080: 6253 233f 0346 923e 8ae0 643f f887 6a3b
00000090: 1578 2c3e 7d8e 5c3f fa1e 5f3e 7cc3 793f
000000a0: e7ec 473f f479 673f 4df0 343f 6ae5 753f
000000b0: 5a95 363f 558d 233f 6ca9 5e3c f8b8 be3e
000000c0: 2ddb a23e b234 023e 5940 3a39 8b16 273f
000000d0: cd87 a83e 59d3 a23e e11d 7c3f 0933 613f
000000e0: 2e31 2e3f b38f c03c 757e 693d bd90 5d3d
000000f0: ce93 d03d 026d 313d d68a a33b 81a8 413f
00000100: d26c 6f3b aa3a 073d bbbc 433f e4c4 633f
00000110: 0c77 dc3d 108a 7e3d 22b6 0a3f eb7e af3c
00000120: 7c97 f63c 40fd 363e 525a cf3e 2463 273e
00000130: 1f89 f63e a65f 483f a940 243f aef4 4b3c
00000140: d266 f53e 7bd6 613f 0486 6a3e 67af 893b
00000150: 23b3 0a3f a328 393c 58dc be3e 2857 ce3e
00000160: 0b56 153f 32e3 e739 5cf5 813e ba00 893e
00000170: 8622 1f3f 63c7 a33e cb93 823e c9ae c63e
00000180: f28f 6a3b 97a0 c83d 2900 053d 61fa 443e
00000190: a4c2 f038 7a7d 903e 4cec 7a3c eeb7 213e
000001a0: 5b84 ee3d fccd d23e 1664 d63e fde1 183e
000001b0: 864c ef3e ed88 533e c81e 5c38 1087 723f
000001c0: f2e5 cd3d cbc8 7d3f 64fd 1a3f 9054 073e
000001d0: 6154 173f c2ae a33e bd0c d63e 8621 023e
000001e0: ca3e 6339 a3c8 1f39 1023 e13e c169 273f
000001f0: bd46 fc3e ed76 d73e 0a56 493f 7638 f23e
00000200: ef97 0e3e 3d07 eb3e e872 473f 6d6c 373d
00000210: c3e5 db3e 1afe 063f 1760 af3e e2e8 d53d
00000220: 27cf 433d 3e8a 3f3e e2d7 dc3d dbdb 923c
00000230: a08c 3d3b f114 a63d 6af8 3a3f 8a38 363f
00000240: b546 133c 3783 503b f551 683f ea17 373d
00000250: 8771 403a d39a ab3c 8d51 803e ce65 373e
00000260: 11c1 833c 72ba 103e 7686 453e 4cc5 893e
00000270: a78f 003f dc38 823e 8607 8c3a a2a1 913e
00000280: 4af7 6b3d 2517 ba3e 1530 4a3e 2717 1d3e
00000290: 6435 9a3e 5037 bc3e 4ff3 d439 a09b 0f3f
000002a0: 23df 803b bd12 bc3e 5674 df3d d8ec 4a3f
000002b0: 4186 053f c6a2 a83e bcba 7e3a cc5e 1c3f
000002c0: c12b 723f 5540 823e 83ca 923e c354 1d3e
000002d0: fb6e 023f b9c3 043e b92e 983e a3bc f53e
000002e0: 3cef 0b3d 4247 7b3f 6697 523e 6521 7f3b
000002f0: 19bb 3a3e bd3e 353f f76f 9c3d ce37 ee3e
00000300: 5d9b ac3e 589b 1c3e 7596 983e 0211 943c
00000310: 3044 a13e 4065 723f 87d2 833e d0d9 f43d
00000320: f9a3 e03b e4de 853e 60b3 a83d d62b 153f
00000330: 6664 e33e 521f 9a3d 08cd 3a3e 832b 333f
00000340: aeb3 c23e 681d 923d e5d2 463a 1a82 2f3d
00000350: 8c0a 083f 1af1 863d 0ca7 803e 16ed d23e
00000360: 5e62 733e 6025 1f3c 4976 8d3e 2bf2 0b3e
00000370: 0ddb 0a3f 0d3f 1d3f e2aa 603e 5dbd 163f
00000380: d97b 383e 8d0d 093e cc74 7d3d 001f 853d
00000390: 121e 563d 0201 b23d 2817 883d 29df c93e
000003a0: 4dc0 833c 0668 3439 58ab 453d a116 443f
000003b0: 71c3 043e d0f4 fe3e 4b56 2e3d 1623 033e
000003c0: 7416 533e 3297 d13d 2322 943d d246 ce37
000003d0: 0a2d 693f 9965 153e 8ca9 453e 5f2a 8a3e
000003e0: c267 1e3d 6385 b93d 219f 7b3f f840 c33d
000003f0: 125d 4b3b e6b1 413f 3625 0a3f 6df3 0d3f

3.weight f4 [128, 256]
-0.0012597465 0.024477553 0.00025856358 0.055110577 0.054074567 0.0030484272 -0.049119145 0.004517275
0.004297404 0.017008761 0.043234874 0.025952218 -0.002571018 -0.037958726 0.03812239 0.023349598
-0.03956858 0.03910781 0.005758008 -0.04800947 0.02811985 -0.056165617 0.035681196 -0.049936045
0.00993672 -0.042103186 -0.013295051 0.032123715 0.0031699946 0.010261715 -0.0030682227 0.017627655
0.028128128 -0.022496803 0.007957512 0.048537612 0.052897107 -0.042892344 -0.011034773 -0.035753384
0.015678156 -0.011549644 -0.01740756 -0.042607415 -0.055247705 -0.014468167 -0.040414244 0.01727605
0.036050722 -0.041145165 0.021131609 0.008644602 0.0664098 0.029738646 0.0016606378 -0.01600575
0.015302154 -0.016696356 0.015908172 -0.017069124 0.005443198 0.044430606 0.0129157165 0.04463175
-0.05047693 -0.044098116 0.039002612 0.04896467 -0.018049793 0.025988728 0.01884645 0.0024713092
-0.034676462 0.032231957 0.009102842 0.04954261 -0.05609924 -0.045703646 0.06045184 0.0145831555
-0.027866088 -0.029226914 -0.010069454 0.060322605 -0.0055609983 0.054640036 0.003481133 0.0108418595
0.064272605 0.016135937 -0.024010003 -0.034709945 -0.005550989 0.030493468 0.00868729 0.039561618
0.042350978 0.0020008537 0.061308708 0.001736275 0.012032136 -0.019561958 -0.01651743 0.013553555
0.06666606 -0.010505192 0.018127335 0.03025574 0.009920815 0.037515935 0.05683309 0.016171431
-0.047565714 0.031153848 0.01457183 0.033609968 0.03408758 0.061533205 0.01247019 0.04917818
-0.0013652676 -0.027377594 -0.039307278 -0.03938206 0.013161298 -0.0062668785 0.0288184 -0.03331455
-0.010728061 0.062689915 -0.0437988 -0.0006825828 0.0074303714 -0.039077416 0.044111036 0.016290687
0.02241612 0.012762003 0.044175196 -0.041992035 -0.019718943 -0.05206342 -0.006554175 -0.049113967
0.05567354 0.0062517524 0.019764423 0.0088406475 0.01797512 0.03715717 -0.0035669052 0.033743672
-0.021670874 -0.030754155 0.00913934 -0.0017357583 0.037258346 0.029251508 0.0324859 -0.017047131
0.059403222 0.048389997 0.06524926 0.063038826 -0.043663263 -0.03177728 -0.008109805 -0.0074216453
0.064402096 -0.0012233187 -0.040728547 -0.0326347 0.035740744 0.025486263 -0.02201762 0.013809766
0.04295627 -0.023636734 0.030715981 0.01751918 0.0049087354 0.016948769 0.0069586807 -0.029285265
0.03335109 0.054064196 0.04180625 0.023814792 -0.03764446 -0.032393992 -0.05209315 0.007893182
-0.03331271 0.034785673 -0.002946361 0.043386832 -0.0528391 0.028616846 0.03958277 0.0136296535
0.061599813 0.062099166 0.043760408 -0.0074231382 0.024033787 -0.0034423997 -0.04948323 0.049375262
0.06715314 0.01997453 -0.013971139 0.027211096 0.04496084 -0.048267804 -0.03969498 -0.008325515
0.05282548 0.02640386 -0.03178166 -0.018150155 -0.055624105 0.055054415 0.03210765 0.04977378
0.024478449 -0.03256368 0.013192519 -0.051229205 0.043816242 0.0054908465 0.02780829 -0.024895828
0.011554216 -0.041900054 0.040951133 0.0045291223 0.05015408 0.047237094 0.030563518 0.015621568
-0.036054496 -0.046063364 -0.05646878 0.005560746 0.030845659 -0.0042409888 0.06285194 -0.056239538
0.04193283 0.049570344 0.02529498 0.020832192 0.03855274 -0.056145288 0.023947412 0.012919676
00000000: 141e a5ba 2685 c83c d18f 8739 a1bb 613d
00000010: 4b7d 5d3d 1fc8 473b 2831 49bd a605 943b
00000020: 3dd1 8c3b f555 8b3c 0d17 313d bf99 d43c
00000030: 867e 28bb 9c7a 1bbd 3926 1c3d a847 bf3c
00000040: aa12 22bd 832f 203d acad bc3b 94a5 44bd
00000050: 9a5b e63c eb0d 66bd 7226 123d bd89 4cbd
00000060: a0cd 223c 6474 2cbd 7cd3 59bc 2894 033d
00000070: afbf 4f3b c120 283c 3c14 49bb df67 903c
00000080: f66c e63c 374b b8bc 3960 023c 60cf 463d
00000090: a3aa 583d e2af 2fbd 31cb 34bc 2472 12bd
000000a0: 7a6f 803c b83a 3dbc 4d9a 8ebc 1d85 2ebd
000000b0: 6b4b 62bd e40b 6dbc 6889 25bd 8186 8d3c
000000c0: eca9 133d d587 28bd 321c ad3c 17a2 0d3c
000000d0: dc01 883d 769e f33c c2a9 d93a 7e1e 83bc
000000e0: e3b5 7a3c ccc6 88bc db51 823c 8cd4 8bbc
000000f0: db5c b23b defc 353d 719c 533c c8cf 363d
00000100: e6c0 4ebd 3aa0 34bd 34c1 1f3d 2e8f 483d
00000110: 29dd 93bc 50e6 d43c df63 9a3c b0f5 213b
00000120: e808 0ebd a805 043d 1624 153c 31ed 4a3d
00000130: 51c8 65bd bf33 3bbd 599c 773d 30ee 6e3c
00000140: 6c47 e4bc 486d efbc 5afa 24bc d614 773d
00000150: 0939 b6bb 3bce 5f3d b823 643b 0ea2 313c
00000160: 5ba1 833d 832f 843c a0b0 c4bc 042c 0ebd
00000170: 12e5 b5bb 70cd f93c 2355 0e3c 5d0b 223d
00000180: 3878 2d3d c120 033b d71e 7b3d b993 e33a
00000190: 7022 453c 6640 a0bc 904f 87bc bb0f 5e3c
000001a0: 3788 883d f81d 2cbc c77f 943c e3da f73c
000001b0: ea8a 223c 4faa 193d d0c9 683d f379 843c
000001c0: 44d4 42bd 5b36 ff3c afbe 6e3c 9baa 093d
000001d0: 6b9f 0b3d 3e0a 7c3d c54f 4c3c 0f6f 493d
000001e0: c7f2 b2ba fa46 e0bc ab00 21bd 154f 21bd
000001f0: 7ca2 573c 635a cdbb 9114 ec3c d674 08bd
00000200: c0c4 2fbc 9263 803d 5f66 33bd 5bef 32ba
00000210: 797a f33b a40f 20bd c6ad 343d 0c74 853c
00000220: 03a2 b73c b817 513c 0df1 343d d7ff 2bbd
00000230: 9f89 a1bc 7440 55bd 68c4 d6bb ba2b 49bd
00000240: f009 643d 80db cc3b 00e9 a13c 5dd8 103c
00000250: 8f40 933c 1e32 183d bdc2 69bb ce36 0a3d
00000260: 1e87 b1bc 23f0 fbbc 2cbd 153c 6282 e3ba
00000270: 359c 183d dca0 ef3c ef0f 053d 6da6 8bbc
00000280: cb50 733d 9734 463d 67a1 853d 801a 813d
00000290: 40d8 32bd e528 02bd fdde 04bc 4631 f3bb
000002a0: 3fe5 833d c457 a0ba fad2 26bd f7ab 05bd
000002b0: e364 123d 91c8 d03c 4c5e b4bc 5b42 623c
000002c0: eaf2 2f3d d3a1 c1bc 15a0 fb3c 6284 8f3c
000002d0: 75d9 a03b 25d8 8a3c a505 e43b a7e7 efbc
000002e0: 279b 083d 6b72 5d3d 083d 2b3d 3d17 c33c
000002f0: 1431 1abd 90af 04bd a05f 55bd 6852 013c
00000300: e872 08bd 6c7b 0e3d bc17 41bb 64b6 313d
00000310: d06d 58bd e06d ea3c 8b21 223d e94e 5f3c
00000320: 1650 7c3d b25b 7e3d 1d3e 333d cc3d f3bb
00000330: 81e2 c43c e299 61bb edae 4abd b73d 4a3d
00000340: 9687 893d a0a1 a33c 34e7 64bc cee9 de3c
00000350: dc28 383d 76b4 45bd 3497 22bd be67 08bc
00000360: 885f 583d e84c d83c 7c2d 02bd a2af 94bc
00000370: 1ad6 63bd bd80 613d 5083 033d 97df 4b3d
00000380: 0787 c83c 7e61 05bd 6f25 583c b7d5 51bd
00000390: a978 333d 8fec b33b 36ce e33c 56f2 cbbc
000003a0: e54d 3d3c 649f 2bbd 60bc 273d 0869 943b
000003b0: 5d6e 4d3d af7b 413d 5860 fa3c 9bf1 7f3c
000003c0: e1ad 13bd f0ac 3cbd cf4b 67bd eb36 b63b
000003d0: 09b0 fc3c fef7 8abb 85b8 803d 6e5b 66bd
000003e0: c2c1 2b3d 460a 4b3d 6b37 cf3c 46a8 aa3c
000003f0: 7ae9 1d3d 9af8 65bd 5d2d c43c 0cad 533c

3.bias f4 [128]
-0.030126868 -0.02967535 0.033446115 0.052983753 -0.05311476 0.034374967 -0.0032195253 -0.04433359
-0.021122864 0.020665424 -0.0045677186 -0.017535314 -0.027530996 0.04785525 -0.046072517 -0.025535883
-0.04291974 0.045680016 0.010335659 -0.01075078 -0.015731143 -0.05129161 0.053981148 -0.0365939
-0.008788306 -0.025575211 0.05570286 0.007655571 -0.036530897 0.016745381 0.010012561 0.026717408
-0.05178509 0.0034610499 -0.047447298 -0.03228014 -0.0025252379 -0.05743311 -0.05047574 -0.0088847
0.037740562 0.037872806 0.060253337 -0.055816706 -0.055320565 0.046705358 0.058097523 -0.043130714
0.06145291 -0.042321317 -0.034641765 -0.054393195 0.03243463 0.027622933 0.038029432 0.040339895
-0.024996553 -0.024691409 0.013911521 -0.053200934 0.028058998 0.015652286 -0.0016896093 0.025311705
-0.019554134 -0.03760978 0.043968253 0.057978246 0.058500886 -0.038961284 0.027159499 -0.0173475
0.054089792 -0.04890942 0.019122854 -0.0045780484 -0.03374446 -0.042673763 -0.028966349 0.034996618
-0.019168222 0.015544992 -5.2223193e-05 -0.0223987 0.0051227463 0.045827694 -0.022054309 -0.019006582
-0.059945814 -0.030651197 0.0048804693 -0.04010718 -0.02058371 -0.034464743 -0.060596272 0.041200943
0.061878856 -0.02425965 0.02468164 -0.019256247 0.029913131 -0.039782315 -0.034784004 0.018647848
-0.051812116 -0.047693226 0.02237323 -0.054457035 1.8974377e-05 -0.046840053 0.02468382 -0.045696445
-0.038225647 -0.053178694 -0.022670472 0.046005394 0.01261284 -0.040651035 -0.022004796 0.041253198
0.053702313 0.009080938 0.059580993 -0.05058515 0.02415633 -0.017075324 -0.018205082 -0.05900919
00000000: 9fcc f6bc b819 f3bc cbfe 083d 7e05 593d
00000010: dd8e 59bd c4cc 0c3d acfe 52bb 2397 35bd
00000020: db09 adbc 894a a93c cdac 95bb 38a6 8fbc
00000030: af88 e1bc de03 443d 89b6 3cbd a130 d1bc
00000040: 9ccc 2fbd f81a 3b3d e556 293c 0a24 30bc
00000050: 99de 80bc 2717 52bd 561b 5d3d 7ce3 15bd
00000060: d4fc 0fbc 1b83 d1bc af28 643d 96db fa3b
00000070: 6ca1 15bd 9c2d 893c ba0b 243c 77de da3c
00000080: 9a1c 54bd c8d2 623b 1958 42bd 2e38 04bd
00000090: 767e 25bb fb3e 6bbd a6bf 4ebd 2291 11bc
000000a0: d995 1a3d 8420 1b3d 34cc 763d 0fa0 64bd
000000b0: d197 62bd 1e4e 3f3d abf7 6d3d d5a9 30bd
000000c0: 0cb6 7b3d 1e59 2dbd 86e4 0dbd 66cb 5ebd
000000d0: 2dda 043d 7d49 e23c c0c4 1b3d 723b 253d
000000e0: 92c5 ccbc a345 cabc 26ed 633c 39e9 59bd
000000f0: fcdb e53c 3939 803c e175 ddba 7e5a cf3c
00000100: fe2f a0bc b60c 1abd 0e18 343d 997a 6d3d
00000110: a09e 6f3d de95 1fbd 997d de3c 581c 8ebc
00000120: 428d 5d3d 3e55 48bd 88a7 9c3c 7403 96bb
00000130: a237 0abd afca 2ebd d64a edbc 9d58 0f3d
00000140: ad06 9dbc 6cb0 7e3c 3a0a 5bb8 7a7d b7bc
00000150: b6dc a73b d2b5 3b3d 3dab b4bc b1b3 9bbc
00000160: be89 75bd 3818 fbbc 58ec 9f3b 6d47 24bd
00000170: 2b9f a8bc e72a 0dbd cc33 78bd 52c2 283d
00000180: af74 7d3d 2cbc c6bc 2731 ca3c 47bf 9dbc
00000190: 620c f53c c8f2 22bd ac79 0ebd 5fc3 983c
000001a0: f138 54bd f959 43bd 1048 b73c 570e 5fbd
000001b0: 2a2b 9f37 5bdb 3fbd b935 ca3c 322c 3bbd
000001c0: 7f92 1cbd e7d1 59bd 6db7 b9bc 2770 3c3d
000001d0: 16a6 4e3c b381 26bd 6743 b4bc 1df9 283d
000001e0: f5f6 5b3d 37c8 143c 330b 743d 6032 4fbd
000001f0: 7fe3 c53c 8de1 8bbc d322 95bc 9fb3 71bd

4.weight f4 [128]
1.0042224 0.9903589 1.0000502 0.9970842 1.0019563 0.9866838 1.0055177 0.9915633
1.0058026 1.0094603 1.0072181 1.008252 1.003435 0.99377114 0.99421036 0.9949054
0.9973175 1.004033 1.0049608 0.99500287 1.0100808 1.0038043 1.0067378 1.0073816
0.99830383 0.9975019 0.99983543 0.9953417 1.003159 0.9961895 0.9922643 1.0045294
0.9902379 0.99185854 0.9883714 1.0048058 0.99690515 1.0056791 1.0089631 0.9832908
0.9896011 1.0044676 1.0101953 0.9951512 0.98543406 0.9985236 0.9966907 0.99611646
0.99436986 1.0082701 0.99578136 1.0096941 0.993371 1.0018042 1.0033486 0.9918385
1.003197 0.9908513 0.9941936 0.9915735 1.0011412 0.98979944 1.0011789 0.9981992
1.0020401 0.9951304 1.0062985 1.0031483 1.0016724 1.0079129 0.99032164 1.009538
0.99961156 0.99904966 0.9955092 1.006882 0.99241716 0.9990608 1.0044783 1.00504
0.9858586 1.0055393 0.99792683 0.9975558 0.99633235 1.0005116 0.991007 1.0112183
0.99113935 0.99426425 1.0007634 0.9893727 1.003688 1.0022858 1.0048066 1.0052493
1.0070783 0.9960158 0.9986414 1.003995 1.0058506 1.0023321 1.0112884 0.9946915
1.0070217 1.0021541 0.9957617 0.99548393 1.002957 1.0031685 1.0001239 0.9963179
0.9914044 0.989818 0.99215674 0.98513955 1.0113162 0.9922312 0.9938229 1.0022218
0.9974208 0.9954757 0.9931064 0.9976586 0.9983578 0.9933342 1.0082232 0.99744624
00000000: 5c8a 803f 2988 7d3f a501 803f e940 7f3f
00000010: 1b40 803f 4f97 7c3f ceb4 803f 18d7 7d3f
00000020: 24be 803f ff35 813f 86ec 803f 670e 813f
00000030: 8f70 803f c967 7e3f 9284 7e3f 1fb2 7e3f
00000040: 3350 7f3f 2784 803f 8ea2 803f 82b8 7e3f
00000050: 544a 813f a97c 803f c9dc 803f e1f1 803f
00000060: d790 7f3f 495c 7f3f 37f5 7f3f b7ce 7e3f
00000070: 8467 803f 4606 7f3f 0805 7e3f 6b94 803f
00000080: 3b80 7d3f 71ea 7d3f e805 7d3f 7a9d 803f
00000090: 2d35 7f3f 18ba 803f b425 813f f2b8 7b3f
000000a0: 7f56 7d3f 6592 803f 144e 813f 3bc2 7e3f
000000b0: 6845 7c3f 3e9f 7f3f 1f27 7f3f 7d01 7f3f
000000c0: 068f 7e3f ff0e 813f 87eb 7e3f a83d 813f
000000d0: 904d 7e3f 1f3b 803f ba6d 803f 21e9 7d3f
000000e0: c268 803f 6ea8 7d3f 7983 7e3f c3d7 7d3f
000000f0: 6525 803f 7f63 7d3f a126 803f fc89 7f3f
00000100: da42 803f dec0 7e3f 64ce 803f 2a67 803f
00000110: cd36 803f 4a03 813f b885 7d3f 8b38 813f
00000120: 8be6 7f3f b8c1 7f3f b1d9 7e3f 82e1 803f
00000130: 0d0f 7e3f 73c2 7f3f bf92 803f 27a5 803f
00000140: 3b61 7c3f 83b5 803f 2278 7f3f d15f 7f3f
00000150: a30f 7f3f c410 803f a2b2 7d3f 9a6f 813f
00000160: 4fbb 7d3f 1a88 7e3f 0419 803f 8747 7d3f
00000170: d978 803f e74a 803f 819d 803f 02ac 803f
00000180: f1e7 803f e4fa 7e3f f6a6 7f3f e882 803f
00000190: b6bf 803f 6b4c 803f e671 813f 1aa4 7e3f
000001a0: 16e6 803f 9646 803f 3dea 7e3f 09d8 7e3f
000001b0: e560 803f d367 803f 0f04 803f b10e 7f3f
000001c0: aecc 7d3f b664 7d3f fcfd 7d3f 1b32 7c3f
000001d0: cf72 813f dd02 7e3f 2d6b 7e3f ce48 803f
000001e0: f856 7f3f 7fd7 7e3f 393c 7e3f 8e66 7f3f
000001f0: 6094 7f3f 264b 7e3f 750d 813f a358 7f3f
