notebooks/best_model_linear_mse.pth (torch, 3072 bytes, 3 tensors)

layers.0.weight f4 [64, 1]
000000 4f 2e 26 40 68 16 27 c0 45 0a 29 3c 46 0a a0 3e
       2.5965765 -2.6107426 0.01031739 0.31257838
000010 0c 49 22 40 49 33 21 c0 14 37 32 c0 db fc 19 40
       2.5357084 -2.5187552 -2.7846117 2.406058
000020 80 01 09 c0 17 00 18 40 ef e2 af 3e c0 24 8e bf
       -2.1407166 2.3750055 0.34352824 -1.1104965
000030 fa 47 a7 3e ca 3d e3 bf b9 d3 dc 3e 29 19 21 c0
       0.326721 -1.7753232 0.43130282 -2.5171607
000040 28 68 d0 3f 3a d3 a1 3f 5b a4 1e c0 b7 2c 0b 3f
       1.6281786 1.2642586 -2.4787815 0.54365104
000050 db ef 15 c0 0b 73 0b 40 9a a3 2c c0 6b 87 b9 bf
       -2.3427646 2.1788967 -2.6974854 -1.4494451
000060 ae 88 cd be 33 c4 1f 40 6f eb 37 40 f9 23 37 c0
       -0.4014334 2.49635 2.8737447 -2.8615706
000070 a7 43 ac bf 7f 78 57 3f 9e cf f7 3f f7 68 0a 40
       -1.3458146 0.8416824 1.9360235 2.1626565
000080 a1 45 90 3f 6d 0d ae bf 05 8a 24 40 3b 2a 12 c0
       1.1271249 -1.3597847 2.570924 -2.2838275
000090 d9 f8 bd be fc fa 24 40 3c da 6e bf ea d1 02 c0
       -0.37103918 2.5778189 -0.9330175 -2.0440621
0000a0 67 57 cb 3e 4a 91 ac 3f 4a 23 1d 40 5a d3 b5 3f
       0.3971512 1.3481839 2.4552789 1.4205124
0000b0 71 f5 9f 3e b4 6d 51 bf 40 e9 fd bf 0e 39 1a 40
       0.31241944 -0.8180802 -1.9836807 2.4097323
0000c0 a9 f9 c7 be 45 b5 06 40 7b 53 22 c0 6c 7e e2 be
       -0.39057663 2.1048138 -2.5363452 -0.44237077
0000d0 42 22 60 3f 28 cf c1 3f d3 01 24 c0 86 e8 1e 40
       0.87552273 1.5141344 -2.5626113 2.482942
0000e0 1e 7c 10 c0 e3 25 08 40 27 81 17 40 a2 88 f1 bd
       -2.2575755 2.1273124 2.3672578 -0.11793639
0000f0 98 62 a4 bf e4 23 d0 bf 4c 8e 1d 40 1f 64 a4 bf
       -1.2842588 -1.6260953 2.46181 -1.2843055

layers.0.bias f4 [64]
000000 ac 52 33 bf 8d 5d 89 be 3b da 1d be 87 db 73 3f
       -0.7004802 -0.26829186 -0.1541528 0.9525685
000010 11 20 7a be f3 9d 79 bf fd 33 ce be a1 f5 57 3f
       -0.24426295 -0.97506636 -0.4027404 0.84359175
000020 5c fd 49 be ce 0a 8f 3e 2b 03 3d 3f 58 22 7c bf
       -0.19725555 0.2793793 0.7383296 -0.98489904
000030 7e 72 e9 3d 3d 11 01 be 87 94 46 3f 96 cd bc bd
       0.11398791 -0.12604232 0.77570385 -0.092189
000040 f4 59 36 3f 11 b7 70 3f 09 70 10 be 71 a1 6f 3e
       0.7123101 0.9402934 -0.14105238 0.23401429
000050 96 f6 01 bf a9 ef 18 3f c4 82 a6 3e 6e ed 0f bf
       -0.50766885 0.5974069 0.3252164 -0.56221664
000060 59 f4 45 bf f6 08 17 3f e9 a8 d7 3e 8b 9d ce be
       -0.7732597 0.5899805 0.42121056 -0.4035457
000070 60 7f 5e bf ad 3a 3f 3f 5f fd 73 3f 7e 96 f3 3d
       -0.8691311 0.7469891 0.9530849 0.118939385
000080 95 bd c5 3e 6d 02 86 bf 11 10 b7 3e 48 56 ee 3e
       0.38621202 -1.046949 0.35754445 0.46550202
000090 01 2b 74 bf 02 9e 51 3f 8f e5 15 bf 91 8c 66 bf
       -0.9537812 0.81881726 -0.58553404 -0.9005824
0000a0 8e dd b6 3e 07 1f ae 3d df ce 89 3f 38 fe 7c 3f
       0.35715908 0.08502012 1.0766257 0.9882541
0000b0 04 1d 8b 3e 57 88 85 bf cc 9c 27 be 1f 36 42 3f
       0.27170575 -1.0432233 -0.16368407 0.7586383
0000c0 fb 50 3d bf 81 9d 32 3e 80 16 3a bf 2c ba 6e bf
       -0.7395169 0.17442895 -0.7269058 -0.93252826
0000d0 91 b9 54 3f d2 43 23 3f 20 d6 3c bf c0 59 ca 3e
       0.8309565 0.6377536 -0.7376423 0.395216
0000e0 2f c6 73 bf 19 0e 97 3e 43 41 c3 be d0 df 44 bf
       -0.9522428 0.29502943 -0.38135728 -0.7690401
0000f0 2d 24 69 bf a6 f6 2b bf 8f 20 dc bc 13 ab 3f bf
       -0.91070825 -0.6717323 -0.026870994 -0.74870414

layers.2.weight f4 [1, 64]
000000 eb e8 be 3e 03 8b 4e bf 7c e1 87 ba 6f ea 17 3e
       0.37287077 -0.80680865 -0.0010366882 0.14835523
000010 f1 f2 8d 3f 0e dd b6 be 9f 31 1b bf 00 7e e4 3e
       1.1089765 -0.35715526 -0.6062259 0.4462738
000020 2c 94 88 bf 2b fc 12 3f 65 4a 1a 3e 6f a0 20 be
       -1.0670218 0.5741603 0.15067442 -0.156862
000030 1f 5f dc 3c 28 85 8b bf 35 b0 bd 3d e7 64 b5 bf
       0.026900826 -1.0900011 0.092621244 -1.4171418
000040 96 03 09 3e 98 43 a4 3e b7 4d a2 bf a4 37 f8 3d
       0.13380274 0.3208282 -1.2679967 0.121199876
000050 96 35 c5 be e2 6a 05 3f b8 50 39 bf 9f 8d 4e be
       -0.38517445 0.52116215 -0.7238879 -0.20171212
000060 d3 07 8f bd 8e 5f 22 3f ab 96 33 3f 87 58 12 bf
       -0.06983914 0.63427055 0.70151776 -0.5716633
000070 66 25 82 be 11 00 84 3e a4 2d cd 3e 30 55 49 3f
       -0.25419158 0.257813 0.40073884 0.7864561
000080 46 df ac 3e 37 7f 9d be 8f 01 37 3f 46 7f e4 be
       0.33764094 -0.3076112 0.71486753 -0.44628352
000090 34 be 9b bd 9b d8 97 3e bb e6 db bd 33 7e cf be
       -0.07604638 0.29657444 -0.10737368 -0.4052597
0000a0 8b 78 8e 3c d0 52 4c 3f da 2a cc 3e 4b 86 8a 3e
       0.017391464 0.7981386 0.39876443 0.27055582
0000b0 88 96 f4 3d b4 78 07 be cc 47 84 bf c4 15 0e 3f
       0.11942774 -0.13229638 -1.0334411 0.5550196
0000c0 36 30 e7 bd 08 bf 84 3f f8 37 c1 be 72 a3 0b be
       -0.112884924 1.0370798 -0.37738013 -0.13636568
0000d0 45 2a 41 3e 07 77 c5 3e 76 ce f5 be c1 d1 2b 3f
       0.18863781 0.38567373 -0.4800908 0.67116934
0000e0 3e 09 bd be 10 62 44 3f 89 2b 01 3f e5 f2 ff bd
       -0.36921114 0.7671213 0.50457054 -0.124975
0000f0 02 20 96 be 4c a6 85 be e7 8c be 3f 0b 15 ba bd
       -0.29321295 -0.26103437 1.488675 -0.09086045
