notebooks/best_model_relu_mae.pth (torch, 3056 bytes, 3 tensors)

layers.0.weight f4 [64, 1]
-0.99124074 0.21724737 0.08854783 -2.4630623 -0.6498586 -1.4262722 0.98529005 0.64232624
1.2345014 -1.3309242 -0.1501534 0.83892334 0.8246903 -1.5182654 0.6426975 -1.1518738
-0.43039763 -0.4597334 -1.4862138 0.94090366 0.76753116 0.23222637 1.2552587 0.0830971
-0.00466156 -0.7186497 0.06932682 -0.8026353 0.016849399 12.275334 -1.447279 -1.1036993
0.71773016 -0.82996285 -1.3059727 0.9398894 15.142092 16.36611 1.611778 16.075481
1.4500962 0.11454955 1.176593 -0.9315182 -1.3557285 -1.060358 0.3975376 -0.61817366
0.43430996 -0.11250901 1.5710081 0.62260103 0.38309145 -0.59067404 0.47533703 1.1180253
-0.8649043 -1.3607223 0.43223536 1.3976629 -0.5981685 -0.6900121 0.16413558 0.23850286
00000000: f4c1 7dbf 1876 5e3e 9158 b53d d0a2 1dc0
00000010: 225d 26bf 1690 b6bf f83b 7c3f 7e6f 243f
00000020: 2404 9e3f b95b aabf d0c1 19be aec3 563f
00000030: e71e 533f 8556 c2bf d387 243f 9a70 93bf
00000040: 145d dcbe 2d62 ebbe 413c bebf 10df 703f
00000050: ec7c 443f c0cc 6d3e 51ac a03f d02e aa3d
00000060: 00c0 98bb 6df9 37bf 38fb 8d3d 8279 4dbf
00000070: c007 8a3c c567 4441 7040 b9bf 0546 8dbf
00000080: 2abd 373f 7278 54bf 1d2a a7bf 979c 703f
00000090: 0246 7241 cbed 8241 be4e ce3f 969a 8041
000000a0: c19c b93f f498 ea3d 999a 963f fa77 6ebf
000000b0: 8388 adbf d0b9 87bf 0c8a cb3e a140 1ebf
000000c0: e05d de3e 206b e6bd cb16 c93f c862 1f3f
000000d0: 9024 c43e 6a36 17bf 605f f33e 741b 8f3f
000000e0: 5e6a 5dbf 262c aebf f44d dd3e 9ee6 b23f
000000f0: 9221 19bf a2a4 30bf 2813 283e 183a 743e

layers.0.bias f4 [64]
-0.7616985 0.12310498 0.40279064 -0.1778984 -0.79523027 0.741917 0.45653406 -0.38336003
0.8966032 0.5985482 -0.4078846 -0.36726284 0.074697256 0.015888307 0.59854037 0.21999545
-0.90445423 0.0726012 0.0788528 -0.045404315 -0.6046854 0.6155563 0.57675636 -0.86326754
-0.21947825 0.015466827 0.9376572 -0.8470907 -0.63470113 0.51799905 0.6454838 0.11813055
-0.04329467 0.72743315 0.6706412 0.5117233 0.46056107 0.37760523 0.97458 0.31107464
0.6729775 0.3307433 0.5252815 0.848599 0.9046173 0.8516099 -0.9784827 0.049337666
-0.023048759 -0.72596014 0.85990846 -0.61902225 -0.69532347 0.85729045 -0.81631684 0.51671535
-0.7369807 0.10345521 -0.032324195 0.7446188 -0.9336008 -0.7016643 -0.6041876 -0.5057844
00000000: acfe 42bf 771e fc3d 933a ce3e 002b 36be
00000010: 3694 4bbf 46ee 3d3f d5be e93e c447 c4be
00000020: ca87 653f 743a 193f 40d6 d0be e009 bcbe
00000030: e0fa 983d 3228 823c f139 193f 7d46 613e
00000040: 508a 67bf f0af 943d 947d a13d e0f9 39bd
00000050: aacc 1abf 1995 1d3f 4ea6 133f 1aff 5cbf
00000060: e8be 60be 9368 7d3c 4d0a 703f f0da 58bf
00000070: c67b 22bf 969b 043f 6d3e 253f 6eee f13d
00000080: c055 31bd 0f39 3a3f 24af 2b3f 4c00 033f
00000090: a9ce eb3e 7955 c13e 137e 793f 2d45 9f3e
000000a0: 4148 2c3f 3057 a93e d978 063f c93d 593f
000000b0: 0095 673f 1b03 5a3f d87d 7abf 4b16 4a3d
000000c0: c0d0 bcbc 86d8 39bf f622 5c3f 3e78 1ebf
000000d0: b800 32bf 6377 5b3f 24fa 50bf 7547 043f
000000e0: c4aa 3cbf 53e0 d33d 6066 04bd 569f 3e3f
000000f0: 7600 6fbf 46a0 33bf 0aac 1abf 167b 01bf

layers.2.weight f4 [1, 64]
0.0159515 0.015565289 0.060066458 2.6225264 0.025934562 -0.16286214 0.27628732 0.11970183
0.13931808 -0.09592817 -0.008131251 0.116399795 0.4516994 -0.70349216 0.024498833 -0.14805596
-0.07470904 -0.071801916 -0.39598802 -0.031199515 -0.10958058 0.08222358 0.23444134 0.09789382
-0.02122721 -0.331592 0.044183165 0.08390407 -0.0020598322 12.9458 -0.116572894 -0.2562167
-0.058569774 -0.09619832 -0.09572421 0.030639345 15.7633915 17.972824 0.15724961 19.28954
0.15384631 -0.010865935 0.31494597 -0.10250467 -0.105081335 -0.09647684 0.123518065 -0.25438097
0.009215966 -0.036028594 0.19784205 -0.11715309 -0.059921175 -0.07629303 -0.061312795 0.2739085
0.096147105 -0.2754334 0.07071769 0.10266489 -0.10355729 -0.12419154 0.0129932165 -0.022763222
00000000: b8ac 823c 8e05 7f3c 3f08 763d 79d7 2740
00000010: b874 d43c 55c5 26be 8875 8d3e 3c26 f53d
00000020: 66a9 0e3e fd75 c4bd f038 05bc 0463 ee3d
00000030: 2545 e73e 1018 34bf c7b1 c83c fb9b 17be
00000040: 0e01 99bd e20c 93bd f1be cabe 2096 ffbc
00000050: c86b e0bd d664 a83d 6411 703e 8e7c c83d
00000060: b0e4 adbc 6dc6 a9be 68f9 343d e6d5 ab3d
00000070: 40fe 06bb ff21 4f41 c5bd eebd d62e 83be
00000080: dce6 6fbd a003 c5bd 0e0b c4bd 5dff fa3c
00000090: da36 7c41 58c8 8f41 0b06 213e fa50 9a41
000000a0: e389 1d3e 0907 32bc 9940 a13e f8ed d1bd
000000b0: e234 d7bd a695 c5bd 0af7 fc3d 393e 82be
000000c0: 90fe 163c b892 13bd 1b97 4a3e f6ed efbd
000000d0: e86f 75bd 853f 9cbd 2023 7bbd bc3d 8c3e
000000e0: c6e8 c43d 9b05 8dbe 70d4 903d f841 d23d
000000f0: d815 d4bd 2258 febd 80e1 543c f079 babc
