notebooks/best_model_linear_mae.pth (torch, 3072 bytes, 3 tensors)

layers.0.weight f4 [64, 1]
000000 4e a8 85 bf df 5a a1 be 53 14 88 bf da 25 36 3f
       -1.0441988 -0.31514642 -1.0631202 0.71151507
000010 f1 62 48 3f 2c 6b c2 3e 45 6b 69 3f b3 80 da be
       0.7827597 0.3797239 0.91179305 -0.42676315
000020 ed eb 40 3f d0 24 50 3f ec 15 83 3f fd ab 38 be
       0.75359994 0.8130617 1.0241065 -0.18034358
000030 f5 a0 2b 3e f2 ab f1 be 9c d0 bb 3e b5 5d 8b 3f
       0.16760619 -0.47201496 0.36682594 1.0887972
000040 0c 2f 59 be 7d a2 71 bf 15 d8 54 bf 8a 8e 51 3f
       -0.21209353 -0.9438856 -0.83142215 0.8185812
000050 a4 b4 38 3e 5e eb 13 bf 37 8c 55 bd 27 b1 d0 be
       0.18037659 -0.57781017 -0.052135672 -0.40760157
000060 8e 02 3e bf bc 5c 8e bf 2b 0d 71 bf ed cb 61 bf
       -0.7422265 -1.112205 -0.9416072 -0.8820179
000070 02 62 44 bf 05 4b c9 3e 8c fb 7a bf 4d 9d c8 3d
       -0.7671205 0.39315048 -0.9804008 0.09795628
000080 77 54 05 3f 16 22 03 bf f1 d6 92 3e 64 14 60 3f
       0.5208201 -0.51223886 0.28679612 0.87531114
000090 01 9e e0 3e f0 a9 60 3f 8d b7 4d 3f dd 8e f2 3e
       0.43870547 0.87759304 0.803582 0.4737462
0000a0 f0 0f 61 3f d7 69 62 3f d5 aa df be fc b8 52 bf
       0.87914944 0.8844275 -0.43685022 -0.82313514
0000b0 de 76 62 3f ab 28 24 bf 7a 15 6a bf b2 e0 dc be
       0.88462627 -0.64124554 -0.9143902 -0.4314018
0000c0 2a c4 85 bd 19 a6 90 be 14 51 62 bf 75 78 d8 3e
       -0.06531556 -0.28251722 -0.88404965 0.422794
0000d0 27 44 63 bf 3a ea 69 be c2 de 73 3f 16 fd 01 3f
       -0.8877587 -0.22843257 0.95261776 0.50776803
0000e0 38 49 11 3f 59 a2 57 bf 7f 4e b5 bd 73 c8 76 bf
       0.5675235 -0.842321 -0.088528626 -0.9639961
0000f0 b6 0c 48 bf 4e 89 5b be e7 6d 2a 3f 7c a7 71 3f
       -0.78144395 -0.21439096 0.6657395 0.94396186

layers.0.bias f4 [64]
000000 fb 49 05 bf 92 f2 10 3f 4d d5 31 be d8 fe 9f 3e
       -0.5206601 0.5662013 -0.17366524 0.31249118
000010 5c 40 65 bf 3f 7c 57 3e 2c 6a 0f bf 4b 73 10 bf
       -0.8955133 0.2104349 -0.5602138 -0.56425923
000020 63 29 d2 3e 99 e6 09 bf ce 0f 11 be 10 fb 3f bf
       0.410472 -0.5386749 -0.14166185 -0.74992466
000030 aa d5 57 bf 7d d7 3c bf a5 1a 60 bf 47 e8 94 be
       -0.843104 -0.7376631 -0.87540656 -0.29083464
000040 7d 12 43 3e 10 96 67 bf 1d 59 40 bf 4e 44 df bd
       0.19050021 -0.9046335 -0.75135976 -0.109017
000050 d6 74 14 3e 79 10 e2 3d 33 6a 00 bf ab d4 19 bf
       0.14497694 0.11038298 -0.5016205 -0.6009013
000060 3a de 89 3e 28 ed 92 be 3e 7e e1 3e f9 5c 6f be
       0.26927358 -0.2869656 0.44041628 -0.2337531
000070 18 63 c9 be cd 9f 1f bf 40 e8 70 3f 6d 04 b9 3a
       -0.39333415 -0.6235321 0.94104385 0.0014115699
000080 2b 14 8e 3e de 45 9e 3d df 1b a5 3e 4f dc 97 3e
       0.27749762 0.0772817 0.32247826 0.2966027
000090 b5 e2 da 3e 42 01 1c 3f ed 36 96 be 96 19 30 bf
       0.4275109 0.6093942 -0.2933878 -0.6878904
0000a0 9c 91 81 3f ea e0 5e bc 98 f8 1b 3e 88 57 3d be
       1.0122561 -0.013603428 0.1523155 -0.18490422
0000b0 bb 98 91 3e f0 43 79 3f 58 31 1b 3f a7 0f 24 bf
       0.28436837 0.9736929 0.6062217 -0.64086384
0000c0 d9 ab 09 bf 1b 99 5c 3f 4b da cc 3e 3a 63 94 bd
       -0.53777844 0.8617112 0.40010294 -0.072454885
0000d0 b6 3e 6e 3f 96 f8 96 be bb 2e 94 bc 21 8d 09 bf
       0.9306444 -0.2948653 -0.01808869 -0.5373097
0000e0 5e 21 00 bf bb 92 e7 3e 1e 2c 8f be 8a 4d 15 be
       -0.50050914 0.45229134 -0.27963346 -0.1458036
0000f0 d8 5c 06 3c 40 64 26 3f 90 39 0c 3f cd f3 23 bd
       0.008200847 0.6499672 0.54775333 -0.04002743

layers.2.weight f4 [1, 64]
000000 79 08 be bd d0 8d bc 3d 93 72 64 be 6c 2b d4 3d
       -0.0927896 0.09206736 -0.22309332 0.103598446
000010 6b 4d 0a bd 9d 7e d5 bc 23 28 8d bd f8 bf cb bd
       -0.033765238 -0.02606135 -0.06892421 -0.099487245
000020 40 ce 2b 3e ae fe e9 3d dd 46 a3 3d 6c 29 51 3c
       0.16777897 0.114255294 0.079725005 0.012766223
000030 5f 5b 15 3c 48 c2 b6 bd a0 c9 1c bd 81 90 f8 3c
       0.009116023 -0.08923775 -0.038278222 0.030342342
000040 81 6d 98 bd 88 da 8e 3b 1d 88 10 3d 8c 7e f6 3d
       -0.07442761 0.004359547 0.035286058 0.12035856
000050 24 9d 1a 3c ab d0 a0 bc bb d2 00 bd 37 7a 04 bd
       0.009436879 -0.01963075 -0.03145097 -0.032343116
000060 93 35 9a 3d db a3 32 be 6f 87 32 bd 95 dd 25 3d
       0.0752975 -0.17445318 -0.04358619 0.04049452
000070 16 76 a3 bd 1a 31 fa bd ce 5d 8d bd 55 84 13 3d
       -0.079815075 -0.12216397 -0.069026574 0.036014874
000080 24 7e 1a 3d fb 0f 8b bc a6 63 94 3c 27 7a d5 bb
       0.037717953 -0.016975394 0.018113922 -0.006514806
000090 f6 77 1f 3e 0a a2 13 3e b0 03 45 bc b9 f3 9f 3d
       0.15573105 0.14417282 -0.012024805 0.07810158
0000a0 c7 28 2c 3d d3 11 6b 3d 54 de e5 3d 35 40 21 bd
       0.042031076 0.057390045 0.11224046 -0.039367873
0000b0 e0 74 21 3d 8c cf 14 3d ff ae 8b bd f5 4c 56 3d
       0.0394181 0.036330745 -0.06820487 0.052319486
0000c0 21 1d 98 3c 2f 26 0a 3e 7e 57 d6 bd ce 33 b4 bd
       0.018568577 0.13491128 -0.104659066 -0.087989435
0000d0 61 9c b0 bd 01 c8 68 3d 31 bf 01 3e a0 62 50 3d
       -0.08623577 0.056831364 0.1267059 0.050875306
0000e0 7d f3 35 3c aa 17 37 bd 7f 21 8a 3c a4 82 7d be
       0.011105415 -0.044700302 0.016861675 -0.24756867
0000f0 a7 05 c3 bc f6 75 14 bd e8 be 91 bd 9a 64 00 3e
       -0.023806406 -0.03624531 -0.071164906 0.12538376
