models/mlp/best_model_linear_mse_log.pth (torch, 3168 bytes, 3 tensors)

layers.0.weight f4 [64, 1]
00000000: c448 3abf c2a5 563f bc33 dbbe e033 e53d
00000010: 7859 6e3e 809b 143c 3a90 463f 926d 32bf
00000020: b0b3 87be 78f7 363e 626f 70bf 40a7 da3d
00000030: 0847 21bf c03e edbc 4c24 da3e 56cf 383f
00000040: 64d7 e0be 6c27 393f e000 1a3e e8f9 7dbf
00000050: fc2c 823e 7465 1bbf 5283 303f cce3 92be
00000060: 6ef4 70bf 9a9f 56bf 8844 6ebe e8dc 27bf
00000070: f434 7fbf 1493 36bf 8064 fabd 9418 eabe
00000080: 2e51 09bf 7091 013e e05c b73d 40d2 283f
00000090: 9c20 04bf 40e1 1bbd 1073 2c3e 9043 c63e
000000a0: 04ce e4be 40f8 a7bd def4 53bf 88af 6fbe
000000b0: 76c1 03bf c0fa 1fbd 48b7 d53e b4e3 b6be
000000c0: 668d 75bf 42ec 123f 1879 f7be 681e 243f
000000d0: c8fd c03e a8f5 553f 982a 6fbf 30e8 02be
000000e0: f81d 433e 908e 4ebe f637 2fbf c86f 38bf
000000f0: 0ca9 9ebe 4ed7 16bf 283d bb3e b06a 35be
-0.7276728 0.83846676 -0.42812908 0.11191535 0.23276317 0.009070277 0.7756382 -0.6969844
-0.26504278 0.1786784 -0.93919957 0.10676432 -0.6299901 -0.028960586 0.42605817 0.7219137
-0.4391433 0.7232578 0.15039396 -0.9920945 0.25424945 -0.6070168 0.6895038 -0.2868942
-0.9412297 -0.8383728 -0.2326833 -0.6557145 -0.99690175 -0.71318173 -0.122262 -0.45721877
-0.53639495 0.12653136 0.089532614 0.65945816 -0.5161226 -0.038056612 0.16840768 0.3872342
-0.44688427 -0.08201647 -0.8279551 -0.23406804 -0.5146707 -0.039057493 0.41741395 -0.357206
-0.9591888 0.5739175 -0.48334575 0.64108896 0.3769362 0.83577967 -0.9342437 -0.12783885
0.19054401 -0.20171571 -0.68444765 -0.72045565 -0.30988348 -0.5892228 0.36570096 -0.1771648

layers.0.bias f4 [64]
00000000: f65f 68bf f8f8 513e a4df 6dbf 7805 49bf
00000010: f441 efbe 54cb a7be cc6f 92be 786d 59bf
00000020: fe52 4cbf b06a 6bbe 84a1 c33e 0068 7e3c
00000030: 9274 63bf b02b 6a3e 5083 23bf 4e7c 093f
00000040: 7077 673f c67f 383f 564c 493f 66c6 67bf
00000050: d6be 5dbf d025 6f3e 105c 9e3e 02f6 1e3f
00000060: 10c4 37be e0e3 8d3e 00b3 753d e0ef 103e
00000070: 76b1 5bbf 084a ccbe 44ee 463f 26f2 543f
00000080: 18df 46be 8895 2a3f c495 a73e 4e81 4f3f
00000090: 62c2 643f 5626 263f b829 1ebe f6ed 3e3f
000000a0: 7ce2 293f ae85 5ebf 000a 2ebb d0f3 233f
000000b0: dcca d23e d0ed fbbe 56ff 5abf 28dc a13e
000000c0: 14ca b33e 70a3 f03e b26f 5fbf 4e50 66bf
000000d0: 64dd b33e 4a9c 6ebf 52d9 1f3f a848 283f
000000e0: 28d6 10bf d0e0 ba3e cc1b 99be 407b 913e
000000f0: cc75 803e 2c7a 0fbf b670 4f3f 207c ffbd
-0.90771425 0.2050513 -0.92919374 -0.7852397 -0.46730006 -0.32772315 -0.2860092 -0.8493266
-0.79814136 -0.22989917 0.38209164 0.015527725 -0.8884975 0.22868228 -0.6387224 0.537053
0.9041662 0.72069967 0.78632104 -0.90537107 -0.8661932 0.23354268 0.30929613 0.6209413
-0.17945886 0.27712917 0.05998516 0.14154005 -0.8581766 -0.3990023 0.77707314 0.8318199
-0.19421041 0.66634417 0.3273145 0.8105668 0.89359105 0.64902246 -0.15445602 0.7458185
0.6636121 -0.8692273 -0.0026556253 0.64043903 0.41170394 -0.49204874 -0.8554586 0.31613278
0.3511511 0.46999693 -0.8727981 -0.89966285 0.35129845 -0.9320723 0.6244098 0.65735865
-0.56576777 0.36499643 -0.2990402 0.28414345 0.25089872 -0.56045794 0.8103136 -0.12474847

layers.1.weight f4 [1, 64]
00000000: 5c07 24bd 6614 ae3d 3022 1abc 0638 c53d
00000010: 467b d53d c291 b53d 56b7 92bd 60e4 a5bb
00000020: 220e cdbd f8e3 adbd 7429 a83d 3041 ddbc
00000030: e000 81bc d0ef b8bc bccb bebd 6472 1abd
00000040: c045 5e3d 5295 b63d a095 9bbc fcf2 5c3d
00000050: 5e5d a5bd 2237 94bd 5281 f73d 9491 67bd
00000060: d87a 823c 80cf 403d f8ef 97bd 7821 4a3d
00000070: 3080 a3bc 8063 ff3a b0a3 5e3c 08f5 e73d
00000080: 0839 f33c 4048 ca3c 287b d7bc fcc1 21bd
00000090: 28ef a3bd 80b9 c9bc d88e c03c bc1d a83d
000000a0: 320a c9bd 582d f8bc 8069 e83b a4b1 45bd
000000b0: b006 e4bc a0ff 3a3d 7670 d43d 12ad 8bbd
000000c0: 7213 b5bd 6896 a4bc c8f1 af3d f8c3 303d
000000d0: ec3d 7e3d b067 2ebc 0475 513d be24 cabd
000000e0: f8e3 c83c 4051 f5bd 06d5 953d aeab 9cbd
000000f0: 9e92 dabd 0ebf dbbd e826 663d f8a1 c8bc
-0.04004608 0.084999844 -0.009407565 0.09629826 0.10423903 0.08865692 -0.07163875 -0.005062625
-0.10012461 -0.08490747 0.082110316 -0.027008623 -0.015747488 -0.022575289 -0.09316203 -0.037706748
0.054265738 0.08915199 -0.018992245 0.053942665 -0.08074449 -0.07237078 0.12085213 -0.05653532
0.015927717 0.047072887 -0.07418817 0.049348325 -0.019958586 0.0019484609 0.013588831 0.11326033
0.02969028 0.024692655 -0.026303843 -0.03949164 -0.080046 -0.024624586 0.023505613 0.082087964
-0.09816398 -0.03029506 0.0070926547 -0.048265114 -0.02783522 0.04565394 0.10373013 -0.0682012
-0.088415995 -0.02009125 0.08591038 0.04315564 0.062070772 -0.010644838 0.051136985 -0.09870289
0.024522766 -0.11978388 0.073160216 -0.07649933 -0.10672496 -0.107298 0.056189448 -0.024491295
