models/mlp/best_model_relu_mae_2x64.pth (torch, 20466 bytes, 5 tensors)

layers.0.weight f4 [64, 1]
00000000: e775 52bf 33af 213f 1e38 60bf 5ae6 503f
00000010: 3468 163f c04d 103e 0af4 28bf 40c1 023f
00000020: fc22 a0bf a0ec 3e3f 7c67 623f 2056 54bd
00000030: b8a3 a4bf b83e 2ebe 00f9 44bf ef10 dd3e
00000040: 2d59 b53e a004 993d 70a3 c3bd e4b6 04bf
00000050: 4903 d73f 9ee9 6940 8675 02c0 b392 89bf
00000060: a944 afbf 1a8c 7740 0c85 e43f bdac 1840
00000070: 51bd c7bf 104e ddbd 5f9b 3dbf 3aeb 623f
00000080: 7a31 f9bf 7436 bf3e fed2 cfbf 403b a5be
00000090: 38c8 85be 0a38 38bf 71b2 b4bf 7bf2 9cbf
000000a0: e7a1 d23f 4021 8f3f 371e 083f 2cbc 943e
000000b0: 1647 833f 7110 d83f 93d7 b13f 74e0 6dbf
000000c0: 10c4 a5bb 5784 033f 9aa7 bb3d 1169 dbbf
000000d0: 077c db3f af47 a5bf 1e74 2cbf 00a8 32bf
000000e0: 4f2c 89be c0e6 29bf b52d b3bf 54e5 07c0
000000f0: 2eba 69bf 48f6 7140 9382 cdbf 6085 f43e
-0.82211155 0.6315796 -0.8758563 0.8160149 0.5875275 0.1409216 -0.65997374 0.51076126
-1.2510676 0.7457981 0.88439155 -0.051839948 -1.2862463 -0.17016113 -0.76942444 0.43176982
0.35419598 0.07471585 -0.095526576 -0.5184157 1.6797878 3.6548839 -2.038423 -1.0747894
-1.3692828 3.8679261 1.7853103 2.385543 -1.560465 -0.10805905 -0.740652 0.8864018
-1.9468224 0.37346232 -1.6236265 -0.32271767 -0.26129317 -0.7196051 -1.4116956 -1.2261499
1.6455659 1.1182022 0.53171104 0.29049814 1.0256069 1.6880018 1.3893913 -0.92920613
-0.005058773 0.5137381 0.09162827 -1.7141439 1.7147225 -1.2912501 -0.6736468 -0.697876
-0.26791617 -0.6636772 -1.3998324 -2.123372 -0.9129971 3.7806568 -1.6055473 0.47758007

layers.0.bias f4 [64]
00000000: 96b7 22bd 2a73 3d3f 2d28 e7be ee93 39bf
00000010: 07ab 3f3f 6080 8ebd 80b6 1b3f 4e0e 30bf
00000020: 4cac 76bd a0e2 59bd 0a28 4ebf 10b7 a0be
00000030: 4f58 7dbd 108c 27be 09e4 703f d9e4 fa3e
00000040: b6ae 5e3f bc51 d7be f46c 6abf 08f5 5fbf
00000050: ebda 563f 9c0a 203e 3ec5 653d 555b 413f
00000060: 55b2 4c3f 09e9 e83d 34d8 2f3f 7b9e 133e
00000070: 29ae e73e eed0 59bf 6ce8 12bd ff10 283f
00000080: 8b36 643f 3871 46be 885c 173e 1cf8 4fbf
00000090: 74a1 fabe 23a3 5a3f b430 ba3d fe76 f03e
000000a0: 0755 a93e 7935 de3e a038 d13e 68c3 d5be
000000b0: b4e6 e33e db93 fd3e b1e0 ae3e 289f 78bf
000000c0: d65a 3e3e 7bd4 4c3f 7e94 0f3f ff76 143f
000000d0: 6395 f23e 8af5 543d 8018 e0be 8cce e7be
000000e0: f3f6 343f b2c1 58bf 96a4 dc3c 057d 8c3e
000000f0: b9e3 73be 1a61 f63d fbbd f43c 4822 4fbf
-0.039725862 0.7400385 -0.4514784 -0.7249135 0.7487034 -0.06958079 0.6082535 -0.6877183
-0.06022291 -0.053194642 -0.80529845 -0.31389666 -0.061851796 -0.16362023 0.94097954 0.49002722
0.8698534 -0.42054546 -0.915725 -0.87483263 0.8392779 0.15629047 0.056096308 0.75529987
0.79959613 0.11372573 0.68689275 0.14415924 0.4525006 -0.85084426 -0.035866186 0.65650934
0.89145726 -0.19379127 0.14781392 -0.8123796 -0.48951304 0.85405177 0.09091321 0.46965784
0.33072683 0.4340017 0.40863514 -0.41750646 0.4451195 0.49526867 0.341558 -0.97117853
0.18589339 0.8001172 0.56085956 0.57994074 0.47379598 0.051991977 -0.43768692 -0.4527477
0.70689315 -0.84670556 0.02693395 0.27439132 -0.23817338 0.120302394 0.029875746 -0.80911684

layers.2.weight f4 [64, 64]
00000000: 54e4 603d 086d cabd de70 edbd b2b2 e93d
00000010: 0a55 e3bd 8094 64bb f4f9 8d3d 9652 f03d
00000020: f033 06bc 104d 273c 88a3 2f3d f096 463d
00000030: e003 103c c0ac a03b 5674 babd 561e f0bd
00000040: f45a 5e3d f8a8 853d 20b6 eabc 004a 18bc
00000050: 0a64 ec3d c07e 4e3c 7811 d8bc 34b9 16bd
00000060: 765a 93bd 20b8 033d 9057 083d 4cba 0dbd
00000070: 8289 8a3d d044 dabd 6c6f 43bd ceaf a4bd
00000080: e8a1 84bc 4092 d4bd 48b1 9d3d 8008 1b3d
00000090: 7c47 10bd b266 fdbd 8ced 4b3d 18a3 bb3c
000000a0: 140d 863d d05f 27bc 3868 f2bc 18ca 9c3c
000000b0: e06b c03b 2824 333d 10a5 cbbd 003d 27bc
000000c0: f865 803d 3eb2 b83d 7cee f63d 844d 85bd
000000d0: 906c 503d c451 df3d 50fe ab3c 9a49 eebd
000000e0: a4a4 71bd 0c92 5f3d 24be 23bd 605f 00bd
000000f0: 88fe dabd 2018 463d 88b2 e8bd f03c 2bbc
00000100: 68aa a93d 7ee7 cebd 44a7 323d d0ac 7c3d
00000110: 40d4 41bd 8efc bcbd 1e40 973d 0ef0 9bbd
00000120: 3071 bd3d b861 d53d 0c5c f83d 0c85 f13d
00000130: 8016 b23a 5e45 89bd 04e6 8b3d b8f2 debc
00000140: e040 393c e016 f43c 90ce a23c c0d0 c2bc
00000150: 4221 d4bd 82fc debd 987e cc3d c883 68bd
00000160: 9827 2ebd 2a0e 8fbd ce10 ad3d daed f23d
00000170: f8d4 9e3d 6848 823d fcdf 11bd 30d6 e1bd
00000180: d8b2 003d a0d9 e3bc 8264 f7bd 3083 c5bd
00000190: a885 a53c b47c 653d fa06 95bd 4036 adbc
000001a0: 00e7 44ba b6b0 9ebd 08cc 7a3d 7c36 a33d
000001b0: 1497 01bd 044d 38bd aa0f 8fbd d8a5 95bc
000001c0: b699 be3d 2061 acbb a21d d0bd 1ec6 e9bd
000001d0: 8036 613b 64ce 04bd 2098 483d 6c02 61bd
000001e0: 4ca2 45bd a05e f8bb 60c4 873b 608f eabc
000001f0: 4438 8e3d 5c17 9e3d e05a 2d3d 8664 a1bd
00000200: c747 263d adb6 3b3e 9eb9 c8bd e8fc f9bd
00000210: 7406 613e ae0a d0bd be14 56bd 603c e1bd
00000220: d7eb 64bc 9013 61bc 6094 f2bc 2a3f 903d
00000230: 6678 09be 46f0 cc3d d0ab b3bd 4888 1a3e
00000240: 6ea3 a23d 3a00 aabd d6be f43d acb6 f63d
00000250: 13c0 a23d 4b8c 4240 5a2f acbf 954e 25be
00000260: dd84 8bbe c450 6040 371c f63e 2a31 0240
00000270: 0dda c6be f611 cd3d d1ae 963c 9f74 3a3e
00000280: baa7 3dbe 285c d3bd d5a2 14bf 50bb 05bd
00000290: 6666 a3bd 30f1 d6bd 7cdf 81bf f0b8 30be
000002a0: 0fed d23e 5726 cc3e d183 dd3d 88a5 a3bc
000002b0: fb6a c73e a767 3e3e 2d05 f43e 7035 913d
000002c0: 803b 053e 4312 263e 6ca6 093e c8f8 85be
000002d0: 6cd7 213f e201 afbf 80d5 8b3b 8008 89ba
000002e0: 6a68 b0bc aeb5 ce3d 8f51 f8bf af9b 28bf
000002f0: 30bc ba3c 55b2 5a40 5da0 f5bf a8a7 93bc
00000300: ec3c 173d 681f d6bc a4a4 f3bd eab4 d7bd
00000310: 0800 743d 60e7 9bbc 20e8 ae3b 0031 d63c
00000320: 1821 f6bc 102f 49bc 2e38 dcbd d80e cabc
00000330: dc51 41bd d450 edbd e019 b2bc 9041 793c
00000340: a02d 5dbd 54ed 8bbd b4f9 d73d a0e8 b2bb
00000350: 5c92 6abd 72bf d83d ca3c f93d 4ac3 9a3d
00000360: 40d9 953b aa3f e13d 5847 eb3c dc44 7fbd
00000370: 26d7 fdbd a4af 7dbd f0b9 febc b2c1 fcbd
00000380: 1c4d acbd 70dc 8d3c d074 ddbd 3044 463c
00000390: 82e4 e43d b0e2 323d 003d 763d 76e3 853d
000003a0: 5ca1 7fbd d871 1abd d4cd 6f3d 3479 143d
000003b0: c09c 003d 0015 de3d ded0 af3d 600f a73d
000003c0: 74cd a0bd c023 6c3d 5849 a8bc e8fd 003d
000003d0: b803 00bd 8cab 43bd c07f bd3c dcbc c53d
000003e0: cce9 c1bd 8061 81ba 408f 85bc 6eb5 e83d
000003f0: a017 623c be43 f0bd eae6 dfbd 20c3 bd3c
0.05490525 -0.09884077 -0.11593793 0.114110366 -0.11100204 -0.0034878552 0.069324404 0.11734502
-0.008191094 0.010211244 0.042880565 0.04848379 0.008789986 0.004903406 -0.091042206 -0.11724536
0.05428596 0.06526369 -0.028651297 -0.009294987 0.115425184 0.012603462 -0.026375517 -0.036797717
-0.071949884 0.032158017 0.03328663 -0.034601495 0.06764509 -0.10657656 -0.047713682 -0.080413446
-0.016190484 -0.103794575 0.07699829 0.037849903 -0.035224423 -0.12373103 0.04978709 0.022904918
0.06545463 -0.010215715 -0.029590711 0.019139335 0.0058722347 0.043735653 -0.099435925 -0.010207415
0.06269449 0.09018372 0.12057206 -0.065089256 0.050884783 0.109042674 0.02099529 -0.11635132
-0.058994904 0.05458264 -0.039976254 -0.031340957 -0.10693079 0.04836285 -0.11362177 -0.01045154
0.082844555 -0.101027474 0.04361655 0.061688244 -0.047321558 -0.092278585 0.07385276 -0.07614146
0.092501044 0.10419029 0.121269315 0.11792955 0.0013587028 -0.06702684 0.068309814 -0.027215347
0.011306971 0.029796064 0.019873887 -0.02378118 -0.10357906 -0.10888006 0.09985083 -0.0567663
-0.04251823 -0.069851235 0.08450471 0.11861773 0.07755464 0.06361467 -0.035614 -0.11027181
0.03142056 -0.027813733 -0.12079717 -0.09644163 0.020205334 0.05602713 -0.07276721 -0.021144032
-0.00075112283 -0.07748549 0.061229736 0.079693764 -0.03163822 -0.044995323 -0.069854096 -0.018267557
0.09306662 -0.0052606016 -0.10161902 -0.11414741 0.003436476 -0.032423392 0.048973203 -0.05493395
-0.04825048 -0.0075796396 0.004143283 -0.02863282 0.069443256 0.07719299 0.042322993 -0.078805014
0.040595796 0.18331404 -0.09801029 -0.12206441 0.21975118 -0.10158287 -0.052265875 -0.10997844
-0.013972244 -0.013737574 -0.029611766 0.070432976 -0.13424835 0.10006766 -0.08773005 0.1509105
0.07941328 -0.083008245 0.119504616 0.12046561 0.079467915 3.0398128 -1.345195 -0.16143258
-0.27249804 3.5049295 0.480684 2.0342507 -0.38838235 0.100131914 0.018393906 0.1820855
-0.18521014 -0.10320312 -0.5806096 -0.03264934 -0.07978515 -0.104952216 -1.0146327 -0.17258048
0.41196486 0.39873 0.108161576 -0.019976392 0.38948807 0.18594228 0.476602 0.070902705
0.13010979 0.16217904 0.13442391 -0.26166368 0.6321933 -1.367245 0.0042673945 -0.0010454804
-0.021534164 0.100932464 -1.939989 -0.65862554 0.022794813 3.4171345 -1.9189564 -0.01802428
0.036923334 -0.026138023 -0.11896637 -0.105325535 0.059570342 -0.019031227 0.00533773 0.026146412
-0.030045077 -0.012279287 -0.10752903 -0.024665281 -0.047197208 -0.11587682 -0.021740854 0.015213385
-0.05399859 -0.06832376 0.10545674 -0.00545986 -0.057268485 0.1058339 0.12169798 0.0755678
0.0045730174 0.10998471 0.028720543 -0.06232153 -0.12394552 -0.061935082 -0.031094521 -0.12341632
-0.08413145 0.017317027 -0.10813296 0.012101218 0.11176397 0.043673217 0.060116768 0.06537525
-0.062409744 -0.037706226 0.058545902 0.0362484 0.03139949 0.10843849 0.0858476 0.081572294
-0.07851687 0.05765128 -0.020542786 0.031492144 -0.031253546 -0.04777102 0.023132205 0.09655163
-0.09468421 -0.0009870976 -0.016303658 0.1136273 0.013799578 -0.11731671 -0.10932715 0.023164332

layers.2.bias f4 [64]
00000000: 1ebb df3d 4cb8 4b3d 0f8e 253e 38b6 353d
00000010: 3dd4 a63d 4243 d63d 80b0 c53a 08e9 2abd
00000020: 0bf1 b73d d035 b3bc addf acbd b5fd 623d
00000030: 7e9f bfbd 9f3b d63d c616 d8bd 4798 aabd
00000040: b3be 6f3d 5c03 1f3d 113d 063e 00ff 6ebb
00000050: 9e42 e13d 8a00 e13d 424c f93d 3c3f aa3d
00000060: b0d4 e1bd 1e37 9dbd e637 e1bc 3870 e73d
00000070: 4887 b33c 7a37 21bd 8554 92bd 5b56 153e
00000080: a236 14bd 62c2 72bd 8e75 ea3d 70f7 16bc
00000090: 57ae b63c 4200 aebd cb82 a93d c621 e5bd
000000a0: e216 b4bd 2833 f33c 3cdd 4c3d d8b2 a1bc
000000b0: 3341 0dbd 2c8b a93d 7204 8cbd 6f53 833c
000000c0: 5c19 a9bd b622 cdbd c0e2 613b 083b 8d3c
000000d0: 9a1d 66bd c0e6 ff3c 20d2 e5bb 7c78 113d
000000e0: 57c2 31bd 99e2 0f3e 93d9 153c e056 82bd
000000f0: 84bb 84bd 14e1 38bd ec0e 91bd 7db7 ce3d
0.10924362 0.049736306 0.16167472 0.04436323 0.0814595 0.10462047 0.0015082508 -0.041726142
0.08981522 -0.021876246 -0.084411 0.055417735 -0.093565926 0.104605906 -0.10551219 -0.08329826
0.058531474 0.038821563 0.13109232 -0.003646791 0.10999034 0.10986431 0.12172748 0.08312842
-0.11026895 -0.076765284 -0.027492475 0.11300701 0.021915093 -0.039359547 -0.07145027 0.14583723
-0.036184914 -0.05926741 0.11448203 -0.009214267 0.022299929 -0.08496143 0.082769 -0.111880824
-0.08793427 0.02968748 0.050015673 -0.0197386 -0.034486007 0.08278498 -0.068367854 0.016030995
-0.0825679 -0.10016386 0.003446743 0.017240062 -0.056180574 0.03123796 -0.0070135742 0.035515293
-0.043398228 0.14051284 0.009146112 -0.06364226 -0.06481078 -0.045136526 -0.07082924 0.10093591

layers.4.weight f4 [1, 64]
00000000: 282a 1dbd ded0 f7bd 5c66 2c40 64d9 a53d
00000010: 15d6 4f3d 7122 25bf 98f4 8d3c 005c 3bbc
00000020: 0b93 f83e 4072 40bb 9db4 4740 bc4d 01bd
00000030: 821a fbbd 3a38 6340 e036 d43c 6b65 c33e
00000040: 7b8a be3e 514e 86bc 4c04 e83e 189e 44bd
00000050: 8b65 633e f0a8 f53d 6307 d33e e49d 31bd
00000060: 5898 cebd 7496 4b3d e5c0 7ebd 1035 d43d
00000070: 0057 9bbb 4f3e 5dbd f53b d83d 7ac8 103f
00000080: 11c5 07bf e10d d1be f940 bcbe 48c7 29bd
00000090: ece4 f5be a252 9ebe 8d15 9a3e 0e2b fe3d
000000a0: ea52 923d fc0d c2bd 3436 e8be 7056 d63d
000000b0: b314 6b3e 6b1f 6640 123a b33d 31fd 89bb
000000c0: 287d 76bd 102c 92bd 10ee ecbd 0c68 0cbd
000000d0: f29b 5640 585b 593d 3e91 cdbd e65a debd
000000e0: b6a1 b43d 74a3 023f 9e93 093f ccb9 233d
000000f0: 9a6e ddbe e6dd 9dbd 6809 e9bd 9509 e5be
-0.03837028 -0.12100385 2.6937475 0.080981046 0.050741274 -0.6450568 0.017328545 -0.011435509
0.48549685 -0.0029364973 3.1203988 -0.031568274 -0.12260915 3.5503068 0.025905073 0.38163313
0.37215027 -0.016394766 0.45315778 -0.048002332 0.22206704 0.11995113 0.41216573 -0.043363467
-0.10087651 0.04970403 -0.062195677 0.10361683 -0.004740596 -0.0540145 0.10558311 0.565559
-0.53035074 -0.408309 -0.3676832 -0.041449815 -0.48026216 -0.3092242 0.30094567 0.12410556
0.07144721 -0.094753236 -0.45353854 0.104657054 0.22957115 3.5956676 0.087513104 -0.004211091
-0.060177952 -0.071373105 -0.11568844 -0.034278914 3.3532681 0.053065628 -0.100374684 -0.10857181
0.088199064 0.5103066 0.5374087 0.03997211 -0.43248445 -0.077083394 -0.11378747 -0.44733873
