models/mlp/best_model_relu_mae_log_2x128.pth (torch, 70692 bytes, 5 tensors)

layers.0.weight f4 [128, 1]
0.11715138 -1.3843131 0.6231525 -0.88548374 -1.1602737 1.3023512 0.63560665 -0.22974133
0.28946865 -1.4378198 -0.98357224 -0.7188808 -1.038673 0.9173431 0.41613364 0.9831443
1.135435 0.50691843 0.74628675 -1.1172622 -0.28037548 0.36326516 0.1648574 -0.6276981
-0.9391363 -0.29220626 -0.47627032 0.10564995 0.35616612 0.6929998 -0.822484 -0.85658574
1.3184996 1.2893728 0.8518747 0.45728382 1.3476684 -0.3115523 -0.8430613 0.83222395
-0.8871325 -0.823322 0.29925072 0.1978364 0.90005666 0.80704135 0.18738651 -0.42624354
1.3784875 0.78275347 1.3912814 -0.9255191 0.85439366 0.16491508 -0.73708177 -1.1578664
0.9216895 0.5353311 -0.20839655 1.0585375 -1.3123444 -0.5366813 0.49974608 0.5616092
0.46712983 0.87833774 0.7968781 -1.3911347 -0.8078504 -0.80214494 0.7197911 0.21113943
-0.551076 0.7351029 -1.3746548 0.8746512 0.7534422 -0.33167076 -0.9995932 0.64959455
-0.68122673 0.3411212 -0.580737 1.3062326 0.060622334 0.63085866 0.7976886 -0.8019328
-0.021388292 1.1970301 0.8561269 0.8750943 0.69528496 0.5262532 0.7761141 -0.74279344
-0.9942176 -0.100153565 1.3606052 -1.2542284 0.77900314 -0.9364065 -1.1480564 -0.724949
-0.32460904 -0.9041809 -0.44632086 0.8040978 1.4069958 0.52234566 0.30858862 -0.9364736
-1.3904593 0.5530581 1.2798394 -1.1011844 -0.42777228 -1.2048665 0.86108994 0.9732039
-0.99089766 0.98985165 0.57255757 0.8942193 -0.75900966 -0.4060911 0.9979682 1.1476566
00000000: 10ed ef3d 2c31 b1bf ec86 1f3f 10af 62bf
00000010: d983 94bf 72b3 a63f 1eb7 223f 5041 6bbe
00000020: 3c35 943e 7b0a b8bf 64cb 7bbf 9208 38bf
00000030: 3df3 84bf ffd6 6a3f 780f d53e 58af 7b3f
00000040: ef55 913f 68c5 013f a60c 3f3f 7302 8fbf
00000050: 608d 8fbe e4fd b93e 61d0 283e d3b0 20bf
00000060: 3d6b 70bf 0f9c 95be b4d9 f3be 005f d83d
00000070: 685b b63e 6f68 313f 508e 52bf 3449 5bbf
00000080: 98c4 a83f 2b0a a53f 7614 5a3f 1b21 ea3e
00000090: 6680 ac3f c883 9fbe ded2 57bf a10c 553f
000000a0: 1e1b 63bf 3bc5 52bf 6437 993e a095 4a3e
000000b0: 1d6a 663f 439a 4e3f 40e2 3f3e 983c dabe
000000c0: 4772 b03f 8862 483f 8215 b23f d2ee 6cbf
000000d0: 8bb9 5a3f 80df 283e 64b1 3cbf f734 94bf
000000e0: d8f3 6b3f 750b 093f e865 55be 287e 873f
000000f0: e7fa a7bf f263 09bf b8de ff3e 9fc5 0f3f
00000100: a42b ef3e beda 603f 3400 4c3f b410 b2bf
00000110: 49cf 4ebf 5f59 4dbf 3b44 383f ef34 583e
00000120: 5113 0dbf b42f 3c3f b0f4 afbf 24e9 5f3f
00000130: 97e1 403f c0d0 a9be 57e5 7fbf d44b 263f
00000140: e064 2ebf 70a7 ae3e 2eab 14bf a132 a73f
00000150: 204f 783d f47f 213f 5235 4c3f 784b 4dbf
00000160: 8036 afbc 4838 993f 222b 5b3f 2e06 603f
00000170: 32fe 313f 88b8 063f 6aaf 463f b627 3ebf
00000180: 0b85 7ebf 501d cdbd 5028 ae3f 8e8a a0bf
00000190: c06c 473f 56b8 6fbf 83f3 92bf 4296 39bf
000001a0: 2833 a6be 6678 67bf 2b84 e4be 5ad9 4d3f
000001b0: 7018 b43f 72b8 053f 54ff 9d3e bcbc 6fbf
000001c0: 92fa b1bf 3795 0d3f c7d1 a33f 9cf3 8cbf
000001d0: f804 dbbe 1139 9abf 6470 5c3f e423 793f
000001e0: 78ab 7dbf eb66 7d3f 2293 123f 8eeb 643f
000001f0: 754e 42bf 2ceb cfbe d87a 7f3f 69e6 923f

layers.0.bias f4 [128]
-0.79452574 0.7226575 -0.060709596 -0.3158325 0.1881823 0.8326287 -0.06545782 0.92675763
-0.9998187 0.012688762 0.05174129 0.11050289 0.6669809 0.9259947 -0.3504194 0.34478423
0.08606378 -0.42366385 0.09906267 0.84544986 -0.14579558 -0.5693445 0.64502037 0.047629286
0.6337594 0.580039 -0.6234852 -0.526459 -0.24835324 0.15574867 -0.97425675 -0.6098329
0.53214157 0.8979701 0.28146288 0.6974953 0.25412282 -0.53470564 0.08869044 0.80259764
-0.33901644 0.49651548 -0.8579229 -0.78255105 0.591908 0.8284668 -0.2136221 -0.61328304
0.30724576 0.41870785 0.33222467 0.008135301 0.80101466 -0.2098856 -0.22425874 0.3486835
-0.5035025 0.8349229 -0.9467945 0.59800684 0.5752323 -0.6987212 -0.9518932 0.24047548
-0.10378575 -0.32196057 0.1847562 0.37189755 -0.31773025 0.114558965 0.620305 -0.006773535
0.42273527 -0.7751374 0.5124529 -0.7482743 0.55821383 -0.5682403 -0.38009953 -0.2271111
0.49046937 -0.35085762 0.48066333 0.48783025 -0.21795774 -0.9911336 -0.39519465 0.69503975
-0.75192904 0.110277675 -0.7699666 0.93446535 -0.5195956 0.83379465 -0.46705163 -0.5781263
0.48301142 -0.6009157 0.35424125 0.77394134 0.760088 -0.5427785 0.43107644 -0.9743546
-0.7601069 -0.54135215 0.7746947 -0.81757665 0.4080328 -0.56618404 0.53841877 0.42764407
0.5776978 0.11593311 0.10987132 0.763695 -0.7397851 0.9731921 0.9493123 0.5807125
-0.878258 0.114258565 0.46170336 0.87968016 0.7458085 -0.7229831 -0.6488533 0.38361782
00000000: 0a66 4bbf 1500 393f a0aa 78bd ccb4 a1be
00000010: dcb2 403e 2827 553f c00e 86bd fd3f 6d3f
00000020: 1ef4 7fbf 86e4 4f3c adee 533d 574f e23d
00000030: 43bf 2a3f fd0d 6d3f 2c6a b3be 8f87 b03e
00000040: 3542 b03d 78ea d8be 5ee1 ca3d 676f 583f
00000050: 704b 15be 90c0 11bf 0e20 253f ed16 433d
00000060: 0e3e 223f 707d 143f ba9c 1fbf 04c6 06bf
00000070: 5050 7ebe 947c 1f3e e468 79bf 021e 1cbf
00000080: 6e3a 083f 5ee1 653f e71b 903e 0d8f 323f
00000090: 631c 823e 78e2 08bf 55a3 b53d 0a77 4d3f
000000a0: 9093 adbe 4737 fe3e d6a0 5bbf 4455 48bf
000000b0: 4887 173f 6616 543f c0bf 5abe 1e00 1dbf
000000c0: 514f 9d3e e060 d63e 5a19 aa3e ed49 053c
000000d0: 4c0f 4d3f 40ec 56be 15a4 65be a586 b23e
000000e0: 8ae5 00bf 82bd 553f 2061 72bf fa16 193f
000000f0: 6d42 133f 64df 32bf 46af 73bf 343f 763e
00000100: a08d d4bd 04d8 a4be bb30 3d3e 5b69 be3e
00000110: 8aad a2be e49d ea3d 4fcc 1e3f 88f4 ddbb
00000120: c270 d83e 686f 46bf 1d30 033f e88e 3fbf
00000130: 1ae7 0e3f 3278 11bf 689c c2be d08f 68be
00000140: cd1e fb3e 9ca3 b3be 8119 f63e e3c4 f93e
00000150: 5030 5fbe eeba 7dbf f456 cabe 20ee 313f
00000160: 6c7e 40bf 43d9 e13d 881c 45bf 1f39 6f3f
00000170: 3804 05bf 9173 553f 6421 efbe 1600 14bf
00000180: 464d f73e 9cd5 19bf 1c5f b53e 0521 463f
00000190: 2195 423f 88f3 0abf 0db6 dc3e 4e6f 79bf
000001a0: 5e96 42bf 0e96 0abf 6452 463f b44c 51bf
000001b0: ade9 d03e 70f1 10bf d0d5 093f 2af4 da3e
000001c0: 01e4 133f 576e ed3d 3704 e13d 8481 433f
000001d0: 8e62 3dbf 1e23 793f 2206 733f 93a9 143f
000001e0: 84d5 60bf 6500 ea3d 6264 ec3e b832 613f
000001f0: 4eed 3e3f 6c15 39bf 401b 26bf 8e69 c43e

layers.2.weight f4 [128, 128]
-0.015033939 0.041930933 0.085161865 -0.017281005 0.1800443 -0.01510144 0.05341707 0.04260254
0.06386364 0.3297866 0.20054562 0.19936202 0.12547082 -0.10935067 0.026122816 -0.0044985907
-0.323981 0.040075824 -0.19554493 0.1022238 0.00023561141 -0.00030393145 -0.030991413 0.08517066
0.10072743 0.06352248 -0.08184219 -0.060729172 0.083388336 -0.005205971 -0.052784637 0.058836695
-0.0053643407 -0.08994908 -0.15444589 -0.009995005 -0.12770088 -0.008063587 0.23230787 -0.064865075
-0.015661938 0.0412318 -0.01285403 0.027175108 0.042874143 -0.09098446 -0.077906586 0.08285047
-0.09236 -0.12547609 -0.140567 0.3755198 -0.015614053 0.039507877 -0.03341963 0.017738642
-0.069499865 0.048119485 -0.011410194 -0.06455074 0.089594595 -0.0047212476 -0.003761406 -0.09219673
-0.050709844 0.014293503 -0.121822394 0.16458285 0.0553407 0.18876374 -0.014800996 -0.06683415
0.08497913 0.037907403 0.14524229 -0.049964994 0.0578703 0.035455626 0.020614233 -0.01527504
-0.046662092 0.03129352 0.027546441 0.0018795668 -0.06841532 -0.07683653 -0.08097692 0.060418885
0.0066505303 -0.29746044 -0.008873555 0.0002489137 -0.06521034 -0.023077473 0.07613746 0.0856849
0.14112155 0.03637901 -0.04855379 0.029642537 -0.10317608 0.011620297 0.017987043 0.057900075
0.06482697 -0.071609646 0.09072856 0.028960016 -0.18974279 -0.08237221 -0.0132781835 0.1148697
0.036549594 -0.04289204 -0.32898274 0.10579496 0.06880025 0.06588821 0.045408573 -0.025700426
-0.026139265 -0.23273447 -0.048708685 -0.03287291 -0.015015233 0.034315005 -0.082458064 -0.15815406
0.051084414 0.08659661 -0.06322453 -0.043586902 0.16195591 -0.07615664 -0.03803227 0.022819467
-0.034569394 0.32678983 0.29579878 0.15765926 0.13178195 -0.06391131 0.07857136 -0.047950294
-0.2054046 -0.06026973 -0.09351838 0.12385477 0.067871146 0.022220302 0.022136375 0.23071884
0.008107413 -0.010712801 -0.07169453 0.050524417 -0.08567315 -0.05390142 -0.07769207 0.02408529
-0.017814606 -0.10304581 -0.041517735 0.030548634 -0.061379325 0.06502821 0.087925404 -0.076674215
0.05834066 0.09827828 -0.054705344 -0.031589188 -0.023959467 -0.035080403 -0.03133828 -0.015332317
-0.154292 -0.051440377 -0.09459752 0.3712336 -0.041906666 0.058824714 0.0846461 0.16055533
-0.053539373 -0.056709163 0.06718006 0.027040187 0.07821759 -0.08260395 0.03612342 -0.1141299
0.027767787 -0.016232647 -0.05252163 0.13423455 0.03028697 0.15008058 -0.013959924 0.06441348
-0.053161565 0.08566492 0.024675993 -0.07809718 -0.03782579 0.054859947 0.09406116 -0.05989186
0.04183188 0.0014799971 0.10135296 -0.03542717 0.060611203 -0.05091864 -0.06812191 0.041015368
0.0062004966 -0.23942249 -0.028745994 0.05500344 -0.029727405 -0.006620386 0.0034644813 -0.012620874
0.0031269616 0.08159578 -0.1594783 0.044227533 0.051293157 0.08263775 0.10897931 -0.05554237
0.00094499555 -0.0062180827 -0.057656713 0.011866825 -0.12804684 0.030038185 0.038785066 0.1321538
0.08104484 -0.06055157 -0.33994362 -0.0250071 -0.08791197 0.040324546 -0.09671502 0.01860695
0.049078222 -0.1158621 0.06581868 0.05568223 0.029093739 0.03232519 0.0068337955 -0.16008805
00000000: e950 76bc c5bf 2b3d 5869 ae3d e590 8dbc
00000010: 885d 383e 086c 77bc dccb 5a3d 0080 2e3d
00000020: f1ca 823d cad9 a83e d55b 4d3e 8f25 4c3e
00000030: 6c7b 003e 3ef3 dfbd 84ff d53c ea68 93bb
00000040: d6e0 a5be 8c26 243d ee3c 48be b65a d13d
00000050: 750e 7739 fd58 9fb9 b4e1 fdbc f46d ae3d
00000060: 2f4a ce3d 1318 823d e19c a7bd 27bf 78bd
00000070: 81c7 aa3d da96 aabb b434 58bd bffe 703d
00000080: 5ac7 afbb 3937 b8bd 1027 1ebe 17c2 23bc
00000090: 05c4 02be 231d 04bc 1de2 6d3e fbd7 84bd
000000a0: 774d 80bc ade2 283d b699 52bc 559e de3c
000000b0: cc9c 2f3d 1056 babd 7d8d 9fbd 82ad a93d
000000c0: 3d27 bdbd ce7c 00be ccf0 0fbe 2244 c03e
000000d0: 16d2 7fbc 03d3 213d 06e3 08bd a150 913c
000000e0: f255 8ebd f018 453d d3f1 3abc 2e33 84bd
000000f0: 5f7d b73d b2b4 9abb ec81 76bb a4d1 bcbd
00000100: 20b5 4fbd 4c2f 6a3c 057e f9bd 6888 283e
00000110: eeac 623d 484b 413e e07f 72bc 58e0 88bd
00000120: 8a09 ae3d cb44 1b3d 65ba 143e 18a8 4cbd
00000130: 6809 6d3d eb39 113d 2edf a83c 2944 7abc
00000140: c020 3fbd a22d 003d 13a9 e13c cc5b f63a
00000150: 551d 8cbd 785c 9dbd 3ad7 a5bd cb79 773d
00000160: b1ec d93b bc4c 98be 6362 11bc a280 8239
00000170: 008d 85bd f80c bdbc f5ed 9b3d 917b af3d
00000180: 2b82 103e 2802 153d 57e0 46bd e8d4 f23c
00000190: fb4d d3bd 0f63 3e3c 9059 933c a128 6d3d
000001a0: 01c4 843d 14a8 92bd e5cf b93d 8e3d ed3c
000001b0: ef4b 42be c3b2 a8bd bd8c 59bc ce40 eb3d
000001c0: 07b5 153d 90af 2fbd 6d70 a8be 07ab d83d
000001d0: 25e7 8c3d 66f0 863d 57fe 393d b389 d2bc
000001e0: 0322 d6bc f251 6ebe c282 47bd bfa5 06bd
000001f0: 7402 76bc e48d 0c3d c6df a8bd 23f3 21be
00000200: e43d 513d 9059 b13d dd7b 81bd 2e88 32bd
00000210: c5d7 253e 03f8 9bbd bac7 1bbd e4ef ba3c
00000220: a398 0dbd ff50 a73e f072 973e 6e71 213e
00000230: d9f1 063e efe3 82bd 05ea a03d 8767 44bd
00000240: 9555 52be 64dd 76bd 9086 bfbd 92a7 fd3d
00000250: 0700 8b3d 5a07 b63c 5857 b53c 8f41 6c3e
00000260: f4d4 043c be84 2fbc 95d4 92bd b1f2 4e3d
00000270: 6875 afbd bcc7 5cbd 051d 9fbd 844e c53c
00000280: f0ef 91bc ae09 d3bd 800e 2abd 2141 fa3c
00000290: e368 7bbd 832d 853d 3c12 b43d 5f07 9dbd
000002a0: 9ef6 6e3d 1f46 c93d b612 60bd aa63 01bd
000002b0: a546 c4bc 78b0 0fbd 915c 00bd 6634 7bbc
000002c0: b9fe 1dbe 25b3 52bd 58bc c1bd 5512 be3e
000002d0: 53a6 2bbd 2ff2 703d ef5a ad3d 9e68 243e
000002e0: 1a4c 5bbd de47 68bd b395 893d 6283 dd3c
000002f0: 8b30 a03d 422c a9bd 27f6 133d f0bc e9bd
00000300: 4579 e33c 54fa 84bc ec20 57bd c874 093e
00000310: 611c f83c b9ae 193e 2ab8 64bc 37eb 833d
00000320: f1bf 59bd 1771 af3d 4f25 ca3c 6af1 9fbd
00000330: 37ef 1abd d3b4 603d 23a3 c03d 2b51 75bd
00000340: e857 2b3d 76fc c13a 2492 cf3d 151c 11bd
00000350: 7443 783d 1090 50bd 8083 8bbd bbff 273d
00000360: 892d cb3b 2b2b 75be b87c ebbc 494b 613d
00000370: e386 f3bc d3ef d8bb 5a0c 633b c8c7 4ebc
00000380: b6ed 4c3b b01b a73d 484e 23be ee27 353d
00000390: c618 523d fb3d a93d 8b30 df3d 6580 63bd
000003a0: 94b9 773a 0fc1 cbbb 7229 6cbd 126d 423c
000003b0: b61e 03be a412 f63c 17dd 1e3d 5353 073e
000003c0: d6fa a53d ec04 78bd 170d aebe b1db ccbc
000003d0: 310b b4bd 5a2b 253d 8612 c6bd 9a6d 983c
000003e0: 3f06 493d 1c49 edbd f2cb 863d 0d13 643d
000003f0: fe55 ee3c 6b67 043d 08ee df3b 1fee 23be

layers.2.bias f4 [128]
-0.03052526 -0.0064380085 0.036472797 -0.02259904 -0.043197326 -0.0056518447 -0.0932863 -0.044072505
-0.07552552 -0.024326136 0.07753494 -0.050993726 0.013801095 0.07246957 -0.027060058 -0.037857182
-0.08359873 0.0036546902 -0.010526787 -0.07243503 -0.08127752 -0.06422421 -0.029257087 -0.05589967
-0.0017944289 0.059733894 -0.07664451 0.07320061 0.023493087 -0.066478245 -0.06966656 0.029301047
-0.06821347 0.09075406 0.07883153 0.07743976 -0.06327424 0.022711888 0.0280419 0.06927618
0.08320526 -0.078224294 -0.017994758 0.0699859 -0.027934209 0.013202317 0.050875105 0.006951269
0.025801895 -0.08038592 -0.015963677 -0.052624784 0.0733463 -0.050012663 0.079446085 0.02644093
0.0056465925 0.045150265 -0.08798319 -0.07524416 -0.087718494 -0.016992223 0.051803663 0.06846538
0.05178954 0.02179123 -0.05227587 -0.076299176 -0.06301786 0.06072854 0.052556425 0.03075988
0.08690991 -0.05557379 0.08763731 -0.07741137 -0.039858125 0.026355833 0.06791835 0.01648554
0.03935783 0.031115742 0.082837224 0.06800926 0.041797068 0.08405304 0.07552727 0.02963703
0.03161392 0.0790284 0.0126328785 0.082896374 0.017827505 0.0015094156 0.06516507 0.02016086
-0.007398858 -0.069813505 0.03302771 -0.059088815 0.0029045725 -0.06271659 -0.04250074 0.02264568
0.007893039 0.03366336 -0.04042829 -0.005728473 -0.024646655 -0.032712735 -0.04863463 0.071523696
-0.04029812 0.06541088 0.040866107 -0.021790806 0.07070396 -0.008099683 -0.037514847 0.059006717
0.024303652 -0.04457902 -0.016963664 -0.060579672 0.07004729 0.03485928 -0.08801716 0.049382135
00000000: 1c10 fabc eef5 d2bb 8064 153d 9f21 b9bc
00000010: aeef 30bd 1c33 b9bb e30c bfbd 5f85 34bd
00000020: 20ad 9abd 9b47 c7bc a3ca 9e3d ccde 50bd
00000030: fd1d 623c ed6a 943d 0ead ddbc 2210 1bbd
00000040: d035 abbd 8783 6f3b 8b78 2cbc d158 94bd
00000050: d474 a6bd fc87 83bd 8fac efbc 0df7 64bd
00000060: 0b33 ebba 87ab 743d ccf7 9cbd 34ea 953d
00000070: 9374 c03c bf25 88bd 57ad 8ebd c008 f03c
00000080: 81b3 8bbd 44dd b93d 6d72 a13d bd98 9e3d
00000090: ed95 81bd 480e ba3c 20b8 e53c abe0 8d3d
000000a0: 8567 aa3d 0f34 a0bd be69 93bc c454 8f3d
000000b0: 48d6 e4bc 884e 583c 6a62 503d 79c7 e33b
000000c0: 7f5e d33c 60a1 a4bd 42c6 82bc 168d 57bd
000000d0: 9636 963d 14da 4cbd a1b4 a23d a69a d83c
000000e0: 0d07 b93b 7cef 383d 8830 b4bd 9c19 9abd
000000f0: c1a5 b3bd 4633 8bbc 1430 543d 9437 8c3d
00000100: 4521 543d 8683 b23c 391f 56bd be42 9cbd
00000110: 820f 81bd 7dbe 783d 6845 573d 25fc fb3c
00000120: d3fd b13d 58a1 63bd 317b b33d da89 9ebd
00000130: 4642 23bd 30e8 d73c c718 8b3d af0c 873c
00000140: ad35 213d 71e6 fe3c 90a6 a93d 7048 8b3d
00000150: 6733 2b3d 0024 ac3d 0bae 9a3d 5bc9 f23c
00000160: 997d 013d a4d9 a13d 22fa 4e3c 93c5 a93d
00000170: fd0a 923c 95d7 c53a 4475 853d 6328 a53c
00000180: 1f72 f2bb 62fa 8ebd 1048 073d 1d07 72bd
00000190: a45a 3e3b 8e71 80bd 4215 2ebd 6f83 b93c
000001a0: ce51 013c 97e2 093d 2298 25bd eab5 bbbb
000001b0: c8e7 c9bc cafd 05bd 1b35 47bd 047b 923d
000001c0: a40f 25bd 24f6 853d 3863 273d a282 b2bc
000001d0: 3dcd 903d 88b4 04bc 2ba9 19bd 07b1 713d
000001e0: 7418 c73c 7e98 36bd 62f7 8abc 6422 78bd
000001f0: f474 8f3d 9bc8 0e3d 5742 b4bd ec44 4a3d

layers.4.weight f4 [1, 128]
-0.20792262 -0.26528418 -0.065700084 -0.23883161 -0.14588456 0.09190249 0.0091082705 0.08045069
-0.26345614 0.14297567 0.17842193 -0.07750999 -0.24696857 0.00512394 0.19267732 0.053554386
0.08137842 -0.062763676 0.044123903 -0.043316986 -0.02703578 -0.2514264 -0.028200116 -0.29379535
-0.13326044 0.07613406 -0.28954914 -0.25354168 0.023610702 0.09221232 -0.063133776 0.02385322
0.035342313 0.19913493 -0.21556994 0.12965767 0.00029655575 -0.14614722 -0.21356215 -0.2543015
-0.011361094 0.15752694 -0.17021811 0.003186587 -0.23843373 -0.20574693 0.15716074 -0.0330451
-0.2010071 0.07454156 -0.07936166 -0.015791202 0.06656471 -0.0856316 0.25031322 0.08473901
-0.053357583 0.19150841 -0.08379661 0.02477357 0.00406264 0.23521206 -0.002109803 0.008735745
0.061641566 -0.043667585 -0.18716228 0.025984248 0.015302119 0.025301006 0.12582287 0.12298854
0.13179772 -0.23586233 0.11908016 -0.2682942 -0.08228809 -0.23489098 0.013356642 0.07403946
0.15317905 0.007716024 -0.2696806 0.06789797 0.09853294 -0.07616402 0.037072916 0.22762081
0.045121413 -0.18583184 0.077297986 0.18295062 0.050609346 0.039558843 -0.26048964 -0.06824765
-0.04239892 0.16353135 -0.25535992 0.12744935 -0.241242 0.15156002 -0.0063723875 -0.0760672
-0.24571058 -0.062176805 -0.08121988 -0.0247033 -0.025914991 -0.20192626 -0.03029429 -0.049166486
0.18966034 -0.016851615 0.0063416646 -0.02765401 0.25199738 -0.2603164 -0.12656371 -0.27459124
0.13907361 0.26368144 -0.14242509 -0.05793944 -0.23146184 -0.18870756 0.013316097 0.083412975
00000000: abe9 54be 54d3 87be c48d 86bd 4690 74be
00000010: c362 15be 5f37 bc3d db3a 153c 55c3 a43d
00000020: b9e3 86be 3768 123e 3db4 363e 8fbd 9ebd
00000030: 54e5 7cbe b9e6 a73b 344d 453e d85b 5b3d
00000040: bba9 a63d 3e8a 80bd 44bb 343d 276d 31bd
00000050: 247a ddbc f6ba 80be ee03 e7bc 586c 96be
00000060: 6d75 08be 2dec 9b3d c93f 94be 37d0 81be
00000070: 3b6b c13c d0d9 bc3d 484c 81bd d467 c33c
00000080: 1ac3 103d 07ea 4b3e 5ebe 5cbe fbc4 043e
00000090: 0a7b 9b39 9ea7 15be 09b0 5abe ce33 82be
000000a0: e223 3abc be4e 213e a84d 2ebe 0fd6 503b
000000b0: f927 74be 53af 52be bfee 203e 4c5a 07bd
000000c0: ced4 4dbe 3fa9 983d 5e88 a2bd 8d5c 81bc
000000d0: 1453 883d 9f5f afbd 0e29 803e a58b ad3d
000000e0: 7b8d 5abd c81a 443e 8f9d abbd f1f1 ca3c
000000f0: e51f 853b 6edb 703e 9f44 0abb 5f20 0f3c
00000100: de7b 7c3d c8dc 32bd 78a7 3fbe ebdc d43c
00000110: bdb5 7a3c 0e44 cf3c b6d7 003e 6ae1 fb3d
00000120: fbf5 063e e585 71be 4de0 f33d db5d 89be
00000130: a886 a8bd 4387 70be d1d5 5a3c 00a2 973d
00000140: f8da 1c3e b3d6 fc3b 9313 8abe 170e 8b3d
00000150: a3cb c93d e2fb 9bbd c5d9 173d 6e15 693e
00000160: 3bd1 383d b44a 3ebe 684e 9e3d 6857 3b3e
00000170: bf4b 4f3d 7408 223d e65e 85be 6dc5 8bbd
00000180: 7daa 2dbd c374 273e 89be 82be 1582 023e
00000190: 2508 77be 8d32 1b3e 76cf d0bb 1fc9 9bbd
000001a0: 8e9b 7bbe 1bad 7ebd 9c56 a6bd 935e cabc
000001b0: ad4b d4bc c2c5 4ebe bb2b f8bc cc62 49bd
000001c0: 5236 423e 660c 8abc bdcd cf3b aa8a e2bc
000001d0: cd05 813e 3148 85be eb99 01be 3997 8cbe
000001e0: 5069 0e3e 4101 873e e2d7 11be e851 6dbd
000001f0: 5504 6dbe 8e3c 41be c22b 5a3c 6cd4 aa3d
