models/mlp/best_model_relu_mae_log_2x128.pth (torch, 70692 bytes, 5 tensors)

layers.0.weight f4 [128, 1]
00000000: f0a5 273e 0085 5e3c 804b 413e 81b2 83be
00000010: fab6 363f 6e4c 03bf 888f 6d3e 64c1 43bf
00000020: f146 443f 81b8 4dbf 558e 32bf 1c0e e9be
00000030: 80a0 1fbc 2108 b9be 27c8 37bf cee6 ba3e
00000040: d0d2 073e 34dd c9be 235b 253f af9b f5be
00000050: f32c 0e3f 2988 c9be 4ef3 333f 5c5d 663f
00000060: 3d43 b1be 33f2 743f 80cb 1abf 2d5b 76be
00000070: 6d71 4abf 4079 99bc f8ee e63e 3d58 783f
00000080: 1807 433e 9694 1f3f 2bee 20bf 3bdc 91be
00000090: d2be 17bd 90c4 633f 7877 7e3e b8d9 ba3e
000000a0: 0eb3 5bbe 3123 39bf 208c 41bf 8453 903e
000000b0: 4bb1 1abf 293c 213e 66d2 3abf 7edb 7a3f
000000c0: e13b 2f3e 6473 79bf 386b dabe 40a0 4cbf
000000d0: 623c 7c3f cc5f 323f 36ef 733f 18d4 123f
000000e0: 584a 923e 70ab 66bf 7284 6fbf 1d1a 27bf
000000f0: d659 6b3f dbc4 68bf 1096 bdbd d757 223f
00000100: 7628 bdbe 65d4 1b3f 38ae d8bd 1ec5 1dbf
00000110: 0752 35bf d87e 6dbf 6447 c9be 594f 3dbf
00000120: b93b a73d 2058 d0bd f229 683f 11fa 97be
00000130: 06e7 623f 2fc5 4fbf f751 6a3f c099 adbe
00000140: ecaf d93e 4a86 6e3f 67a2 2fbe aed7 98bd
00000150: ec2b 683e 2c46 50bf 7947 7b3f 8014 433c
00000160: 3593 9a3e d169 8c3c a6a0 0c3f 9d93 d8be
00000170: 53fd 97be d2ac 07be 26e9 5bbf 2022 e03e
00000180: 1419 f33e 9ffd 4a3f ac56 923e 874e 0e3c
00000190: bc30 aa3e dab4 743d d619 0f3f e25e 33bf
000001a0: fa34 753f e07a 64be 32ed b1bc f825 24bf
000001b0: 14da f5be 1a11 673f 4bfd febe 327b 163f
000001c0: d08b 463e a44b bd3d 268e 683f e0fc 553f
000001d0: 80a3 80bd 1d3c 11be 01cb 47bf 68be 30bf
000001e0: 4465 0b3f e87c a5be 7a70 69be 0e01 f93e
000001f0: 04ed d1be 26fb 04bf cf1c 963e d645 0e3f
0.16371894 0.013581514 0.18876457 -0.25722125 0.7137295 -0.512885 0.23199284 -0.76466966
0.7667075 -0.80359656 -0.6974843 -0.45518577 -0.009742856 -0.36139014 -0.71789783 0.36504215
0.13264012 -0.39426577 0.6459219 -0.4797034 0.5553734 -0.39361694 0.7029313 0.89986205
-0.3462161 0.95682067 -0.60466766 -0.24058218 -0.79079324 -0.018734574 0.45104194 0.9700964
0.19045675 0.623361 -0.62863415 -0.28488335 -0.037047215 0.88971806 0.24850261 0.3649423
-0.21455023 -0.7231932 -0.7560444 0.28188717 -0.6042678 0.15745606 -0.7297729 0.9799117
0.17112686 -0.974417 -0.42659926 -0.7993202 0.98529637 0.69677424 0.9528688 0.5735488
0.28572345 -0.9010534 -0.9356147 -0.6527422 0.91933954 -0.9092538 -0.09257138 0.6341528
-0.36944932 0.60870963 -0.105801046 -0.616289 -0.7082829 -0.92771673 -0.3931228 -0.739492
0.08165688 -0.101730585 0.90689003 -0.29682973 0.88633764 -0.81160253 0.9153132 -0.33906364
0.4251703 0.9317366 -0.17151795 -0.07463013 0.22673005 -0.81357074 0.98155934 0.011906743
0.30190435 0.017140301 0.5493263 -0.4230012 -0.2968546 -0.1324952 -0.8590263 0.43776035
0.4748007 0.79293245 0.2858175 0.008685715 0.33240306 0.059742786 0.558988 -0.70066655
0.9578396 -0.22312498 -0.021719549 -0.64120436 -0.48017943 0.9026047 -0.49802622 0.5878173
0.19389272 0.09242943 0.908419 0.8358898 -0.06281185 -0.14183088 -0.78044134 -0.69040537
0.54451394 -0.32321858 -0.22796813 0.48633617 -0.4100114 -0.5194572 0.29318854 0.5557531

layers.0.bias f4 [128]
00000000: 748f 9cbe 5088 f1be f2d6 12bf bb33 b43e
00000010: aa3b 45bf 4427 4a3f c8aa 63be 384b 4fbf
00000020: ff98 bd3e d652 fb3e 4473 2ebe ee7c 23be
00000030: 38cf f1be 213f cb3e 3147 113f ac60 483d
00000040: 08c5 20be 187e ccbe ebee 203f 1c40 d53d
00000050: 063f 483e fb3d 3b3f 693b 753f e864 e5be
00000060: 0aae 063f 2c3e 033e 140d 17bf a06e 513e
00000070: 0f0d bf3e 30bd a9be ec5d 0fbf 96ab c53e
00000080: c067 eebc 5884 c3be 58ad 603f 70c2 bdbd
00000090: d7d0 743f 0028 ecbe 5831 56be a4a4 92be
000000a0: 1376 4d3f 7067 f43e 7e70 1cbf e0d4 0bbf
000000b0: 6020 673f 4b7a 523f dc19 53bf e476 d6be
000000c0: 7e4c 143e 9744 113f 88a8 8bbe c29d 66bf
000000d0: f80b 61bf 906b 55be f095 81be 28ed cfbe
000000e0: a08c b8be e6ed 69bf e4da 16bf fb98 4a3f
000000f0: f091 a1be 53b0 96be 2212 59bf 5d98 273e
00000100: a171 303d bbac c63e 97eb 033e d439 32bf
00000110: 2a10 873e 0253 0abf 30d5 31bf 1144 6d3f
00000120: f57d 6c3f 3a78 2cbf 70f7 07be 7191 153f
00000130: 60f8 27be 2d8a 88be b8b1 fd3d bb20 7b3f
00000140: 6058 fabd 7850 73bf 26e8 693f 95c8 3b3f
00000150: c103 303f 1ce6 53bf 9aab 3b3e b8e3 86be
00000160: 9751 643f b349 953d d04e 3dbf 54be 503f
00000170: 18c0 cc3d 4fa8 163f 07d7 ae3d 8631 55bf
00000180: 54a5 79bf d4e7 393e 7679 2a3f 882d 6e3f
00000190: 9c51 d0be 123e 2a3e eeb0 06bf 964d 32bf
000001a0: 9e3a 1fbf 2062 abbe 4cfe 183f 1132 873e
000001b0: dc8e 0bbf ce6c 27bf 8f74 733f 6014 10bf
000001c0: c09f a1bd 2bc0 5c3f d055 f3be e876 d0be
000001d0: 3041 82bd 9a2a 9b3e 3e5a 263f f0f5 3bbf
000001e0: 502e 9fbd 70f0 363f 8b39 663f 970b 6f3f
000001f0: b8e0 84be fd25 c23e 2f50 3a3f fe67 2a3f
-0.30578196 -0.4717431 -0.5735923 0.35195717 -0.77044165 0.78966165 -0.22233117 -0.8097415
0.3703079 0.49086636 -0.17036158 -0.15965626 -0.47228408 0.396966 0.56749254 0.04892032
-0.15700161 -0.39939952 0.6286456 0.104126185 0.19555292 0.7314145 0.9579378 -0.44803548
0.5260931 0.12816685 -0.5900433 0.20452356 0.3731465 -0.3315215 -0.5600269 0.38607472
-0.029102206 -0.38186908 0.877645 -0.09265602 0.95631164 -0.46124268 -0.2091726 -0.28641236
0.8025829 0.47735167 -0.6110915 -0.54621696 0.90283775 0.82217854 -0.82461333 -0.4188758
0.14482304 0.56745285 -0.27277017 -0.9008447 -0.8790889 -0.20841813 -0.25309706 -0.40610623
-0.36044788 -0.9137863 -0.5892775 0.7913968 -0.31556654 -0.294314 -0.84793293 0.16366716
0.043077115 0.38803658 0.12882839 -0.6961949 0.2637952 -0.5403291 -0.69465923 0.92681986
0.92379695 -0.6737095 -0.13277984 0.5842505 -0.16403341 -0.2666792 0.12387413 0.9809682
-0.122238874 -0.9504466 0.91369855 0.7335294 0.6875573 -0.82772994 0.1832718 -0.2634561
0.89186996 0.07289448 -0.73948383 0.8154042 0.099975765 0.5885057 0.08537107 -0.8327869
-0.97517896 0.18154842 0.66591585 0.93038225 -0.40687263 0.1662524 -0.52613723 -0.69649637
-0.6219882 -0.334733 0.59763026 0.26405385 -0.5451486 -0.654004 0.9509973 -0.5628109
-0.07891798 0.86230725 -0.47526407 -0.40715718 -0.0636009 0.3030594 0.6498145 -0.73422146
-0.07772505 0.7146063 0.89931554 0.9337706 -0.25952697 0.37919608 0.727786 0.6656493

layers.2.weight f4 [128, 128]
00000000: 7673 963d 78e6 a5bc 093a 01bd 5430 00bd
00000010: 1023 a0bd 8e9e 44bd 2ba5 56bd 6842 62bd
00000020: d285 5f3c b710 aa3d 0d67 bb3c f431 a93d
00000030: 8b2e 963d 64f4 f9bb 1f4c 9c3d b4c8 27bd
00000040: 5ebe 6339 12ba 193d 902d 6a3d d225 3fbc
00000050: f13a b33c 9203 00bb 534e 803c cead 61bc
00000060: 3968 aa3d 1189 8a3d acab 6ebd 1f6f cb3b
00000070: 971a 253d 6254 edbb dc54 de3c 0863 0a3d
00000080: 74e5 3cbd db81 903d a53c 26bd f042 0cbd
00000090: 602e 5e3d 5127 623d d60e 333d 0b37 b1bc
000000a0: 20b8 aa3d e1b0 26bc 1a78 023c 2dcd b43d
000000b0: 9324 de3c dc79 733d a36a a43d 571e cabc
000000c0: 4211 4ebc 7a3f a63c 91b6 4a3d ed75 a43d
000000d0: 3b38 213d e4ed 5cbc f549 aa3d 3ab4 ac3d
000000e0: 950c 973d ca0e 383d 9930 82bd 3d9f 123d
000000f0: 8c96 cebc 73bd ccbc 4489 b5bb da52 c43c
00000100: 27f1 493d 01bb d33c 3a75 a3bd 1713 5fbd
00000110: 9add e13c e647 b13d ed3e 9cbd 2156 e0bc
00000120: 6864 acbd 1335 593d 9843 a3bd 3770 a9bd
00000130: f252 2ebd a9d8 85bd 6944 81bd a2bf 013b
00000140: 9095 2b3d 3c2a 513d 1da6 ddbc 3a29 c73b
00000150: 5758 77bd 8817 bebc d59f 2abd 8f63 953c
00000160: 528d aebd a1df 213d d567 f0bc 7746 0bbd
00000170: c1e5 a4bd 8cc9 3b3d c598 563d b46d 6dbc
00000180: 39b5 69bd b9f0 aa3d 336e a2bd c041 48bd
00000190: b562 5f3d 9f65 59bd 8158 75bd 0234 edbc
000001a0: d97f 933d b860 ce3c 8a84 abbd dc0f 9d3a
000001b0: 7f31 9f3d 0ee4 3bbd 9614 e9bb 8af8 69bd
000001c0: 20be a73d 7dee 21bd 98b6 3cbd 006b a93d
000001d0: 8d21 cd3b 75c6 893d 2878 b23c dcd8 5fbc
000001e0: d010 83bc 3dae 783b 85ae a73d c5d5 a6bd
000001f0: 87c5 50bd c59f af3c e86e 4abd eec9 b8bc
00000200: 597a 68bc f537 10bd b5e5 6e3c 783a 87bc
00000210: 662c b4bd 714c 513c 81dc 513d 2dab a9bd
00000220: 5ec9 843d f135 b9bc 5ac9 3fbd b764 183d
00000230: 97d7 9dbd d3af 943b 9d4d 94bd 9906 283d
00000240: 2924 31bd 6fdb 1ebd 8ffd 8cbb 255f 323c
00000250: ab9c a43d c148 b1bd d3a7 903d 9107 2b3d
00000260: 094d 62bd 15cf dd3c 2546 fbbc 7e2f 813d
00000270: bc79 8f3d df41 0fbc 7ebe dc3c 03ae 953d
00000280: 340d 8dbc 5fec c2bc 05bb ab3d 5e1e 64bd
00000290: b43b 883d cdce 913d cfec 93bd 4601 9cbd
000002a0: fff5 74bd b2c0 d53c 4262 133d d843 9f3c
000002b0: 8120 57bd 47cb b43c 3e95 33bd 10a8 2abc
000002c0: 9bcd d83b 9194 993d 6412 a93d 8daa 923c
000002d0: a42a c7ba 82ba 8a3d ca53 ec3c 805d 92bc
000002e0: 03a8 123c 78b9 a7bb 7aa4 c0bc 87d1 89bd
000002f0: 23be febc 48db 3d3d bc70 a83d 2d76 813d
00000300: 804c ca3c c71c 2b3d d308 663c 57e2 1ebd
00000310: 23dc a7bc 1593 0c3d 0d37 8e3c 17e4 71bd
00000320: 1f50 87bc 914b 5e3d e77e 8b3c ad16 453d
00000330: 9f7a 883d 613e 8fbd 51cf f43b 2e47 9e3d
00000340: 16f0 acbc 4e98 39bd 1b2c 4e3d f993 8fbd
00000350: 9e89 83bc e1b5 6ebd 06a1 c5bc 94b4 a33d
00000360: 13f1 4fbc 55ba 9abc e1eb ab3d fed1 9fbc
00000370: 26a3 a53d a010 923c cb55 7a3d e81e edbb
00000380: f594 0bbd 273c 5cbd eec1 143d e1ac 43bd
00000390: 125f 16bd 6e78 3d3c dbcb 84bd 9818 33bd
000003a0: ba68 bc3b 99b7 1dbd 1f0e a53d ba24 543d
000003b0: c719 3dbd 4c42 8f3d 5ad6 033d a9ab 9d3d
000003c0: 1023 0cbc d17e b9bc 3e04 09bd c62d 223c
000003d0: 2342 70bc bf1d aabd 68e8 89bd 9601 6f3d
000003e0: 1dbb 643c 4bfb a33d 6fd1 18bd f5b2 8dbd
000003f0: 9a1c ab3d 6b2c 30bd bede 2cbd 95d8 e6bc
0.07346241 -0.020251498 -0.031549487 -0.03129609 -0.07819188 -0.048002772 -0.05240361 -0.05523911
0.013642745 0.08303969 0.022876287 0.08261481 0.07333096 -0.0076280106 0.076317064 -0.04096289
0.00021719324 0.037530966 0.057172358 -0.011666732 0.021878691 -0.0019533378 0.015662348 -0.013774348
0.0832066 0.067644246 -0.058269188 0.006208315 0.04030856 -0.007242725 0.027140073 0.03378585
-0.04611726 0.07056018 -0.04058518 -0.034243524 0.054243445 0.055213276 0.04371532 -0.021632692
0.083359 -0.010174007 0.007963205 0.08828197 0.02711705 0.059442386 0.08028152 -0.02467267
-0.012577357 0.02029394 0.049490515 0.08030305 0.039360266 -0.013484452 0.083148874 0.08432813
0.07375447 0.04493598 -0.063569255 0.035796393 -0.02521827 -0.02499268 -0.005540045 0.023965288
0.049302246 0.025846006 -0.079813436 -0.054461565 0.027571488 0.08656292 -0.0762919 -0.02738482
-0.084175885 0.05302913 -0.07971877 -0.082733564 -0.04255957 -0.06535465 -0.06311876 0.001979806
0.04189068 0.05106567 -0.027056748 0.0060779126 -0.06038698 -0.02320458 -0.041656334 0.01823595
-0.085230485 0.03951991 -0.029346386 -0.034002747 -0.080516346 0.045846507 0.052391786 -0.014491487
-0.057057593 0.083466955 -0.07931175 -0.04889083 0.054537494 -0.05307543 -0.059898857 -0.028955463
0.072021194 0.025192603 -0.08374889 0.0011982876 0.077731125 -0.045871787 -0.0071130497 -0.05712179
0.0819056 -0.03953408 -0.046072572 0.08272362 0.006260103 0.06727306 0.02178581 -0.013662543
-0.015999228 0.003794565 0.08187584 -0.08146242 -0.050969627 0.021438489 -0.049422175 -0.022557225
-0.014189326 -0.035209615 0.014581134 -0.016507372 -0.08797531 0.012774573 0.05123568 -0.08284602
0.0648372 -0.02260873 -0.046822883 0.037205424 -0.07707136 0.0045375614 -0.07241366 0.041021917
-0.043247376 -0.038783487 -0.0043026875 0.010886942 0.080376945 -0.08656455 0.0706326 0.041755263
-0.055249248 0.027076283 -0.030673096 0.063078865 0.07005641 -0.008743732 0.026946303 0.07308581
-0.01721821 -0.023794351 0.083852805 -0.055693023 0.066520125 0.07119522 -0.07222902 -0.076174304
-0.059804913 0.02609286 0.035982378 0.01944153 -0.052521233 0.022069586 -0.0438435 -0.010416046
0.006616307 0.0749904 0.08255461 0.01790359 -0.0015195203 0.06773855 0.028848547 -0.01786685
0.00895119 -0.005118545 -0.023515929 -0.06729417 -0.031096524 0.0463517 0.082246274 0.06321368
0.024694681 0.04177549 0.01404019 -0.038790073 -0.020490712 0.034319956 0.017360235 -0.059055414
-0.016517697 0.054271284 0.017028285 0.04811733 0.06664013 -0.0699432 0.007471003 0.0772842
-0.021110576 -0.045311265 0.05033503 -0.070106454 -0.016056832 -0.058278922 -0.024124634 0.07993427
-0.012691754 -0.018887678 0.083946 -0.019509312 0.08087759 0.017830193 0.061116975 -0.0072363503
-0.034077603 -0.053768303 0.03631776 -0.047772292 -0.03671176 0.011564357 -0.06484195 -0.043724626
0.005749789 -0.03850517 0.08059334 0.051792838 -0.04616716 0.06995067 0.032186843 0.07698757
-0.008553281 -0.022643479 -0.03345131 0.009898609 -0.014664206 -0.08306455 -0.06733781 0.05835112
0.013960627 0.08006915 -0.037309106 -0.06918899 0.08355065 -0.04301111 -0.04220461 -0.028179446

layers.2.bias f4 [128]
00000000: 6d14 05bd 288d 13bc 48c1 5dbc 0552 f93b
00000010: a9f1 9fbd 0d67 15bc d9af 993c 6542 cbbc
00000020: a43c 393d cd18 923c 98f1 c13d d187 893d
00000030: ac85 6e3c 0441 8f3d b934 b03d 20b0 a8bd
00000040: d23c 553c 1da5 433d ea5c b03d 170c a63d
00000050: c1a2 07bd 4191 b0bd d25b 823d e6a7 6dbd
00000060: f1d5 ea3c 88eb 603d 858d 693d 5aad 9f3d
00000070: ace8 77bb d1b2 acbd b863 cf3c a201 e7bc
00000080: e535 af3d 1432 8e3c c5ce a7bc 59ff fe3c
00000090: ace4 4e3d c305 9a3d af23 c13d 3d67 a23d
000000a0: 6b4e a1bb e691 6f3d 0085 d3bc 3cb9 d33c
000000b0: 2dca 633d af7e 73bd 66f5 32ba 243c 793d
000000c0: 7083 3fbd 93c6 2bbc 0473 bcbb 894e 1b3c
000000d0: c0c2 4cbd 0837 a2ba 4575 823b cff7 883d
000000e0: 5d4f 3d3d 59fa 8b3d 0f24 4fba 9bd4 a5bc
000000f0: 1ef3 7c3b ab12 b2bd 5081 a13c 85b4 1c3d
00000100: c442 a33d f607 abbc d22b 6bbd 88ec 8cbd
00000110: e373 b43d 15af 7d3d 8179 3d3d bed5 3f3d
00000120: c0df b3bd 0e9a a33d 62af dd3c 4c7a 953d
00000130: a3bb 22bd 608a 483c 841b 9ebd c922 4a3d
00000140: f75c 3b3d 6280 b1bd 617c 29bd 267a cfbc
00000150: ac53 263d 41ac 853c d55b 033d 2f18 afbc
00000160: 9f5b 073d 0946 b1bd a047 b4bc 0796 6cbd
00000170: 1f56 ba3d bc6a 513d 91ae 1a3d f2b6 b0bc
00000180: 0515 f03c cffd c13d dc45 bebd cf68 abbd
00000190: 8fe3 93ba 538a 253d 9d47 273d dd9e 2b3d
000001a0: ef44 273d 7814 183d 4744 573d ecbf 833d
000001b0: 18f1 363a 7eef 8e3d ce22 643d 9418 943d
000001c0: 9404 c6bb a39f d93c 765a c0bc b9f6 d53c
000001d0: ee60 17bd d6ff a23d 48e7 1ebd c1ee 533d
000001e0: abba 39ba 999c 743d e1c2 9abd 5039 c2bd
000001f0: 2025 973d 85f1 40bd 9120 2bbd a56c 4a3d
-0.032490183 -0.009005822 -0.013534851 0.0076086544 -0.07809765 -0.0091188075 0.018760609 -0.024811933
0.045223847 0.017834092 0.094699085 0.06715358 0.014558237 0.069948226 0.08603806 -0.08236718
0.013014989 0.047764886 0.08611472 0.08107775 -0.0331142 -0.08621455 0.063651696 -0.05802145
0.028666468 0.05491212 0.05701973 0.07796736 -0.0037827892 -0.08432544 0.025316104 -0.02819902
0.085552014 0.017357863 -0.020484338 0.031127619 0.050511047 0.0752063 0.09430634 0.079298474
-0.004922678 0.05848875 -0.025820255 0.025845163 0.05561273 -0.059446987 -0.00068267283 0.06084837
-0.046756208 -0.0104843555 -0.0057510156 0.009479173 -0.049990416 -0.001237602 0.003981265 0.06687891
0.046218265 0.068348594 -0.00079017965 -0.02024298 0.0038597058 -0.08694967 0.019714981 0.038258094
0.07971719 -0.02087782 -0.057414837 -0.06881052 0.08811166 0.06193455 0.046258453 0.0468347
-0.08782911 0.07988368 0.027061168 0.07298717 -0.039729726 0.012240022 -0.07720092 0.04934958
0.045742955 -0.08667065 -0.041378383 -0.0253268 0.04060714 0.016317489 0.03207 -0.021373836
0.03304636 -0.08655936 -0.02200681 -0.057760265 0.090984575 0.05112718 0.037764136 -0.02157161
0.029306898 0.09472238 -0.09290668 -0.083696 -0.0011283028 0.04041512 0.04083978 0.04189955
0.040837225 0.037128896 0.05255535 0.064330906 0.0006978675 0.06979273 0.055697255 0.072312504
-0.006043026 0.026565379 -0.023480635 0.026118623 -0.036957674 0.07958953 -0.038794786 0.051741365
-0.00070850056 0.059719656 -0.075567015 -0.09483588 0.07380128 -0.04710533 -0.041779105 0.049420018

layers.4.weight f4 [1, 128]
00000000: 52de a9bd 1a76 963d 18eb b2bd 2c7a 893d
00000010: 8a2d 4fbd 1cb7 90bd 6dfe 50bd eaa8 9b3d
00000020: d9da 43bb 4bea a93b 89c6 89bd 8699 563d
00000030: 828f 23bc e324 ad3c d2df ecbc 061f dfbc
00000040: 0cde 303d 5446 913d b987 babd 1eb8 253d
00000050: 5f71 a5bd 6192 643d c578 5d3d 18a7 933d
00000060: 2891 d63c 1327 88bd 3486 363d cc55 8ebd
00000070: ff9b d1bc 0b22 873d 8767 513d 7363 a33d
00000080: ef82 af3c d372 9e3b 28b8 8bbc 02fb 6fbd
00000090: d3c5 49bd c9bc a63d 043e 7dbd f046 95bd
000000a0: 369b 41bd b037 2f3d 60e0 823d 5eff 6b3d
000000b0: 2aa2 34bd d4ef 95bb 7370 cebc 1e08 9fbd
000000c0: 4a1c 12bd 945f adbd bd81 79bc 67f8 183d
000000d0: 29dd 39bc e976 b8bd 985f 6d3d a888 cebc
000000e0: c493 95bd ca49 7abd 5d19 a23d 6f01 d03c
000000f0: 45fd e13c e14d 093d bf84 1dbd c0af a3bd
00000100: b506 0bbd 129c 703a 4711 403d 21f2 b33c
00000110: 19fd 95bd eb34 753d 9f7d 333d f278 ccbc
00000120: 03a6 01bd b208 72bd e482 81bc 986c 9cbd
00000130: cb3d eabc 5f88 41bd cdbe 2abd 67a4 0d3c
00000140: f2c9 59bd 301f 873d 9bfe 92bd 7e30 a23d
00000150: 6a1d 33bd 34df 02bd dd0f 6cbd 0390 123c
00000160: 4199 62bc ce3f 663d 7da7 973d f75e 9dbb
00000170: 154d b2bd 6480 0e3d 7e32 a43d 8258 113d
00000180: 02ac 6c3d e13c e0bc 2d83 573d 1e56 0abd
00000190: 0e16 4e3d 6d3d 8abb f4dc f33b ceab 50bd
000001a0: a513 35bd 14f3 513d 637d 07bd 1d12 97bd
000001b0: 9967 963d d18b 8abd 3812 7c3d 0e17 ac3d
000001c0: d063 843c 2232 31bd e2b3 b7bc 30f0 9bbd
000001d0: 309d 6cbc 10e7 d73c a3ad 973d 7847 753d
000001e0: 4288 a43d 5760 f83c f213 d43c 9788 893d
000001f0: 05e4 93bd a68a b3bd c0d5 64bd f9b2 8fbc
-0.08294357 0.07346745 -0.08736247 0.067127556 -0.05058054 -0.07066175 -0.05102389 0.07600577
-0.0029885082 0.0051854006 -0.06727321 0.052392505 -0.009982945 0.021135753 -0.02891532 -0.027236473
0.04318051 0.07093492 -0.09107918 0.04045879 -0.080782644 0.05580366 0.054070253 0.07209605
0.026192263 -0.06648078 0.04456158 -0.06949958 -0.02558708 0.0659829 0.051124122 0.07977953
0.021424739 0.0048354655 -0.017055586 -0.05858899 -0.049260926 0.08141477 -0.06182672 -0.07288921
-0.04726716 0.042777717 0.063904524 0.057616584 -0.044099964 -0.004575709 -0.025200104 -0.0776522
-0.03567151 -0.08465496 -0.015228686 0.03734627 -0.011344233 -0.09007055 0.057952493 -0.025211647
-0.07303575 -0.061105527 0.07914994 0.025391309 0.027586589 0.033521537 -0.038456675 -0.07992506
-0.033941943 0.000917853 0.046891477 0.021966042 -0.07323665 0.05986492 0.043820973 -0.024960015
-0.03165246 -0.059090324 -0.015809484 -0.076379 -0.028593918 -0.047249194 -0.041685868 0.008645154
-0.053171106 0.065977454 -0.071774684 0.079194054 -0.043729223 -0.031951144 -0.057632316 0.008945468
-0.013830484 0.056213193 0.07404993 -0.0048025805 -0.087061085 0.03479041 0.08017443 0.0354848
0.057781227 -0.02737278 0.052615333 -0.033773534 0.050314 -0.0042187483 0.007442111 -0.050945096
-0.044208188 0.051257208 -0.033078562 -0.07376502 0.073439784 -0.06764949 0.061540812 0.08402835
0.016160876 -0.0432607 -0.022424642 -0.076141715 -0.014441773 0.026355296 0.074061655 0.05988261
0.080338016 0.030319376 0.025888417 0.067155056 -0.07221226 -0.087666795 -0.05586791 -0.017541396
