models/mlp/best_model_relu_mse_log.pth (torch, 3152 bytes, 3 tensors)

layers.0.weight f4 [64, 1]
00000000: 10d6 38bf 8416 38bf c0f8 fcbc 9f48 57c0
00000010: c873 2940 6224 1cbf 4c93 0640 ed29 5440
00000020: b2fe 3ebf 5430 bd3f 31ee 3140 f377 d33f
00000030: c584 2940 bb52 5cc0 1501 32c0 60f0 9e3e
00000040: 1460 1140 c0b6 aebd 50e1 0e3e fcc4 e43e
00000050: 607a 4cbe 080b 15be 5cc9 c23e e9fa b1be
00000060: 1c88 4ec0 bf87 1c40 a02b 05c0 c0aa 4bbe
00000070: dcf0 303f dfd3 5340 dd3b 3840 8033 99bd
00000080: e8c4 04be 4084 583d a812 543e 0014 f6be
00000090: ba1f 4940 87db aebf 076f 383f 767b 4b3f
000000a0: f8e4 3540 08ea 45bf e912 3640 dcc6 c2be
000000b0: a8d3 963e 3002 673f 69c7 54c0 d402 1540
000000c0: e08c b83d 9e75 2a40 36f3 d33e 3490 2ac0
000000d0: 69b5 073f 210c 3d3f 4856 b33f 0684 743f
000000e0: 9706 373f 35ea 52c0 e66f 3e3f 3496 1a40
000000f0: 52ed 2b3f d708 62bf a075 3bbd d6b4 2c40
-0.72201633 -0.71909356 -0.030880332 -3.3638074 2.6476917 -0.60993016 2.1027403 3.315059
-0.74607384 1.4780374 2.780163 1.6520981 2.6487286 -3.4425495 -2.781316 0.31042767
2.2714891 -0.085309505 0.13953137 0.44681537 -0.19968557 -0.1455499 0.3804425 -0.34761742
-3.2270575 2.4457853 -2.0807877 -0.19889355 0.6911752 3.3098066 2.8786538 -0.07480526
-0.12965739 0.0528605 0.20710242 -0.48062134 3.1425614 -1.3660744 0.72044414 0.7948526
2.8421001 -0.7731023 2.8449042 -0.38042343 0.29458356 0.9023771 -3.324671 2.3282976
0.09011245 2.6634288 0.41396493 -2.6650515 0.53011185 0.7384663 1.4010706 0.9551395
0.7149443 -3.2955449 0.74389493 2.4154177 0.67159 -0.8829474 -0.045766473 2.6985373

layers.0.bias f4 [64]
00000000: e63c 52bf 0489 7ebf 0058 0abe 3be8 3a3e
00000010: e31a b53d 9c7e 6dbf 65b0 ca3e 50ae a33e
00000020: a0ac 07bf 491a 1e3f dab6 293f 6938 183f
00000030: 4067 de3d 7331 313d 7042 0a3d c453 a8be
00000040: 44cb 3d3f c487 dfbe e8f8 70bf 30bd 17be
00000050: 8406 93be d0e3 babe 5830 56bf 48e3 463e
00000060: 5cb8 273e a888 2e3e 0d8a a83e 085a eebe
00000070: 06c1 33bf db51 bd3e 2115 1e3f dc74 1ebf
00000080: 7e2a 7cbf 4ad3 0bbf ec84 d2be fa93 54be
00000090: 91d3 893f d667 2a3f b39e 743f 70c9 98be
000000a0: 1c1f a23e 5637 1dbf c4d8 543f 208f 4cbe
000000b0: 38cc 1ebe 1a94 853f c487 893d 4ef3 8b3d
000000c0: 968e 14bf 6a96 a33e 4587 083e 4ea7 113f
000000d0: aeea 253f 5b24 8a3f 5f68 773f 705c 82be
000000e0: b4d8 d73e 1bc3 613f b495 b3be 89b0 853f
000000f0: 5eec 6bbf 3490 debe d0e1 3dbe b208 e03d
-0.82124174 -0.9942782 -0.13510132 0.18252651 0.08843019 -0.92771316 0.39587703 0.31968927
-0.5299778 0.6175886 0.66294634 0.59461075 0.10859537 0.04326005 0.033754766 -0.32876408
0.74138284 -0.43658268 -0.941298 -0.14818263 -0.2871591 -0.36501932 -0.83667517 0.19422638
0.16378921 0.17044318 0.32917824 -0.46553063 -0.70216405 0.36976513 0.6175099 -0.61897063
-0.9850234 -0.54619277 -0.41117036 -0.20759574 1.076769 0.6656469 0.95554656 -0.29841185
0.3166436 -0.6141256 0.8314326 -0.19976473 -0.15507591 1.0435822 0.06715348 0.06833516
-0.5803007 0.31950694 0.13332851 0.5689591 0.6481122 1.0792345 0.9664363 -0.2546115
0.4215752 0.8818833 -0.35075152 1.0444499 -0.9215754 -0.43469393 -0.18543172 0.109391585

layers.2.weight f4 [1, 64]
00000000: c43a 433d 6299 8b3d d0af dfbc c129 7fbf
00000010: c7e4 983f 8e0d c13d d145 023f 1009 8f3f
00000020: f867 c03d 36f1 803e 1249 093f c401 a63e
00000030: 49fc 733f bc4e 03c0 6104 09c0 307d 453c
00000040: 8489 b43e c81a 9b3c 920d 8f3d e035 533c
00000050: f09c e13d 4053 80bd e0eb f03c 6e7e 393a
00000060: bbca 79bf 2ed1 3c3f 71ac 72be ea57 e3bd
00000070: ec86 a43d 4796 3e3f 982d ba3e b6a6 f9bd
00000080: 3267 c93d fa92 a1bd b417 143d dc97 703c
00000090: 99cf d53e ec9e 2fbd db57 a13d 0cc7 763d
000000a0: 8c0c 6b3f e626 8ebd 3aa9 f83e 0e36 adbd
000000b0: d8c7 2d3d a5c2 473e c508 c2bf d9dc 603f
000000c0: 9002 6a3c b2dc 173f 412a bd3b 125b 86be
000000d0: 0249 c03c efa9 3b3e 33f1 463e 60dd 85bb
000000e0: 1f82 1a3e d387 72be 7020 8bbc 3adf ea3e
000000f0: 3873 c23c 1fbb 883d 4884 a5bd 7249 b73f
0.047663465 0.06816365 -0.027305514 -0.99673086 1.1944817 0.094264135 0.5088778 1.1174641
0.093948305 0.2518403 0.5362712 0.32423222 0.9530683 -2.0516806 -2.1408923 0.012053773
0.35261166 0.018933669 0.0698501 0.012891263 0.110162616 -0.06265879 0.029409349 0.00070760294
-0.9757497 0.7375668 -0.23698594 -0.11100753 0.08033547 0.74448055 0.3636291 -0.12190001
0.09834136 -0.07889362 0.036155418 0.014684644 0.41759947 -0.04287617 0.07878085 0.06024842
0.9181602 -0.06941013 0.4856661 -0.08457576 0.042426914 0.19507845 -1.5158926 0.87836987
0.0142828375 0.5932113 0.0057728593 -0.26241356 0.023472313 0.18326543 0.19427948 -0.004085228
0.150887 -0.23684625 -0.01698324 0.45873433 0.023736581 0.066763155 -0.08081871 1.4319289
