models/mlp/best_model_relu_mae_3x128.pth (torch, 137304 bytes, 7 tensors)

layers.0.weight f4 [128, 1]
000000 a0 b6 67 be 3d ec d9 3f 54 70 01 bf 44 ec be 3f
       -0.2262826 1.7025219 -0.50562024 1.4915853
000010 00 30 03 40 74 50 a6 be bb 87 75 3f 78 65 6d bf
       2.0498047 -0.32483256 0.95910233 -0.92732954
000020 75 3f 9b bf c0 45 2e 3f 1c bf e3 3d 0a 8a e7 3f
       -1.212874 0.6807518 0.111204356 1.8089001
000030 4d 14 9d 3f 66 0b b6 3f a0 49 3d be 6e b6 b0 3f
       1.227182 1.4222229 -0.18485117 1.3805673
000040 bc df b0 be 41 39 da bf 00 c4 19 3f 70 13 a7 3f
       -0.34545696 -1.7048723 0.600647 1.3052807
000050 fd 49 02 c0 c0 6b f2 3f 42 19 e9 3f 94 e6 af 3e
       -2.035766 1.8939133 1.8210833 0.34355605
000060 3c 1a c4 3f 7f 85 e7 bf 90 02 b8 3e f5 12 ac bf
       1.5320506 -1.8087615 0.35939455 -1.3443285
000070 1f b6 ed bf a3 ed 23 bf 8c c5 f1 3e ae 30 cd bf
       -1.8571204 -0.6403448 0.4722103 -1.6030481
000080 20 af 38 3d d8 eb 72 3f 6e 17 c9 bf f0 b9 d4 bd
       0.045088887 0.9489112 -1.5710275 -0.10387027
000090 c8 ea 0f 3e d0 a5 aa bf 3e 5c 5b 3f ff 9c ec 3f
       0.14054406 -1.3331852 0.85687625 1.8485411
0000a0 4d d1 7a 3f 58 9d ea 3f c0 4d f3 3d 4e df 2a 3f
       0.9797562 1.8329268 0.11880064 0.66746986
0000b0 42 0c 5b bf 54 7b d2 3f 70 4a db bd 42 4d ec 3f
       -0.8556558 1.6443887 -0.10707557 1.8461077
0000c0 6f 83 bc 3f 00 17 19 3c 90 c5 5d 3e 9a 8f c0 3f
       1.472761 0.0093438625 0.21657395 1.5043824
0000d0 25 4c ce bf 66 6c b2 bf c0 90 f2 3f 3c d1 4d 3f
       -1.6116987 -1.393933 1.8950424 0.8039739
0000e0 40 49 7c 3f cc a5 c6 3f 36 91 cb 3f 6e f8 50 3f
       0.9854927 1.5519347 1.590369 0.81629074
0000f0 1e 77 36 bf 19 ef bf bf 30 d5 96 3e ae 12 66 3f
       -0.7127551 -1.4994842 0.29459524 0.8987225
000100 23 18 8a be 12 27 34 3f de c9 f6 bf 40 55 78 3f
       -0.2697154 0.70372117 -1.9280355 0.9700508
000110 20 d6 a5 bf dc 18 ea 3f 00 05 b9 3d 55 b7 8f 3f
       -1.2955971 1.8288836 0.09034157 1.1227823
000120 14 54 c6 bf 80 38 40 3d f4 4e 90 3e 00 3f 64 3e
       -1.5494409 0.046928883 0.28185236 0.22289658
000130 9e c6 c9 3f ee 52 af 3f 80 9e a7 3f 5b f8 f3 3f
       1.5763738 1.3697183 1.3095245 1.9060167
000140 48 26 90 3e 48 8c 4f be 72 29 2b 3f 46 e1 ac 3f
       0.28154206 -0.20268357 0.66860116 1.3506248
000150 78 bd 4d bf 30 54 9a be 60 29 6b 3d e5 76 c8 3f
       -0.8036723 -0.30142355 0.057412505 1.5661284
000160 fe b0 ab 3f d1 47 ba bf 0f af b7 bf 6c 6e f7 bf
       1.3413389 -1.4553167 -1.4350299 -1.9330573
000170 22 43 bc 3f c0 5f 00 3d ae bd 71 3f b4 05 6f 3f
       1.4707987 0.031341314 0.94430053 0.9336808
000180 79 50 ab bf 00 4e 49 bf 8a a3 fb bf 1a 5b 0d bf
       -1.3383933 -0.78634644 -1.9659283 -0.55217135
000190 61 55 ad bf 8a ee fa bf 40 cf ac bc e8 04 d2 bf
       -1.354168 -1.9604046 -0.021094918 -1.6407747
0001a0 52 b3 a5 bf ee 82 4b 3f 50 c0 57 bf 43 b7 a0 3f
       -1.2945349 0.7949666 -0.8427782 1.2555927
0001b0 fc 90 a9 3e 82 94 02 3f 49 64 8c bf b3 74 b3 bf
       0.33118427 0.51007855 -1.0968105 -1.4019989
0001c0 ac fb 9b be 44 9c f9 3f 76 39 10 bf 78 e2 fa be
       -0.30465448 1.9500813 -0.5633768 -0.49000907
0001d0 36 52 00 40 aa 31 f4 3f ba f2 0c bf 8d c9 01 c0
       2.0050178 1.9077656 -0.5505787 -2.0279267
0001e0 30 3b e3 3e 10 58 0f 3e 17 31 d0 bf 14 ad 45 bf
       0.44381094 0.13998437 -1.6264981 -0.7721722
0001f0 26 73 2e 3f 31 9e d7 bf 76 45 cf bf ea 68 61 3f
       0.6814445 -1.6845151 -1.6193073 0.8805071

layers.0.bias f4 [128]
000000 34 d2 fc be 41 8a 0a 3f ab 7f 23 be 05 d5 6e 3e
       -0.49379122 0.5411721 -0.1596667 0.23323448
000010 e2 b9 e9 3e 9a 8b 56 bf de 61 3d 3f 8c 04 61 bf
       0.4564963 -0.83806765 0.7397746 -0.87897563
000020 67 ce 7b 3c e0 e2 64 bd 4b 79 56 bb d8 85 ae 3e
       0.015369034 -0.055880427 -0.0032726105 0.3408649
000030 6e 1e 4e 3e 6e 48 15 3f a0 0e d4 be 27 5a 30 3e
       0.20128796 0.58313644 -0.41417408 0.1722189
000040 c8 30 60 be eb 9e a6 3c 12 1f 0c bf 4b 6c 4d 3f
       -0.21893609 0.02033945 -0.5473491 0.80243367
000050 44 89 2b 3e 8f ca 32 3f 44 a8 43 3f d8 98 11 be
       0.16751581 0.6984033 0.7642863 -0.14218462
000060 2e ca c6 3e 74 e4 aa 3e 1a 6f 31 bf fe a7 23 3e
       0.38826126 0.3337742 -0.6931015 0.15982053
000070 03 d6 3a 3d 1c 53 9a 3e 92 4d 1c bf 73 4c d6 3e
       0.045614254 0.30141532 -0.6105586 0.418552
000080 38 cb 95 be cd b4 dd 3e af 80 32 3e 3e 97 16 bf
       -0.29256606 0.43302003 0.17431901 -0.5882453
000090 6c 9b 66 bf f9 77 c6 3d e4 d9 c0 be 13 83 07 3f
       -0.90080905 0.09690852 -0.37666237 0.5293438
0000a0 d5 0c 8f 3e 1c 27 b9 3d 88 6f 51 bf 24 ae b3 be
       0.27939478 0.09040663 -0.8181081 -0.35093796
0000b0 8e a3 42 bf 69 07 0e 3e 28 38 fb be aa 43 ef 3e
       -0.76030815 0.13870014 -0.4906628 0.4673131
0000c0 31 6e 77 3d 00 bd e0 bc ec 9a 51 bf 54 77 41 3f
       0.06040782 -0.027433872 -0.8187702 0.75572705
0000d0 75 52 19 3f 3f 5d e1 3e a8 44 0d 3e 2a e5 63 bf
       0.59891444 0.44016454 0.13795722 -0.8902155
0000e0 88 11 21 bf 38 97 4f 3f d3 a2 15 3f 10 da be be
       -0.62917376 0.81090117 0.58451575 -0.37275743
0000f0 80 39 12 bf 39 60 de 3d 9a da 63 bf c0 b4 ec be
       -0.5711899 0.10858197 -0.89005435 -0.4623165
000100 f5 fe 50 bd b0 70 6c bf 65 18 8e 3d e4 82 9e be
       -0.051024396 -0.9235945 0.06938247 -0.30959237
000110 4a 32 83 3c 21 7d 1f 3f 7c 7a 6f bf 46 8a 2b 3e
       0.01601519 0.62300307 -0.9354627 0.16751966
000120 4e cf 9a 3c 00 b5 3d be 24 96 8b be a8 b8 4c be
       0.018897679 -0.18526077 -0.27262986 -0.19992316
000130 ba 28 cd 3e bf a1 65 3d 14 63 59 3d 19 d0 51 3e
       0.40070134 0.056062456 0.053073004 0.20489539
000140 6e b1 5c bf e0 0e 3a be bc 28 aa be 9a 70 a4 3e
       -0.86208236 -0.18169737 -0.33234203 0.32117158
000150 66 18 24 bf 4c 97 d2 be 40 2f 7d bf c9 b6 be 3e
       -0.6409973 -0.41131055 -0.9890022 0.3724883
000160 eb 1f 7d 3e b6 6d e7 3e 88 3d 26 3f dc 5c 25 3e
       0.24719207 0.4520089 0.6493764 0.16148704
000170 dd af a8 3e 38 ff 41 bf 0e 45 10 3e 08 10 d1 be
       0.32946673 -0.7578006 0.14088842 -0.40832543
000180 09 64 45 3f 16 07 20 bf 1d 47 48 3f 8e cd 41 bf
       0.77105767 -0.6251081 0.7823351 -0.75704277
000190 74 21 26 3e ef 3d 33 3d 10 d5 35 be 6f a2 43 3f
       0.16223699 0.043760236 -0.17757058 0.7641973
0001a0 16 ce 3a 3f fe aa 56 bf 38 06 2d bf 35 17 a4 3d
       0.7297071 -0.83854663 -0.67587614 0.08012239
0001b0 f6 23 15 bf d8 19 fb be b9 1c b5 3e 0e 08 53 3f
       -0.58258 -0.49043155 0.35373476 0.82434165
0001c0 f0 8f 21 be cb 72 04 3f 30 10 f1 be 4c 8f 95 be
       -0.15777564 0.5173766 -0.47082663 -0.2921089
0001d0 c4 d1 98 3e f5 9e 9d 3e e8 71 d3 be 6c 2c c1 3c
       0.29847538 0.30785337 -0.4129784 0.023580752
0001e0 ec 8d cc be 78 a6 4b be 44 8b 43 3f 00 26 26 bf
       -0.39952028 -0.19887722 0.7638438 -0.64901733
0001f0 f0 77 b2 be 6d d0 3b 3e 7a 16 07 3f 28 38 cd be
       -0.3485713 0.18341227 0.5276867 -0.40081906

layers.2.weight f4 [128, 128]
000000 bb cf 80 bd 37 7a b2 bc 9b 9e 8f 3c 73 80 0b 3d
       -0.062896214 -0.021786792 0.017531684 0.034058046
000010 da cf 1e 3e 7d 33 a7 bd 37 b0 e3 bb 13 ef 0a bc
       0.15508977 -0.081641175 -0.0069484967 -0.008479851
000020 87 4a dd be eb 18 1d bc 02 29 31 3d 49 d1 97 3c
       -0.43220922 -0.00958846 0.043252 0.018532412
000030 e1 44 a7 3d 55 8b 14 bd e7 40 85 3d 92 fb c0 3d
       0.081674345 -0.03626569 0.0650652 0.09422983
000040 0f b2 4c 3d a8 13 22 bf e2 5a 8b 3c c0 a3 99 bd
       0.049974497 -0.63311243 0.01701111 -0.07501936
000050 45 b0 61 be f9 59 2b 3d 92 37 e6 3d 48 14 05 3d
       -0.22039898 0.04183385 0.11241068 0.032490045
000060 f9 88 67 bc f2 66 00 be 89 fe 83 bd 9a 56 b8 bc
       -0.014131778 -0.1253927 -0.06445033 -0.022502232
000070 38 2e a2 be 7e f2 b0 bd 04 4b 10 bd ae eb fe bd
       -0.31675887 -0.08640002 -0.03522779 -0.12447296
000080 a7 cd 60 bb c1 73 21 bc 63 59 cf bd d7 a5 04 3d
       -0.0034302266 -0.009854258 -0.10124471 0.03238472
000090 9d 83 96 3d 16 7b 47 be c8 d0 2b 3c be 64 c5 3d
       0.07349322 -0.19480547 0.010486789 0.09638356
0000a0 4f 58 0f 3d 27 aa 0b 3f 7c c3 67 bd 54 41 31 3d
       0.034996327 0.54556507 -0.056582913 0.043275192
0000b0 03 1e 8d 3d 2a e0 24 3e 7d 33 3d 3c 84 c4 b7 3c
       0.0689049 0.16101137 0.01154792 0.022432573
0000c0 7f e1 3a 3f cc 75 98 3c 33 22 e9 bb 7c 9b 89 3d
       0.7300033 0.018610857 -0.0071146726 0.067191094
0000d0 82 11 09 be 93 cd 00 bc 4e 84 e5 3d 41 2f 72 3d
       -0.13385585 -0.007861513 0.11206876 0.059127096
0000e0 4e b0 f1 bc 2e 0e 3d 3d 79 1b a8 bd ab cb a4 3b
       -0.029503014 0.0461561 -0.08208365 0.005029162
0000f0 a3 6e a7 3d 9f db 8e be eb 54 8f 3b e6 c8 fe bc
       0.08175399 -0.27901933 0.0043741367 -0.031101655
000100 86 98 88 3d a6 f4 94 3d e3 04 c7 be 78 a0 39 bd
       0.066697165 0.072732255 -0.38870916 -0.04531905
000110 1d 79 f3 be 12 d2 e5 3d b8 3f e1 3c 3d cf bf bc
       -0.4755334 0.11221708 0.027496204 -0.023414249
000120 95 36 40 bf 10 e4 5b 3c 3e 5a 6c bd 71 5e 18 bc
       -0.75083286 0.013421074 -0.05770325 -0.00929986
000130 ee db 9c bb e5 5e 2c 3e 66 09 24 3f f2 5f 7e 3e
       -0.00478696 0.16833074 0.6407684 0.24841288
000140 fc 2d b3 bd 3d 5d 8b bd e4 9e 28 3d c4 1b 10 3b
       -0.08749005 -0.06804893 0.041167155 0.0021989206
000150 dd 2f 28 bc d8 66 67 bc a2 f4 68 3d 78 e7 2f bc
       -0.010265318 -0.014123641 0.056873925 -0.010736339
000160 fd 0b dc 3d ec e6 f3 bd 85 35 af bc b7 20 60 be
       0.10744474 -0.11909279 -0.021387825 -0.2188748
000170 9f 4e d1 3d 87 48 a2 3d cb 76 66 bd 19 58 31 bc
       0.10220074 0.0792399 -0.056265634 -0.010824227
000180 35 e2 10 3d ed 66 57 bc da b6 0b bd b0 2e 81 3d
       0.035371978 -0.013147098 -0.034109928 0.06307733
000190 42 42 58 be 02 4a eb be 9a d2 f1 bc 8b 75 92 bd
       -0.21119025 -0.459549 -0.029519368 -0.07151326
0001a0 af e8 e6 3c f6 ec 9d 3d 26 d0 dc 3b 34 f6 04 3d
       0.028187124 0.07711212 0.0067386804 0.03246136
0001b0 91 bb a0 bd ea ef 10 bd 9d d6 ba 3c 59 7c 92 bd
       -0.078482755 -0.03538505 0.022807414 -0.07152624
0001c0 d7 17 3e 3d 8e cf df 3d ef 52 b4 3d 2e 91 52 bc
       0.046409454 0.1092826 0.08804881 -0.012851996
0001d0 ba f3 d0 3d 99 42 12 3d 88 37 22 bd a1 14 52 bf
       0.10202737 0.035708044 -0.03960374 -0.8206273
0001e0 f2 8e 7f bd f5 72 94 bd 94 e0 27 bd 2b 0e 8a bc
       -0.062392183 -0.07248489 -0.04098566 -0.016852459
0001f0 2a 7e b3 bd 27 21 37 be d4 ab 67 bc bc 6c cb bc
       -0.08764298 -0.1788374 -0.014140088 -0.024832122
000200 87 9f 1a bc 6f a1 09 3d 4b 93 af bc 55 bd 8c 3d
       -0.009437448 0.03360122 -0.02143254 0.0687205
000210 ee 74 ac 3d 4e 0f c7 bc 27 b8 cb 3c 2f dd d8 3c
       0.0842074 -0.02429929 0.024868084 0.026472656
000220 f4 b6 31 bf 7e 0a 27 bd e3 28 8c bd 52 de 24 3e
       -0.6941979 -0.04078149 -0.06843736 0.16100433
000230 4a 65 99 3c 05 1b 5d bd 3d 51 96 3c 53 b8 2b 3e
       0.018725056 -0.053980846 0.018349284 0.16769533
000240 8c e7 02 bd a4 4f 87 bf 5c 30 72 3b 9d 75 48 bd
       -0.0319591 -1.0571179 0.0036955094 -0.04894029
000250 c9 bb 66 be 77 7b cc bc 83 9b 6c 3d 2f 96 7a 3d
       -0.22532572 -0.024961216 0.057765495 0.061178382
000260 87 39 f2 3d fa 14 dd bd 86 7c 83 bd 6f 31 87 bd
       0.11827379 -0.107950166 -0.06420235 -0.066012256
000270 1d 9d 02 bf 98 db fd 3c 51 f3 e6 3a 70 01 bd bd
       -0.51020986 0.0309885 0.0017620121 -0.0922879
000280 c5 da 07 3d 29 d2 09 3d 9d 4f 11 be ba 5e 83 bc
       0.03316762 0.03364769 -0.14190526 -0.01603638
000290 5c 15 85 3d ca 46 d4 bd b6 10 0c 3d 8c 8e 8d 3c
       0.064982146 -0.103650644 0.034195624 0.017279886
0002a0 1a a9 99 3d bb cb 13 3f 69 7d 9b bd 29 1c 66 bd
       0.07502957 0.57732743 -0.075922795 -0.0561792
0002b0 c8 31 6a bd 4f d3 e5 3d dc c3 52 3d f7 3f 21 3c
       -0.05717638 0.112219445 0.051456317 0.009841911
0002c0 03 9c 61 3f d1 7e 85 3d 1c af 93 bd 2a a3 bc 3d
       0.8812868 0.06518329 -0.07211134 0.092108086
0002d0 49 5f 74 bc 82 33 d3 bd c4 83 df 3d 24 cb 15 bd
       -0.014915296 -0.10312559 0.10913804 -0.036570683
0002e0 5e 8f a3 bd 22 cf de 3c 00 82 19 3d cf ae 18 bd
       -0.079863295 0.027198378 0.037477493 -0.037276085
0002f0 a0 54 1d 3b ac 79 4c be e4 a9 07 bd b4 e5 04 3d
       0.002400674 -0.19968289 -0.033121005 0.032445624
000300 2b 4c 6e bd 90 ae cf 3c 28 6c c6 be 77 c5 a0 bd
       -0.05817811 0.025351793 -0.38754392 -0.078501634
000310 91 3e 39 bf df b0 83 3d f1 43 99 3a 4c 51 e4 3d
       -0.72361094 0.0643022 0.0011693222 0.11148319
000320 bf ac 7d bf 52 aa 36 bd eb 22 38 bc f2 28 59 3d
       -0.99091715 -0.044596024 -0.011238794 0.053017564
000330 c3 bb f1 3d 3e 70 4f 3e 85 39 48 3f 85 3e 85 3e
       0.11803391 0.20257661 0.7821277 0.2602426
000340 98 57 61 3d ad 3d a8 bd 98 f4 c1 3c 88 8b 31 bd
       0.055015177 -0.08214889 0.023676202 -0.043345958
000350 64 4a 90 bd bf 98 a1 bd 9f 68 a5 bd 31 44 49 3d
       -0.07045439 -0.07890462 -0.080765955 0.049137298
000360 1e 9d 25 3c 19 3c 07 be cd 84 48 bd 6c 97 5d be
       0.01010826 -0.13206519 -0.048954774 -0.21639794
000370 c1 2e 02 3e 01 dd 8d 3a c0 c7 28 3d 14 9e 16 bd
       0.12713148 0.0010823311 0.04120612 -0.03677185
000380 c0 09 bd bc eb fc b4 3d 19 01 09 be d1 99 b1 3d
       -0.023075938 0.08837303 -0.13379325 0.08671916
000390 a1 64 2e be a8 64 19 bf 3d d1 8d 3d 38 ed bb bd
       -0.17030574 -0.59919214 0.06924675 -0.09176105
0003a0 f5 5d 0c bd 96 af 86 ba c9 3c a5 3d 3f 67 d2 3d
       -0.034269292 -0.0010275717 0.080682345 0.10273599
0003b0 47 ec dc bc 0f de 43 3d 50 d7 81 bd 83 41 1e bd
       -0.026968135 0.047819193 -0.06339896 -0.038636696
0003c0 ba 6f 49 3d 55 b2 9b 3d 11 f7 8a 3d 6d dd a5 bd
       0.049178816 0.076023735 0.067854054 -0.08098874
0003d0 f4 c7 02 3e de 29 aa bc 65 97 8e bd b3 21 73 bf
       0.12771589 -0.020771917 -0.0696247 -0.94973296
0003e0 f7 dc 79 bc 6c 8f 26 bb 4b 8e 6a bd 6c 36 fd bb
       -0.015250436 -0.0025415076 -0.057264607 -0.007727435
0003f0 7a 6d 4d 3c 65 3d 78 be d6 28 c2 bc a0 2a 8b bd
       0.012538308 -0.2424217 -0.023701113 -0.067952394

layers.2.bias f4 [128]
000000 b5 05 73 3d 42 10 0b 3d 7f 79 a3 3d 4a de 69 bc
       0.059331615 0.03395105 0.07982158 -0.014274189
000010 ab de bd 3d 5d b3 41 3d d9 a6 1f bd 07 fb 0c bc
       0.09270986 0.047290195 -0.038977478 -0.008604771
000020 52 4c 87 bd 52 ae 85 3b e0 bc c5 3c fa b2 38 bc
       -0.06606354 0.0040796185 0.024137914 -0.01127314
000030 d5 b3 85 3d f3 a0 9d bd 5b cb fd bc a8 20 6c 3d
       0.06528441 -0.07696714 -0.030980757 0.05764833
000040 d8 dc 9e 3c ad e1 b2 3d 47 59 c5 bc 17 a3 7a 3c
       0.019392416 0.087344505 -0.024090422 0.015297673
000050 60 8d f8 3c 5d dd 21 bc b0 f9 37 bd de 24 aa 3b
       0.03034085 -0.009879437 -0.044915855 0.005192383
000060 a1 a0 cd 3c f6 5a 2d 3d ed 26 69 bd 29 07 83 3d
       0.025101008 0.042323075 -0.05692189 0.0639785
000070 7d c2 86 3d c5 47 55 bd 41 48 94 bc 4e b1 95 bd
       0.065800644 -0.052070398 -0.01810086 -0.07309209
000080 fd b1 20 bd 35 d3 81 bd 35 6c 8b bc ab f5 ab bd
       -0.039232243 -0.06339113 -0.01701937 -0.08396467
000090 c3 5e ad bd 46 21 9d 3b c2 ed 84 bc 7c e8 d5 bd
       -0.0846534 0.0047952263 -0.016226653 -0.104447335
0000a0 ea 63 62 bd a2 71 28 bd 89 a3 b5 bb 22 68 cd bc
       -0.055271067 -0.041123994 -0.0055431766 -0.025074068
0000b0 45 bb 05 3d c4 06 4b 3d 59 d1 df 3c cd 88 06 3d
       0.032649297 0.049567 0.027321504 0.032845307
0000c0 67 7b 88 3c be cb 9b 3d 35 c2 8f bd 0e a3 6e bd
       0.016660405 0.0760722 -0.07019464 -0.05826097
0000d0 90 32 96 3d 52 c8 10 3c b1 bf 7c 3d aa c6 2b 3d
       0.07333863 0.008836823 0.06170625 0.041937508
0000e0 fc 31 3d 3c 03 ef 3b 3d 34 6d 04 3d 8b d7 ce bd
       0.011547562 0.045882236 0.032330707 -0.10099705
0000f0 72 28 4d 3d d5 16 ef 3c 28 4c 49 3d f9 7d 46 bd
       0.0500874 0.029185692 0.049144894 -0.04845998
000100 d6 9e 9d bb b2 f5 b3 bd c7 bc ae bd b5 ba c0 ba
       -0.0048101945 -0.08787097 -0.085321 -0.001470408
000110 89 5b 5b bd d4 f8 a0 3b 0f 0f 61 3a 45 22 ed bb
       -0.05355409 0.004912475 0.0008585313 -0.0072367513
000120 73 a1 24 bd 5f 5f 59 bd 13 8e 94 bd 30 76 b7 bc
       -0.040193032 -0.05306947 -0.07253661 -0.022395223
000130 58 91 2a bd 0b 82 d7 3b 83 92 96 3c d5 8a 76 3c
       -0.041642517 0.0065767816 0.01838041 0.015047749
000140 a4 ab ae 3c 8a e5 b4 bd 2a 41 63 bc b4 49 9e bd
       0.021322079 -0.088328436 -0.013870517 -0.077289015
000150 b9 40 a3 bd 0a 59 0b 3d 25 90 f8 3c 22 de d0 3b
       -0.07971329 0.03402046 0.030342171 0.0063741365
000160 b1 85 bb bd b5 96 4d bd eb cc c2 bc d9 2d cd 3b
       -0.09156359 -0.050192554 -0.023779353 0.006261569
000170 58 c7 a9 bd 4a 84 90 bc ee 45 26 3d f1 eb 8b bd
       -0.08289975 -0.017641205 0.040594034 -0.068321116
000180 aa 20 b2 3c 10 99 79 bd a9 8b ad bd 81 b9 70 bd
       0.021744091 -0.060936987 -0.08473904 -0.05877066
000190 05 97 c8 3d 6f 60 0f bd ca ae 90 3c 6c b3 0a bd
       0.0979443 -0.035004076 0.01766147 -0.033862516
0001a0 33 b2 9f 39 6d ca 8e bd 83 ca a8 bd 30 0f a6 bd
       0.00030459612 -0.069722034 -0.08241751 -0.081083655
0001b0 38 3a bc 3c 1e db ac bc eb 0f da 3b 16 32 b3 3d
       0.02297698 -0.021100577 0.0066547296 0.087497875
0001c0 d2 a1 2f 3d 6d 90 e7 3c ea f8 92 bc 14 c4 b4 bd
       0.042878933 0.02826711 -0.017940957 -0.088264614
0001d0 43 67 4e 3a 12 55 94 3c 14 a3 17 3d 0d fa aa 3d
       0.00078736636 0.018106971 0.037020758 0.08348475
0001e0 50 f4 63 bd 80 df 02 bb 03 d9 74 3d fa 15 8e bd
       -0.055652916 -0.0019969642 0.05977727 -0.069377854
0001f0 14 1d 4a 3d 45 99 b3 3d c1 a6 a9 3c 88 8d 30 bd
       0.049344137 0.08769468 0.020709397 -0.043103725

layers.4.weight f4 [128, 128]
000000 ec dc 1e 3d 31 81 5d 3e ca c7 55 bd 9a e1 a2 bd
       0.038784906 0.21631314 -0.052192487 -0.07953186
000010 29 36 23 3e 7d c5 b7 bd bb f4 27 3d 15 8d f6 3c
       0.15938629 -0.08973215 0.041004878 0.03009657
000020 b9 e6 3b 3d 73 80 14 bd d2 95 84 bb 0e 6a 54 3e
       0.04587433 -0.03625531 -0.0040461803 0.20743582
000030 00 f1 88 3c ed 4e 91 3d 0f 62 88 3d 36 d5 41 3e
       0.01671648 0.07095132 0.06659328 0.1892899
000040 5f 3e 9c 3d 9f dd 7d 3d 53 a8 2f bd 17 50 8d 3d
       0.07629084 0.061978932 -0.042885136 0.069000416
000050 ec b2 0b 3d 5a dd f3 3d 2b 96 4f 3b 60 25 3d 3e
       0.03410618 0.11907454 0.00316752 0.18471289
000060 bf 01 5d 3d 44 20 07 3e 19 5b 8a bd d2 58 cc 3a
       0.053956743 0.13195902 -0.06755657 0.0015590435
000070 2e ae 0f 3e c6 23 b1 bd b6 49 5e 3e 62 4b db 3f
       0.14031288 -0.08649401 0.21707806 1.713238
000080 bc c0 ad 3d 0c d3 6a 3d c9 d5 4a 3e 86 43 0c bd
       0.08484027 0.057330176 0.19808115 -0.034244083
000090 62 27 01 3c 92 ef 4f be 06 fa 8c 3d 28 81 6d 3d
       0.007882925 -0.20306233 0.06883626 0.0579845
0000a0 f2 eb 74 3e 47 01 a4 bd 59 ce a5 3d 63 45 df 3d
       0.23918131 -0.08008056 0.08095998 0.10901906
0000b0 74 7f cf 3b 5c 65 df 3d af 1f 4f bd 12 e9 37 bc
       0.0063323323 0.10908005 -0.050567325 -0.011225002
0000c0 84 79 25 3e e6 64 54 3e 81 bc 87 bd b7 58 7d bc
       0.16159636 0.20741615 -0.06627751 -0.015463046
0000d0 4a 9e d6 bd 1b 6d 9d bd ac 7b 32 3e a6 5c 19 be
       -0.1047941 -0.07686826 0.1742999 -0.14976749
0000e0 75 9e f4 3c 76 a0 1d 3e 2a 9e 81 bd 98 0c f9 3d
       0.029860714 0.15393242 -0.063289955 0.12160605
0000f0 20 04 5a bd d5 d6 99 3e b7 46 8e 3d bc 7c e8 3c
       -0.05322659 0.30046716 0.069470815 0.02837979
000100 30 f4 a6 3e c6 87 22 3d 0e 7a 50 3d 19 f0 2e bd
       0.32608175 0.039680265 0.05089765 -0.042709444
000110 79 1a 4a 3c 00 fb bb 3c 0a e8 ab 3d 11 a3 bc 3d
       0.012335413 0.022946835 0.08393867 0.0921079
000120 8f af ed 3d 79 59 f8 bd 1a ac f5 3c f5 04 a3 3d
       0.11605751 -0.121264406 0.029989291 0.0795993
000130 a5 ae a8 3d 11 3f fe 3d ed 14 8a 3d 63 c7 7d 3c
       0.08236436 0.12414373 0.067422725 0.015489432
000140 2d 2c 8e 3b 64 2d 86 3b bb 82 9b 3b 31 5a 59 3d
       0.0043387623 0.0040947665 0.004745809 0.05306453
000150 49 af e5 3c 18 38 c5 3d e4 ed 4f 3e 31 5b 0f bd
       0.028037684 0.0962984 0.20305592 -0.034999076
000160 d2 6d 11 bb 36 46 7f bd 82 d7 c9 bd a0 79 12 3e
       -0.0022190702 -0.062322818 -0.09855558 0.14304209
000170 59 42 84 3c ad 97 65 bd d7 83 ac 3f 95 26 b8 3e
       0.016144918 -0.056052852 1.3477734 0.35966936
000180 9a 8e 26 3e 31 3f ed bc da 43 6d 3d 6b 9a 6d 3d
       0.16265336 -0.028960796 0.057926036 0.058008593
000190 af db 54 3e e9 a7 8a bd 8e 59 73 bd d3 b7 98 bd
       0.20786928 -0.067703076 -0.059411578 -0.07456937
0001a0 8c 3d 94 bd e6 e4 0c bd d1 32 60 3d 23 66 6e bd
       -0.07238302 -0.034397982 0.054735962 -0.058202874
0001b0 63 5c 2b 3d f0 91 31 3d 01 c6 04 3d 8f e0 40 ba
       0.041836154 0.043352067 0.032415394 -0.00073576806
0001c0 d2 c8 60 3d ff 17 86 3d 7b 11 54 bd 6f 7d 8e 3d
       0.054879017 0.06547546 -0.051774483 0.06957518
0001d0 4e 8b 8e bd f2 bf 9d bd b7 7d b4 3d 63 db 4f 3d
       -0.06960164 -0.07702626 0.08813041 0.050746333
0001e0 fe 37 9a bc 74 a4 17 be e5 02 39 3c a6 30 94 bd
       -0.018825527 -0.14808828 0.011292194 -0.072358415
0001f0 4c 23 9a bc a5 f3 19 3e 71 93 af bd 04 fb d7 bc
       -0.018815659 0.1503435 -0.08573044 -0.02636481
000200 79 cc 27 bd 6d 65 8f bc 5a 91 ec bc 24 fb bc bc
       -0.040966485 -0.017504418 -0.028877903 -0.023068972
000210 3f 70 d4 bc 4f 30 d6 3c 35 aa 58 bd a5 fc 82 3d
       -0.02593243 0.026146082 -0.052896697 0.06395844
000220 f4 17 4e bd c0 26 6d 3d fc 98 8b bd 6e 5b 00 3b
       -0.050315812 0.057898283 -0.06816289 0.0019585746
000230 a9 7c b3 bc f5 d9 43 bd 3d fc 91 3d 04 90 9a bd
       -0.021910029 -0.047815282 0.07128189 -0.07547
000240 40 b3 6e bd 53 8e 7b bd c5 42 ae 3c cd f3 71 bd
       -0.058276415 -0.061415028 0.021272073 -0.059070397
000250 ec e7 56 bd 8a 8a 6b 3d 90 0c 09 3c fd c2 b1 3d
       -0.05246727 0.057505168 0.008364812 0.08679769
000260 84 84 9b 3d 04 7e 53 bc e3 e9 76 3d d2 7a a0 bd
       0.07593635 -0.012908462 0.060281646 -0.07835926
000270 4a 9e 2d bd 12 93 b4 3d 83 31 b1 bd 60 4b 6d 3d
       -0.042387284 0.08817114 -0.08652022 0.05793321
000280 10 0f 1d 3d 13 ab 72 bd a7 34 29 3b 0d 7d 73 bd
       0.038344443 -0.05924518 0.0025818737 -0.05944543
000290 63 f9 1a bd 56 34 a6 3c e1 1b 96 bd 89 b3 68 bd
       -0.03783549 0.020288628 -0.07329536 -0.056811843
0002a0 a8 9c d9 3c 6d b3 f9 bb 3e 27 9d 3d b3 d2 bd bc
       0.026563957 -0.007620266 0.076735005 -0.023171758
0002b0 25 0e 06 3c 6e 18 aa 3c e9 87 13 3d b7 cb 96 3d
       0.008182083 0.020763602 0.036018286 0.07363074
0002c0 6d 1c fb bc 1c 97 ea 3c 6b 90 56 3d 6e 2a d2 bc
       -0.030653203 0.028636508 0.05238382 -0.025654998
0002d0 cf 0d 83 bd b9 33 49 bd 71 76 35 3d 61 b8 a1 bd
       -0.06399118 -0.049121592 0.044302408 -0.078964956
0002e0 1c 4d 8d 3a 75 89 ab 3d 23 67 24 3d d5 d5 55 3d
       0.0010780427 0.08375827 0.04013742 0.05220588
0002f0 a1 89 7f 3b 5a b8 fd 3b 5e c7 cd bb 47 38 b6 bb
       0.0038991945 0.0077429237 -0.00627987 -0.005560908
000300 51 13 81 bd 73 c2 a8 3d 96 93 11 3d 2b 64 17 bc
       -0.063025124 0.08240213 0.03554114 -0.0092401905
000310 d0 89 04 b8 df 0b 2e bd fc 81 9b bd be 8a 21 3c
       -3.15996e-05 -0.04249179 -0.07593152 0.009859739
000320 6c 14 a3 bd 31 f8 9a 3d d5 ff 08 3c a6 f2 fc bc
       -0.079628795 0.0756687 0.008361776 -0.030877423
000330 21 27 53 bd 68 2a 02 bd f5 8c 35 3d 51 7b cb bc
       -0.051550988 -0.031778723 0.04432388 -0.024839075
000340 0d 98 96 bd 16 4c a0 bd 8d c1 2e 3d 48 6b a1 bd
       -0.0735322 -0.07827012 0.042665053 -0.078817904
000350 bf e6 88 bd 03 f6 12 3c a5 b5 3e bd 52 4e 80 bd
       -0.06684636 0.008969787 -0.04655995 -0.062649384
000360 43 ce 96 ba cf 29 93 bc d6 65 d8 bc dc f5 9b bd
       -0.0011505563 -0.017964272 -0.026415747 -0.07615253
000370 ef 4e 99 bd 6a da 75 3d 8e be cc 3b 24 9b 98 bd
       -0.074857585 0.06002275 0.006248302 -0.07451466
000380 0d 8a 8d bd ad 00 17 bd cd f4 98 bd 3d 37 77 3d
       -0.06911097 -0.03686588 -0.07468567 0.060355414
000390 64 a9 1f bd d4 fd 76 3d 12 de 62 3d 20 54 63 bd
       -0.038979903 0.060300663 0.055387564 -0.05550015
0003a0 85 f4 c3 3c 66 ed ac bd fc 95 89 bd 13 31 2b bd
       0.023920307 -0.08443718 -0.067180604 -0.041794848
0003b0 56 ff 8c 3d e2 c9 36 bd d2 d5 01 bd 87 ce ee 3c
       0.06884639 -0.044626124 -0.031698056 0.029151214
0003c0 30 18 91 bd 8d 9e 69 3d cb a6 97 bd 48 1c 7b bd
       -0.070846915 0.05703597 -0.0740486 -0.061306268
0003d0 59 30 1a 3d bc 39 5a 3d 97 68 86 3d f8 94 a8 3d
       0.037643764 0.053277716 0.06562918 0.082315385
0003e0 65 55 7a 3c 02 fa d6 bc e9 01 a5 bd 19 9c b2 bd
       0.015279149 -0.02624226 -0.08057005 -0.087211795
0003f0 e9 40 88 3d a4 ab 15 3c 86 86 42 3d 6a 64 62 bd
       0.06653006 0.009135161 0.047491573 -0.055271544

layers.4.bias f4 [128]
000000 af dc 55 bd f2 c1 31 bd b8 34 26 3e fd bf 23 bc
       -0.052212413 -0.04339785 0.16231048 -0.009994504
000010 81 4d ca 3c 21 4d 21 3d 62 a4 00 3e e5 22 38 3e
       0.02469516 0.039380196 0.12562707 0.17982061
000020 22 dc 5f bd 2e 53 d7 38 6f fd 2c 3d ef b6 b5 bd
       -0.054653294 0.00010267492 0.04223388 -0.088727824
000030 e2 d7 3b 3d e8 46 14 3d f6 4f b1 3d 32 c0 03 3e
       0.04586018 0.036200434 0.086578295 0.12866285
000040 b1 d8 66 bd fe ed c9 bc 2c ad 85 bd 43 bd 97 bb
       -0.056358997 -0.024649616 -0.065271705 -0.004630716
000050 16 ce fd bd ee d8 35 bd 1e 36 85 3b 94 ed 39 3c
       -0.123928234 -0.044396333 0.004065289 0.011348147
000060 4b e7 89 3d d9 38 b3 bd 80 6f fa bc 2d 01 81 3d
       0.06733569 -0.08751077 -0.030570745 0.062990524
000070 2f 3a 0d bd d4 74 a8 bd 2e b2 c9 3d 3d 0a de 3d
       -0.034479316 -0.08225408 0.09848438 0.108417965
000080 82 87 9d bd f2 2a f3 3d cb 96 08 3e 23 44 2a bd
       -0.07691862 0.118734255 0.13338773 -0.041568886
000090 0c 3c da 3c fe 5f b0 bc 9a 91 9e bd 5c 36 72 bd
       0.02663996 -0.021530148 -0.07742615 -0.059133872
0000a0 4e 86 c9 bd 23 cf 2d 3e e8 e8 9d bd 35 18 09 3e
       -0.0984007 0.16973548 -0.07710439 0.1338814
0000b0 d4 13 f3 bc 01 fc b5 3d ea 6b d9 3a ee 26 bf bb
       -0.02967254 0.088859566 0.0016587947 -0.005833498
0000c0 16 fb a3 3c 1b fb 50 bd 80 5f ee bd 9d cf d2 bd
       0.020017188 -0.051020723 -0.11639309 -0.10293505
0000d0 f5 84 b0 bd 09 28 6e 3c c0 02 a1 3d dc 58 79 bd
       -0.086191095 0.014535912 0.07861853 -0.06087576
0000e0 21 83 d9 3c ac 82 8c bd 1c 90 30 bd b4 d7 08 bd
       0.026551785 -0.06860861 -0.043106183 -0.033408836
0000f0 4b 9e 8a bd 6c 84 4b bd 4f 84 d2 bd a6 66 ff 3d
       -0.06768473 -0.049686834 -0.10279142 0.124707505
000100 53 8a c6 3b 95 01 1b 3c b8 46 6a 3d 0b 6a 7e bd
       0.00605897 0.009460826 0.05719635 -0.06211285
000110 a1 db c2 bd 8e aa 98 bd 23 59 df 3d c8 fc 0a 3d
       -0.09514547 -0.07454406 0.10905673 0.033932477
000120 35 d8 32 bd f2 bc 13 bd fb 92 38 be 4b 6d 58 3d
       -0.043663222 -0.036068864 -0.18024819 0.052838605
000130 83 83 9c bc ff b9 b8 bd 50 a7 f4 bc 56 82 a6 3d
       -0.019105678 -0.09019851 -0.029864937 0.08130328
000140 96 6e 08 3d dd c1 ee 3c e4 77 3e 3d fc 5e 7f bc
       0.033308588 0.029145176 0.046501055 -0.015586611
000150 e2 b2 21 3e 9c 14 a6 3c f6 5c cc bb 82 5c 7e bd
       0.15790895 0.0202735 -0.0062366677 -0.06209994
000160 67 67 25 3d 88 fb 17 3d e7 16 82 3d 67 13 39 3d
       0.040381815 0.037105113 0.063520245 0.04518452
000170 8a 93 8d bc 60 c3 c2 bd 9e be f3 3d bd 11 21 bc
       -0.017282266 -0.09509921 0.11901592 -0.009830889
000180 53 25 d3 bd 02 5a 11 3d 58 b2 08 3e a2 df e7 3d
       -0.103098534 0.03548623 0.13349283 0.113219514
000190 77 d6 f6 3d a8 cd bb 3c 97 d2 9f bd cc d6 85 3d
       0.12052625 0.022925213 -0.07803839 0.0653511
0001a0 8d c5 89 bd 42 3a 17 3e e2 a7 e2 bd 1a 43 c2 bc
       -0.06727133 0.14768317 -0.11067177 -0.023713637
0001b0 24 d3 a5 bc ec 93 86 bb 91 fe 0f 3e 52 7b 22 3c
       -0.020242281 -0.004106989 0.14061953 0.009917097
0001c0 42 13 d1 3d 87 5c e1 bd e4 c3 84 bd 7b 56 b0 bd
       0.10208751 -0.11003976 -0.06482676 -0.08610245
0001d0 76 f5 21 3e ac 3a 6f 3c fc 85 46 3d f9 8d ab bc
       0.15816292 0.014601391 0.04846762 -0.020941721
0001e0 45 e3 f5 3b da 37 0a 3e 1d 55 bd bd 49 80 77 bc
       0.0075038993 0.13497868 -0.0924475 -0.015106269
0001f0 c2 8e 83 bd 47 ff a5 bd 9c 79 07 3e 1b 47 65 3d
       -0.06423713 -0.08105331 0.13229984 0.055976015

layers.6.weight f4 [1, 128]
000000 9d 8d c7 3e ce 40 73 3d 5a 8e 99 3e 31 c6 f2 bd
       0.3897523 0.059387974 0.29991418 -0.11854208
000010 c7 31 13 ba a9 d5 b4 3e 81 10 a8 3e a0 0c 9c 3e
       -0.00056150224 0.3531926 0.3282509 0.30478382
000020 8d 61 5c 3d 53 23 7b bd f6 1f 86 3e 70 42 cf 3c
       0.05380397 -0.061312985 0.2619626 0.025300235
000030 12 7d 3d be 5a 45 de bd 4f 89 0d be 71 f4 8f 3e
       -0.18504742 -0.108530715 -0.1382191 0.28116181
000040 96 60 e7 b9 6a 32 f6 3b 25 cb 78 bc f6 23 e5 3c
       -0.00044131716 0.007513334 -0.015185152 0.02797125
000050 c9 a6 1a 3d db 17 5d bd ea c1 a6 bb ec 7a a5 3e
       0.037756715 -0.05397783 -0.0050890343 0.32320344
000060 13 7b 07 be c5 1d eb 3c 37 6d 47 bd a5 c5 f0 bd
       -0.13230543 0.028700719 -0.04868814 -0.11756448
000070 44 9b 98 3b cc ee 06 bd 24 cc 03 be eb 81 b2 3e
       0.004657181 -0.03294258 -0.12870842 0.34864745
000080 36 92 23 3d d7 58 92 3e a0 25 a8 3e aa b1 43 be
       0.03993436 0.28583404 0.32841206 -0.19110742
000090 1b 5a 01 be a3 38 d3 3c a3 5b 4d 3d fe 62 a9 3e
       -0.12632029 0.025783842 0.05013622 0.33083338
0000a0 09 34 a1 bc c4 a3 a0 3e a7 36 e5 3c 80 24 a2 3e
       -0.019678133 0.31374943 0.027980162 0.31668472
0000b0 a8 f5 eb 3c 1e cb 9b 3e 76 bb ae 3e 2a 3a 25 bb
       0.028803661 0.30428404 0.34127396 -0.002521167
0000c0 6e 6b f1 bd a4 0d 86 bd 00 7d 3b bd 60 2f 04 bd
       -0.11788069 -0.065455705 -0.045773506 -0.032271743
0000d0 87 b8 9e 3e 8e cb ec 3c cb cc ca bd 18 b2 f6 3c
       0.31000158 0.028905656 -0.099023424 0.030114219
0000e0 ff e4 aa 3e c9 19 c4 3c 1a 10 a8 3b 26 63 93 bd
       0.33377835 0.023938077 0.0051288726 -0.071966454
0000f0 2c 64 0a 3d 31 9b 17 bd 0c 0c 11 3b 38 1c 99 3e
       0.033786938 -0.037013236 0.0022132425 0.29904342
000100 d3 e3 7c be fb ed 65 b9 aa 30 1a 3d 30 0b 20 3d
       -0.24696283 -0.00021927796 0.037644066 0.03907317
000110 26 a5 88 bd 14 29 b9 3e 1e 47 a0 3e c0 cf ad 3e
       -0.066721246 0.36164153 0.31304258 0.33947563
000120 71 fe 21 bb 59 64 aa 3d f7 ac 78 3f 91 c6 20 be
       -0.002471831 0.08319921 0.97138923 -0.15700747
000130 82 3c 52 be 2e 3d c7 3b 0d d5 ed bd 36 9f 95 bd
       -0.20530894 0.0060802912 -0.11612902 -0.07305758
000140 ad a9 85 3c 1d fb 85 bd be ad 86 3e 4f 5b 16 3c
       0.01631626 -0.06542037 0.2630443 0.009177043
000150 89 60 b1 3e 1e d7 ad 3e 96 9e e2 bd ec 42 c3 3e
       0.34643963 0.33953184 -0.11065404 0.38136995
000160 84 35 0f be 43 5b 0b 3c c2 21 f3 bd 2b d7 23 be
       -0.13985258 0.008505645 -0.11871673 -0.16000049
000170 37 99 79 3c b0 6b 2b bd a9 43 b2 3e 00 ca 48 3d
       0.015234283 -0.041850746 0.34817246 0.049020767
000180 94 f7 0b 3c 37 42 09 be 66 78 93 3e 14 37 c0 3e
       0.008542914 -0.13404165 0.28802794 0.3754202
000190 f8 cf c7 3e f5 ef 40 be cc 19 27 bc a6 22 a1 3d
       0.39025855 -0.18841536 -0.010199022 0.07867937
0001a0 c6 96 0e 3d af e2 a7 3e 91 8d 47 bc f1 72 0d be
       0.034811758 0.32790133 -0.012179748 -0.13813378
0001b0 f1 32 ee 3b 83 b8 3b bd 9e 98 ce 3e b7 7c 2c be
       0.0072692563 -0.04583026 0.40350813 -0.1684445
0001c0 09 c2 7f 3e 67 2a d7 3c 44 db 02 bc 9f 9a a5 bc
       0.24976362 0.026265336 -0.007986847 -0.02021533
0001d0 65 4a ac 3e f5 63 a8 3e aa b5 77 bd 18 f7 f2 bd
       0.3365051 0.3288876 -0.060475983 -0.11863536
0001e0 fa 94 09 be 5a ca 84 3e 6e 91 89 3b d1 12 45 3e
       -0.13435736 0.25935632 0.004198245 0.19245459
0001f0 43 13 7e 3c d8 d6 51 3c d5 17 a1 3e c3 57 7f 3e
       0.015507522 0.01280757 0.31463495 0.24935822
