models/mlp/best_model_linear_mae.pth (torch, 3072 bytes, 3 tensors)

layers.0.weight f4 [64, 1]
0.2031123 0.17573537 -0.96397346 1.0024705 0.80924386 0.14062904 -0.17296886 0.079678595
0.8348733 0.998907 -0.82698625 0.62213707 0.7289008 0.42222446 -0.23318902 -0.24487314
0.17389359 1.1397395 -0.19650733 -0.5655312 -0.24448809 -0.26477033 1.0271853 -0.5470769
-0.4611277 -0.5416277 -0.6460468 -1.0687652 -0.16015711 0.1759086 0.11979177 -0.71568644
-0.046289142 -0.057950348 -0.35464084 -0.86630005 -0.75496143 0.7677224 1.1139199 -0.8172162
0.11941014 -1.0796015 0.2907772 -0.42087683 -0.79344535 -0.7264371 -0.35883206 0.51399875
-1.0059502 0.22694108 -0.72016436 -0.7528591 -0.94177985 0.7135285 -0.34514588 0.4226331
1.0608765 1.0166728 0.640119 0.07601003 0.24716668 -0.35456333 -0.26213688 -0.86802316
00000000: acfc 4f3e f9f3 333e f7c6 76bf f450 803f
00000010: 9b2a 4f3f 0f01 103e c01e 31be 882e a33d
00000020: 42ba 553f 5fb8 7f3f 5fb5 53bf 6044 1f3f
00000030: 3e99 3a3f ce2d d83e 1ac9 6ebe 06c0 7abe
00000040: 2911 323e fce2 913f 3839 49be a7c6 10bf
00000050: 165b 7abe fa8f 87be cf7a 833f 3b0d 0cbf
00000060: ee18 ecbe 1da8 0abf 5363 25bf 4ccd 88bf
00000070: 3a00 24be 6221 343e 6355 f53d 3a37 37bf
00000080: af99 3dbd 585d 6dbd 7c93 b5be d7c5 5dbf
00000090: 2745 41bf 7589 443f ed94 8e3f 1535 51bf
000000a0: 4e8d f43d 6230 8abf c0e0 943e 2b7d d7be
000000b0: 3c1f 4bbf c8f7 39bf d6b8 b7be 6c95 033f
000000c0: fac2 80bf 3e63 683e b15c 38bf 60bb 40bf
000000d0: 7c18 71bf cea9 363f f6b6 b0be 5e63 d83e
000000e0: cdca 873f 5622 823f d7de 233f 26ab 9b3d
000000f0: 4319 7d3e 5389 b5be ce36 86be c436 5ebf

layers.0.bias f4 [64]
-0.8638087 -0.010775246 0.25131276 0.09521864 0.9279096 0.92601997 0.15712155 0.76805675
-0.27362546 -0.10074134 0.7167657 0.4655333 0.83931327 0.36353132 0.13204585 0.23170184
0.7136338 0.5069934 0.34721544 -0.71834123 0.28093892 0.13167566 -0.010822926 -0.5208154
-0.81139874 0.6210831 -0.73113817 -0.040601775 -0.34683973 0.2023722 0.6391008 0.78517073
0.35332635 -0.45416322 -0.9130238 0.6480833 -0.8397005 -0.32968786 0.1839154 -0.85204667
-0.52006704 -0.08933931 0.6929116 -0.02299626 0.08044262 -0.3848686 -0.6756716 0.6462409
-0.9845896 0.83139277 0.5079375 0.10174628 -0.062100284 0.7863415 -0.3607079 0.90348077
0.71671635 0.55122316 0.073644444 -1.0004951 -0.36528432 0.2529138 0.7502544 0.875447
00000000: 9122 5dbf a88a 30bc 11ac 803e fe01 c33d
00000010: 7c8b 6d3f a50f 6d3f 79e4 203e 5e9f 443f
00000020: a318 8cbe 7a51 cebd f57d 373f 615a ee3e
00000030: 3cdd 563f c720 ba3e 0737 073e 3f43 6d3e
00000040: b4b0 363f 52ca 013f 39c6 b13e 36e5 37bf
00000050: 3ad7 8f3e fcd5 063e a452 31bc 2854 05bf
00000060: d4b7 4fbf 4dff 1e3f df2b 3bbf 0c4e 26bd
00000070: fa94 b1be a83a 4f3e 1c9c 233f f300 493f
00000080: 31e7 b43e 1588 e8be eebb 69bf cae8 253f
00000090: 9df6 56bf d9cc a8be 5254 3c3e bb1f 5abf
000000a0: 1d23 05bf 87f7 b6bd a862 313f a762 bcbc
000000b0: 1abf a43d 7f0d c5be d0f8 2cbf 0b70 253f
000000c0: 100e 7cbf 28d6 543f 3108 023f 5b60 d03d
000000d0: de5c 7ebd ad4d 493f b5ae b8be 844a 673f
000000e0: b97a 373f f61c 0d3f e6d2 963d 3910 80bf
000000f0: 8c06 bbbe eb7d 813e ac10 403f 4b1d 603f

layers.2.weight f4 [1, 64]
0.030840574 -0.003655785 -0.024316227 0.2552192 0.02165447 -0.039064907 -0.08340266 0.049407378
-0.007670557 0.1198064 -0.041231636 0.06500074 0.093918845 0.09068877 -0.104260735 -0.08511762
0.11071898 0.034401763 0.05640385 -0.007683511 -0.07362685 0.0030875762 0.18938158 -0.12338366
0.0523612 -0.08664128 0.03831834 -0.10380948 0.034002922 0.12478094 0.04809941 -0.108558625
-0.087213114 -0.023275878 0.027677443 -0.02694372 0.051907994 0.08775204 0.06897956 0.0616048
-0.050963175 -0.32996032 0.015110773 -0.095817104 -0.14602378 0.061351396 -0.11207583 0.0030109917
-0.05461583 -0.042912174 0.096110135 -0.015638556 -0.07664812 -0.08247532 -0.13196753 0.070681244
0.03259749 0.030804254 0.0486773 -0.075332604 0.046591353 0.06243182 0.041236393 -0.016015302
00000000: 5fa5 fc3c e595 6fbb d332 c7bc 17ac 823e
00000010: b764 b13c 8602 20bd 04cf aabd 645f 4a3d
00000020: 4c59 fbbb 0f5d f53d 81e2 28bd 1c1f 853d
00000030: 8658 c03d 09bb b93d a786 d5bd 2652 aebd
00000040: a2c0 e23d dde8 0c3d b907 673d f6c5 fbbb
00000050: adc9 96bd ef58 4a3b 3fed 413e 93b0 fcbd
00000060: b378 563d fc70 b1bd b1f3 1c3d 119a d4bd
00000070: a646 0b3d 268d ff3d e303 453d fc53 debd
00000080: ca9c b2bd 0ead bebc cebb e23c 14b9 dcbc
00000090: 7a9d 543d 57b7 b33d 2845 8d3d 5155 7c3d
000000a0: c3be 50bd 8ff0 a8be 2d93 773c c23b c4bd
000000b0: 4287 15be 9a4b 7b3d 0388 e5bd 0f54 453b
000000c0: d9b4 5fbd adc4 2fbd 64d5 c43d 6e1c 80bc
000000d0: b1f9 9cbd d2e8 a8bd 7f22 07be 54c1 903d
000000e0: f284 053d 3459 fc3c d961 473d fb47 9abd
000000f0: 93d6 3e3d 82b8 7f3d 7ee7 283d 8632 83bc
