models/mlp/best_model_relu_mse_log_2x64.pth (torch, 20506 bytes, 5 tensors)

layers.0.weight f4 [64, 1]
000000 d8 c5 f5 be 38 e1 52 bf 90 2d 9f 3e 34 7a 64 bf
       -0.48002505 -0.82374907 0.3108945 -0.8924897
000010 04 c4 a6 3e fc 30 25 bf 18 b6 16 be ea 33 11 3f
       0.32571423 -0.6452787 -0.14717901 0.5671984
000020 00 e5 9b 3e fc cc 1d bf e2 ad 54 bf a2 8a 58 3f
       0.3044815 -0.61640906 -0.83077824 0.84586537
000030 c0 ba 9b bc 00 1f e5 bd a4 bf 6e 3f 7c f0 d7 be
       -0.019009948 -0.111875534 0.9326117 -0.42175663
000040 c0 1f 50 be 28 8c 03 be e4 0b 37 bf b0 8b 91 bd
       -0.20324612 -0.12846434 -0.7150252 -0.071067214
000050 7a 88 16 bf 00 27 8e 3b 38 a8 f8 be 40 f8 da bc
       -0.58801997 0.0043381453 -0.4856584 -0.026729703
000060 ec f5 f7 be 18 b5 8c be c8 31 0d 3e c0 a4 85 bc
       -0.4842981 -0.27481914 0.13788521 -0.01631391
000070 20 ed 89 3d 68 70 46 bf 58 2c 4a be 2e 2d 26 bf
       0.06734681 -0.7751527 -0.19743478 -0.6491269
000080 ea 93 6e 3f 30 3d 44 bf e0 03 25 3d 00 20 2e 3e
       0.9319445 -0.76655865 0.0402869 0.17004395
000090 b8 e3 7b bf bc a3 1b bf 90 3e 38 3f a4 43 38 bf
       -0.98394346 -0.60796714 0.7197046 -0.7197821
0000a0 88 97 0c bf 90 af 54 bf dc 4f 66 bf 50 cb e6 3e
       -0.5491872 -0.8308039 -0.89965606 0.4507699
0000b0 40 ed 52 3f 5e 57 26 bf d8 cd 0b bf 8c 7d 0b 3f
       0.82393265 -0.6497706 -0.5461097 0.54488444
0000c0 68 03 ef 3e 1c ec 00 3f 4c ac b1 3e 24 73 dc be
       0.46682286 0.50360274 0.34701765 -0.43056595
0000d0 00 10 d2 3b f0 7c 86 3e cc d9 a8 be dc 8e 09 3f
       0.0064105988 0.26267195 -0.32978666 0.5373361
0000e0 c0 1d 51 3d 78 50 77 3e 18 f5 d8 be ae 82 2d bf
       0.051053762 0.2415179 -0.42374492 -0.67777526
0000f0 f6 53 09 3f 10 3c 61 be ce 89 09 bf d8 e0 97 3e
       0.5364374 -0.21995568 -0.537259 0.2966373

layers.0.bias f4 [64]
000000 70 09 4a 3e fc a0 fe be 08 3a 40 bf 78 6b fc 3e
       0.19730163 -0.49732196 -0.7508855 0.49300742
000010 08 6e 4f 3f 82 48 79 3f 22 00 55 3f 90 5f 1d 3f
       0.8102727 0.97376263 0.8320333 0.6147394
000020 7e 57 24 bf 3c d2 50 3f a0 57 53 3d 44 4b d3 3e
       -0.64196 0.8157079 0.051597238 0.4126836
000030 a8 d8 5c 3f f4 02 5e bf b0 71 4c be 58 43 55 bf
       0.8626809 -0.86723256 -0.19965243 -0.83305883
000040 b6 85 05 3f 6e 47 4b 3f d8 ec 54 3f 02 71 19 bf
       0.5215715 0.7940587 0.83173895 -0.5993806
000050 58 d2 03 bf f0 9c 67 bf 60 f5 89 bd e0 68 e6 3d
       -0.51492834 -0.9047384 -0.06736255 0.11250472
000060 02 56 4b bf fa f2 73 bf 64 f9 da be 12 4a 2a bf
       -0.7942811 -0.9529263 -0.42768395 -0.6651927
000070 fa 20 32 3f 88 19 47 bf 3c 4a c4 3e ce 2e 1d 3f
       0.6958157 -0.7777333 0.38337886 0.61399543
000080 fc 70 a4 be 8e cb 01 bf 0a a5 3b 3f 48 b9 04 3e
       -0.3211745 -0.50701225 0.73298705 0.12961304
000090 d8 fb 88 3e d0 23 9d bd 80 96 55 3d a0 b0 0d bf
       0.26754642 -0.07672846 0.05214548 -0.55347633
0000a0 40 6f 5b be 1e f1 03 bf c0 8a 49 bd 88 a0 f2 3e
       -0.21429157 -0.5153979 -0.049204588 0.473881
0000b0 68 b6 52 bf ae 07 74 bf 44 f4 3e bf 40 66 0e bd
       -0.8230958 -0.9532422 -0.7459147 -0.034765482
0000c0 34 fd 6c 3f e0 c1 7a 3f f8 42 b6 3e 64 7a 4e 3f
       0.9257386 0.9795208 0.35597968 0.80655503
0000d0 3a 1c 55 3f ec dd f5 be a0 20 05 3e 68 86 29 3f
       0.83246195 -0.48020875 0.13000727 0.6622071
0000e0 c0 70 36 bf 04 a1 ce 3e 92 d5 57 3f 00 da f0 bd
       -0.7126579 0.4035722 0.8431026 -0.1176033
0000f0 f0 42 4e 3f 70 ea 70 bf 54 25 ca 3e d0 c0 80 3d
       0.8057089 -0.94107723 0.39481604 0.06286776

layers.2.weight f4 [64, 64]
000000 da 68 98 bd c2 87 f6 3d 48 b3 51 bd 80 10 92 3d
       -0.07441874 0.120376125 -0.051196367 0.071320534
000010 ec 57 cd 3d 98 f2 43 bd b2 71 fa bd 96 46 8d bd
       0.100265354 -0.047838777 -0.12228717 -0.06898229
000020 02 c1 b8 3d 2e b4 b9 bd ea 92 aa bd 50 64 ce bd
       0.09021188 -0.0906757 -0.08328803 -0.10077727
000030 80 9b 24 bd 20 22 73 3c 3c 33 12 3d ba 6c a4 bd
       -0.04018736 0.014839679 0.035693392 -0.080285504
000040 40 6f 59 bd d0 13 84 bd 68 1b e8 bd cc d9 17 3d
       -0.053084612 -0.064490914 -0.11333352 0.03707294
000050 0a 39 ed bd 60 65 f1 bc f8 01 a2 bd 1a 22 b4 3d
       -0.11583145 -0.029467285 -0.07910532 0.08795567
000060 86 71 ea bd e0 be c6 3d ee 1c 8b bd 1c d8 17 bd
       -0.11447434 0.09704375 -0.06792627 -0.037071332
000070 e2 c2 d6 3d 98 17 a2 bd a0 a9 b1 3b 80 55 aa 3c
       0.1048639 -0.079146564 0.005421832 0.020792723
000080 8a 75 c3 bd ca 7c c4 bd a0 6f e9 bb 50 38 00 3c
       -0.09543903 -0.09594114 -0.0071239024 0.007825926
000090 58 45 39 bd 5c 39 4f bd 88 58 b2 bd 36 2a ee bd
       -0.045232147 -0.05059181 -0.08708292 -0.11629145
0000a0 0a 65 f4 3d 6c 19 88 bd 94 8f 0a 3d 8e 0a df 3d
       0.11933334 -0.06645474 0.033828333 0.10890685
0000b0 68 e5 93 bd b6 c7 88 bd 04 c1 5b 3d be 6b d8 bd
       -0.0722149 -0.06678717 0.05365087 -0.10567425
0000c0 10 8e bf 3d fc fe 98 3d cc df 43 3d 60 bd ad 3b
       0.09353268 0.074705094 0.04782085 0.0053021163
0000d0 d4 c0 4c 3d 04 8f c2 bd 08 c3 8a bd c4 c9 c0 bd
       0.049988583 -0.09499934 -0.067754805 -0.09413484
0000e0 b8 84 d0 3c c0 c7 d4 bb f8 1b d7 bd 00 8e 72 ba
       0.02545391 -0.0064935386 -0.105033815 -0.0009252727
0000f0 ac 2d 13 bd c8 90 9c bc 98 8a 7b 3d b8 27 65 bd
       -0.035932228 -0.019112006 0.06141147 -0.055946082
000100 08 40 42 3d c0 1c 3a bc 00 fd 6f 3d d4 ba 60 bd
       0.047424346 -0.011359394 0.05859089 -0.054865673
000110 40 47 d6 3c dc 83 c2 3d 4c ca ff bd 76 eb e2 bd
       0.026157022 0.094978064 -0.12489757 -0.11080067
000120 70 03 48 3c 08 e3 3f 3d f2 80 cd 3d 28 77 05 3d
       0.012207851 0.046847373 0.1003436 0.03258434
000130 7c b1 ff 3d 4c 2d 86 3d b8 b9 42 bd a0 de 9b bc
       0.12485024 0.065516084 -0.047540396 -0.019027054
000140 40 52 dd bc d0 f6 c1 3d 8c c7 a8 3d ba 4f f3 3d
       -0.027016759 0.09470904 0.082411855 0.11880441
000150 ca 11 a9 bd ec 7e fd 3d 30 6b 7c 3d 00 69 d5 bd
       -0.08255346 0.12377724 0.06162566 -0.10420418
000160 14 69 8c bd b0 83 9d 3c ca 8b ad bd a0 f6 99 bc
       -0.068559796 0.019227833 -0.08473928 -0.018794358
000170 a2 4f dc 3d 40 bd ae 3b 30 14 46 bc 60 cb ea bd
       0.10757376 0.005332619 -0.012089774 -0.11464572
000180 b8 63 bb bd ac 41 64 3d 00 3c 50 3d 00 f8 af 3a
       -0.09149879 0.055726692 0.05083847 0.001342535
000190 60 e5 8a bb 10 69 1c 3d b8 05 fe bd e2 ae cc bd
       -0.0042387694 0.038186133 -0.124034345 -0.09994294
0001a0 68 bc aa 3d 24 6d 59 bd 7c ed a7 bd 44 1e eb bd
       0.08336717 -0.0530826 -0.081995934 -0.11480382
0001b0 00 04 b8 ba 3c 62 d9 3d f8 a0 f9 3c 50 b9 81 3c
       -0.0014039278 0.1061444 0.030472264 0.015835434
0001c0 52 b9 e4 bd 50 0e c7 bd a0 e4 12 bc 54 76 12 bd
       -0.111681595 -0.09719527 -0.008965641 -0.035757378
0001d0 28 97 f7 3d 68 37 d9 3c 34 1a 1e 3d c0 eb 9c bb
       0.12089378 0.026515678 0.038599208 -0.004788846
0001e0 9c f1 4d 3d 88 3e 15 bd b0 51 28 3d 4c cf 75 bd
       0.050279245 -0.036436588 0.04109353 -0.060012147
0001f0 8a 5a a2 3d d8 fb a2 3c d0 48 39 bc 50 2f b6 bd
       0.07927425 0.01989548 -0.011308864 -0.08895743
000200 ac 0c 68 3d 00 40 a3 ba b0 fb 42 bd 80 80 4e bb
       0.05665271 -0.0012454987 -0.04760331 -0.0031509697
000210 9c 23 ba 3d 08 87 3c bd 6a 24 85 3d 7e b9 c4 3d
       0.09088823 -0.046027213 0.06501086 0.09605692
000220 60 1c 8b 3c fc 80 3f 3d b0 25 37 3c ec d1 5d 3d
       0.016981304 0.04675387 0.011178419 0.054155275
000230 8e ad 9e 3d ea e6 c5 bd 6a a6 d2 3d 7c 48 54 3d
       0.07747947 -0.09663184 0.10285647 0.05182694
000240 c0 57 4e bc c0 ed f7 bc 70 4e 10 bd 36 c9 b5 bd
       -0.012594163 -0.030264735 -0.035231054 -0.088762686
000250 00 e5 b3 3d d2 f9 ef 3d 98 48 31 bd f0 5c 93 bd
       0.08783913 0.11717571 -0.04328212 -0.07195461
000260 f8 3f ee 3d cc 9e a2 3d e0 e9 d2 3c 70 8d 01 3d
       0.11633295 0.07940444 0.025746286 0.031629026
000270 14 f8 3c 3d c4 c9 44 bd 08 12 da bc d0 31 9e bc
       0.046135023 -0.04804398 -0.026619926 -0.019310862
000280 22 11 d7 bd 48 28 4a 3d 0c 34 f9 bd 5c 83 03 bd
       -0.10501315 0.04935482 -0.1216813 -0.032107696
000290 c0 c4 40 bd 00 f2 9c 39 30 7d e1 bc aa 7b b7 bd
       -0.047062635 0.00029934943 -0.027525514 -0.08959134
0002a0 b8 2c d1 3c 70 84 55 bd 58 3f 37 3d 88 57 84 3c
       0.025534019 -0.052128255 0.044738144 0.01615502
0002b0 10 90 e9 3c bc af b2 3d 40 3e 21 3d 08 80 35 bd
       0.028511077 0.08724925 0.039366007 -0.044311553
0002c0 c0 86 1f 3d c0 ba 63 bd e0 80 13 3d 1c 0f b1 3d
       0.038946867 -0.05559802 0.036011577 0.0864546
0002d0 c8 cd dd bc 90 dd 7a bc d2 a2 8c bd 00 d9 46 3b
       -0.027075663 -0.015311614 -0.06866993 0.0030341744
0002e0 36 42 b2 bd 1a 13 e3 bd 82 91 b5 bd c2 f4 b0 bd
       -0.08704035 -0.11087628 -0.08865644 -0.08640434
0002f0 8a d0 85 bd 4c a8 88 bd be 8c b0 3d c0 4d 73 bb
       -0.06533916 -0.06672725 0.086205944 -0.00371252
000300 38 94 aa bc b4 59 ea 3d c0 3d 99 3d 58 93 a7 bc
       -0.02082263 0.11442891 0.07482481 -0.020456001
000310 58 d0 81 3c 88 3e 19 bd 72 58 a2 bd 58 6a 9c 3c
       0.015846416 -0.03741315 -0.07927026 0.019093677
000320 a0 64 b2 3d 8c 4f 1d 3d 52 e8 c7 3d 14 c4 c9 3d
       0.08710599 0.03840594 0.097611085 0.09851852
000330 4e c6 da 3d b8 cc 73 3d 1c 3d 22 bd ca d1 9c 3d
       0.10682355 0.059521407 -0.03960906 0.076572016
000340 62 27 cc 3d d6 c8 86 bd 54 10 d4 bd 80 eb 60 bb
       0.09968449 -0.06581275 -0.10354677 -0.0034320056
000350 44 98 b9 3d 72 1b f9 3d f8 33 ef bd fe b4 ff 3d
       0.090622455 0.12163438 -0.11679834 0.124856934
000360 88 41 a3 bc 18 eb 58 bd 9a 87 82 3d 80 a9 ae ba
       -0.019928709 -0.052958578 0.0637352 -0.0013325661
000370 a8 5f 9a bd 5c d1 52 bd f0 37 ca bc c0 7e d5 bc
       -0.07537776 -0.051469192 -0.024684876 -0.026061416
000380 fc bd 0a 3d 80 77 80 bd 20 d5 f2 3d 80 5f de ba
       0.03387259 -0.06272793 0.118570566 -0.0016965717
000390 a0 29 f6 3d 96 1b f5 3d 28 31 08 3d 70 bd 33 bc
       0.12019658 0.11968152 0.033250004 -0.010970458
0003a0 9c c6 b2 bd 76 bf a9 3d a0 fa e9 bc 54 84 db 3d
       -0.08729288 0.082884714 -0.02856189 0.10718599
0003b0 92 44 ed 3d ce ef 8f 3d 0c 84 cc bd 22 27 d1 3d
       0.115853444 0.07028161 -0.099861234 0.10212542
0003c0 ac e4 d8 bd 6e be f2 bd 62 30 8b 3d 82 41 96 bd
       -0.10590491 -0.11852728 0.06796338 -0.073367134
0003d0 9a a0 a0 3d 90 66 f1 bc 9c 64 97 3d a0 03 6c 3d
       0.07843132 -0.02946785 0.073922366 0.057620645
0003e0 a4 c8 15 3d a0 1b 49 bd f4 aa 7e bd 78 c4 fa bd
       0.0365683 -0.04909861 -0.062174752 -0.12244505
0003f0 40 77 ce 3b 4c a6 ab 3d 2c 45 0a 3d 50 85 11 bc
       0.006300837 0.08381328 0.033757374 -0.008881882

layers.2.bias f4 [64]
000000 84 12 b9 3d ce ed db bd 78 7a 9f 3c c0 05 13 bb
       0.09036735 -0.10738717 0.019467577 -0.0022433847
000010 e8 c6 b8 bd 54 9e 69 bd 74 99 13 bd 28 75 d1 3c
       -0.09022313 -0.05703576 -0.036035016 0.02556856
000020 28 0f aa 3c 06 4a ce 3d bc ee 68 bd 74 9c d8 3d
       0.02075918 0.100727126 -0.0568683 0.10576716
000030 76 2e bf bd 48 83 f9 3d 10 65 96 bd 30 97 7d bc
       -0.093350336 0.12183243 -0.07343495 -0.01547794
000040 28 84 21 3d 0a 0c d3 3d 90 cd 81 3d f2 7e f4 3d
       0.039432675 0.10305031 0.06338036 0.119382754
000050 e0 07 98 bc 00 df 1f bc 3c 4d 91 bd 60 22 b8 bd
       -0.018558443 -0.009757757 -0.070948094 -0.089909315
000060 14 df 8f 3d f4 a0 6c 3d a8 9f db 3d 24 c8 2b 3d
       0.07024971 0.057770684 0.107238114 0.041938916
000070 94 ae d6 bd 48 ff cc bc 10 84 45 3d aa f3 aa 3d
       -0.10482517 -0.025024071 0.048221648 0.083472565
000080 a0 da bf 3b 88 bf fd 3c 1c 79 a4 3d 92 36 b7 bd
       0.0058549196 0.030975118 0.08030912 -0.08945955
000090 92 70 b1 3d 80 b0 5c 3b 26 ea 9e 3d 56 81 bb 3d
       0.08664049 0.0033674538 0.07759504 0.09155528
0000a0 28 d5 c7 bd 64 e0 b2 bd dc 03 12 3d b0 69 d5 3d
       -0.09757453 -0.08734205 0.03564821 0.10420549
0000b0 1c bb 0d bd e2 e0 aa 3d 58 b9 3f 3d 44 3e d1 3d
       -0.03460227 0.08343674 0.046807617 0.10216954
0000c0 e0 31 85 bd a0 6e 1f bd 50 4c 1c bc 40 85 cb bc
       -0.065036535 -0.03892386 -0.009539679 -0.024843812
0000d0 bc b0 1a 3d 24 49 6f bd 28 00 ab 3d 00 f5 37 bc
       0.037766203 -0.05841936 0.08349639 -0.011227846
0000e0 28 6c 17 bd 70 83 50 3c bc 0a ab 3d d8 49 98 3c
       -0.03696838 0.01272665 0.08351657 0.018589899
0000f0 10 05 f9 3c 58 41 3f bd 94 31 9a 3d 90 c5 32 bd
       0.030397922 -0.046693176 0.075289875 -0.04364544

layers.4.weight f4 [1, 64]
000000 dc b2 57 bd 92 e2 94 bd c4 9f ee 3d d8 6f a1 3c
       -0.052660808 -0.07269777 0.116515666 0.019706652
000010 24 b0 55 bd f6 f4 e2 bd 90 cf 31 bc 40 5c 49 3b
       -0.052169934 -0.11081879 -0.010852709 0.0030725151
000020 30 64 ca bc 40 10 86 3b 00 72 1b bb e2 59 81 3d
       -0.024705976 0.0040912926 -0.0023719072 0.06315972
000030 30 3f 0b bd 54 ab 4d bd 70 69 b1 3c 74 f4 f4 3d
       -0.033995807 -0.05021222 0.021656722 0.11960688
000040 66 34 e9 bd 02 f8 e7 3d 68 4c c5 3d 0a 68 a4 bd
       -0.11386947 0.113266006 0.09633714 -0.080276564
000050 d8 8c fb 3c 60 45 1c bc 66 e9 b5 3d 00 40 56 3d
       0.030706808 -0.009538025 0.08882408 0.05230713
000060 0a 57 b0 bd 9c 3f 8a bd 82 96 fb 3d 28 c9 93 3d
       -0.086103514 -0.06750414 0.122845665 0.07216102
000070 1a f4 c6 3d 80 b8 b9 bc ac 4c db 3d 00 a8 45 3c
       0.097145274 -0.022670984 0.107079834 0.01206398
000080 54 63 46 3d 68 a6 ed bd d0 43 d2 3c 90 e9 fb bd
       0.04843457 -0.11604005 0.025667101 -0.12300408
000090 5a 59 fe bd a0 7b fa 3b b8 09 ee bc 70 d4 b1 3c
       -0.12419386 0.007644132 -0.029057369 0.021707743
0000a0 4a 88 ef bd 68 fd aa 3c 8c 07 67 bd 60 89 5f bc
       -0.11695917 0.020872787 -0.05640368 -0.013643593
0000b0 5a 73 bf 3d 7c 11 a5 3d c8 35 e1 bc 34 79 23 bd
       0.093481734 0.080599755 -0.027491465 -0.03991051
0000c0 8e 0b 9b 3d c2 ee ed bd 92 c7 e0 3d e6 7e 9a bd
       0.07570563 -0.11617805 0.10975565 -0.07543735
0000d0 58 59 2f bd 98 88 07 3d 84 f8 93 3d d0 f1 4f bc
       -0.042809814 0.03308925 0.07225135 -0.01269193
0000e0 40 f3 e5 bc ac a5 98 bd 54 1e d7 bd 74 48 25 bd
       -0.028070092 -0.074534744 -0.105038315 -0.0403523
0000f0 08 cd 93 bc f4 28 b1 3d 58 4f 8c 3c 00 eb a3 3a
       -0.018042102 0.08650389 0.017127678 0.0012505949
