models/mlp/best_model_relu_mae_log_2x64.pth (torch, 20506 bytes, 5 tensors)

layers.0.weight f4 [64, 1]
00000000: a983 d4bf cc3e dd3e 481e cb3e 57e9 5dbf
00000010: b6c2 59bf 7865 cfbf d054 9f3e 20b6 54bd
00000020: 50a9 f43d f048 823f 9a13 c2bf bac2 a1bf
00000030: 1727 9cbf 12e0 66bf 5146 793f 3077 7dbe
00000040: 8919 d1bf 5c25 c7be c952 e1bf 58a9 b73f
00000050: 6afa a43f 1e6d 76bf 1067 1ebe 18e4 58bf
00000060: 0c2b dabf e14d 9e3f 153c e1bf 424a 183f
00000070: 61bd 62bf 240b ae3e 007d 8f3d b49b 96be
00000080: 1873 9e3e 27fb 413f 9494 c83e 3988 bd3f
00000090: 066d dc3f 148e af3e 7222 6e3f 72b6 79bf
000000a0: c059 fbbc 0bc3 8e3f a0d7 f4be f177 dc3f
000000b0: ec17 b03e 10c9 35bf 60f9 b5bf ec79 953e
000000c0: 77ef cc3f 99b3 e8bf 6d0c 86bf 69aa a03f
000000d0: 783e 933f ded3 8a3f 80fd 30bd c77a 69bf
000000e0: f0eb de3f d098 9d3e 2261 b4bf 83e7 89bf
000000f0: e8ae 82be a86a a93e f0d1 a4bf f06a 7abe
-1.660268 0.43211973 0.3967154 -0.86684173 -0.8506273 -1.6202841 0.31119394 -0.0519315
0.11946356 1.0178509 -1.5162232 -1.2637551 -1.2199429 -0.90185654 0.9737292 -0.24752498
-1.6335918 -0.3889569 -1.7603389 1.4348555 1.288892 -0.9626025 -0.15469003 -0.84723043
-1.7044387 1.2367517 -1.759646 0.5948831 -0.8857022 0.33992875 0.07006264 -0.29415667
0.30947185 0.75773853 0.39175856 1.4807197 1.7220771 0.34288085 0.9302131 -0.97544014
-0.030682445 1.1153272 -0.4782076 1.7224103 0.3439325 -0.7100992 -1.4216728 0.29194582
1.6010579 -1.8179809 -1.0472542 1.2552005 1.1503439 1.0845907 -0.043210506 -0.9120297
1.7415752 0.3078065 -1.4092143 -1.0773777 -0.25524068 0.33089185 -1.2876568 -0.24454856

layers.0.bias f4 [64]
00000000: 122b 1d3e da7d 49bf 347b 5dbf 1e35 5a3f
00000010: 8ac2 6cbf fe8f 903c 9257 1abf c210 5abf
00000020: 9494 aebe 653e 103e c5ec 103f 4668 443e
00000030: cc90 eb3d 2423 3dbf 3d0b 5e3f f40a 40bf
00000040: c54d 8c3e c4ca 85be deda c13e cb13 1c3f
00000050: cd49 f43e ea05 96be 70c5 64bf a0fd b1be
00000060: aff7 a83e f9a9 5d3f 7b10 393f 8829 12be
00000070: 09db 393d 1c3f f7be beb3 0ebf d618 63bf
00000080: 446b aabe 2d62 6e3f 901f b8be 3cf8 283f
00000090: 210b c63e 4807 b7be 0406 40bf 8fe0 4a3f
000000a0: 50d1 52bf bb10 0b3f 1caf d0be 5b0f 1e3f
000000b0: 984d d8be 0c02 99be f650 413e bc9c 2fbf
000000c0: a146 0a3f 175e 9d3c 5b03 4e3d 68e5 203f
000000d0: 2783 253f fb92 bc3e 6eca 51bf a468 6ebe
000000e0: e1f5 d13e 3e17 56bf 2b56 4e3f 2ef5 5c3f
000000f0: 227e 21bf 60e7 7dbd a3b6 093f f0d5 12be
0.15348461 -0.7870766 -0.8651612 0.852373 -0.92484343 0.017646786 -0.6028987 -0.8518182
-0.3409773 0.14086302 0.5661128 0.19180402 0.11502227 -0.73881745 0.867359 -0.75016713
0.27403083 -0.2613126 0.37862295 0.609677 0.47712556 -0.29301387 -0.89363766 -0.34763813
0.33001468 0.8658748 0.7229077 -0.14273655 0.045374904 -0.48290336 -0.55743015 -0.8870977
-0.33284962 0.93118554 -0.3596158 0.66003776 0.38680366 -0.35747743 -0.7500918 0.792489
-0.82350636 0.54322404 -0.40758598 0.6174218 -0.422467 -0.29884374 0.1887854 -0.6859853
0.5401402 0.019209905 0.05029617 0.62850046 0.6465325 0.36830887 -0.8194951 -0.23282105
0.41007903 -0.83629215 0.8060023 0.86311615 -0.6308309 -0.061988235 0.53794307 -0.14339423

layers.2.weight f4 [64, 64]
00000000: 338f 983e 3862 be3c e89c 8c3d aad2 ff3c
00000010: f059 583c cf64 4b3f d0e7 85bc 1c8f aebd
00000020: 90f0 b2bc 192b 8fbe 0d34 143e 0a29 a13e
00000030: 292e 963e c235 8cbd 7ffc 0f3b f4de 7dbd
00000040: e419 b03e f830 68bd 241c 9d3e abf3 35bc
00000050: 6d48 91bc a1c0 833d 007a c3bc 011e e7bc
00000060: 9983 843e 031e 37bd 7456 303d eccc 4cbd
00000070: ce86 ac3e 7057 28bc 348a 19bd 226b babd
00000080: f416 57bd ca1b b0bb ec8f 713d 66c6 71be
00000090: 8873 b3be f232 c03d 62f1 e6bd 3a98 e93d
000000a0: f4f9 d5bd 6202 2fbe b0e6 dabc 5c8b 4abe
000000b0: c8dd b4bc a42a eb3d 0af3 973e c0d6 fe3d
000000c0: 1610 70bd f1d6 4c3f c690 c53e 90b2 2ebd
000000d0: 02f1 e8bd 396c 9dbd 084e 8bbc 7c64 6d3d
000000e0: 347a a4be d8d0 143d 6f84 33bd 3919 0e3e
000000f0: 347c 5abd 30bb 25bd 4729 193e 90d4 6fbc
00000100: 5310 353e 7ced a03d 2001 f1bd 883e eebc
00000110: 2ca4 cabd fba3 143f 643f efbd 20a4 9a3d
00000120: 00fb 36bd 0149 a6be 2fdf 7e3c 830d 263e
00000130: 8415 793e b80d 9fbd 5b0a 9b3c 4269 c4bd
00000140: 5ce9 893e d08a 0fbc 5c47 833e 8d02 21bd
00000150: 7eb9 1ebd 2b79 a4bc 12ce aa3d bfb6 3a3c
00000160: e3b4 ab3d 512d 0dbe 8956 173e 4a37 f93d
00000170: 044e 303e a82d 7d3d 9ee8 a33d 82ee abbd
00000180: a0ea 3b3c be67 a43d 7452 debd c8a6 18be
00000190: 6ee2 06be 7883 14bd 3071 a63d 77c0 eb3d
000001a0: 6cf8 6c3d 2dfa 1b3c 208f a9bc 3f2f 1dbe
000001b0: e693 83bd 6058 753d 377d a33d e6fe d2bd
000001c0: 3873 45be f56c 0e3f c1ea a83e efba 2cbe
000001d0: d06e b3bd 16ff 0bbe 0430 e93d 4c71 123e
000001e0: 5f51 5ebe c08c d23d d073 923d 1592 c93d
000001f0: ec30 87bd f24c b7bd 1e64 283e 182f 8b3c
00000200: 9c13 6e3d a634 b43d 886f bebc 0036 163a
00000210: 70b3 003c 4809 ca3c 90c4 dcbc 58f1 87bd
00000220: 4437 963d 007b 713c 8085 0fbd 567c f9bd
00000230: cc87 223d f004 7ebd b4f5 51bd b0b7 8a3d
00000240: 60e0 90bc d88d cfbd 2ce0 ba3d 6c0f b8bd
00000250: 507e f03c 4261 f83d 2843 553d b87c 3f3d
00000260: 64b9 b3bd c039 533d 907a 00bc 34b5 353d
00000270: 44e6 57bd d2ff adbd 487e 25bd a405 943d
00000280: 8cef 12bd 4c92 febd 0ae3 e03d 48eb 5c3d
00000290: 0a5a d7bd 1803 2abd 3055 58bd ae11 a33d
000002a0: 2c95 c4bd 9e76 c33d 60e9 053c d0a0 95bc
000002b0: c484 aebd 923a b03d 30ee c4bd e071 d83c
000002c0: 0e82 f4bd 4884 a9bc 18f0 85bd 908f d93c
000002d0: 1c6f 75bd 1ce6 84bd c0e6 d33b a068 d2bc
000002e0: d491 643d c868 163d a0f5 f0bd 7c86 563d
000002f0: 24e8 863d 4c7d 063d 4ea1 95bd 3818 8d3d
00000300: f961 8e3d 3834 cbbd 10ae fb3d 2f96 db3c
00000310: e065 87bb 8acd 97bd 705f 6a3c 547d 56bd
00000320: 444b e7bd cd9c 5abd 2adc 33bc b134 fabd
00000330: b99f 7c3d ec31 8c3d e721 fdbd 5cf6 913d
00000340: c5d4 92bd 7a30 b63d fa48 a13c d78f 87bd
00000350: 3520 11bd d72c 153b fe3f ec3d 58d4 cf3d
00000360: 26c6 24bd 04e1 b83a b1e8 edbd 027f 87bd
00000370: fbdc eb3d f82d f73d b838 eabc a8fc 2c3d
00000380: 8051 c83c edb3 823c 8438 cfbd 7645 b73d
00000390: 45bc 0dbd d4ad 1d3d 94e4 5dbd 128d 9dbc
000003a0: 6e17 c43d ac00 d13d ac6c 793d 1904 cabc
000003b0: 328f a93d ac4d 3f3d c1dd a2bc c0f1 d5bd
000003c0: ec1d adbd d44d c83d 8539 843d 79c3 a0bd
000003d0: 63fe ad3d a604 b43d 06d7 cd3d e5f7 a43d
000003e0: 4541 69bd 16a4 bb3d c8c1 e23d 4070 c8bc
000003f0: 0033 c4ba 96fb cabd bc78 613d 1a9f b73d
0.29796752 0.023240194 0.06865865 0.031228382 0.0132050365 0.79450697 -0.016345888 -0.0852339
-0.021843225 -0.27962568 0.14472981 0.31476623 0.29332092 -0.06846191 0.0021970568 -0.061980203
0.34394753 -0.056687325 0.30685532 -0.011105458 -0.01773473 0.064332254 -0.023861885 -0.02821255
0.2588165 -0.044706356 0.043051198 -0.050000116 0.33696598 -0.010274753 -0.037485316 -0.09102465
-0.052512124 -0.0053744065 0.058975145 -0.23610839 -0.3504908 0.09384717 -0.11276509 0.11405988
-0.104480654 -0.17090753 -0.026721328 -0.19779724 -0.02207841 0.114827424 0.29677612 0.12443304
-0.05860909 0.80015475 0.38587016 -0.04265076 -0.113740936 -0.076866575 -0.017004982 0.057957157
-0.32124484 0.03633198 -0.04382747 0.13876809 -0.053341106 -0.04046172 0.14957152 -0.014638081
0.17682008 0.078577965 -0.11767793 -0.029082552 -0.098945946 0.58062714 -0.11682013 0.075508356
-0.044672966 -0.32477573 0.015556141 0.16216092 0.24324614 -0.077662885 0.018925836 -0.09590389
0.26935852 -0.008761123 0.2564038 -0.039309073 -0.038751118 -0.020077309 0.08340086 0.011396109
0.08384111 -0.13786818 0.14779104 0.12168749 0.1721726 0.06181112 0.080033526 -0.08395101
0.011469513 0.080276 -0.108555704 -0.14907372 -0.13172314 -0.03625819 0.081270576 0.11511319
0.0578541 0.009520096 -0.02069813 -0.15350054 -0.06424694 0.059898734 0.07982867 -0.10302524
-0.19282234 0.55635005 0.32991603 -0.16868185 -0.0876137 -0.13671526 0.113861114 0.14301032
-0.21710728 0.10280752 0.07150996 0.09842316 -0.06601128 -0.08950223 0.16444442 0.01699023
0.05812417 0.087991044 -0.023246542 0.00057300925 0.007855281 0.024662629 -0.026949197 -0.066378295
0.0733476 0.014738798 -0.035039425 -0.12181918 0.039680287 -0.062016428 -0.05125971 0.06773317
-0.017685115 -0.101344764 0.09124789 -0.089873165 0.029357105 0.121279255 0.052066 0.0467498
-0.08775595 0.051568747 -0.007841721 0.044362262 -0.052709833 -0.084960595 -0.040403634 0.07227638
-0.03587298 -0.12430248 0.10980804 0.05393532 -0.105152205 -0.041506857 -0.052815616 0.079623565
-0.09598765 0.09544109 0.008173317 -0.018265158 -0.08521417 0.086049214 -0.09615743 0.026421487
-0.119388685 -0.02069296 -0.06539935 0.026557714 -0.059920415 -0.064892024 0.0064667165 -0.025684655
0.055803135 0.03672102 -0.11765599 0.052374348 0.06587246 0.032834336 -0.07306157 0.06889385
0.069522806 -0.09922069 0.12289059 0.026805012 -0.0041320175 -0.0741225 0.014304981 -0.052365616
-0.11293653 -0.053372193 -0.010977784 -0.12217081 0.06167576 0.06845459 -0.12359982 0.071270674
-0.07169489 0.08895965 0.019688118 -0.06619232 -0.035431106 0.0022762322 0.11535643 0.10147923
-0.04022803 0.0014105146 -0.11616648 -0.06616022 0.11516758 0.12069315 -0.028591499 0.04223314
0.024452925 0.015954936 -0.101182014 0.089487955 -0.034603376 0.038495854 -0.054173067 -0.019232307
0.09574781 0.10205206 0.060894653 -0.024660157 0.082792655 0.046704933 -0.019881131 -0.10446501
-0.08452973 0.097804695 0.064562835 -0.078497835 0.08495786 0.08789949 0.10050778 0.08055095
-0.05694701 0.09162156 0.11072117 -0.024467587 -0.0014968812 -0.099112675 0.055046782 0.08965893

layers.2.bias f4 [64]
00000000: a068 213d 94d9 693d 8e89 8fbd ce10 96bd
00000010: a66b 023e e5ed d6bd 1454 9cba 8938 88bd
00000020: 7dca b7bd 4681 cfbc 7074 81bd e858 a73d
00000030: 30f3 cc3d 4a4b f0bd 00f7 dfba 39a1 0cbe
00000040: bf28 a9bd 302a 533d f50d a43d 003e c5ba
00000050: 7ba6 8dbd 3e33 9e3d 97e6 e43d 5cb9 66bd
00000060: f0f1 f6bd 18cd e5bd e817 e6bc be27 313d
00000070: 6efe ba3c 8892 78bd c064 f23c 9c94 993d
00000080: 5c56 2fbd e20f a93d 897c 86bd e04b c4bb
00000090: ecb6 c8bd 88d7 cbbc 74b8 06bd ee0b 8fbd
000000a0: 7b0f ca3d 22f0 8ebd 8e2a e1bd e0d2 44bd
000000b0: ae89 fc3d 6cdb 99bd 44b4 b73d f02f 5abd
000000c0: 38d1 9abc 0525 34bd a399 213e 745c 5b3d
000000d0: 1050 1d3e e08d c6bb 2cf0 79bd 39a4 b9bd
000000e0: e072 bbbd 08c2 1dbd 7298 b7bd ef8e 5cbc
000000f0: c2d0 e6bd 4d71 acbd 4459 183d 72ae f6bd
0.03940642 0.057092264 -0.07008658 -0.07327424 0.12736377 -0.104945935 -0.0011926913 -0.06651408
-0.089741684 -0.025330197 -0.06321037 0.081712544 0.10007322 -0.1173311 -0.0017087162 -0.13733377
-0.08259725 0.051553905 0.080104746 -0.0015048385 -0.06916519 0.077246174 0.11176794 -0.056329116
-0.12057865 -0.11220759 -0.028087571 0.04325079 0.0228264 -0.060686618 0.029589057 0.07499048
-0.042806968 0.082549825 -0.06566722 -0.0059904903 -0.098005146 -0.024883047 -0.032890752 -0.06984697
0.09866234 -0.069793954 -0.10994445 -0.04805267 0.12330948 -0.075125545 0.0896993 -0.053268373
-0.018898591 -0.043980617 0.15781264 0.053554967 0.15362573 -0.0060593933 -0.06102006 -0.09064526
-0.0915277 -0.03851512 -0.089646235 -0.013461812 -0.11270286 -0.08420048 0.037194505 -0.120449916

layers.4.weight f4 [1, 64]
00000000: 12cf b0be 44b5 8ebd d053 b6bc 517f a63d
00000010: 2cd9 ca3e fe2c dcbe ec2a 8cbd 5c65 e9be
00000020: 61aa f8bb fd57 d53e 40b0 ec3b 00d1 d9ba
00000030: 515b 9d3e 04f6 e0bd 90bd 20bc 92f8 2dbd
00000040: fc04 9fbe 7868 43bd 0b8c e53e 68b7 8b3d
00000050: db7b e13e b333 e13e 8ba8 d43e c008 cbbb
00000060: 6a9d ee3d cce7 6d3d 7074 39bc 7a6f 7abe
00000070: aaa0 683e 50da 59bd 0e94 e0bd f67b 01bf
00000080: 3406 eebd 6032 c7bc 03d1 d1bd 8808 5fbd
00000090: 50b4 bbbc 10e8 5ebc d096 97bc ce38 c2bd
000000a0: fce6 41bd 4870 783d 741c 1dbd 9eb1 db3e
000000b0: c370 733e bc5e 90bd 508f cd3d ccd7 c4bd
000000c0: 94d3 adbd 12af 0e3f c6d6 043f 188b 6ebd
000000d0: fa45 b23e 3a3e de3d a065 c63b a303 86be
000000e0: a23b e33d 3225 893d c098 afbc b763 c83e
000000f0: 9c1c e4be cf6f ffbe 7641 e93d e802 9e3d
-0.34532982 -0.069681674 -0.022256762 0.081297524 0.39618814 -0.43003076 -0.06844124 -0.45585144
-0.00758867 0.41668692 0.007223159 -0.0016618073 0.3073373 -0.10984424 -0.00981082 -0.042473383
-0.3105849 -0.04770705 0.44833407 0.06822091 0.44039807 0.43984756 0.41534838 -0.0061961114
0.11651118 0.058082387 -0.011319265 -0.24456587 0.22717538 -0.053186715 -0.10965739 -0.50579774
-0.11622277 -0.024316013 -0.10244944 -0.054451495 -0.022913128 -0.013605133 -0.01850453 -0.09483491
-0.047339424 0.060653955 -0.038357213 0.4290895 0.23773484 -0.07049319 0.100371 -0.096114725
-0.08487621 0.55735886 0.5189022 -0.05823812 0.34819013 0.108517125 0.006054595 -0.2617465
0.110953584 0.066965476 -0.021435142 0.39138576 -0.44553077 -0.4988999 0.11389439 0.07715398
