models/mlp/best_model_mae_medium.pth (torch, 182091 bytes, 19 tensors)

layers.0.weight f4 [256, 1]
00000000: 8632 5dbf 1799 91be 45d6 9a3e c641 e2be
00000010: 2f76 46bf e9ba 313f 6f3d 47bf 809a 52be
00000020: 7014 193f 4165 613f 58a5 1dbf cf7d 74be
00000030: 283d bd3e a85b 3c3f 6ff4 003c 7bea 573f
00000040: 21bf 553f 4fb4 9fbe 142e b0be 5d57 2d3f
00000050: c555 353a c11a 52bf 052c 893b dccf 43be
00000060: d5cc e23e cc4a 903e 1899 933d 11a9 2c3e
00000070: 0358 fdbe 2b11 4dbf ae10 ff3e 66be 2e3f
00000080: ba98 733e 77d8 463f 72eb cf3d a064 4a3f
00000090: 123a 3a3f a234 a63e 77d4 38bf c2ed e73d
000000a0: 22c5 8fbe db60 8cbe ea45 26bf 6e3d 1f3f
000000b0: bbdf 643f 80db 4d3f 7e9f e23d 32d9 61bf
000000c0: f5ea 5e3e eb02 8e3e f0be d7bd 4dfa 203f
000000d0: f0c1 2bbf 73b8 94be 6d00 3e3e 7bae ec3e
000000e0: 2dc4 393f 9744 4a3f 588c 063f 600c 303f
000000f0: 69a1 fdbd c86e 333e 7e79 983e 059a 2e3f
00000100: 1624 8ebe eda7 213b aea2 66bf e7d6 083d
00000110: c985 06bf 13f3 f53d af43 163f 4356 be3e
00000120: aac7 5e3f 5e72 44bf 30d7 90be acaa 9cbe
00000130: 002e 32bf 4475 1fbc 40ad 3e3f d089 063f
00000140: 724d 56be 5d25 1a3f 5df9 3cbf b3e3 193f
00000150: bebc f8be 1ede 59bf ec37 20bf dfe6 353f
00000160: 0c80 2f3e c4e2 a13e 51dc 2bbf 3f67 cabe
00000170: a400 03bf 1968 633f e87d 14bf e0b0 e7be
00000180: 0dd9 64bf f0f6 5cbf cb76 c5be 0941 25bf
00000190: 81d4 1e3f b5a7 dc3e ee9f 85be 7a8e 6ebe
000001a0: 6229 58be 1fa3 59bf 94c7 913e c3b5 f73e
000001b0: 6983 a4be a2a7 debe 5c73 1a3e cbc2 8e3a
000001c0: 6b7c 253f f710 073e acde 64be 87c3 f9b9
000001d0: 68d8 8e3e ba33 303f 0d58 5b3f d179 36bf
000001e0: fbc9 08be 75ef 15bb f887 2bbf 3062 3e3f
000001f0: 2c1b e13e 3db3 f13d 1f0d 63bf 2e59 4bbf
00000200: bef8 c83e 7028 dd3a 56d9 1f3f 9a0c 393f
00000210: d0b5 dc3e afd5 503f b98f 6abf 6d9c 27bf
00000220: 50d0 4b3f e88c 6d3f 597f 533b 1eb3 6d3f
00000230: c512 59bf 6313 133f e1d1 42bf 801b 103f
00000240: 1321 cf3e 667d 9cba c5f7 33bf a259 fa3d
00000250: a546 7a3f d6ec 27be 180c 4e3f 02e5 0cbf
00000260: 4fe4 7e3f be7e 92be d3ab 6c3d 9c75 70bf
00000270: 9ce9 203f 4ea9 403c 69ad 60bf 7a46 e53e
00000280: b39b bc3e 2a40 3d3e 05b1 1a3f 5578 963e
00000290: e6c9 403f 05fe 8e3e 6ab8 593f 19c0 54bf
000002a0: 49a0 f73e a3b6 37bf 0936 553f 8de0 823e
000002b0: d758 123f d847 dabe b61c 033e 2c6c 90be
000002c0: 72ac 033e aeb0 313b e23d 283f 3d19 213f
000002d0: c73a 2ebf 50d9 193f f890 fbbe 9a73 1fbe
000002e0: 8150 2e3f d198 5ebe f747 253f a53a 8e3e
000002f0: b362 4abd af64 023f 2d89 8f3e 2209 483e
00000300: 212d e33e 3370 fabe 6c63 053f 1e7b 423f
00000310: 9997 df3e c63d 23bf 395a c6be 1ac2 9b3e
00000320: cb95 c83e 9eab f03e 5ba1 1f3f 285a 12bf
00000330: e8b7 51bf 4560 253e 343a 543f 765b 5f3f
00000340: 32fe 363f eac5 3fbf f909 5fbf 25e1 2ebf
00000350: 91da a8be e9dc 2abe c5b9 1f3b b038 35bf
00000360: 8329 69bf 7665 3ebf 2c5e 57be 5a5b 63bf
00000370: a4e2 103e 0961 c43e 6a13 793e 067e 313f
00000380: 933f 58bf 194f 30bf 4dd3 8a3e ac58 6b3f
00000390: 956c 11bf 54c0 14bf 6162 9b3e 56fe 39bf
000003a0: 42e2 333e 757f bcbc 6f8b fabe 912f 95be
000003b0: f672 60bf 8196 a9bd 1292 353f 0c96 e53e
000003c0: f722 3f3f c75c 10bf 7c63 66be cc52 5dbf
000003d0: 526a 973d 6910 0cbf 7a9a 1fbf 05eb 433e
000003e0: e1fd 36bf 371f 1c3f cf47 3f3e 2c6b 71bf
000003f0: c079 293f 3259 f63e 3410 083f 8c94 1b3f
-0.8640522 -0.2843711 0.302416 -0.44190806 -0.77524084 0.6942583 -0.77828115 -0.2056675
0.5979681 0.88045126 -0.6158042 -0.23876117 0.3696072 0.73577356 0.0078707775 0.84342164
0.83494765 -0.31192252 -0.34410155 0.6771143 0.00069173827 -0.82072073 0.0041861557 -0.19122261
0.442969 0.28182065 0.07206935 0.16861369 -0.4948121 -0.8010432 0.49817413 0.68259275
0.2378873 0.7767405 0.101523295 0.7905979 0.7274486 0.3246203 -0.72199196 0.113246456
-0.28080088 -0.27417645 -0.6495043 0.6220311 0.89403886 0.80413055 0.11065577 -0.8822204
0.21769316 0.277366 -0.10534465 0.6288193 -0.670928 -0.29046974 0.1855485 0.46226868
0.72564965 0.7901091 0.525579 0.6876888 -0.12384302 0.17522728 0.2978019 0.68203765
-0.27761906 0.0024666742 -0.9009198 0.03340807 -0.5254789 0.12009253 0.58697027 0.37175187
0.87023413 -0.7673701 -0.28289175 -0.30598962 -0.6960144 -0.009732548 0.7448311 0.52554035
-0.2092798 0.6021326 -0.73818 0.60113066 -0.485815 -0.8510455 -0.6258533 0.71055406
0.1713869 0.3161832 -0.6713305 -0.39531896 -0.5117285 0.88830715 -0.5800462 -0.45252132
-0.89393693 -0.86314297 -0.38567194 -0.6455236 0.62043005 0.430967 -0.2609858 -0.23296538
-0.21109536 -0.8501453 0.2847258 0.4838086 -0.32131508 -0.4348727 0.15083069 0.0010891793
0.6464297 0.13190065 -0.22350568 -0.0004763866 0.2789948 0.6882893 0.8568123 -0.7127963
-0.133583 -0.0022878323 -0.67004347 0.7436857 0.43966043 0.11801765 -0.88691896 -0.7943295
0.39252275 0.0016873013 0.62441003 0.72284853 0.43107462 0.81576055 -0.91625553 -0.6547306
0.79614735 0.9279313 0.003227195 0.92851436 -0.84794265 0.57451457 -0.761015 0.5629196
0.4045492 -0.0011939227 -0.7029994 0.12224127 0.97764045 -0.1639894 0.80487204 -0.5503694
0.9956712 -0.28612322 0.05778105 -0.9392946 0.6285646 0.011759115 -0.877646 0.44780332
0.3683754 0.18481508 0.6042636 0.2938868 0.7530807 0.27928177 0.8504702 -0.8310562
0.48364475 -0.71763057 0.83285576 0.25561944 0.5716681 -0.42632937 0.12803921 -0.2820753
0.12858751 0.0027113366 0.65719426 0.62929136 -0.6805844 0.6009722 -0.4913404 -0.15571442
0.6809159 -0.21737982 0.64562935 0.27779117 -0.049410533 0.5093488 0.28034344 0.19534734
0.44370368 -0.48913726 0.5210483 0.7596911 0.43670347 -0.63766134 -0.3874071 0.30421525
0.39176783 0.47005934 0.62355584 -0.5716882 -0.81921244 0.16150005 0.8290131 0.87248933
0.7148162 -0.7491137 -0.8712459 -0.68312293 -0.32979253 -0.16685833 0.0024372202 -0.70789623
-0.91078967 -0.7437357 -0.21032017 -0.88811266 0.14148957 0.38355282 0.24323812 0.6933292
-0.84472007 -0.68870693 0.27114335 0.9193218 -0.5680631 -0.5810597 0.30348495 -0.7265371
0.1756678 -0.023009995 -0.48934504 -0.29137853 -0.87675416 -0.082806595 0.7092601 0.4484104
0.7466273 -0.56391567 -0.22498888 -0.86454463 0.07393326 -0.5471254 -0.6234509 0.19132622
-0.7148114 0.6098513 0.18679737 -0.94304156 0.662014 0.48114926 0.53149724 0.6077354

layers.0.bias f4 [256]
00000000: 577d 37bf 7aa5 b1be 9f7a 58bf 1764 903e
00000010: d4b1 663e 535a 6a3f 47c9 da3e a352 04bf
00000020: 5271 493f bfeb 643e 1eca e5be c062 50be
00000030: 3d7e 313f 27c2 493e 790f 593e 3e4d 90be
00000040: 4553 873e ae92 993e b87e a23e 651a 593f
00000050: c5b2 3bbf e98e 6e3f 5c39 60bf d33c 28bf
00000060: 6f1c d4be 9d22 2abf 5d5e 3dbd 4d4f ccbe
00000070: 776c 1d3f 220d 383f 58c9 07be a862 bb3e
00000080: 5999 3f3f 7f67 38bf 83b4 5e3f 7827 4f3f
00000090: 2770 453f 97a2 52bf 7f99 67bf 8c4e 343f
000000a0: ca79 aa3d b239 c63d 9c13 423f de15 23bf
000000b0: 7e05 513f 9e29 c83e d865 efbe 16a2 943e
000000c0: fde8 e7be 8746 223e 816e 12bf 2665 753f
000000d0: 8a90 e83d 3a3f 61be 3a8c 183e a216 cfbd
000000e0: 4f67 c33e 0cb7 9cbe 28eb 033f a8ac 3d3d
000000f0: bc8f 60be 802c 823e 74a7 9b3e 915f 9c3e
00000100: ce47 1ebf f34f 1abe 7f59 68bf 08ae 033d
00000110: a3ef 41bf 771c b4bd 0a56 443f b70c 12be
00000120: 24d4 443d a654 503f b905 7bbf a665 91be
00000130: 709e 35be f0ee 553f 35c5 1bbf 6163 ff3d
00000140: 151a 87be 500b 713f ff7e 10bf 5640 56bf
00000150: 90f4 0fbd 32bc ffbe 41d3 4fbe e41a 99be
00000160: 8ec7 1bbe 2f32 c53d 31c7 2a3f fc42 a4be
00000170: 79c4 473f 3af1 96be 2a92 f03e 30e7 8dbe
00000180: 2410 873e c3db d8be 065f 913d 7b44 753f
00000190: 2ef0 783f ccf4 84be ab29 763f 5e31 f03e
000001a0: 8ed0 5c3f c825 47bf 1dfe 9a3e 1e2d dabe
000001b0: 5233 203f 6ed8 143f e5e8 363f 8c64 e93e
000001c0: 1696 2bbf fe8c c5bd 59c5 e73e 38bc e13e
000001d0: 5dd1 3e3e 2893 6d3f 1b74 2a3f 9b91 15bf
000001e0: 6a0c 043f 58c7 78be fadd 463e c949 bd3e
000001f0: 2348 1b3f 17a5 3b3f 1a89 163f 3cbe ac3e
00000200: 93d2 aebd f8f2 53bf 82b5 a43e bb4f 8ebe
00000210: 5a6b 0c3f 72ea 553e 15cd 243f a365 09be
00000220: 14bd d93e 2151 46be bda4 313f fca8 28bf
00000230: a008 1fbf 2d9f 8c3d be79 623f 8732 043e
00000240: 546e 553f fbab 90be 5ce4 1bbf a409 66bf
00000250: e99f 20bf fbb1 76bf 790c abbd 46b4 163c
00000260: f836 313f f4bf 13bf f241 353f f60b a3be
00000270: 0a28 66bf 511d 1b3f 2a59 773f 4db1 6abe
00000280: dc2d f5be 2c5b a43e e661 fdbd 9c47 c93e
00000290: b38e c03e 91f9 393e 8dad ee3d e1cb 723d
000002a0: 88fd 3ebd 9d20 eebd b0ec 593f 702a 1a3f
000002b0: afef 02be fbeb 743f edd0 013f 2546 57be
000002c0: 5b67 10bf e195 40bf e43c bf3e cfee 8e3e
000002d0: 4483 6a3f 6049 17bf 0a15 2a3f fc00 633f
000002e0: 32f3 463f cd24 3f3e 90d1 243f adb7 783c
000002f0: 6153 8fba ff64 903e df2a 33bf 9bee 193e
00000300: 7504 4cbe fac6 49bf 73d8 fcbd 05ca b8be
00000310: 0f33 7e3d 08e8 323f 3f50 64bf 0cab 9a3c
00000320: 9013 89bf 88e2 a93e 556c 3dbf 7a6c a4be
00000330: 1a85 273f a99c 0dbe 99e7 28bf 59f1 66be
00000340: 00c5 d9bd 34b7 41bf 9684 343f 6fe5 263f
00000350: b8d0 c03e 45f8 56bf bcc5 643f 6f06 7abe
00000360: cce6 14bf 38cd 383f ba70 333f 0c40 113f
00000370: 37f5 b93e b7df adbe 5548 5cbf dd95 bc3d
00000380: 3644 46bd b9ba 2f3f 611f e83e ab59 23be
00000390: 5724 81be 4a31 5a3f f903 ce3e df37 b33d
000003a0: dcc0 b53e 63fb 203f 0c86 6f3e 12da e63e
000003b0: 3db3 17bf 4015 423f 9ee1 9f3e 9dfc 4cbf
000003c0: ccb1 593f eacf 21be be4d cd3d c69c 0e3f
000003d0: 6354 343e d504 0fbf 3ebd c13e a7f2 1d3f
000003e0: 2602 173d ddd5 983d 2d6d 0c3e 0675 f1bd
000003f0: 3b26 eb3e c0fd c13e cf82 5ebf 0649 013e
-0.7167563 -0.3469656 -0.84562105 0.28201362 0.22528774 0.91544074 0.42731687 -0.51688594
0.7868854 0.22355555 -0.44880766 -0.2035017 0.6933325 0.1970297 0.21197309 -0.2818393
0.26430717 0.2999472 0.31737304 0.848059 -0.73319656 0.93186814 -0.87587523 -0.6571781
-0.41427943 -0.66459066 -0.04623257 -0.39904252 0.6149363 0.7189504 -0.132604 0.36598706
0.74843365 -0.7203292 0.8699419 0.809196 0.77124256 -0.8227934 -0.9046859 0.70432353
0.08324011 0.09678973 0.7581117 -0.6370524 0.81649005 0.3909425 -0.46757388 0.29029912
-0.45294943 0.15847217 -0.57199866 0.95857465 0.11355694 -0.21996775 0.14897242 -0.10111739
0.38164756 -0.30608404 0.51530695 0.046307236 -0.2192983 0.25424576 0.30401194 0.3054166
-0.61828315 -0.1506956 -0.9076156 0.03214839 -0.7575628 -0.08794492 0.76693785 -0.14262663
0.048053876 0.81379163 -0.9805561 -0.28397864 -0.1773622 0.83567715 -0.6084779 0.12470127
-0.26387087 0.94157887 -0.5644378 -0.8369192 -0.035145342 -0.4994827 -0.2029543 -0.29903328
-0.15212843 0.096287124 0.6671019 -0.32082355 0.7803417 -0.29480916 0.46986514 -0.27715445
0.26379502 -0.42355165 0.070982024 0.9580762 0.97241485 -0.25968015 0.9615733 0.46912664
0.8625573 -0.77792025 0.30271998 -0.42612547 0.6257831 0.58142745 0.7144912 0.45584524
-0.6702589 -0.09646033 0.45267752 0.44088912 0.18634553 0.9280267 0.6658341 -0.584253
0.5158144 -0.24294794 0.19420615 0.36970356 0.60656947 0.7329878 0.5880295 0.33738887
-0.085362576 -0.82792616 0.3216973 -0.27795205 0.54851305 0.20890215 0.6437543 -0.13417678
0.42527068 -0.19366886 0.69391996 -0.6588285 -0.62122536 0.06866298 0.88467014 0.129099
0.8337147 -0.2825621 -0.60895324 -0.8985846 -0.62744004 -0.96365327 -0.08351988 0.009198254
0.692245 -0.5771477 0.7080375 -0.31845063 -0.89904845 0.6059161 0.9662043 -0.22919197
-0.4788655 0.3210081 -0.12372188 0.39312446 0.3760887 0.18161608 0.11654196 0.059276465
-0.046628505 -0.11627314 0.8512678 0.60221004 -0.12786745 0.9567258 0.5070942 -0.21022852
-0.5640771 -0.752287 0.37351143 0.27916571 0.91606545 -0.59096336 0.66438353 0.8867338
0.77714837 0.18666382 0.64382267 0.0151805105 -0.0010934883 0.28202054 -0.6998729 0.15032427
-0.19923575 -0.7881924 -0.12345972 -0.3609163 0.062060412 0.698853 -0.89184946 0.01888039
-1.0709095 0.33180642 -0.73993427 -0.3211401 0.6543747 -0.13829292 -0.6597839 -0.22553004
-0.10633278 -0.7567017 0.7051481 0.6519384 0.3765924 -0.8397258 0.8936422 -0.24416517
-0.5816467 0.7218814 0.7009388 0.5673835 0.36319897 -0.33959743 -0.8604787 0.09208272
-0.048404895 0.6864429 0.4533644 -0.15952174 -0.25223038 0.8523146 0.40237406 0.08750891
0.35498703 0.62883586 0.23390979 0.4508825 -0.5925787 0.75813675 0.3122682 -0.8007296
0.8503692 -0.15801969 0.10024594 0.5570797 0.17610316 -0.5586675 0.37839693 0.61698383
0.036867283 0.07462666 0.13713522 -0.117898986 0.45927605 0.37888908 -0.8691835 0.12625512

layers.1.weight f4 [256]
00000000: 0a3d 753f ec3a 613f 2f0b 673f 4899 5f3f
00000010: 2060 473f 3781 833f 77a3 6e3f 847f 6b3f
00000020: 1560 773f a983 7f3f be1f 523f 323f 7d3f
00000030: 70cc 683f d08a 753f c20e 5f3f 4757 893f
00000040: 1c68 7e3f b4af 643f 424d 5d3f e6fe 893f
00000050: d0a6 453f 292d 803f 4c83 5d3f a82f 393f
00000060: 15c1 813f 8f0d 883f 1398 683f 5e86 803f
00000070: 45e2 583f 43a0 573f 2b7c 853f 9a9c 553f
00000080: 2712 7c3f 5bbc 8a3f 645d 7b3f d47d 673f
00000090: 7aa0 7a3f 96f7 7c3f 40c1 603f 9c2c 823f
000000a0: 8fab 613f 151a 593f bee7 413f 4cb3 793f
000000b0: 8f48 813f e035 843f c893 843f 6c8e 6b3f
000000c0: 3f33 863f 8877 6d3f 6914 653f 6f06 7f3f
000000d0: 269f 523f 05db 523f 0be0 863f 11c4 5c3f
000000e0: 396f 813f e954 7f3f 4ccb 893f 1b38 873f
000000f0: c7be 6c3f b7c9 763f 26ee 7b3f 4a32 6f3f
00000100: 4428 773f 0dab 593f d15a 733f afe9 683f
00000110: d035 623f 66f9 783f 3555 773f 876d 843f
00000120: 2792 813f 99d9 6c3f 4134 743f ab4a 5d3f
00000130: 7b83 583f 1a14 5f3f fe4a 803f eed0 7f3f
00000140: 3457 623f aa2c 813f 6148 733f e84a 843f
00000150: e6a8 723f 895d 7c3f df63 6c3f b600 813f
00000160: 8cd0 773f 0371 7f3f 22b3 623f bfa5 7a3f
00000170: f402 4f3f 9759 853f 198e 713f 268d 6c3f
00000180: aa82 643f 0a08 663f 0acd 543f edef 663f
00000190: 384d 813f 911b 8d3f 5b77 753f bcc3 623f
000001a0: 1c53 693f eef2 693f b384 833f 3373 793f
000001b0: f163 5b3f e648 6c3f 4e51 873f 090f 5a3f
000001c0: dd68 863f ef16 8b3f 9cf0 733f 81b4 613f
000001d0: a6fc 833f a10e 843f e2d5 7f3f dcfd 743f
000001e0: e3aa 693f 188a 623f ad3a 523f 0575 7f3f
000001f0: 8866 873f c3c0 803f dcfd 743f cd2d 753f
00000200: b0f9 803f 2963 663f fe87 823f 4c63 6d3f
00000210: 5035 843f 3e0f 863f c3cc 6f3f c579 443f
00000220: 2516 8f3f d980 863f 257c 663f 7b91 843f
00000230: 1702 703f ce9b 8f3f 3f1f 6f3f 4a0f 733f
00000240: ea1f 7c3f f601 6d3f 8fd4 663f 7340 7f3f
00000250: a04c 8a3f 29d7 693f 240d 813f 3114 753f
00000260: 038b 8c3f 2c95 773f 6553 6d3f 528c 653f
00000270: 5d4f 873f 4acb 633f b887 763f 1ffd 803f
00000280: ed40 823f 3a7f 7c3f 7c5d 843f 8ed2 563f
00000290: 3605 823f ff00 7d3f e14d 883f c540 7b3f
000002a0: 92f3 743f d2d6 553f f347 823f 5b9c 853f
000002b0: fb0e 7a3f 77de 683f fffe 7a3f 40c0 4a3f
000002c0: d473 7f3f 210f 6e3f f805 7e3f 1fc9 863f
000002d0: 2403 5d3f e526 843f 1bdf 3b3f e466 513f
000002e0: 3f28 813f 7fbf 6a3f 9b42 893f 9c2d 7c3f
000002f0: 3165 5c3f 7ff1 613f 6af5 803f c61e 873f
00000300: df65 873f 43e5 583f 64c1 583f 57e2 883f
00000310: 131d 7c3f e4e8 6a3f cb21 7f3f d878 743f
00000320: 7eec 893f 47a4 7f3f f79e 6b3f 84d8 703f
00000330: e60a 783f 5490 8b3f 0812 843f f737 853f
00000340: f14a 7b3f e485 693f 8365 723f 6f28 733f
00000350: f345 753f c853 6c3f 2074 6e3f b3ea 4b3f
00000360: 22ca 7f3f a550 523f 78e1 4d3f dfee 603f
00000370: e06d 823f f1eb 7b3f 2c10 773f da71 7e3f
00000380: b3ca 5c3f 5993 5b3f e9a6 6c3f 9ff7 8b3f
00000390: e298 743f 17ca 5c3f 4f4a 543f 0e45 7c3f
000003a0: 362b 7a3f 117c 5f3f 5cb0 5d3f 06ef 603f
000003b0: e705 6a3f b13d 713f 78c7 8b3f 51ab 863f
000003c0: 004c 843f d79e 583f 7a9b 4a3f 2abc 703f
000003d0: db6d 6a3f ae21 4f3f 97fa 413f 33cd 823f
000003e0: 27b5 713f 5a9a 673f f752 7b3f 8e57 753f
000003f0: 2001 773f cc12 783f 863f 5e3f 3d36 7f3f
0.95796263 0.8798053 0.9025144 0.87343264 0.7788105 1.0273808 0.9321818 0.9199145
0.96630985 0.9981027 0.82079685 0.98924553 0.90936947 0.95914936 0.87131894 1.072976
0.9937761 0.893306 0.8644601 1.0780914 0.7720766 1.0013782 0.8652847 0.7233834
1.0137049 1.0629138 0.90857047 1.0041006 0.8472026 0.84228915 1.0428518 0.8344208
0.984652 1.0838732 0.9818938 0.90426373 0.9790112 0.98815286 0.87794876 1.0169864
0.881524 0.84805423 0.75744236 0.9753921 1.0100268 1.0328941 1.0357599 0.92014194
1.0484389 0.92760515 0.8948427 0.9961919 0.8227409 0.8236545 1.0537122 0.86236674
1.0112067 0.9973894 1.0765166 1.0563997 0.92478603 0.9640154 0.9841026 0.9343611
0.96545815 0.8502663 0.9506045 0.9098157 0.8836336 0.9725555 0.9661439 1.0345925
1.0122727 0.9251953 0.95392233 0.8644206 0.84575623 0.8714005 1.0022886 0.99928176
0.8841431 1.0091755 0.95032316 1.033536 0.9478897 0.98580223 0.9233989 1.0078342
0.9680259 0.9978182 0.88554585 0.9790916 0.8086388 1.0417966 0.9435745 0.92402875
0.8926188 0.89856017 0.83125365 0.9020985 1.010169 1.1024038 0.95885247 0.88579917
0.9114244 0.91386306 1.0274872 0.97441405 0.85699373 0.92298734 1.0571687 0.8517919
1.0500752 1.0866374 0.95289016 0.8816605 1.0311477 1.0316964 0.99935734 0.9569986
0.9127638 0.88491964 0.8212078 0.9978793 1.0578165 1.0058826 0.9569986 0.9577301
1.0076199 0.89995056 1.0197752 0.9272964 1.032877 1.0473402 0.93671817 0.76748306
1.1178633 1.0508071 0.9003318 1.0356897 0.9375319 1.1219423 0.9340705 0.94945204
0.98486197 0.9258112 0.9016809 0.99707717 1.0804634 0.91343933 1.0082135 0.95733935
1.0979923 0.96711993 0.92705375 0.89667237 1.0571095 0.8898207 0.9630084 1.0077246
1.0176064 0.9863163 1.0341029 0.8391503 1.015784 0.98829645 1.0648767 0.98145705
0.9568416 0.83530915 1.0178207 1.0438341 0.9767911 0.90964454 0.98045343 0.791996
0.99786115 0.92991835 0.9922786 1.0530127 0.8633292 1.032437 0.73387307 0.81797624
1.0090407 0.9169845 1.0723451 0.98507094 0.86091906 0.8825912 1.0074894 1.0556266
1.0577964 0.84724826 0.8467009 1.0694073 0.98481864 0.9176161 0.9966094 0.9549689
1.0775297 0.9986004 0.92039436 0.94080377 0.9689163 1.090342 1.0318003 1.0407704
0.98161227 0.91219926 0.94686145 0.9498357 0.9580986 0.9231534 0.9314594 0.79655
0.99917805 0.82154304 0.80422163 0.8786449 1.0189781 0.98406893 0.9650905 0.99392474
0.86246794 0.8577171 0.92442185 1.0934943 0.9554578 0.86245865 0.82925886 0.9854287
0.97722185 0.87298685 0.8659723 0.8786472 0.91415256 0.9423476 1.0920248 1.0521032
1.0335693 0.8461737 0.7914349 0.94037116 0.91573876 0.80910766 0.75772995 1.0218872
0.9441704 0.90469897 0.9817347 0.9583672 0.9648609 0.9690368 0.8681568 0.99692136

layers.1.bias f4 [256]
00000000: 5fbc 3d3e 83eb d4bd 4766 d6be 5662 413e
00000010: 4d6b f2bd 78b5 06bf 061f 913d 2861 423c
00000020: ccf7 f0be 874d fcbe 5938 0dbd 0cc2 8f3e
00000030: de09 98be c4d6 c7be 5ea2 22be ce12 1cbf
00000040: db8c efbe f8eb e93c 4114 e23d f501 1dbf
00000050: b944 81be aca0 833e 716c f6bd 8416 34be
00000060: 38f5 04bf 331e 08bf 9a26 91be 7cd0 ddbe
00000070: ad05 9bbe 5f02 9dbd f3c4 19bf bd23 9ebe
00000080: 3979 f7be 1de2 1ebf 24a9 e5be 03b9 e7be
00000090: efe8 fabe ee34 0bbf 33f8 94bc 22d9 01bf
000000a0: 8653 833d 3bbf a4bc cf64 573d ecd5 f1be
000000b0: 84e9 f4be 0eeb 16bf c7c8 e9be 4547 163e
000000c0: 0b41 febe 7f4d dcbe 6af7 643d fc65 0abf
000000d0: ec8c ba3d b384 53be 44e4 0ebf 3f0f 87be
000000e0: 3e73 edbe 20d4 debe 2822 26bf 6103 0dbf
000000f0: fe7f f03d 8972 eebe c6ab dcbe f765 d2be
00000100: e1e7 453e 8501 b5bd ab03 df3d 2eb1 583d
00000110: dc4a c43d 6078 f2be 269b fabe a9e6 19bf
00000120: 5a7e 03bf 6fd9 b93d 2545 353e b262 70be
00000130: ef6c 793d b3d3 35bd 8811 08bf 64d9 03bf
00000140: 17ae f5bd af03 0abf 8583 373e 3a60 ffbe
00000150: ef54 ea3d 3169 7d3e 8fee a23d 1d40 0abf
00000160: db6d f5be fc7e efbe 2c19 873d acbf 4a3e
00000170: 785b 58be 9c3d 07bf 85b6 853e 8d88 b53d
00000180: 95c5 04bd 21ee 423e 6867 c7be 0573 c73d
00000190: 78bb fbbe c369 2abf 9536 323e 9a5e ffbc
000001a0: 247d 103e b973 5a3d b714 f6be 7d30 efbe
000001b0: 7751 b0bb 0697 843d 2bbf 0ebf 2e82 38be
000001c0: ae60 14bf a721 0cbf f6cd 3e3e 26e7 f2bc
000001d0: df55 0dbf 0095 15bf 02a8 00bf d73e 5d3e
000001e0: bf68 f73c 5923 0fbe 50b3 163d 17fd f3be
000001f0: 868e 15bf c086 dabe 0fa2 cf3d 79f1 493e
00000200: 995c 0abf e6ea 20be 95f6 02bf 98ba d3be
00000210: 0d37 13bf 2663 12bf 14b5 3e3e da8f f2bb
00000220: a1f7 2bbf 36b9 0abf 46ae 5abe 96f6 06bf
00000230: f0e1 3bbc 6318 2dbf 79a3 e63d 9e17 cebe
00000240: 509e 10bf 1d91 94bc 4969 ec3d ca01 dabe
00000250: a332 22bf 2adc 1f3e 3e2d 12bf 1168 e63d
00000260: a00b 16bf 460d 423e 92fc 9bbe 08df ac3d
00000270: 7124 15bf 9357 52bd 8adb 3a3e e781 e6be
00000280: e9bb 11bf 5ce3 e4be e45e 05bf 35ea a7be
00000290: c42f 1fbf dad5 ebbe deff 16bf 5f5a 853e
000002a0: ee48 d4be 6dcd 4fbd d601 00bf b34a 13bf
000002b0: 1cd6 e7be 6f9e 3c3d 686e e1be 2daa 87be
000002c0: 0e97 ebbe ae46 20be 9c81 efbe 5446 24bf
000002d0: c72d c0bd 2f3e 09bf f5b2 35be 51f5 233c
000002e0: 13a0 05bf 7a0a 983d f5ef 19bf 6e3d e3be
000002f0: 38cf 98be 52e3 a4be 233b debe a184 13bf
00000300: e0f5 0fbf 395d 1f3d b3c1 9fbe dbba 1abf
00000310: f04a fbbe 7692 243e b399 8a3e 5598 f4be
00000320: 082a 1dbf 5391 0cbf 4f55 c0be a46c 813e
00000330: a6ad 303e 4936 1cbf 6b54 f9be 1487 0abf
00000340: 8781 eabe b01e af3d 9a58 5b3e 088e 7b3e
00000350: f808 453e a685 c93d c664 22be d91f d6bc
00000360: 4f66 843e d9bc 22be 83af 0cbd a72d d8bd
00000370: 8a77 f3be 7bd5 e9be 3c0d edbe f943 f0be
00000380: 759e f03d 0f28 d3be 648f d7be 78a7 2bbf
00000390: b85b 883e 3432 1c3e 11b0 13be a468 1f3e
000003a0: 40a0 03bf 0694 49bd 3595 8abd a4c2 f63d
000003b0: 8b59 9d3d 3493 bb3d f974 17bf a0a5 12bf
000003c0: e39c 06bf 5bf2 2bbe cbaa 75bd d6ff d83d
000003d0: 8c6c a9be 2fac 28be 057d 1cbe 2a0f 03bf
000003e0: 1787 153e e786 e1be c9c4 f0be e7ef 873e
000003f0: f633 f4be 6ed1 cbbe ee5a 84be 0373 01bf
0.18528889 -0.10396483 -0.41874906 0.18885168 -0.11836872 -0.5262065 0.070859954 0.011863984
-0.47064054 -0.492779 -0.034477565 0.28077734 -0.29695028 -0.3903104 -0.1588225 -0.60966194
-0.46787152 0.028554901 0.110390194 -0.6133111 -0.25247744 0.2570852 -0.12032402 -0.17586714
-0.51936674 -0.5317108 -0.28349763 -0.43323123 -0.30277768 -0.07666468 -0.60066146 -0.3088664
-0.48334673 -0.6206377 -0.44855607 -0.4525834 -0.4900584 -0.5437764 -0.018184757 -0.50721943
0.06412415 -0.020110717 0.052586373 -0.47233522 -0.47834408 -0.58952415 -0.45660993 0.14675625
-0.49659 -0.43027875 0.055900015 -0.54061866 0.0910891 -0.2065609 -0.55817056 -0.2637882
-0.46376985 -0.43521214 -0.6489587 -0.5508328 0.117431626 -0.46571758 -0.43099803 -0.41093418
0.19326736 -0.088381805 0.108893715 0.052903347 0.09584591 -0.47357464 -0.48946494 -0.60117584
-0.5136467 0.09074675 0.17702158 -0.2347515 0.060894903 -0.044391345 -0.5315175 -0.51503587
-0.11996096 -0.5391187 0.17921264 -0.49878103 0.11441981 0.24747159 0.07955658 -0.5400408
-0.47935376 -0.4677657 0.06596598 0.1979968 -0.21128643 -0.52828383 0.26115814 0.088639356
-0.03241499 0.19036151 -0.3894608 0.09738735 -0.49166465 -0.6656763 0.17403634 -0.03117304
0.14110237 0.053333018 -0.4806268 -0.4671668 -0.005380805 0.06474118 -0.5576045 -0.1801841
-0.5796002 -0.5473885 0.18633255 -0.029651236 -0.55209154 -0.5843048 -0.5025636 0.21606003
0.030201314 -0.13978328 0.0367921 -0.4765403 -0.584206 -0.4268093 0.10138332 0.19721021
-0.5404754 -0.15714607 -0.51157504 -0.41353297 -0.57505876 -0.5718254 0.18623763 -0.0074024023
-0.67174727 -0.5418886 -0.21355543 -0.5272001 -0.011467442 -0.67615336 0.11261649 -0.40252393
-0.56491566 -0.018135602 0.11543519 -0.4257949 -0.63358516 0.1561133 -0.57100284 0.11250318
-0.5861149 0.18950376 -0.30466133 0.08440977 -0.5825873 -0.05135305 0.1824781 -0.45020983
-0.56927353 -0.4470471 -0.52097917 -0.32795873 -0.6218226 -0.46061593 -0.5898417 0.2604551
-0.4146189 -0.05073302 -0.500028 -0.57535857 -0.4528054 0.04604953 -0.44029546 -0.2649702
-0.46013683 -0.15651962 -0.46778572 -0.6416981 -0.09383731 -0.5361051 -0.17744048 0.010007218
-0.5219738 0.07423873 -0.6013177 -0.44382805 -0.29845595 -0.32204682 -0.43404493 -0.5762425
-0.5623455 0.038907263 -0.31202468 -0.6044137 -0.4908061 0.16071495 0.27070388 -0.4777247
-0.6139226 -0.5490925 -0.37565085 0.252782 0.17253742 -0.6102033 -0.48697218 -0.5411236
-0.45801947 0.08550775 0.21420518 0.245659 0.19241703 0.098399445 -0.15858755 -0.026138233
0.25859305 -0.15892352 -0.03434707 -0.105555825 -0.4755214 -0.45670685 -0.4629916 -0.4692686
0.11748973 -0.412415 -0.42101586 -0.6705241 0.26632476 0.15253526 -0.14422633 0.15567261
-0.514164 -0.04921343 -0.0676674 0.120488435 0.076830946 0.09158936 -0.5916286 -0.57283974
-0.5258314 -0.1679167 -0.059977334 0.10595672 -0.33090627 -0.16471933 -0.15282066 -0.51195014
0.14602314 -0.44048235 -0.47025135 0.26550218 -0.47695893 -0.3980822 -0.25850624 -0.5056612

layers.1.running_mean f4 [256]
00000000: aa64 26bf 20c2 a6be 1f6f 5ebf 150f a23e
00000010: fd03 923e 159d 5c3f f775 f93e 1663 00bf
00000020: 60b2 3d3f 96da 1f3e f3a0 cdbe afb1 3dbe
00000030: f0f8 293f 6286 0f3e 5bd3 583e 8bdc b0be
00000040: ef15 4c3e c082 a63e 2639 b03e d16d 4b3f
00000050: edb8 3bbf 1ed3 7e3f 845f 60bf bffd 24bf
00000060: c059 e6be 537d 2fbf 4f62 4dbd 7df9 d2be
00000070: 204e 273f d6cf 473f 924a 2dbe 1c05 a03e
00000080: 0306 3b3f d2c5 47bf 19ab 5c3f 8776 3f3f
00000090: ea13 373f 83d6 58bf 238c 59bf ae13 323f
000000a0: b3a2 d73d 071c f23d 7a0b 4f3f 7b3d 2fbf
000000b0: 7cef 3e3f 525f a83e e36a f3be b463 b73e
000000c0: 0b97 f0be cdaf 0b3e 7084 10bf e118 693f
000000d0: 0960 293e 66f2 4abe 079b 093e c0f9 0abe
000000e0: d7a3 a63e c183 bcbe e31d f23e 0259 a0bb
000000f0: 31c3 56be a87e 753e 1e44 903e d6f4 803e
00000100: bd00 19bf e761 1abe 24b3 56bf 3296 f23c
00000110: acab 37bf 5274 cbbd 19a4 383f 8db2 2fbe
00000120: 4e85 9fbc 077e 5f3f f988 75bf 7808 86be
00000130: 8c31 febd fd2d 563f 1b3b 2abf 5eb6 b03d
00000140: 2372 7ebe 571d 653f 8cfb 01bf 07e1 61bf
00000150: 67fb fe3a 2730 debe 8df1 1ebe eaae b5be
00000160: b54d 27be 7098 943d 1e14 383f 6e86 94be
00000170: 9713 523f ccaa b8be 89b1 033f a427 78be
00000180: 894d aa3e d1dd b6be f71a cd3d 2f02 813f
00000190: 97ac 6c3f 202c 95be 5c4d 7b3f 637c f93e
000001a0: 0f11 613f 4e71 36bf 3f4c 8f3e e7f7 ecbe
000001b0: 26aa 263f 7c9d 1d3f 85f8 333f e4bb e93e
000001c0: 0200 38bf 7922 d9bd 75a4 f03e 74c7 e13e
000001d0: 9577 283e 3168 5f3f 1ab4 193f 1e8a 07bf
000001e0: d0cc 063f 9dc4 79be abce 7b3e 2408 a13e
000001f0: cb89 123f 3e30 393f 6b0a 283f 5945 cc3e
00000200: 9281 ebbd eb03 54bf 2798 8b3e 213e aabe
00000210: 02bf 033f d973 143e 8fd6 363f a5ff abbd
00000220: a02c ba3e 466f 87be a196 313f ddfd 3abf
00000230: 376b 0ebf be80 c93c d47b 713f 8f37 ae3d
00000240: 5b46 4d3f b5b0 90be 2b4f 0ebf 7273 68bf
00000250: 49f3 33bf 0f9a 73bf 39fa 14be d48e 533d
00000260: ba8f 1d3f b643 0ebf 422f 343f b33d 7cbe
00000270: d35c 72bf 7cb7 1a3f 3566 843f 5632 87be
00000280: 7db8 01bf 421d 9d3e 8a13 2fbe 0615 be3e
00000290: 9ce0 a43e dcaf 253e 1f37 4e3d b5d3 fb3d
000002a0: 59ed adbd 67e6 79bd 86bf 493f aee0 143f
000002b0: e262 2fbe 4d81 7d3f eb3d fe3e 1650 41be
000002c0: 8fe9 12bf 0899 40bf 84ce a33e 3a21 6b3e
000002d0: 0c04 783f 4d60 23bf c4cd 333f 383d 663f
000002e0: 14b9 393f 1036 503e b970 183f 5dff e8bb
000002f0: 0098 113b 0972 783e db86 38bf 6261 0b3e
00000300: e800 71be 2134 40bf e14b 27be 2449 d7be
00000310: 2cf0 ef3c f99b 3f3f f6b8 5cbf 01a2 8bbb
00000320: 42d4 8cbf 4b0d 983e 7453 49bf d3f4 8dbe
00000330: 94c0 373f 8ee6 18be 4602 39bf f765 95be
00000340: 6a46 25be c80b 33bf b0b5 453f b074 343f
00000350: 3bf9 cd3e 98bf 53bf 38cd 643f bc73 42be
00000360: cbee 02bf 5ca8 473f a0b5 373f 67d3 223f
00000370: d82f b43e 9d92 bdbe a3e0 60bf 4269 1f3d
00000380: cac6 853c 9e5e 3d3f 7c44 dc3e 646c 6bbe
00000390: fa14 56be 65ac 653f 2f09 c23e 5f13 133e
000003a0: c685 ae3e bb7a 213f 9a3e 8b3e 4352 f23e
000003b0: b684 06bf 94e4 433f fbf7 833e 63cf 55bf
000003c0: fdd5 4a3f 012d ebbd bd21 f13d 088e 1f3f
000003d0: fab8 2c3e 4b68 04bf a573 da3e c144 1a3f
000003e0: 036c bc3d 899b e43c b222 f93d 3473 39bd
000003f0: 7a1d d13e aa97 ae3e 9b1c 69bf 6e10 a13d
-0.6499735 -0.3256998 -0.8688831 0.31652132 0.28518668 0.8617719 0.48722813 -0.50151193
0.74100304 0.15610728 -0.40161857 -0.18524812 0.66395473 0.14016107 0.21174376 -0.3454326
0.19930242 0.3252163 0.344186 0.7946444 -0.7332905 0.9954089 -0.87645745 -0.64449686
-0.4499035 -0.68550605 -0.050142583 -0.4120597 0.65353584 0.7805151 -0.16922978 0.31253898
0.7305605 -0.78036225 0.86198574 0.74790233 0.7151476 -0.8470232 -0.84979457 0.6956128
0.10529079 0.11821752 0.80876887 -0.68453187 0.74584174 0.32885224 -0.47542486 0.35818255
-0.46990237 0.13641281 -0.56452084 0.9105359 0.16540541 -0.1981903 0.13438044 -0.13571835
0.32546875 -0.3681927 0.47288427 -0.004893423 -0.20972897 0.23974097 0.2817697 0.25186795
-0.5976675 -0.1507641 -0.83867097 0.029612634 -0.71746325 -0.09934296 0.72125393 -0.17157955
-0.019472744 0.8730168 -0.9591213 -0.26178336 -0.12411794 0.8366392 -0.6649644 0.08628534
-0.24848227 0.89497894 -0.50774455 -0.8823399 0.0019453586 -0.43396112 -0.15521832 -0.3548501
-0.16338237 0.07255638 0.71905696 -0.29008812 0.8206114 -0.36067808 0.5144277 -0.24233872
0.3326228 -0.35716107 0.10014909 1.0078791 0.9245085 -0.29135227 0.98164916 0.48727712
0.87916654 -0.7126664 0.2798786 -0.46282884 0.65103376 0.6156843 0.70301086 0.45651162
-0.7187501 -0.10602278 0.4700047 0.44097483 0.16451867 0.8726836 0.6004044 -0.52945125
0.5265627 -0.24391408 0.24590556 0.31451523 0.57241505 0.72339237 0.65640897 0.39896658
-0.11499323 -0.8281848 0.2726452 -0.33250526 0.5146333 0.14497317 0.7142114 -0.0839837
0.3636217 -0.26452082 0.69370466 -0.73043615 -0.55632347 0.024597522 0.9432957 0.08506691
0.8018548 -0.28259817 -0.5558955 -0.90801156 -0.702931 -0.9515695 -0.14548577 0.051649883
0.61547434 -0.5557207 0.7038461 -0.24632911 -0.9467289 0.60436225 1.0343691 -0.2640559
-0.5067213 0.30686384 -0.17097297 0.37125415 0.32202613 0.16180366 0.050345536 0.12296239
-0.08492536 -0.061010744 0.78807867 0.58155334 -0.17127565 0.9902542 0.49656615 -0.18878207
-0.5738763 -0.7523351 0.31993496 0.22961894 0.96881175 -0.6381882 0.7023585 0.8993716
0.7254803 0.20333123 0.59547 -0.00711052 0.0022215843 0.24262251 -0.72080773 0.13611367
-0.23535502 -0.7507954 -0.1633754 -0.4204799 0.029289328 0.7484737 -0.8621973 -0.0042612557
-1.1002276 0.29697642 -0.78642964 -0.2772585 0.71778226 -0.149317 -0.72269094 -0.29179356
-0.16140142 -0.6993985 0.7723036 0.7049055 0.4022921 -0.82714224 0.8937564 -0.18989462
-0.5114562 0.7799127 0.7176151 0.63603824 0.35192752 -0.3702592 -0.8784277 0.03891874
0.016330142 0.739725 0.43021 -0.22990566 -0.2090644 0.8971618 0.37897632 0.14362858
0.34086436 0.63077897 0.271962 0.47328386 -0.5254625 0.7652066 0.25775132 -0.8351957
0.7923277 -0.11483193 0.11774013 0.623261 0.16867438 -0.5172164 0.42666355 0.6026116
0.09200289 0.027906196 0.12164821 -0.045275882 0.408428 0.34100085 -0.91059273 0.07864462

layers.1.running_var f4 [256]
00000000: a100 673b 59e9 c839 13e5 e139 50c2 713a
00000010: c675 3a3b 75e8 143b 4381 3b3b ca2d 5239
00000020: d5f8 dc3a 9fa1 6f3b c712 eb3a 4525 8d39
00000030: 3b14 293a 5954 273b 1be9 8d34 4dd2 5b3b
00000040: c57b 573b 0bcb f139 41df 123a 97a3 0d3b
00000050: 179c 0331 3a56 503b 3f54 8e33 1b49 3739
00000060: 246e 723a bd09 c439 8939 cc37 1a59 0c39
00000070: d285 973a 7d87 463b b542 993a d515 103b
00000080: 339c 8b39 ee69 3a3b 2e6c 4a38 8728 413b
00000090: e28e 233b 6714 023a 0979 213b b71e 7c38
000000a0: b0a4 c339 e9ba ba39 5ec0 023b 971c ef3a
000000b0: b416 773b aecb 473b e3db 7038 d3d3 703b
000000c0: bade 6939 ed0a be39 7610 5d38 bf4c f43a
000000d0: 4666 0b3b 449d d239 bf9d 2939 1517 843a
000000e0: 08c3 223b 26ff 403b 5f99 aa3a 7f22 123b
000000f0: 89a8 9838 ca65 1739 541f db39 29cb 0f3b
00000100: f612 bf39 4c2f 0f33 2c32 7b3b 53c3 ad36
00000110: cb27 ab3a 07ba 8d38 dfee d43a 4b9a 2a3a
00000120: 9511 6a3b 8640 363b af5d c639 6607 e939
00000130: 3ffb 153b 6387 e134 0776 2b3b 47af aa3a
00000140: b659 5a39 8b09 e03a e09f 283b ad53 df3a
00000150: 851f 923a 8f13 603b ce95 f23a 6805 1c3b
00000160: 48de 1039 521b f739 fb88 0b3b f87c 413a
00000170: 5385 a23a 5fe4 733b 8837 d03a 60c7 7d3a
00000180: ea74 773b e5a3 663b 6e74 373a c111 013b
00000190: 0be3 ed3a e84d 653a f5b8 a839 c0d4 8639
000001a0: 773b 5d39 74b2 5f3b da34 c839 51a1 903a
000001b0: bb17 003a 8071 6a3a f9f5 df38 03af 0833
000001c0: 721c 013b c532 ab38 80a3 7739 8658 1532
000001d0: 8416 c039 525c 123b 7deb 623b 014c 1d3b
000001e0: 5499 b138 d6f3 f732 2827 0b3b d0ef 2a3b
000001f0: 7fc8 6e3a 3afa 8838 d97b 733b 2147 433b
00000200: 9544 3e3a 9959 3232 b9f6 f03a 9782 213b
00000210: 477b 653a e1a6 4d3b 32e4 813b 1ce2 043b
00000220: 06d3 433b 7213 853b c89c d232 573f 853b
00000230: 8fb0 5e3b 02dc cb3a ec46 333b a0d4 c33a
00000240: 3c08 4a3a 7c4b d532 cc1a 193b f31c 9338
00000250: a5ac 933b 6f99 0539 5d30 483b 1986 bb3a
00000260: 9832 993b 4dc9 ca39 e6bb 8237 cf83 883b
00000270: aa1f f43a 06b9 1435 e056 6e3b e9d2 773a
00000280: 0f94 273a 6c83 2839 c7a4 e13a 0f92 d539
00000290: 1734 2f3b fda9 c039 498c 5f3b 16b8 553b
000002a0: 3491 903a 3077 1f3b 736c 563b 203b a139
000002b0: a1fc c93a d152 613a ac7c a138 0690 c539
000002c0: 18dd a238 a05f 5932 0c7d 053b ca9d f43a
000002d0: 4a7c 0f3b 632e df3a 5e22 963a 7861 f138
000002e0: 384b 0f3b b842 6a39 2cc9 003b 7e9a be39
000002f0: da01 3737 f666 a03a 1333 c239 1df9 3b39
00000300: c830 733a b767 943a 7c05 a83a 424f 323b
00000310: 9cae 6b3a 74c9 fb3a 82bc 393a ec7b e439
00000320: 037b 3d3a cf76 883a 9065 f03a 6255 ca3a
00000330: 30b6 4f3b d64d 0039 8570 543b 2446 6b3b
00000340: bff1 1d3b d3cc 2d3b b6c8 6a3b 5f5c 103b
00000350: c1c9 063a c96c 0a39 eb25 4532 a222 1b3b
00000360: 9152 803b 4b62 2b3b 3d6d 5c39 996a 743b
00000370: c73e c538 38d0 353a 6004 9239 5095 143b
00000380: 9ed2 5c3b 31af 123b fa8e b539 1591 823b
00000390: 7ad1 c73a c50d d13a 40ba e339 cc67 233b
000003a0: d407 1839 813f 1d36 6553 943a 03ae d239
000003b0: 5df6 6d3b f262 0938 3f72 1b3b d958 783a
000003c0: 6a4b 2c3b 7dd8 c53a 7a7a 7c39 253f 673b
000003d0: c14b d637 eef9 b93a ec65 f13a 2e80 3439
000003e0: 1429 1e3b 29d7 e53a 4304 2c39 4595 893b
000003f0: 5b67 073b 0a04 8f3a 81b8 ae3a f339 e43a
0.0035248178 0.0003832083 0.00043086018 0.0009222375 0.0028451546 0.0022721563 0.0028610982 0.00020044218
0.0016858826 0.003656484 0.0017934673 0.00026921384 0.0006449853 0.0025532453 2.6432903e-07 0.0033542097
0.003288017 0.0004611838 0.00056027254 0.00216124 1.9151736e-09 0.0031789676 6.6277146e-08 0.00017479474
0.00092479796 0.0003739129 2.4345487e-05 0.00013384633 0.0011560267 0.003029316 0.0011692854 0.002198567
0.00026628523 0.0028444487 4.8261303e-05 0.002947362 0.002495699 0.00049621466 0.0024638793 6.0110087e-05
0.00037316 0.00035615943 0.0019951086 0.0018242773 0.003770274 0.0030486393 5.7425244e-05 0.003674735
0.00022303584 0.00036247764 5.2705836e-05 0.0018638595 0.0021270677 0.00040171493 0.00016175861 0.001007768
0.0024835486 0.0029448955 0.0013015679 0.0022298393 7.279317e-05 0.00014438402 0.00041794276 0.0021941161
0.00036444486 3.33378e-08 0.0038329465 5.1785405e-06 0.0013058124 6.758054e-05 0.0016245506 0.0006507977
0.0035716046 0.0027809455 0.00037835303 0.00044446735 0.002288535 4.2008023e-07 0.002616288 0.0013022207
0.0002082352 0.0017092688 0.0025730059 0.0017038487 0.001114831 0.0034191345 0.001850778 0.0023806933
0.00013815716 0.00047131866 0.0021291364 0.00073809875 0.0012399353 0.0037214977 0.001588569 0.0009680893
0.0037758895 0.0035192904 0.00069982454 0.001969442 0.0018149329 0.00087472657 0.0003218126 0.00025716983
0.00021098355 0.0034133466 0.0003818635 0.0011034404 0.00048863486 0.00089433044 0.000106792846 3.182414e-08
0.0019700793 8.163372e-05 0.00023616664 8.693069e-09 0.0003663787 0.002233286 0.0034625225 0.00240016
8.468577e-05 2.8865468e-08 0.0021233056 0.002608288 0.0009108856 6.531594e-05 0.0037152676 0.0029797035
0.00072581443 1.0381336e-08 0.0018384076 0.0024644488 0.00087540265 0.0031379985 0.0039639706 0.0020276373
0.0029880418 0.004061156 2.4518513e-08 0.0040663886 0.003397975 0.0015553238 0.0027355505 0.0014940687
0.00077069155 2.483079e-08 0.002336192 7.0148984e-05 0.004506665 0.00012741027 0.0030546405 0.0014306932
0.0046752207 0.00038678423 1.5584705e-05 0.0041661034 0.0018625159 5.540354e-07 0.00363677 0.00094537303
0.0006392607 0.00016070687 0.0017215245 0.00040735348 0.0026733929 0.00036747745 0.0034110716 0.0032610944
0.0011029602 0.0024332516 0.003271845 0.00030752365 0.0015410372 0.00085954095 7.7003e-05 0.00037682074
7.765944e-05 1.2652805e-08 0.0020368723 0.0018662747 0.002189415 0.0017027374 0.0011454334 0.000115099305
0.0021864902 0.00022340834 0.0019651158 0.0003635473 1.0908081e-05 0.0012237716 0.00037040617 0.00017926512
0.00092769833 0.0011322413 0.0012819017 0.0027207886 0.00089905574 0.0019209818 0.000708528 0.00043579878
0.0007228108 0.0010411384 0.0018340815 0.0015436823 0.0031694286 0.00012236027 0.00324157 0.0035899961
0.002410039 0.002651979 0.00358252 0.0022027714 0.0005141758 0.00013201231 1.1475531e-08 0.0023671766
0.0039160927 0.0026151116 0.0002102153 0.0037294982 9.405385e-05 0.0006935629 0.0002785055 0.0022672005
0.0033694874 0.0022382254 0.00034629536 0.0039845803 0.0015244924 0.0015949538 0.0004343558 0.0024933694
0.00014498766 2.3431787e-06 0.0011316357 0.0004018397 0.0036310174 3.2755495e-05 0.002371922 0.00094736886
0.0026290067 0.0015094426 0.00024078219 0.003528544 2.5546064e-05 0.0014188865 0.0018417216 0.00017213888
0.0024133371 0.0017535436 0.00016404786 0.0041987025 0.002066097 0.0010911238 0.0013330133 0.001741229

layers.3.weight f4 [128, 256]
00000000: d906 4e3d 4269 053c 255f 9abc 7951 3e3d
00000010: 795b 473c 0c18 46bd 1ead 3abc 4cc4 b03c
00000020: 434d f4bc 8ce7 203d 0cde 993c 77b6 33bd
00000030: cc0d 103c 619d 773d 7189 45bc 3837 46bc
00000040: efd8 61bd 8880 a83d 3525 623c aa4c e93c
00000050: 985e 573c b712 403d d893 34bc a7e6 783c
00000060: c9dd 503c b2b2 65bc 51e1 d63c 1a64 783d
00000070: de27 fe3c 3855 653d f36b adbc 7e1e 2b3d
00000080: 5002 f13c 6e04 2abd 2ee0 35bd d8ee 4fbc
00000090: 17a9 0e3d 3801 2dbd 7409 063d 69b7 8b38
000000a0: 89b8 913d 3e11 8fba c59a cebb 31bc 4bbd
000000b0: c926 943c 7293 04bd f8cd 073d 65bd a43c
000000c0: 865c 2bbd a86b 10bd 0514 32bc c486 43bd
000000d0: 723d a03c 3cb5 913b 4127 f3bc b301 743d
000000e0: 2d1f 143d 1a0a 14bd e142 2a3d e98b 2b3d
000000f0: 503a fe3c ccdf 633c 9f85 20bd 8ef0 523d
00000100: 97a6 c9bc 27db 8cbc 0873 833d abea b33d
00000110: 2ab8 9e3d cce3 ce3c b5ca e43c 740a fe3c
00000120: f97a 52bd 20a4 a23d ac6d a13d 2de0 9c3c
00000130: c4df 1bbd 56ea a53d 8446 3abd 677c 743b
00000140: 7cdf babc 22d5 6f3b 3d7c 9f3d c792 da3c
00000150: 7768 923d 48db 97bc f9c2 f13c 95e4 2e3d
00000160: 875f c53b eb87 393d 5450 993c 6da6 9c3d
00000170: ca8f 713d bb4e 75bd 1bf8 3b3c 788c 1abd
00000180: 077b 8e3b 3cbe f43c acaa 8e3c 24bb 4f3c
00000190: 6415 553d bbf1 3e3c 279e 08bd 7fda a63d
000001a0: fc6d f3bc d2a2 00bd 8dab c2bc fd23 6c3c
000001b0: ff00 3d3d 9bf3 943c 5e13 e7ba acd8 c33c
000001c0: 4685 ad3b db06 093d 11eb 743d 26a9 073d
000001d0: ab04 debc 80c5 663d 18ee e6ba 13c8 843d
000001e0: 573d fe3c c826 ebbc dddb 9fbb 1042 443d
000001f0: 06c7 8fba c1fd 7cbd 8314 c13a 31b1 0b3d
00000200: 93bc cc3a 06fc 49bd 1876 30bd 80de 323c
00000210: a799 57bd 2127 6abc 987f 4d3a ed28 163d
00000220: 2740 3bbc b408 dcbc 3a6a 903c 4205 393d
00000230: 89a6 073d a59a 56bc 8137 ffbc 1c35 92bc
00000240: 9a48 543d 7f4e 0bbd 15f3 ce3c 10d9 3bbd
00000250: 77ad 0dbd 05b4 f63c 70bc 8a3c 74d9 443c
00000260: 0d9b 353d 6bd0 2e3d 0cf4 323d 53da d63c
00000270: 512a 7dbd 725f 873b ae23 053d 7fac 6abd
00000280: abe5 a53b 4251 3cbd a672 50bd 80ae 4d3d
00000290: 2f8f dfbb fc15 4bbd 48a0 fabc cf41 813c
000002a0: 7cc4 ad3c 203e 2c3d aeef d63c acc7 413d
000002b0: 612e 69bc 9295 803c 0c54 4b3d b209 23bc
000002c0: 8c12 393d 2d81 08bd 99df 19bd 6af2 d9bc
000002d0: d76b 213d 2e7d 27bb 4e7d 70bb d598 183d
000002e0: 88d2 e43c 7bf8 19bd 86d6 62bd 2607 8f3c
000002f0: 1c5f 0dbd 0d12 f33c f0eb 09bd 17e5 a93b
00000300: 53cd 08bd 7874 c1bc c6d1 4e3d daf5 29bd
00000310: 9bfa 69bd fdf6 723d 1fed 303d 91ac 543b
00000320: e978 84bc 38e2 26bd 7469 7d3c a3b5 0a3d
00000330: 5ac4 d5bc c127 dbbb d31f b83c b52d fb3c
00000340: 9586 543d e4bf 803d 9c99 8c3d 7f0d 603c
00000350: 1459 a53c 8333 c53b 4df6 9f3c 90a9 6bbc
00000360: 87ed 4f3d 07c7 ea3c c56a 873d 418b 0bbd
00000370: d9f6 643d 0e96 e73c 60fb 1fbd 980f 3cbd
00000380: cf77 0c3d ad1c d4bc 9705 2c3c 0604 a23c
00000390: bfc4 153d cb5c 563d dd9c 873c db9c 35bd
000003a0: 4434 4dbd e617 0a3d aef8 883d 0e94 0abd
000003b0: 5b69 aa3b 9d70 0ebd 49d3 31bd 662f d0bb
000003c0: 2e53 f03c aad4 ad3d f7ba 3d3d 0f7f 9b3d
000003d0: 5040 193d 57cc ab3c 7dac 9f3c 4933 483d
000003e0: f76e f6bc 9c50 8ebc 256d 69bd 7769 123d
000003f0: 79ce 413d 4751 23bd 95df 013d e5ef b93c
0.0502995 0.008142771 -0.018844197 0.046464417 0.012167805 -0.048362777 -0.011393813 0.021577977
-0.029821998 0.03928332 0.018782638 -0.043875184 0.008792352 0.060452823 -0.012056694 -0.012098126
-0.055138525 0.082276404 0.013802816 0.02847894 0.0131451115 0.046892848 -0.011021577 0.015191711
0.01274819 -0.014019655 0.026230486 0.06064234 0.03102487 0.055989474 -0.021169638 0.041777126
0.029420048 -0.04150813 -0.044403248 -0.012691222 0.034829225 -0.04223749 0.03272386 6.662199e-05
0.071152754 -0.0010915173 -0.006305071 -0.04974002 0.0180849 -0.032367177 0.03315541 0.020109842
-0.041836284 -0.03525892 -0.010869031 -0.047735944 0.01956055 0.0044466536 -0.029681804 0.059571933
0.036162544 -0.036142446 0.041567687 0.041881476 0.031033665 0.013908338 -0.03918993 0.051498942
-0.024615569 -0.017194344 0.06418425 0.08784994 0.0774997 0.025255106 0.02792869 0.031010844
-0.051386807 0.079414606 0.078822464 0.019149864 -0.038055196 0.08101337 -0.045477405 0.0037305595
-0.022811644 0.0036595543 0.077873684 0.026681317 0.07148831 -0.018537179 0.029511916 0.04269846
0.0060233506 0.045295637 0.018715061 0.07648931 0.05897502 -0.059889536 0.011472727 -0.037731618
0.004348162 0.029875867 0.017415367 0.012678895 0.052022353 0.011654313 -0.03335395 0.081471436
-0.02971553 -0.031405278 -0.023763442 0.014412877 0.046143528 0.018182566 -0.0017629673 0.023907028
0.0052954284 0.033453804 0.05979449 0.033120297 -0.027101835 0.056340694 -0.0017618565 0.06483474
0.031035108 -0.028705016 -0.0048785047 0.047914565 -0.0010969348 -0.061765436 0.0014730844 0.03410453
0.0015620164 -0.049312614 -0.043081373 0.010917306 -0.05263677 -0.014291556 0.00078391423 0.036660124
-0.011428869 -0.026859619 0.017628778 0.04517103 0.033117805 -0.013098394 -0.031154396 -0.01784759
0.05182705 -0.034010407 0.025262395 -0.045861304 -0.034589257 0.030115137 0.016935557 0.0120147355
0.04433732 0.04267923 0.043689772 0.026227152 -0.061807934 0.004131251 0.03250473 -0.05729341
0.005062779 -0.04597593 -0.050890587 0.050215244 -0.0068224887 -0.049581513 -0.030594006 0.01577845
0.021211855 0.042051435 0.026237335 0.047309563 -0.014232249 0.01569632 0.0496407 -0.009951042
0.045183703 -0.033326317 -0.037566755 -0.02660485 0.039409485 -0.002555679 -0.003669578 0.037255127
0.02793242 -0.037590485 -0.055380367 0.017459463 -0.03451453 0.029671693 -0.033672273 0.0051847803
-0.033398937 -0.023615107 0.050493024 -0.041494228 -0.05712376 0.059317578 0.043194886 0.003245149
-0.016170936 -0.040743083 0.0154670365 0.03386463 -0.026094604 -0.0066880886 0.022476112 0.030661443
0.05188616 0.062866 0.06865236 0.013675093 0.020184077 0.0060181036 0.019526625 -0.014383689
0.050763633 0.028659357 0.066121615 -0.03406835 0.055899475 0.028269794 -0.03905809 -0.04591331
0.034293946 -0.02589258 0.01049938 0.01977731 0.036564585 0.052334588 0.01655429 -0.044339042
-0.050098673 0.033714198 0.06688057 -0.033832602 0.0052005476 -0.034775365 -0.043414388 -0.0063533066
0.029336538 0.08487828 0.04632088 0.07592594 0.03741485 0.02097146 0.019491429 0.048877034
-0.030082209 -0.017372422 -0.056988854 0.03574511 0.04731605 -0.039872434 0.031707365 0.022697398

layers.3.bias f4 [128]
00000000: 15d3 99bc 17cb 523a 8266 35bc 4eb9 b03c
00000010: 8945 d63c 8d4b ef3b 568c 6a3d bbd5 faba
00000020: d31e 1d3d 232b 1bbd 3b8c 723c 40b3 743d
00000030: 1e1a a23c f6d2 5fbd 1a49 7cbc 5189 ec3c
00000040: b9d9 183d cc9f 5b3d 682c 98bc 2986 3b3b
00000050: cd7c 22bc 3148 103d 3f23 743d 6dbc 7ebd
00000060: 176e 3c3d 09e7 a33c 2aa2 84ba 29b1 a53c
00000070: 41af 353d 0e37 ef3c 0cee 5a3d 5584 133c
00000080: bc3d 8bbc 2fd5 1b3d 3fee 4d3d 76b5 d43c
00000090: aa19 63bd 872c 69bc ff12 d5bc 2f1f 5dbd
000000a0: 6390 19bd 1cec ed3c 57b5 033d ef98 883d
000000b0: 7155 f93b f0d2 b43c 5bf3 463a 67d5 28bd
000000c0: 47c1 6f3d f6b2 2e3d 76c7 6d3d d11e 493c
000000d0: 6651 1c3d ca50 21bc f132 663d fe7a c63c
000000e0: b850 553d 5e6f 333d 72df 67bd cb84 cc3c
000000f0: aed0 ecba e11a 6dbd 4e8d 993c a465 c03c
00000100: 11b9 503d 8536 f23c 53be 44bd 9ee0 013c
00000110: d52e 2f3d b41d 483d 098d 1abd 2c2f ddbc
00000120: ddfb 3e3d de64 3ebd 17e7 4a3b 4ec9 8bbc
00000130: 3184 933c 556c 2cbc 181a 59bc c863 8fbc
00000140: b770 473d c134 1cbd 0c98 973c b0ae 013d
00000150: f7af 203d 8a3f 08bd d70b fa3c 9191 613d
00000160: 3d27 ca3c bbb0 f63c 805a 7d3d 99d8 6f3d
00000170: e1f0 133d dcf0 02bc aacf 6abd 5c06 30bd
00000180: 06f8 2abc 2845 5dbd ba7e 1b3d e880 0ebd
00000190: fb30 47bd d907 9f3b bc9a ab3c 1ca3 22bc
000001a0: ffa3 e2bc b1ef 713d be99 fc3b bca1 04bd
000001b0: 213b 8e3c 9863 1cbc b34d 2bbd 3a19 84bb
000001c0: 0a14 3a3d ab1e 533d 8df1 81bd b458 e4bc
000001d0: 5d6e 17bb cbe0 92bb eebb 43bd f46b d0bc
000001e0: 5403 a5bc 447f 78bd cc4e 423d a587 e0bc
000001f0: 64d1 06b9 d83c 02bb 46c3 0f3d 5988 b33c
-0.01877741 0.0008041127 -0.011071803 0.021572735 0.026156204 0.0073027075 0.05726274 -0.0019137183
0.038359474 -0.037882935 0.014803941 0.05974126 0.019787844 -0.054644547 -0.015398288 0.028874071
0.03731701 0.05361919 -0.018575862 0.0028613901 -0.00991745 0.035225097 0.059603926 -0.062191416
0.046003427 0.020007627 -0.001011913 0.020226078 0.04435659 0.029201057 0.053449675 0.009003718
-0.01699721 0.038045105 0.050276037 0.025965434 -0.055444397 -0.014231808 -0.026010035 -0.053984817
-0.037491214 0.02904325 0.03215536 0.06669795 0.0076090624 0.02207324 0.00075893634 -0.04121914
0.058533933 0.04265114 0.05805155 0.012275414 0.038163565 -0.009845922 0.056200925 0.02422857
0.052078933 0.04380738 -0.05660958 0.024965664 -0.0018067562 -0.05788696 0.018744137 0.023485966
0.050957743 0.029567013 -0.04803307 0.007927088 0.042769272 0.048856452 -0.037732158 -0.027000032
0.046626914 -0.046482913 0.0030960494 -0.017063763 0.01800737 -0.010523875 -0.01325085 -0.017503634
0.048691478 -0.038136248 0.018505119 0.031660736 0.039230313 -0.03326372 0.030523224 0.055070464
0.024676913 0.030113569 0.061853886 0.058556173 0.036118392 -0.007991996 -0.05732695 -0.042974815
-0.01043511 -0.05402103 0.037962653 -0.034790903 -0.048630696 0.0048532304 0.020947807 -0.009926584
-0.02766609 0.05906648 0.007708757 -0.032380804 0.01736218 -0.009545229 -0.041822147 -0.0040313276
0.045429267 0.05154292 -0.063449 -0.027874328 -0.0023106553 -0.004482364 -0.047786646 -0.025442101
-0.020143189 -0.060668245 0.047438428 -0.02740843 -0.0001285724 -0.0019872691 0.035098337 0.021915602

layers.4.weight f4 [128]
00000000: 26bc 603f b836 803f 359b 423f f22e 5b3f
00000010: 2015 5f3f ba36 803f 929d 5e3f 1526 863f
00000020: a4dd 803f 871d 6e3f 9044 6c3f ea6b 6d3f
00000030: ddfc 663f e07e 8e3f c948 853f 8c95 553f
00000040: 2260 783f c5a1 473f da1f 523f 6dd3 8a3f
00000050: 8bec 5f3f 2a36 653f b9eb 703f 0aa0 663f
00000060: 2247 623f e2ed 7f3f b6c7 4c3f 198b 5c3f
00000070: d430 623f e07e 7e3f d636 693f f48d 433f
00000080: 1a0f 893f 81c9 893f 8f0e 843f e47b 5d3f
00000090: 457b 803f c8e8 3d3f 2073 743f d468 703f
000000a0: 795d 763f b254 693f e6a3 8a3f a5ef 813f
000000b0: 2d69 533f 7e75 8a3f 9e61 6d3f cfa9 413f
000000c0: c815 623f 3bc7 6f3f 952c 663f f690 783f
000000d0: 81db 793f 7ac3 883f bd5d 673f ae1b 613f
000000e0: d4d5 8b3f d2e6 5f3f 6d8e 823f 298c 843f
000000f0: 9506 823f a6be 6e3f 8303 733f 38a6 843f
00000100: a659 793f c407 563f b3b5 5d3f 0b0a 2e3f
00000110: c0a0 813f f375 643f 58d3 603f 7b86 873f
00000120: 870c 5d3f 341f 813f f381 403f 305e 6f3f
00000130: 9126 523f f284 4f3f f2b3 8a3f 8058 673f
00000140: 74ec 5a3f 64b2 603f b447 883f 2fc8 7a3f
00000150: 0fd9 553f d880 6d3f cb2c 423f 5764 5d3f
00000160: 9fd4 643f 5cdc 4e3f 83c7 5f3f 14f2 863f
00000170: 635a 563f a95b 633f 4065 753f 7fa2 8a3f
00000180: 14ee 7f3f 498a 803f 27e9 663f fe4f 4c3f
00000190: ff95 833f f7c3 743f c2e9 693f 0f92 6a3f
000001a0: 9af0 823f 3a01 653f 7e41 473f 03ce 883f
000001b0: 2169 793f 9311 723f 0dac 6d3f fdd0 843f
000001c0: 903f 4e3f 6b59 6d3f 0636 863f b125 5d3f
000001d0: ad38 793f 9bd7 573f fa22 6f3f 083d 193f
000001e0: 791b 413f 5fad 7a3f a5da 863f 1b97 523f
000001f0: 3543 653f 0c0a 603f 3d3b 7c3f 0133 593f
0.8778709 1.0016699 0.7601808 0.8561851 0.8714161 1.0016701 0.86959183 1.0480372
1.0067639 0.93013805 0.9229212 0.9274279 0.9022959 1.1132469 1.0412837 0.83431315
0.9702169 0.77981216 0.8207985 1.0845772 0.8747031 0.8953577 0.94109684 0.9008795
0.8838979 0.99972355 0.79992235 0.86149746 0.88355756 0.99412346 0.910993 0.7638848
1.0707734 1.0764619 1.0316943 0.8651717 1.0037619 0.7418332 0.95488167 0.93909955
0.9623638 0.9114486 1.0831268 1.0151259 0.8258236 1.0817106 0.92727077 0.7564973
0.88314486 0.93663377 0.89911777 0.9709619 0.9760056 1.0684655 0.9037741 0.8793286
1.092463 0.8746158 1.0199715 1.0355273 1.0158259 0.93259656 0.94927233 1.0363226
0.9740242 0.836056 0.86605376 0.67984074 1.0127182 0.89242476 0.87822485 1.0587915
0.8634724 1.0087647 0.75198287 0.93503094 0.820901 0.81062233 1.0836165 0.90369415
0.8551705 0.877722 1.0646882 0.97961706 0.8353433 0.92774725 0.758496 0.8648123
0.89386934 0.8080499 0.87413806 1.0542626 0.8373167 0.8881174 0.9585762 1.083084
0.99972653 1.0042201 0.9019951 0.7980956 1.028015 0.9561152 0.9137231 0.9162912
1.0229676 0.89454997 0.7783431 1.068787 0.9742604 0.94558066 0.92840654 1.0376278
0.8056574 0.92714566 1.0485237 0.8638564 0.97352105 0.8431336 0.93412745 0.5985875
0.75432545 0.97920793 1.0535475 0.8226182 0.89555675 0.8751533 0.9852789 0.8484345
