models/mlp/best_model_relu_mse_log_3x64.pth (torch, 37756 bytes, 7 tensors)

layers.0.weight f4 [64, 1]
000000 08 88 b7 be a5 a6 9c bf 82 70 26 bf 50 cb ac 3e
       -0.3584597 -1.2238356 -0.65015423 0.33748865
000010 30 57 68 3f c4 e4 cc 3e 40 2f 24 be a8 7d de bc
       0.9075804 0.40018284 -0.1603365 -0.027159527
000020 ba 80 71 3f ba 81 8f bf 5c 25 e5 be 5a 71 d8 3f
       0.94337046 -1.1211464 -0.44755065 1.6909592
000030 af f4 a0 3e 8b 75 a4 bf 66 8a 8b 3f e2 19 77 3f
       0.3143668 -1.2848371 1.0901611 0.9652387
000040 e0 87 52 3d e7 ff dd 3f 5a 02 e4 3f ac 31 49 3f
       0.05139911 1.734372 1.7813218 0.7859142
000050 30 42 66 3f ee 17 dc be 08 73 29 bf c4 8d 7b bf
       0.89944744 -0.42987007 -0.6619115 -0.9826319
000060 a0 a1 0e bd 7c 25 9e 3f c4 ef 8b be 12 c3 79 bf
       -0.034822106 1.2355189 -0.27331364 -0.9756328
000070 56 24 02 3f 6a d5 c6 bf 93 9d bd 3f 88 b5 5f be
       0.50836694 -1.5533879 1.4813713 -0.21846592
000080 2c 96 1e 3f 38 c8 79 3f 0d 09 ca 3f aa f3 a1 3f
       0.61947894 0.97571135 1.5784012 1.2652485
000090 e8 36 96 be b4 d8 ad be 05 a3 ad bf ab 8c 21 bf
       -0.29338765 -0.33954394 -1.3565375 -0.6310527
0000a0 39 e3 2e bf 90 57 e9 bf f8 a3 8d be c2 11 19 3f
       -0.68315464 -1.8229847 -0.2766416 0.5979272
0000b0 87 15 91 3f 12 be 12 be d0 70 c7 be 00 ae d8 3b
       1.1334695 -0.14330319 -0.38953257 0.0066125393
0000c0 80 00 0b bc 81 32 1a 3f 20 26 1a 3e 5a 39 39 3f
       -0.008484006 0.6023331 0.15053606 0.72353137
0000d0 00 3a 9c 3e 9d 29 96 3f c0 02 a1 be c6 a5 36 bf
       0.30513 1.1731449 -0.3144741 -0.713467
0000e0 32 b9 de bf 4f 24 15 3f 48 0c 57 3f 79 d1 ae bf
       -1.7400267 0.5825853 0.84003115 -1.3657676
0000f0 ed 1b 85 bc 4c 39 ff be d0 97 48 3e bb 21 6a be
       -0.016248668 -0.49848402 0.19589162 -0.2286443

layers.0.bias f4 [64]
000000 48 4e e6 be 5a e2 30 3e 98 19 fa be c0 b1 0c bf
       -0.449816 0.17273846 -0.4884765 -0.54958725
000010 ac ef 9d be fc 2a 48 bf 68 d3 e3 be 72 8a e9 3e
       -0.30846918 -0.7819059 -0.44497228 0.45613438
000020 83 79 2a 3f d1 eb a1 3c c8 bf 71 bf 00 19 e5 3e
       0.6659166 0.019765766 -0.9443326 0.44745636
000030 2a 9d fe 3e 17 ae 77 3e da 08 02 3e b4 94 ba be
       0.49729282 0.24187504 0.12698689 -0.36441576
000040 e0 9e f4 bd 83 cc 09 3f 0e d2 4e 3e 26 05 59 bf
       -0.119443655 0.53827685 0.20197317 -0.8477348
000050 c0 1a 2c be 71 e6 5b 3f 40 9f c2 be af 9f aa 3e
       -0.1680708 0.858985 -0.38012123 0.33324954
000060 d8 07 1b be f5 b6 09 3f 70 eb cc be 68 d9 39 bf
       -0.15139711 0.53794795 -0.40023375 -0.7259736
000070 50 85 f1 3e 61 74 89 3d ef e2 5a 3f b0 99 c5 be
       0.47172022 0.06711651 0.85502523 -0.38593817
000080 b8 7c 41 bf be fd 15 bf e8 03 51 3f bf 2a fd 3e
       -0.7558093 -0.58590305 0.81646585 0.49446675
000090 d0 05 0d bf 18 8e 5b bf 1a 5c 37 3f b0 66 cf 3e
       -0.55086994 -0.8576369 0.7162491 0.40508032
0000a0 0f 42 2e 3f 2b da b8 3c 56 28 54 bf e1 1b af 3e
       0.6806955 0.022564968 -0.8287405 0.34200957
0000b0 1d 48 5d 3f ef 7d 8d 3e 6c c4 7f bf 82 ed 20 bf
       0.8643816 0.27635142 -0.9990909 -0.6286241
0000c0 50 32 c2 be e8 30 2f 3f e6 47 4e bf 1c 1b 2c bf
       -0.3792901 0.68434 -0.8057846 -0.67228866
0000d0 1e ce 1c bf 25 d2 5c 3f 58 c1 21 bf 78 2d 55 bf
       -0.6125201 0.86258155 -0.63185644 -0.83272505
0000e0 2c 0d 9c 3c 40 c9 66 3d 46 93 75 bf fb 77 84 3c
       0.01904925 0.05634427 -0.95927846 0.016170492
0000f0 61 a0 34 bc e2 2b 6f bf 08 91 52 bf 24 9c b9 3e
       -0.011024565 -0.93426335 -0.8225255 0.36251938

layers.2.weight f4 [64, 64]
000000 b6 d5 ed bd 7a c9 6f bc 54 fb c3 3d 9a 42 82 bd
       -0.11613028 -0.014635438 0.095694214 -0.063603595
000010 78 9c cd 3c fe 24 fb bd 64 a3 9b bd 78 a2 80 bd
       0.025099024 -0.12262915 -0.07599524 -0.062809885
000020 e7 4f 25 bc a5 95 f7 be 38 38 50 3d 8a 63 5c 3d
       -0.010089851 -0.48356357 0.050834864 0.053805865
000030 f6 d8 ae bd 4f 74 16 be 00 2d f3 3d 38 2a fe 3d
       -0.08537476 -0.14692806 0.118738174 0.12410396
000040 90 fe d3 bd c5 aa 3b 3e e3 39 95 3e 5a 67 a8 3d
       -0.10351288 0.18326862 0.29145727 0.08222838
000050 14 14 39 bd 1b 7f fd 3c 54 93 f7 3d ee 48 27 3d
       -0.045185164 0.030944398 0.120886475 0.040841036
000060 6c e3 22 bd 75 98 1a 3e da 3a df 3d 14 2f 3c bd
       -0.039767668 0.1509722 0.10899897 -0.045943335
000070 2c 1d 86 3d e9 7e 99 be 1d 5a c3 3c 30 ee f6 3d
       0.06548533 -0.29979637 0.02384668 0.120571494
000080 a8 78 7a bd d4 a4 37 bd a7 ba 34 3e f2 68 2d 3e
       -0.061150223 -0.044834927 0.17649327 0.16934565
000090 9a e3 d2 bd e4 63 4b 3d ac 69 01 be e7 65 a8 3c
       -0.10297318 0.04965581 -0.12637967 0.020556403
0000a0 9e c3 95 bd 47 ab 44 bf 40 73 e2 3b 1a 8d 95 3d
       -0.07312702 -0.7682385 0.0069107115 0.073023036
0000b0 4d 4f 01 3d 49 16 e4 3d a8 64 aa bc 2e 0e ee 3d
       0.031569768 0.11137063 -0.02079995 0.11623798
0000c0 3e 95 91 bd 34 f6 0a 3e 44 83 86 bd 24 67 41 bd
       -0.07108544 0.13570482 -0.06568006 -0.047217503
0000d0 72 5e b3 bd e5 4c d4 3d 7c 8e a0 bd 50 5c 24 bc
       -0.087582484 0.10366229 -0.07839677 -0.010031775
0000e0 98 aa 17 bf a7 25 97 3d f8 80 14 bd ab c0 32 bf
       -0.5924468 0.073802285 -0.036255807 -0.6982524
0000f0 a8 30 1a bd b0 5a f1 3c 06 4a d3 bd 4e ec 42 bd
       -0.03764406 0.029462188 -0.10316853 -0.04758864
000100 04 93 6d bd ae 10 0a be 58 6a 94 3c 4c 94 76 3d
       -0.058001533 -0.13482925 0.018117115 0.06020002
000110 28 4c 83 bc d4 4b 05 bd 58 c4 6c bd e3 76 e8 3a
       -0.016027525 -0.03254302 -0.057804435 0.0017735626
000120 be d3 c3 3d 81 44 ac be ae 6b a2 3d fb d9 99 3d
       0.09561871 -0.33646014 0.079306945 0.075122796
000130 05 2f 7f bb 8a 8d 66 bd 8e 0c bc 3d 84 fd b6 3d
       -0.0038937938 -0.056287326 0.09182082 0.08935073
000140 74 82 fb 3d d9 30 01 3e 26 b2 ac 3e 22 e9 89 bd
       0.12280741 0.1261629 0.33729666 -0.0673392
000150 3e cd e1 bd 4d 55 47 3c 84 0d 6b bd df 35 05 be
       -0.11025475 0.012166333 -0.057385936 -0.13008831
000160 30 09 4d 3c 64 d4 e3 3d b8 8f d0 bc fc c0 2c bd
       0.0125143975 0.11124495 -0.025459155 -0.04217623
000170 2c 81 62 3d a7 8a c0 be 1d df 28 3e a8 12 cb 3c
       0.05529897 -0.37605783 0.16491361 0.02478917
000180 c6 5a a6 bd 32 47 82 3d 77 f7 1f 3e 8f d3 43 bc
       -0.081227824 0.06361236 0.15621744 -0.011952295
000190 c0 3a 2b 3c b0 a5 a3 3d 1e 32 d8 bd 0f bd c0 bc
       0.010451019 0.07990587 -0.10556434 -0.02352765
0001a0 6d a9 80 3d 30 e6 12 bf 08 91 dd 3d d1 18 b3 3d
       0.062823154 -0.5738249 0.10818678 0.08744968
0001b0 d3 a1 fc 3b cf 8f eb 3d 78 d3 c8 3c 6e d3 b7 3d
       0.0077097206 0.11502039 0.024514899 0.08975874
0001c0 6e 48 f7 3d 6c 98 a1 3d ae 64 e1 bd 50 cb 93 3d
       0.12074362 0.078904 -0.11005531 0.07216513
0001d0 88 09 06 bd e3 e1 02 3e d4 07 ec bd 00 d7 c6 ba
       -0.032723933 0.12781481 -0.115249306 -0.0015170276
0001e0 27 e2 16 bf 20 df c1 bd 38 af 6b 3d e5 be 0c bf
       -0.5893883 -0.09466386 0.05754015 -0.5497878
0001f0 78 3b bc bd 00 7d c4 3b 60 61 bd bc 7c bd f9 3d
       -0.0919103 0.0059963465 -0.023117721 0.121943444
000200 ac dc 12 3d 19 67 b3 bd 54 04 d1 bd 8e 6c ce bd
       0.03585498 -0.08759899 -0.10205904 -0.10079299
000210 c2 5b b7 3d 66 59 df bd ce 11 d5 bd 66 b0 87 3d
       0.08953048 -0.10905723 -0.104037866 0.06625442
000220 ad 3c b4 3a 4a c2 07 bf 48 f7 ee bd 85 ef 04 3e
       0.0013750993 -0.53030837 -0.11668259 0.12981994
000230 14 1c 92 bd 9b 4b 3a be fa 2a ed 3d 88 bc 6a 3d
       -0.07134262 -0.18192904 0.11580463 0.057308704
000240 18 02 c5 bc 80 8f 3a 3e 3b 9e 97 3e fe 5d b5 bd
       -0.02404885 0.18218803 0.29612908 -0.08855818
000250 f0 cb 17 3c 0f bd 6e bc 30 b1 64 3d 97 48 f4 bd
       0.009264931 -0.014571442 0.05583304 -0.11927908
000260 56 2b c8 bd 6f e7 8c 3d 6c 54 cc 3d 10 55 21 3c
       -0.09773891 0.0688008 0.0997704 0.009846941
000270 b1 b3 bb bd 30 0b b6 be 54 ac 20 3e d0 e4 e0 3c
       -0.09165133 -0.3555541 0.15690738 0.027452856
000280 34 81 aa 3d 0e 0c ee 3d 74 71 44 3e ea ad 3d 3e
       0.08325425 0.11623393 0.19183904 0.18523374
000290 90 6e b2 3d e0 01 17 3d 02 75 05 be fe 1d 8d bd
       0.087124944 0.036867023 -0.13032916 -0.06890486
0002a0 1b 31 6e bd 69 60 35 bf 4e 83 be 3d 49 f7 a6 3d
       -0.0581523 -0.70850235 0.09302388 0.08152635
0002b0 0e 74 ad 3d c5 8d 73 bd 90 cd 1d 3c 00 c0 89 bb
       0.08469401 -0.059461374 0.009631529 -0.0042037964
0002c0 78 df a5 bd 08 c0 08 3d 00 3e 8f bd 1c 2b 15 3d
       -0.08099264 0.03338626 -0.069942474 0.036418065
0002d0 a8 fe b6 bc 65 59 32 3d d8 df 66 bd d4 0a 91 3d
       -0.022338226 0.043542285 -0.056365818 0.070821434
0002e0 8c b1 12 bf 7b ac 70 3d 48 20 8e bc 90 ee 09 bf
       -0.57302165 0.05875824 -0.017349377 -0.5387964
0002f0 ec 2c ad 3d f0 d0 2d 3c c8 ba ba bd 15 29 75 b9
       0.08455834 0.010608897 -0.09117657 -0.00023380325
000300 20 b3 91 bd 10 4d e5 3d 70 29 44 bd e8 ef d5 3d
       -0.071142435 0.11196339 -0.04789108 0.10446149
000310 58 da c6 3d a8 be f5 3d 10 ed 79 bc 12 5b 84 bd
       0.097096145 0.119992554 -0.015254274 -0.06462683
000320 5c 09 6b 3d 10 06 40 bc 76 6f f9 bd 70 a7 8c 3c
       0.057381973 -0.011720195 -0.121794626 0.017169684
000330 22 72 f2 bd 68 c6 6f bd 68 aa b1 bc b0 d7 e2 bc
       -0.11838175 -0.058538824 -0.021687701 -0.027690738
000340 94 7b 80 bd 04 d7 f6 bd f0 43 59 3d 76 15 8b 3d
       -0.06273571 -0.1205273 0.053043306 0.06791203
000350 24 b0 2e bd 48 72 7e bd 70 27 be bd c0 d8 1e 3b
       -0.04264845 -0.062120706 -0.09284866 0.002423808
000360 8a 9b 9d 3d ca 48 95 bd e6 c0 b7 3d cc a2 be 3d
       0.07695682 -0.07289274 0.08972339 0.09308395
000370 fa b0 ad bd d8 99 a5 bd 38 bb c1 3d 48 34 93 3d
       -0.08481021 -0.08085984 0.09459537 0.07187706
000380 ec a4 1d bd 5a b2 d9 3d 9a 25 87 bd 5c 8a e4 3d
       -0.03848736 0.10629721 -0.06598969 0.111592025
000390 c0 1b 14 bd e8 c9 c0 bd 80 bf 43 bb 98 00 2d bd
       -0.036159277 -0.094135106 -0.0029868782 -0.042236894
0003a0 fa 32 e4 bd 94 58 78 bd 74 c9 c2 3d 10 27 4c 3c
       -0.111425355 -0.06063135 0.095110804 0.012460485
0003b0 e2 e1 d1 bd 5e 7b d6 bd cc 41 13 3d c4 5e 2f 3d
       -0.10248162 -0.10472749 0.03595142 0.042814985
0003c0 c0 2f 51 bd 90 7f 76 3c 40 1e bf bd c4 a0 27 3d
       -0.05107093 0.015045062 -0.093319416 0.040924802
0003d0 12 fa c2 bd d8 49 7e 3d cc f9 c5 bd 06 c6 ae bd
       -0.095203534 0.06208214 -0.096667856 -0.08533864
0003e0 f6 4c 88 3d 6e e0 b2 bd 42 0d fa 3d f4 44 d6 3d
       0.06655304 -0.08734213 0.1220956 0.104623705
0003f0 fa 29 f8 3d 60 8f 8c 3b f8 78 bf bc a4 39 a1 3d
       0.121173814 0.0042895526 -0.023373112 0.07872322

layers.2.bias f4 [64]
000000 f2 46 4a bc 3a af 85 bd c5 39 f7 3c 78 85 d7 3d
       -0.012346016 -0.065275624 0.030178914 0.10523504
000010 ad a5 bf 3d f0 4b 74 3b 40 e4 62 3d c8 08 c6 3d
       0.09357772 0.0037276708 0.055393457 0.09669644
000020 68 b3 0b 3d 5c 25 3c bd b5 77 b7 bc 71 98 dc bc
       0.034106642 -0.045934066 -0.022395948 -0.026928158
000030 38 d0 54 bd ea 40 dc bd b5 35 3b bd e8 7b b5 bd
       -0.051956385 -0.10754569 -0.045705516 -0.08861524
000040 32 bb 8b bd 9c e8 9d 3d 70 f9 90 bc 22 35 03 3e
       -0.06822814 0.07710382 -0.017697066 0.12813237
000050 9f 89 8d 3d 61 84 0a 3e e5 9e df 3d ee bf b8 bd
       0.06911015 0.13527061 0.109189786 -0.09020983
000060 10 bf 54 3d b2 37 ec 3d f7 63 cc 3c 3d 8d 96 bd
       0.051940024 0.115340605 0.02495001 -0.07351158
000070 a4 8e 8f bd 27 cf b2 bd 41 e6 46 3d a9 0f 86 bd
       -0.070096284 -0.087309174 0.04855943 -0.06545956
000080 b0 d6 21 3d 3a c1 ef 3d 61 3d ca 3d d2 32 fe bd
       0.039511383 0.11706777 0.09874988 -0.12412037
000090 15 d0 11 3d 4c a4 a2 bd 7b 32 cf 3d 98 35 ca bd
       0.035598833 -0.079414934 0.1011705 -0.098735034
0000a0 d2 87 d0 3d fc f3 5f bd 25 01 f3 3d 05 11 06 be
       0.10182156 -0.05467604 0.11865453 -0.1309243
0000b0 d1 0a f2 bd 79 e6 87 bd d4 4b b4 3d 9b d0 e0 3d
       -0.11818469 -0.06635756 0.088035256 0.10977288
0000c0 f4 13 28 3d 5e eb 0b 3c 17 b6 eb 3c 50 0e 2c bd
       0.041034654 0.008540003 0.02877335 -0.042005837
0000d0 ee 90 86 bd a5 c6 d0 3d 3d 8c 0c 3d a0 ad 66 bc
       -0.06570612 0.101941384 0.03431343 -0.014079481
0000e0 86 b8 26 3d 14 e7 70 bd 28 f0 9c bc b3 96 56 3c
       0.04070332 -0.058814123 -0.019157484 0.013097453
0000f0 f6 80 9b bc 9e ac e2 bd 28 83 3d 3d 7d d3 fa bd
       -0.018982392 -0.1106808 0.04626766 -0.122473694

layers.4.weight f4 [64, 64]
000000 db 21 e9 3d 19 eb 44 bd 11 c8 c9 bd 2c 27 5a bd
       0.113834105 -0.04807577 -0.09852613 -0.053260013
000010 08 cf aa 3d 3c 31 8f bd 3c 6e c6 bd ac dc 37 be
       0.08340269 -0.069918126 -0.09688994 -0.17955273
000020 e5 49 cf bd 00 16 40 3d bc e2 4e 3e 50 98 a7 bd
       -0.10121516 0.04689598 0.2020368 -0.08183348
000030 8a 68 ce 3d e0 2b 8a 3c 5f b7 b1 bd 1a 48 c5 bd
       0.10078533 0.016866624 -0.086775534 -0.09632893
000040 e1 86 e1 3d 6b 22 f9 bc b8 74 d7 bc a7 c9 e1 3d
       0.11012054 -0.03041192 -0.026300773 0.1102479
000050 04 1e 10 3e 58 65 12 3d d0 f4 26 3e 82 3d fe 3d
       0.1407395 0.03574118 0.16304326 0.124140754
000060 ea 90 83 3d 7c 15 43 3d 4e cd 8b 3e 1f 71 e0 3d
       0.064241245 0.04762791 0.27305073 0.10959076
000070 9e 3a d3 3d 88 17 97 bd e4 fc ef 3d fb 4e 65 be
       0.10313915 -0.07377535 0.11718157 -0.2239341
000080 28 44 32 3d eb 00 90 3e 73 52 1d bd 00 7c 25 3c
       0.04352203 0.281257 -0.038408708 0.010100365
000090 ca b7 7b be 90 af 31 bd 10 a1 c6 3c f0 91 20 bc
       -0.24581829 -0.04338032 0.024246722 -0.009800419
0000a0 56 cc da 3c 48 61 a4 3c 0f 42 5e 3d c5 6d 54 be
       0.026708763 0.020065919 0.054262217 -0.20744999
0000b0 ab 16 2c bd 16 6e f3 3c 5a 0c b2 bd 8c 88 de bd
       -0.042013805 0.029715579 -0.08693762 -0.10865888
0000c0 00 9b ff 3a 02 28 07 3d 09 df 47 bb b8 b9 33 3d
       0.001950115 0.03299714 -0.003049793 0.043878287
0000d0 2a 5c dc 3d 75 ab ef bd fb c2 3c bd d8 96 ec 3d
       0.107597664 -0.11702625 -0.046084385 0.11552209
0000e0 b3 1c 55 3b 88 49 b4 bd 52 36 bd bd 96 57 15 be
       0.0032518327 -0.088030875 -0.092388764 -0.14584193
0000f0 26 29 0c 3d a0 9a b3 3d 75 06 48 3d 74 77 70 bd
       0.03421893 0.08769727 0.048834283 -0.05870767
000100 24 b4 c5 bd 40 b7 71 3d 18 99 4d bd c0 08 05 bd
       -0.096535 0.05901265 -0.05019483 -0.032479048
000110 70 81 b3 3c c2 4f 99 bd cc 02 17 bd 82 e3 dc 3d
       0.021912307 -0.07485916 -0.0368679 0.10785581
000120 20 3a 91 3b 90 61 55 3c 6e 75 f8 bd ee 88 9e 3d
       0.004431978 0.013023749 -0.12131773 0.07740961
000130 0e 94 e0 bd 16 de 9f bd de 08 e1 bd 00 5d 2f ba
       -0.10965739 -0.078060314 -0.109880194 -0.00066895783
000140 c0 27 e9 3b d0 74 fc 3c ea a0 9a bd 00 88 a2 bc
       0.0071153343 0.03081742 -0.07550223 -0.01984024
000150 4c b2 e0 bd 7c 6c 81 3d 36 5c b3 3d 14 8b aa 3d
       -0.109715074 0.0631952 0.08757822 0.08327308
000160 4e 61 ee 3d 74 9b 18 3d 78 3a 39 bd 82 e3 b8 bd
       0.11639653 0.037257627 -0.045221776 -0.09027769
000170 40 52 1a 3d dc 10 0b bd 0e f7 a1 3d 80 b1 6d 3b
       0.037676096 -0.033951625 0.0790845 0.0036269128
000180 20 d8 13 bc 5e 6a b9 3d 08 3e 83 bc 48 cb bc 3c
       -0.009023696 0.09053491 -0.01602079 0.02304615
000190 c0 be 0d 3d cc 9f a1 3d 98 97 c8 bd b0 6a a1 3c
       0.03460574 0.07891807 -0.09794539 0.019704193
0001a0 80 a9 24 bd ec a0 4c 3d b0 2c 2f 3d 90 71 7f bd
       -0.04020071 0.049958155 0.042767227 -0.06236416
0001b0 80 96 e4 3b e0 3e e4 bb 44 e3 bc bd 36 f3 b0 bd
       0.006975949 -0.006965503 -0.09223035 -0.08640139
0001c0 80 87 15 bd 12 5f 94 bd 7e 5d e9 bd 9c a2 dd 3d
       -0.036506176 -0.07244696 -0.11394785 0.10822031
0001d0 ac f8 27 bd d4 29 eb 3d a6 13 f0 3d c0 ee 47 3b
       -0.041008636 0.114825875 0.11722498 0.0030507296
0001e0 2e 9c cb bd 4c 03 6b bd b2 c0 99 bd 80 37 10 bb
       -0.09941898 -0.05737619 -0.07507457 -0.0022005737
0001f0 f4 03 26 3d ce 60 b1 3d ac 44 05 3d 46 8f 88 bd
       0.040531114 0.08661042 0.032536194 -0.06667952
000200 41 50 34 3d c3 09 0d be 7d 26 e0 bd f0 cc e2 bd
       0.04402185 -0.13773255 -0.10944841 -0.11074245
000210 7f e1 4d bd e9 a2 cf ba 34 51 92 3d 2c 28 48 bd
       -0.050263878 -0.0015841398 0.071443945 -0.048866436
000220 2c 11 5e bd d0 b9 1d bd 6a fa 92 bd 94 b1 c7 3d
       -0.054215595 -0.038507283 -0.07176669 0.09750667
000230 64 d1 01 3d ba ad bd 3d 90 36 42 3c 92 a1 63 3d
       0.03169383 0.09261651 0.011853829 0.055574007
000240 e5 ba 8a bb 52 0e c4 3d 1e 56 a4 3d 36 46 ec bd
       -0.0042337053 0.09573044 0.08024238 -0.11536829
000250 69 75 17 bd 48 79 7c bd 29 b9 44 bc dc e9 b4 3d
       -0.036977205 -0.0616391 -0.012007036 0.08833668
000260 3a 8d 86 bb f0 a1 08 3d b4 fc f3 bd 66 11 ab 3a
       -0.004106191 0.03335756 -0.11913434 0.001305145
000270 80 25 25 bc 2a 22 a5 bd 01 91 e3 3c 08 09 ff 3c
       -0.0100797415 -0.08063157 0.027779104 0.031132236
000280 00 30 49 3c fe ed f4 bd 1e 2d 03 be 8e f1 89 bd
       0.0122795105 -0.11959456 -0.1281018 -0.06735526
000290 81 8a a4 3c 9c eb 43 bd 92 55 8c 3d 18 a3 ba 3c
       0.020085575 -0.047832116 0.06852259 0.022782847
0002a0 f6 7f b1 3d 88 49 bf bc c5 f5 5e 3d 27 4d 01 be
       0.08666985 -0.023350492 0.054433603 -0.12627088
0002b0 27 1d 10 3d 0d 50 46 bd d9 b7 f2 bd ee b7 38 3d
       0.03518405 -0.048416186 -0.118514724 0.045097284
0002c0 c6 11 a5 3d ce 43 26 bd 48 35 c9 3d dc 5b 98 bd
       0.08060031 -0.040592007 0.09824616 -0.07439396
0002d0 80 c5 ca ba 7d 97 9a bc 7f d5 a2 bc c4 87 f2 3d
       -0.0015470237 -0.018871063 -0.019877193 0.118423015
0002e0 28 6b 00 3d 1c b2 4a bd 3e 53 f2 bd e5 5d 44 3b
       0.031352192 -0.049486265 -0.118322834 0.0029963192
0002f0 4c ae 11 3b 7a 1e a2 3d eb bc 72 3d 4a a5 40 3d
       0.0022229133 0.07915969 0.059262197 0.047032632
000300 7c bc 52 3d 74 6f 8c bd 50 a4 5c 3d 06 c1 d4 3d
       0.051449284 -0.068571955 0.053867638 0.10388379
000310 d8 44 cf 3c 88 8c d5 bd 42 9a b9 bd a0 a0 f7 3b
       0.025301382 -0.10427195 -0.090626255 0.00755699
000320 28 de 1c bd d0 f7 22 bc d0 0f de bc 50 ad 3b bd
       -0.038297802 -0.009946778 -0.02710715 -0.04581958
000330 e6 d1 98 bd fc 0b 42 bd 00 77 c3 3b 16 f9 c6 3d
       -0.0746191 -0.04737471 0.0059651136 0.09715478
000340 98 02 84 bd d0 64 b0 3d fe 1e e0 3d 5c c9 fa 3d
       -0.06445807 0.086129785 0.10943411 0.122454375
000350 00 9a fe bd ee eb df 3d 90 48 6b 3d d4 89 70 bd
       -0.12431717 0.10933672 0.057442248 -0.058725193
000360 60 86 56 3c 60 5c a5 bd 20 b5 28 3c 5c 1f e6 bd
       0.013093561 -0.0807426 0.01029709 -0.1123645
000370 80 34 20 3b 98 c1 d4 3c f4 79 32 3d 9c 46 21 3d
       0.0024445355 0.025971219 0.043573335 0.03937398
000380 f8 39 98 3c a8 da 87 bd ea 82 c2 3d aa 5f 96 bd
       0.01858233 -0.06633502 0.09497626 -0.07342465
000390 8c 9d 24 bd 58 42 42 3d ea 52 d1 3d 40 10 9c 3b
       -0.04018931 0.04742655 0.10220893 0.0047626793
0003a0 78 8a a3 3c bc 10 5f 3d b0 12 ad 3c b4 6c da bd
       0.019963488 0.05445932 0.021127075 -0.10665265
0003b0 4e ee ad 3d 5e 69 9f bd 6c bd cd bd f8 e1 f1 bc
       0.08492719 -0.07783769 -0.10045895 -0.029526696
0003c0 90 24 53 3d 48 b9 a5 bd fa 06 ec bd 74 ab 32 bd
       0.05154854 -0.0809198 -0.11524768 -0.04362054
0003d0 40 43 4a 3d e0 05 48 3c 5c b8 6b 3d 60 2c fe 3d
       0.04938054 0.012208432 0.057548866 0.124108076
0003e0 80 33 55 3d b2 c0 9e bd 1e dd 9e 3d e8 de 8c bd
       0.052051067 -0.077515975 0.077570185 -0.068784535
0003f0 7a d5 80 3d 2e 79 c1 3d f0 87 ad 3d 46 ff 9f bd
       0.062907174 0.09446941 0.08473194 -0.078123614

layers.4.bias f4 [64]
000000 05 8d 69 bc 2c c4 a4 bd d6 e7 ea 3c 4c 09 da bd
       -0.014254813 -0.08045229 0.028675001 -0.106463045
000010 76 e3 33 3e 68 69 9d bd 34 49 89 3d 33 ce 98 bd
       0.17567238 -0.0768612 0.067034155 -0.074612044
000020 6d d0 c5 bd 65 34 f3 3d 5e 9e 65 3c a4 8a 90 3d
       -0.09658895 0.11875228 0.014014808 0.070576936
000030 1b 11 0f 3d 50 59 c6 3d 33 04 18 3e bc bf e8 3c
       0.034928422 0.09685004 0.14845352 0.028411739
000040 0d f5 b7 3c 30 9f e5 3d de 6a 39 bd 6d ae 97 bc
       0.022455717 0.11212003 -0.045267932 -0.01851579
000050 7b f0 08 3e 3c 98 83 3d 5c 14 d7 3d 4b ef d4 3d
       0.13372986 0.06425521 0.1050193 0.10397204
000060 af 07 24 3d 8a 84 f2 3d e7 63 33 3d 27 0d 25 3d
       0.04004639 0.11841686 0.043796446 0.040295746
000070 fd 26 95 3d 47 74 af 3d b9 80 4b 3c bc c9 7b 3d
       0.07282827 0.085671 0.012420827 0.061471686
000080 f9 2d 33 bd 85 b4 ea bc a6 43 d8 3d b9 04 1c 3d
       -0.043745015 -0.028650532 0.10559778 0.03809044
000090 7b 9d ad bd 86 3e 8c 3d 4f 46 6f bc 18 7e 43 3e
       -0.08477303 0.06847863 -0.014604165 0.1909107
0000a0 ed 97 93 bd 52 60 b3 3d a5 fa 1d 3e ae 4d f2 bd
       -0.07206712 0.08758606 0.15427645 -0.118312225
0000b0 34 55 9f bd 69 52 d8 3d c3 bb da bd ba 84 ec bd
       -0.07779923 0.105625935 -0.10680344 -0.11548753
0000c0 e0 44 99 3d f4 a3 ba bd 26 b2 4a bd ad 2e dd bd
       0.0748384 -0.09113303 -0.0494863 -0.10799918
0000d0 84 d1 28 bd f4 cf 33 bc 01 af fe bc d1 88 7a 3d
       -0.041215435 -0.010974873 -0.031089308 0.061165635
0000e0 0d 6c 0c bd ee dd 36 3d cc 7f 36 3e 63 6a 01 3d
       -0.034282733 0.044645242 0.17822188 0.0315956
0000f0 da 81 c5 bd 3c da d0 bd 76 60 79 bd e5 8f 08 bc
       -0.09643908 -0.10197875 -0.060883008 -0.008335088

layers.6.weight f4 [1, 64]
000000 13 79 e9 bd 00 b0 15 bc b3 58 80 bd 86 a1 e6 3d
       -0.11400046 -0.0091362 -0.06266918 0.11261277
000010 02 bb 4f 3e a4 9f f1 bd 14 0b 14 3f e6 3a 25 be
       0.20286182 -0.11798027 0.57829404 -0.16135749
000020 80 54 48 bd 34 6f 3f 3e b3 d2 52 3e fd 2b d4 3a
       -0.04890871 0.18694764 0.20588188 0.0016187426
000030 a9 62 60 3c ba 40 a0 3d 4a 45 22 3e e0 62 8d bd
       0.013695397 0.078248456 0.15846744 -0.069036245
000040 5b e8 a4 3d 46 79 66 3e 86 01 03 be eb e6 c7 3d
       0.08052131 0.225072 -0.1279355 0.09760841
000050 29 bc f0 3d 7a 0b a9 bd 5f dd ed 3d b1 78 44 3e
       0.11754639 -0.08254142 0.11614489 0.19186665
000060 49 2c 14 bc 22 0b 11 3e ea 56 4f bd 96 02 96 bd
       -0.0090437615 0.14164403 -0.050619997 -0.07324712
000070 43 35 9c bd fb d5 53 bd 85 40 21 bd 4f 43 17 3e
       -0.07627346 -0.05171774 -0.03936817 0.1477177
000080 47 b7 c3 bd f3 15 f3 bc 6a 75 ce bd e0 77 3d bc
       -0.09556442 -0.029673552 -0.10080989 -0.011564225
000090 c8 1b 31 3e 18 be 30 bd 39 99 c1 be 0e 81 ea 3e
       0.17295754 -0.043150038 -0.37812212 0.45801586
0000a0 91 59 00 bb 33 fe 51 3e 01 06 09 3e c0 8c 6a 3c
       -0.0019584636 0.20507126 0.13381197 0.014315784
0000b0 b4 e6 b5 bd f5 95 e7 3e ec 45 c5 bd d0 39 6d 3c
       -0.08881894 0.45231596 -0.09632477 0.014479116
0000c0 cc c8 e5 3d 1a 87 58 bd bb 32 94 be 7e eb be bd
       0.112199396 -0.052863218 -0.28944954 -0.0932226
0000d0 20 c3 65 bd d3 22 8a 3c c6 8f 18 bb 69 7e f4 3d
       -0.05609429 0.016862309 -0.0023279055 0.11938173
0000e0 27 14 52 3e 25 34 f3 bc 84 8c d3 bd 12 24 55 bd
       0.205155 -0.02968795 -0.103295356 -0.052036352
0000f0 98 52 45 3d 5c 8b a9 bd bd 56 6e be 24 a7 c3 bd
       0.04817447 -0.08278534 -0.23275276 -0.09553364
