models/mlp/best_model_relu_mae_log_2x64.pth (torch, 20506 bytes, 5 tensors)

layers.0.weight f4 [64, 1]
0	0xbf89045f	-1.0704459
1	0xbee44360	-0.44582653
2	0x3f8dbc81	1.1073152
3	0x3f89974e	1.07493
4	0xbfb395c8	-1.4030085
5	0xbf450ce5	-0.769728
6	0xbfaee834	-1.3664613
7	0x3fbeb22f	1.4898127
8	0x3e619030	0.2202766
9	0x3f424bee	0.7589711
10	0xbf272d53	-0.65303534
11	0xbf89cb12	-1.0765097
12	0xbf22cbdc	-0.63592315
13	0x3faa5842	1.3308184
14	0xbf18b134	-0.5964539
15	0x3ce08600	0.027407646
16	0x3f170c5e	0.59003246
17	0xbe96b16e	-0.29432243
18	0x3f567ce6	0.8378433
19	0x3f89e507	1.0773019
20	0xbe01f338	-0.12690437
21	0xbf078b84	-0.5294726
22	0x3f37cf96	0.71801126
23	0xbf7d07c2	-0.9883996
24	0x3fceff95	1.6171747
25	0xbe5faa76	-0.2184237
26	0x3f81ba6c	1.0135016
27	0xbe639680	-0.2222538
28	0xbf2acf88	-0.6672292
29	0x3ea0523c	0.3131274
30	0x3eeb5ae4	0.45967782
31	0xbf40a1ee	-0.75247085
32	0x3fc477f1	1.5349103
33	0x3f518dea	0.8185717
34	0xbcd3a7aa	-0.025836784
35	0x3f2d9824	0.67810273
36	0xbf579711	-0.84214884
37	0x3f8fd2a6	1.123616
38	0x3e82cda0	0.25547504
39	0x3e89708c	0.2684368
40	0xbe8e4f74	-0.27794993
41	0xbfb749a2	-1.4319346
42	0x3f1c1da8	0.6098275
43	0x3f209c36	0.6273836
44	0x3eb9c2d8	0.36281466
45	0xbf8d6d82	-1.1049044
46	0x3f9a7259	1.2066146
47	0x3eda6700	0.42656708
48	0x3fb73c83	1.4315342
49	0xbf9773c2	-1.1832201
50	0xbdd67f50	-0.10473502
51	0xbf992fc2	-1.19677
52	0x3f62b554	0.88557935
53	0xbf449156	-0.76784265
54	0x3f332486	0.69977605
55	0xbf582a94	-0.8443997
56	0xbf9adb78	-1.2098227
57	0xbfb0b547	-1.3805321
58	0x3f5e4d7c	0.8683698
59	0xbf109046	-0.56470144
60	0x3f65699e	0.89614284
61	0xbe1da468	-0.15394747
62	0x3f74243e	0.953678
63	0x3e5d9770	0.216398

layers.0.bias f4 [64]
0	0x3c18d298	0.009327553
1	0xbea382bc	-0.3193568
2	0x3d336338	0.043795794
3	0x3f3e3853	0.74304694
4	0xbdc10b57	-0.09425991
5	0x3f40559f	0.7513065
6	0x3f057cc9	0.5214353
7	0x3f2a0968	0.664206
8	0xbf10c2be	-0.56547153
9	0xbf453640	-0.77035904
10	0xbceadcb8	-0.0286697
11	0x3c252480	0.010079503
12	0xbeaf83c4	-0.34280217
13	0x3f7785cb	0.96688527
14	0xbeadc2e8	-0.33937764
15	0xbf7cb596	-0.9871458
16	0xbdfdad00	-0.12386513
17	0x3f128eb6	0.5724901
18	0xbf6b7a84	-0.9198382
19	0x3ef69870	0.48163176
20	0xbf5bd584	-0.85872674
21	0xbf408280	-0.7519913
22	0xbf0d1e4a	-0.5512434
23	0xbf6c80ca	-0.92384017
24	0x3e54d16b	0.20783012
25	0x3f547fc7	0.8300747
26	0x3f5ebcdd	0.8700693
27	0xbf3707b6	-0.7149614
28	0xbf7920b6	-0.9731554
29	0xbf60a1b2	-0.8774673
30	0xbf3f5ee4	-0.74754167
31	0xbf693aa0	-0.9110508
32	0x3d9dd772	0.077071086
33	0xbf009998	-0.50234365
34	0x3f3d3aa8	0.7391763
35	0x3f2c83c7	0.67388576
36	0xbd5264b4	-0.05136557
37	0x3eacebc2	0.3377362
38	0xbd704500	-0.058659554
39	0xbf28c188	-0.65920305
40	0xbe233200	-0.15937042
41	0x3f606df3	0.8766777
42	0xbe27aea0	-0.16375208
43	0xbf503f84	-0.8134692
44	0xbed95c80	-0.42453384
45	0x3c22ada3	0.0099290935
46	0x3d49021e	0.049074285
47	0xbe8bb1fc	-0.2728423
48	0x3f0df1b3	0.5544693
49	0x3f226e48	0.63449526
50	0xbee826cc	-0.453421
51	0x3dadc081	0.08483983
52	0xbe9f0374	-0.31057322
53	0xbf1735d0	-0.59066486
54	0xbef259ec	-0.4733423
55	0xbf37a800	-0.7174072
56	0x3c27fb01	0.010252715
57	0x3c42aac9	0.011881539
58	0x3f5e9fb2	0.86962426
59	0x3eafebcb	0.34359583
60	0x3e3d05f9	0.1845931
61	0xbe3e4168	-0.18579638
62	0x3e574d19	0.21025504
63	0xbf3f51c8	-0.74734163

layers.2.weight f4 [64, 64]
0	0xbd92e6d2	-0.07172932
1	0x3d9138ea	0.070909336
2	0xbd8e7d2a	-0.06957467
3	0xbde3b044	-0.111176044
4	0x3d2bc8b0	0.041939437
5	0xbd8fba8e	-0.07018004
6	0x3d47f67c	0.04881905
7	0xbad02f80	-0.0015883297
8	0xbdb7410c	-0.089479536
9	0xbdabb520	-0.08384156
10	0x3c46b480	0.0121279955
11	0xbddede42	-0.10882236
12	0x3dc7a67c	0.09748551
13	0x3d8cf64e	0.068829164
14	0xbcace170	-0.02110359
15	0x3da823f4	0.082099825
16	0x3cc22ff0	0.023704499
17	0x3d0d3d74	0.034482434
18	0x3d80d12a	0.06289895
19	0xbdc766fa	-0.09736438
20	0x3caa7c68	0.020811275
21	0xbb046c80	-0.0020206273
22	0xbdb39262	-0.08768155
23	0xbd785e4c	-0.060636804
24	0x3da93352	0.08261742
25	0x3b410f00	0.0029458404
26	0xbde36694	-0.111035496
27	0xbd6fb884	-0.058525577
28	0xbd594244	-0.05304171
29	0xbdfced7a	-0.123499826
30	0x3d0fb12c	0.035081074
31	0x3d0d5740	0.034507036
32	0x3c695ee0	0.014243811
33	0x3decb8fa	0.11558719
34	0xbde3c52a	-0.111215904
35	0xbc85b628	-0.01632221
36	0xbcd8ec18	-0.026479766
37	0x3ca86680	0.020556688
38	0x3dcc2a1e	0.09968971
39	0xbde6979a	-0.112593845
40	0xbda428b0	-0.08015573
41	0x3d60bf28	0.0548698
42	0x3d5b8278	0.05359122
43	0xbd19186c	-0.037376806
44	0xbdb9ffea	-0.09082015
45	0x3dbd431a	0.09241314
46	0x3da4d362	0.080481306
47	0x3d8765f8	0.06611246
48	0xbc684080	-0.014175534
49	0xbceec4a8	-0.029146507
50	0x3ddc0540	0.10743189
51	0x3cf1ad38	0.029501542
52	0xbdb41e48	-0.08794838
53	0x3d1d0068	0.038330466
54	0xbd934f76	-0.0719289
55	0x3de8e4bc	0.113717526
56	0x3cd300f8	0.025757298
57	0x3dd936f6	0.10606186
58	0xbde78818	-0.11305255
59	0xbd971b3a	-0.0737824
60	0x3cceec80	0.025259256
61	0x3d852bc0	0.06502485
62	0x3cfc5698	0.03080301
63	0xbde55794	-0.11198345
64	0x3d7f0819	0.062263582
65	0x3d38ab18	0.045085043
66	0x3dfbb69a	0.12290688
67	0x3dc2042b	0.09473451
68	0x3d081b24	0.03322901
69	0xbc940f40	-0.018073678
70	0x3b6816b3	0.003541392
71	0xbd29646d	-0.04135554
72	0xbd4fa36c	-0.05069296
73	0x3d89e8de	0.06733869
74	0x3d0953ad	0.033527065
75	0x3db3fbcc	0.08788261
76	0xbdb7ac7a	-0.08968444
77	0xbe0f9900	-0.14023209
78	0x3db65b72	0.089041606
79	0xbb9ba6a0	-0.004750088
80	0x3d28bf34	0.04119797
81	0xbd402a20	-0.046915174
82	0x3d055034	0.03254719
83	0xbce19ffe	-0.02754211
84	0x3d912a46	0.07088141
85	0x3d2eadb8	0.04264614
86	0xbdd42b26	-0.103597924
87	0xbc37fb80	-0.011229396
88	0xbcf964b8	-0.030443534
89	0xbd28b30c	-0.041186377
90	0xbd421e14	-0.047391966
91	0xbdc72f16	-0.09725778
92	0xbd7e730c	-0.062121436
93	0xbd8e0776	-0.06935017
94	0x3db324c0	0.08747244
95	0x3dc5da5e	0.09660791
96	0x3df238e6	0.11827259
97	0xbde07338	-0.10959476
98	0xbdcfa11b	-0.1013815
99	0x3d45826a	0.048220076
100	0x3cad1d17	0.021132035
101	0x3daccb1c	0.084371775
102	0xbda6d766	-0.08146553
103	0x3cd5e980	0.026112318
104	0x3ce80550	0.028322846
105	0xbbaad8a1	-0.0052138125
106	0x3c0ba9e0	0.008524388
107	0x3c96ecb0	0.018423408
108	0x3d2a9690	0.041647494
109	0x3d3388c6	0.04383161
110	0xbd522a80	-0.051310062
111	0x3cb35688	0.021891847
112	0xbe01f4f8	-0.12691104
113	0xbd9ff9ab	-0.07811292
114	0x3da78d6e	0.081812724
115	0x3dbba856	0.09162967
116	0xbc85d808	-0.016338363
117	0x3dabf6bc	0.0839667
118	0x3cfd8880	0.030948877
119	0x3dce6682	0.100781456
120	0x3d015489	0.03157476
121	0xbcc49a91	-0.023999484
122	0xbe0669ff	-0.13126372
123	0x3d6e61a7	0.058198597
124	0x3ded8664	0.115978986
125	0x3db43978	0.08800024
126	0x3d4af3a8	0.049548775
127	0xbd3bf958	-0.04589209
128	0xbe42745a	-0.18989697
129	0xbdbde4e6	-0.092721745
130	0x3f382e3c	0.7194555
131	0x3e0b13b3	0.13581733
132	0x3ed9bb93	0.4252592
133	0x3dc7166e	0.09721075
134	0xbda6a9a2	-0.08137824
135	0x3e29aeed	0.16570635
136	0x3c9fee90	0.019522935
137	0xbde7b9ce	-0.11314736
138	0x3f066c4a	0.52508986
139	0xbe6f618f	-0.2337706
140	0xbda2b356	-0.07944362
141	0x3db51cee	0.088434085
142	0xba56ca00	-0.00081935525
143	0xbd1e6e0c	-0.038679168
144	0xbd8e8874	-0.0695962
145	0x3dda4f4f	0.10659658
146	0xbdbeb506	-0.09311871
147	0x3e06240b	0.13099687
148	0xbdb6a560	-0.089182615
149	0xbd3885cc	-0.045049474
150	0xbda89288	-0.082310736
151	0x3d48d4ec	0.049031183
152	0x3df35a16	0.11882417
153	0xbcc49771	-0.023997994
154	0x3e0af651	0.13570525
155	0xbde55440	-0.1119771
156	0xbda271fc	-0.07931897
157	0xbda830a4	-0.082124025
158	0xbd7b5070	-0.061356008
159	0xbd021794	-0.031760767
160	0x3f2b65ec	0.66952395
161	0xbc480cc0	-0.012210071
162	0x3ddd4ba7	0.10805445
163	0x3d010049	0.031494413
164	0x3ef4e6dc	0.47832382
165	0x3cf1680a	0.029468555
166	0xbd7e32a4	-0.062060013
167	0x3d923236	0.07138483
168	0x3d31d810	0.043418944
169	0x3d3fbf63	0.04681338
170	0x3dcdf152	0.10055794
171	0x3dc49c94	0.096001774
172	0x3d800c08	0.06252295
173	0xbe8915be	-0.267744
174	0x3f0b1a5e	0.5433711
175	0xbd29ddf4	-0.041471437
176	0x3d21b4a8	0.039478928
177	0xbcc0ef35	-0.023551563
178	0x3da11804	0.07865909
179	0xbe3a9ef5	-0.182247
180	0x3d681d1c	0.056668386
181	0x3d4959b4	0.049157813
182	0xbd94963e	-0.07255219
183	0x3d407740	0.046988726
184	0xbe268259	-0.16260661
185	0xbe150129	-0.14551224
186	0x3dd71af4	0.10503188
187	0xbd15847b	-0.036503296
188	0x3dfc758f	0.1232711
189	0xbda1352a	-0.07871468
190	0x3d0c636d	0.034274507
191	0x3c904da8	0.017615154
192	0xbd1ff768	-0.039054304
193	0x3d037d5c	0.032101974
194	0x3ba7a620	0.005116239
195	0xbd2ec270	-0.0426659
196	0xbdb1251e	-0.08649658
197	0x3d551d14	0.052029684
198	0xbcf07050	-0.02935043
199	0x3cd37f00	0.025817394
200	0x3dedd31c	0.116125315
201	0xbdaefda0	-0.08544469
202	0x3d94e538	0.072702825
203	0xbdbc9a3e	-0.09209107
204	0xbd358258	-0.04431376
205	0xbd87ef0a	-0.0663739
206	0x3dd7f5e4	0.10544947
207	0x3d0511e4	0.032487765
208	0x3dbb792a	0.091539696
209	0xbdb075c0	-0.08616209
210	0x3daa46f8	0.083143175
211	0xbd016ce4	-0.031597987
212	0xbd2af338	-0.041735858
213	0xbd7bc154	-0.06146367
214	0xbd5558f4	-0.052086785
215	0xbdef6992	-0.11690058
216	0xbd1b92f8	-0.037981957
217	0xbb038880	-0.0020070374
218	0x3c6879b0	0.014189169
219	0xbbc00160	-0.005859539
220	0x3ded5a34	0.115894705
221	0x3d220b38	0.03956148
222	0x3ddfb4bc	0.10923144
223	0xbdf80d78	-0.12111944
224	0xbdfbb564	-0.12290457
225	0x3dc3e666	0.095654294
226	0x3c0d3330	0.008618161
227	0x3cbf6428	0.023363188
228	0xbdbb1596	-0.091349766
229	0x3d2ed60c	0.0426846
230	0xbd561c24	-0.05227293
231	0xbc83afd8	-0.01607506
232	0xbded0bc4	-0.1157451
233	0xbd9ac65e	-0.07557367
234	0xbd43b958	-0.04778418
235	0x3deee8d8	0.11665505
236	0x3d83f294	0.064427525
237	0xbc9cf100	-0.019157887
238	0xbd5b4e98	-0.05354175
239	0x3ded351a	0.11582394
240	0xbdd8591e	-0.10563873
241	0x3cdbf1a0	0.026848614
242	0x3d0d38cc	0.034477994
243	0xbd4fe990	-0.050759852
244	0x3c91d748	0.01780285
245	0x3c72b6c0	0.014814079
246	0xb8f53000	-0.00011691451
247	0xbdc90e10	-0.09817135
248	0xbd5f4574	-0.054509595
249	0x3dec993c	0.11552665
250	0x3cc7ec08	0.02440454
251	0xb8eeb000	-0.00011381507
252	0xbde49d84	-0.11162856
253	0x3d05aebc	0.032637343
254	0xbdbb9848	-0.09159905
255	0xbd73fb8c	-0.059566066

layers.2.bias f4 [64]
0	0xbdc6a424	-0.09699276
1	0xbd185611	-0.037191454
2	0x3dbdf773	0.09275713
3	0x3dca83cc	0.098884195
4	0xbd8f262a	-0.06989701
5	0xbc2afc71	-0.010436163
6	0x3b0ef9b4	0.0021816315
7	0xbc9f44d0	-0.019441992
8	0x3d127bb5	0.035762507
9	0x3d377532	0.0447895
10	0x3bc08e30	0.005876325
11	0x3cf5810e	0.029968765
12	0x3c2f72b0	0.010708496
13	0x3db0a8f2	0.08625974
14	0xbbadb8e5	-0.005301582
15	0xbd6ca0ba	-0.05777047
16	0xbd94c3a1	-0.07263876
17	0xbd131b1c	-0.035914525
18	0x3de4d966	0.11174278
19	0x3d8fff46	0.070311114
20	0xbd2397cf	-0.039939698
21	0xbd3133c1	-0.043262247
22	0xbde6a2ea	-0.11261542
23	0x3df687fe	0.12037657
24	0x3d528675	0.05139776
25	0xbdcac558	-0.099009216
26	0xbd9efab8	-0.077626646
27	0x3d9c26c9	0.07624585
28	0x3d80e792	0.062941685
29	0x3c266359	0.010155522
30	0x3ca47cf0	0.020079106
31	0xbda0c29c	-0.07849619
32	0x3dbba3d4	0.09162107
33	0x3caa0e0d	0.020758653
34	0x3ddce184	0.10785201
35	0x3ad74756	0.0016424458
36	0x3d35631c	0.04428397
37	0xbda8a072	-0.082337275
38	0x3de5cb66	0.11220436
39	0x3d931164	0.071810514
40	0xbd6ba5f4	-0.057531312
41	0x3c043843	0.008070054
42	0xbcae2c4a	-0.021261353
43	0xbdd8d5fd	-0.1058769
44	0xbccfffbf	-0.025390504
45	0xbdc3aa6e	-0.09553991
46	0xbc3a2614	-0.011361618
47	0x3dc2d772	0.09513749
48	0xbd93920c	-0.072055906
49	0xbd441638	-0.047872752
50	0xb9901bf8	-0.0002748666
51	0x3c2ed350	0.010670498
52	0x3db4b3da	0.088233665
53	0x3d4c36c0	0.0498569
54	0x3d2baddd	0.041913856
55	0xbd2b6b79	-0.04185054
56	0xbdae7d36	-0.08519976
57	0xbde57eea	-0.112058476
58	0xbb5a2c00	-0.0033290386
59	0xbdf5f9bb	-0.12010523
60	0xbd684645	-0.05670764
61	0xbc7b45f7	-0.015336505
62	0x3d1d738c	0.038440272
63	0xbda3e4de	-0.08002637

layers.4.weight f4 [1, 64]
0	0x3d0ebd08	0.034848243
1	0x3a892daf	0.0010465885
2	0x3dfee1be	0.12445401
3	0x3dda6b7e	0.10665034
4	0xbd7ad094	-0.06123407
5	0x3e71abc8	0.23600686
6	0x3f2346ad	0.6377972
7	0xbc0d4730	-0.008622929
8	0xbea9cd51	-0.33164456
9	0x3e4c44de	0.19948146
10	0x3ee178b3	0.440374
11	0xbec4c2a1	-0.3842974
12	0x3c675ea0	0.014121681
13	0xbe9417e9	-0.28924492
14	0xbe1665b4	-0.14687234
15	0x3c026197	0.007957838
16	0xbe9aea99	-0.3025711
17	0xbed4e786	-0.41582888
18	0x3e35eaa8	0.17765296
19	0x3f226b32	0.6344482
20	0xbe91cb88	-0.28475595
21	0x3d481564	0.048848525
22	0x3daf1ba2	0.085501924
23	0xbe774c71	-0.24150254
24	0xbd1d26b2	-0.03836698
25	0xbd859952	-0.06523384
26	0xbdc68b36	-0.09694521
27	0xbe95fbf4	-0.29293787
28	0x3f231c90	0.6371546
29	0xbd625eb5	-0.0552661
30	0x3dabb5dc	0.08384296
31	0x3f0a809a	0.5410248
32	0x3dc70ea6	0.09719591
33	0x3db4aef9	0.08822436
34	0x3e4f9899	0.20273055
35	0x3cfb302e	0.030662622
36	0x3d1697e8	0.036765963
37	0xbdeef302	-0.11667444
38	0xbe856ae7	-0.26058123
39	0x3d7de234	0.061983302
40	0x3d940674	0.07227793
41	0xbea0168f	-0.3126721
42	0xbe9f1540	-0.310709
43	0xbd8d42ae	-0.06897484
44	0xbe714b66	-0.23563918
45	0xbdee7d3c	-0.1164498
46	0x3e96e3a1	0.29470542
47	0x3e35fa90	0.17771363
48	0xbdf5fe8e	-0.12011443
49	0x3de870fa	0.113496736
50	0xbe6b2183	-0.22962002
51	0x3bfb2900	0.0076647997
52	0xbe36e71e	-0.17861602
53	0xbd807e40	-0.0627408
54	0xbe4ddc32	-0.20103529
55	0x3f1f0adb	0.6212594
56	0x3f385551	0.7200518
57	0xbdaa29e0	-0.08308768
58	0xbdd33738	-0.103132665
59	0x3f0f28ca	0.55921614
60	0x3e4279f8	0.1899184
61	0x3f28dd00	0.6596222
62	0x3f1a591a	0.6029221
63	0x3de9ccaa	0.1141599
