models/v4/experiment_1_best_model.pth (torch, 192796 bytes, 25 tensors)

0.weight f4 [256, 1]
00000000: 6d89 d6be fafe b0be 88f5 f9bd 9dbb 133e
00000010: ecc6 023f f3a1 483d 48fb fcbe b30a 573f
00000020: a224 16bf ad5b 1f3f 7ffd 76bf d556 47bf
00000030: e444 0fbf 58ea 1abf eaa8 5f3e ca32 913e
00000040: 8b05 dcbe da3d 59bf 90fc 263d 60c3 35be
00000050: dc10 033f 5b8b 91be 3bcf 003f a37c 36be
00000060: 5702 283f af94 63bf e8a5 6bbf 2473 093c
00000070: 5cb7 c0be 59ea f53e debe 1bbf 8439 fb3e
00000080: d9b7 ed3d ba8a 853e 0170 cf3e f31a 583e
00000090: 3eec 753f 2b53 e83d e138 5bbe ff8e 673f
000000a0: 1212 053e 9be2 22be 16d9 9f3e 6d6c dfbe
000000b0: c237 40be bd9f c13d dd82 263f 7524 26bf
000000c0: f361 933e 2310 7d3f e742 82bd 0ebe c53d
000000d0: 068d 753f 4717 773f b179 01be a62c bdbd
000000e0: d0a3 b83e 82b3 0b3f 250e 4abf 48b8 99bd
000000f0: f744 7cbf d87f 823e 2ddd cbbe 8ee8 543e
00000100: 8929 75bf b20c 2f3e aa05 22bf fe73 023e
00000110: 37db dabe 5d99 183f a76e 913e d8c9 10bc
00000120: 7e98 f7be a890 963d ede9 76be 4405 df3e
00000130: b4ae 103e 270f 35bf 1a22 9fbe 7916 40bf
00000140: 926b d8bd 5633 07be a746 3b3f c046 593f
00000150: 0486 b7be c2c5 1e3f 170e 543f 1e0f 4e3f
00000160: 5dde 15bf ff9b 12bf c7be 103f be2b 60bf
00000170: 04dd bdbe 1af1 743e f8b6 cdbe d5db 73be
00000180: 244a 883c 2bcd 86be a992 243f 6d32 203f
00000190: 54c7 e13e 0d8e f5be 624a 46bf 691e 19be
000001a0: a215 6abe c2dc 19be 9c46 363d 4a7d 5d3f
000001b0: 5b68 ae3e c908 06bf e32d 333f 3937 693f
000001c0: 457b 003d 76eb a13e 7b23 01bf 729c 6a3e
000001d0: 82b7 383f 30cf 723f 891f 53bf 433f 073e
000001e0: ba26 82be da41 4d3f 6381 debe 018b 09bf
000001f0: b278 b53e 1a7d 793f 95e9 cdbe 9dc4 06bf
00000200: 73d9 443e 329b 12be e19f 1dbe 3776 cc3e
00000210: 7430 6e3f eb56 343d e746 6dbf 52fb c2be
00000220: 7700 09bf b00a 66bf e6d1 5f3f f23b aebe
00000230: 2194 243f e708 38bf 3ff2 3e3f 3317 1ebd
00000240: 1378 023e d7e1 143f 6e20 473c 26f7 213f
00000250: f9ce 26bd bd30 953e cf37 283d 3b3b 99bd
00000260: 28c4 e73e 1883 2a3f 650a 2fbf bc4b b43d
00000270: 4b5d 263f a6c1 9ebe 67e4 f8be 6faf eabe
00000280: 017f 7abf 7eef 673f f3a0 d6be 330c 443e
00000290: 614e adbe ee00 c9bc 8cba 5d3f b497 59bf
000002a0: f891 4e3f 189d 70bf da61 4b3f 8b80 133f
000002b0: 48eb b93d 78b5 4dbf 2e57 093f a665 e83e
000002c0: b453 6e3e 9610 153f e8bc 0cbf d6a7 e7be
000002d0: af29 02bf d670 cc3e c641 05bf 02d9 0b3f
000002e0: 1da9 383f 5d10 45be 7ca1 073f a627 17bf
000002f0: e21a cd3d c537 013f b411 1abb 553e 0dbf
00000300: 7df7 d7be 6127 523e 2ea8 623f e81b 1e3f
00000310: 0d97 65be 3e62 503f 6aa5 613f f9d7 4f3e
00000320: b75a 37bf 7a4c 5cbf 62f7 25be 75bf 4c3f
00000330: d58d 24bf 9177 b73e 475c 1ebf 487b 14bf
00000340: f696 1fbf 5819 6fbf 971b cb3e 85ad 1abf
00000350: 608e 783e 1ab9 a6be 1178 90be eec5 cb3e
00000360: faf4 883e 4859 dd3e 4cb6 3e3f ec89 743f
00000370: 58ef 6ebf 611f 5bbf 8ebf f9be 3ee0 13bf
00000380: 22a1 c33e 192c 91bd 10e9 0d3f 78c8 cfbe
00000390: 53b5 6ebf 4fb1 babe 5d88 2cbf 6630 0c3f
000003a0: 9e38 683f 8c09 3bbf 6bea 803e 7b5d 43bf
000003b0: a22c 983e 3b34 123d 88c3 5a3e d143 c83e
000003c0: 249b 6bbf 912c 8bbe 609d 32bf ec1d 8fbe
000003d0: 2461 e03e 7ecd 4cbe 9ec8 393e 26df c6be
000003e0: 855c e13e a298 313f e245 7a3d a144 403c
000003f0: 9dad 75bf b038 3dbf c30f 30bf 75f5 3e3d
-0.41901723 -0.34569532 -0.122050345 0.14427038 0.5108478 0.04898257 -0.49410462 0.840007
-0.5864965 0.6224926 -0.96480554 -0.7786687 -0.55964494 -0.6051383 0.2184178 0.2835906
-0.4297298 -0.84860003 0.040768206 -0.17750311 0.511976 -0.28426632 0.5031621 -0.17820983
0.6562857 -0.8889875 -0.9205003 0.008389268 -0.37639892 0.48030356 -0.60838115 0.49067318
0.11607332 0.26082402 0.4051514 0.2110403 0.960636 0.11343988 -0.21408416 0.9045257
0.12995175 -0.15906756 0.3122031 -0.4363741 -0.1877127 0.09454296 0.6504343 -0.6489938
0.28785667 0.9885275 -0.06360417 0.09655391 0.9591831 0.96519893 -0.12644078 -0.09237032
0.3606248 0.5457078 -0.7892783 -0.07505852 -0.9854273 0.25488162 -0.3981718 0.20791838
-0.957665 0.17094687 -0.6328989 0.1273956 -0.42745373 0.59609014 0.28404734 -0.008837186
-0.4835853 0.0735181 -0.24112673 0.43558705 0.14129144 -0.70726246 -0.31080705 -0.7503429
-0.105673924 -0.13203177 0.7315468 0.8487358 -0.35844433 0.62020504 0.82834 0.80491817
-0.58542424 -0.5726928 0.56541103 -0.87566745 -0.37082684 0.23920098 -0.40178657 -0.23814328
0.016636916 -0.26328406 0.64286286 0.62576944 0.44097388 -0.4795994 -0.7745725 -0.14953007
-0.22859815 -0.15025619 0.044500932 0.865193 0.34063992 -0.52357155 0.6999189 0.9109989
0.03136756 0.31624955 -0.50444764 0.22911242 0.7215501 0.94847393 -0.82469994 0.13207726
-0.2542017 0.80178607 -0.4345809 -0.5372773 0.35443646 0.97456515 -0.4021727 -0.5264376
0.19223575 -0.14317015 -0.1539302 0.3993394 0.93042684 0.044028204 -0.92686313 -0.38082367
-0.53516334 -0.8986006 0.87429655 -0.3403011 0.64288527 -0.71888584 0.7458839 -0.038596343
0.12741117 0.58157104 0.012153728 0.63267744 -0.04072473 0.29138747 0.04106885 -0.074820004
0.45266843 0.66606283 -0.68375236 0.08803508 0.64986104 -0.31007117 -0.48611757 -0.4583697
-0.9785004 0.9059981 -0.4191967 0.19145279 -0.3384886 -0.024536576 0.8661277 -0.84997106
0.8069148 -0.93989706 0.79446185 0.57618016 0.090780795 -0.80355024 0.5364865 0.45390052
0.23274118 0.58228433 -0.5497575 -0.45245236 -0.50844854 0.39929837 -0.5205349 0.54628
0.72133046 -0.19244523 0.5298078 -0.59044874 0.10014893 0.5047572 -0.0023509087 -0.55173236
-0.42181006 0.20522834 0.8853787 0.6176133 -0.22420903 0.81399906 0.88143027 0.20297231
-0.71622795 -0.86054194 -0.1620765 0.7997964 -0.6427892 0.3583341 -0.61859554 -0.5800061
-0.62339723 -0.93398046 0.39669487 -0.6042102 0.24273062 -0.32563096 -0.28216603 0.39799446
0.26749402 0.4323218 0.7449691 0.9552295 -0.9333396 -0.85594755 -0.48778957 -0.5776404
0.38208872 -0.07088489 0.5543375 -0.40582633 -0.9324543 -0.364634 -0.67395574 0.5476135
0.9071139 -0.7306144 0.25178847 -0.76314515 0.29721552 0.035694342 0.21363652 0.3911424
-0.920336 -0.2718244 -0.69771385 -0.27952516 0.43824112 -0.20000264 0.18142936 -0.38842124
0.440159 0.69373524 0.0611018 0.011735112 -0.9596804 -0.73914623 -0.6877405 0.046620805

0.bias f4 [256]
00000000: 2b72 713f 23d4 5c3f 9641 51bf a2cc babd
00000010: 51bc 57bf d7f3 9cbe 77df 67be f7ce e83e
00000020: e7f5 12bf 58dd 05bf 3264 4f3f f834 acbd
00000030: bc23 a6be fae4 373f 807d 45be 9aaf f23e
00000040: 6517 fcbe 7614 5b3f ebb3 b33d d184 69bf
00000050: a4f1 aabe 80df 03bf a23a dfbe d0e5 cabe
00000060: 8588 dcbd 65c2 fdbd 46dc 633f 46de b23e
00000070: bb92 6b3f 5bf8 25bf caed afbe c96e d1be
00000080: 2a2f db3e b01e b9bd 1c1e 1ebf cde9 013e
00000090: 6f56 263e f0a9 34be 37fc 63bf 7a9e fdbe
000000a0: 70ff 16be 9c75 1e3f 5b9d 5a3f 8716 cdbd
000000b0: 8f0c f5bc fbac c83e a0f1 2a3f 37b3 4fbf
000000c0: 1dfd 5dbf c691 5b3f 8d45 50bf 6fca 4d3f
000000d0: c5f9 13be cb8b 3dbf 049b 55be a109 d6be
000000e0: c748 00be bc30 02bf f1cd 7b3d 10f4 263f
000000f0: 2353 553f 5e7b 8a3e e112 97be 6309 ca3e
00000100: 770b 223f 6749 bc3e 61b6 583f 7adb cdbe
00000110: b32f 38bf e0e0 963e 2635 22bf 2d56 1a3f
00000120: 2ec1 dd3e b533 3cbd da4c 27bf 123a 5a3f
00000130: f6c9 613f 279e 16bf 2275 043d 645f 5ebf
00000140: d027 7b3f 0163 23bf 232d 87be b6ea dfbe
00000150: 4420 7ebf 8e9b 1a3f 0245 4cbf c99d 723f
00000160: 6386 32be 280a 64bf 9c73 90bc 7a91 bf3e
00000170: 9807 053f fa89 003f 5a32 d8be 5b10 f2be
00000180: 9f87 a5be 76ca 59be 0110 aabe 39b8 89bd
00000190: 6528 543f e049 0dbf 18a3 463f d5a2 eebc
000001a0: f8cb 033e 6629 563f 01b4 443e b340 e2be
000001b0: 3185 26bf e8e8 4c3f 6145 2bbf c2b1 5abe
000001c0: c14b 5a3e 4df3 f13e 0ff6 9f3e 25c3 5dbf
000001d0: 4ad8 3cbe a156 6a3f 053c 22be 4a9f 623e
000001e0: 4d67 d33e b35d 9c3e 51a3 5c3e 90d7 b43d
000001f0: a77b 493e aacb d4be 2c1b eebe 3bf4 493f
00000200: c492 363f f343 833e 0d57 383f 47ba 743f
00000210: f977 ed3e 3b9a debe 294f c2bd c2b4 783f
00000220: 16a2 cdbd bb80 38bf 7e8e ddbd ff8b 383e
00000230: 8e33 463e 8853 41bf 9907 47bf a785 62bf
00000240: 761a 0b3f cb3f e0bb f58b 01bf 9931 513e
00000250: 9eec c93d 72b6 49bf 4a15 323f 6efd 083f
00000260: f4a8 6b3f 38c7 023f f515 d3bd acc9 0d3e
00000270: 3463 5dbf 52c1 2e3f 75b5 583e aaa1 2c3f
00000280: cfd2 7a3f 9d4e 53be ecc6 76bd a51c 15bf
00000290: 60f1 5ebe eeee 083f 8da0 10bc 88f2 63bf
000002a0: c279 7f3f abb8 623f d342 683d ddb2 d4be
000002b0: d716 2f3f 4049 05bf b48c 1b3f b1cf 9e3d
000002c0: 130d a93e ed09 07bf 107c 4abf 875b e23d
000002d0: 23b0 babd 7f69 48bf 2db6 4abe 6021 823e
000002e0: c10a f7be 6b2b 03bf e5f5 0bbf 27ed a8be
000002f0: 37f0 d3bd a456 45bf ecd9 0e3e 6e90 593f
00000300: db20 233f 64be 51be 2bc4 263f 2081 1a3f
00000310: 2818 553f 1cc0 373c f1a9 d2be d647 51bf
00000320: 2719 02be 3490 dbbd cbc3 4fbf 5eba 63be
00000330: 8805 58be dd3f 2fbf 8cf4 223e 469a cbbe
00000340: deae c4be a6a2 96be 3a4f 4c3f 0111 913e
00000350: 975a e8be 6b18 e43e 29d7 5dbf 0a63 6c3f
00000360: 88cc f83e 5df9 40bf d59a b5be 93d0 7dbe
00000370: 1668 7ebf 868b a73e 16a8 4f3f 23b6 d6be
00000380: 00e8 56bf c573 28bf baa6 333e 6450 543f
00000390: 42a7 ef3e 9132 ffbb 4563 1fbe e188 9cbe
000003a0: d86b 293f 3e2f dbbe 0cfa 2bbf f263 67bf
000003b0: f9dc b4be de26 dd3e 3a5c 023e 9b99 4abf
000003c0: 3000 883e 6cf0 623f 902d d5be 3cf9 28be
000003d0: bb91 66bd 5ae3 62bf a7c1 393f 8dcc 423e
000003e0: dc45 32bf cfc1 a93c 858b 3ebf c82d d63e
000003f0: a618 263e 8874 08bf 3aa6 0d3f 4591 b43d
0.9431483 0.86261195 -0.817407 -0.09121062 -0.84271723 -0.30654785 -0.22643839 0.45470402
-0.5740647 -0.5229087 0.8101226 -0.084085405 -0.32449138 0.71833766 -0.19286156 0.47399598
-0.492366 0.85578096 0.08774551 -0.91218287 -0.33387482 -0.5151291 -0.4359942 -0.39628458
-0.107682265 -0.123905934 0.89007986 0.34935206 0.9202077 -0.64832085 -0.34361106 -0.40904835
0.4280942 -0.09039056 -0.61764693 0.12686844 0.1624391 -0.17642951 -0.89056724 -0.4953497
-0.14745879 0.6189821 0.85396355 -0.100140624 -0.029913215 0.39194474 0.6677494 -0.81132835
-0.86714345 0.8576931 -0.81356126 0.80387014 -0.14450748 -0.7404143 -0.20859915 -0.4180422
-0.12527762 -0.5085561 0.061475698 0.6521616 0.8332998 0.27047247 -0.2950659 0.39460286
0.63298744 0.36774752 0.8465329 -0.4020651 -0.71947783 0.2946844 -0.6336235 0.60287744
0.43311447 -0.04594775 -0.6535164 0.8524486 0.8819879 -0.5883507 0.03233827 -0.86864305
0.98107624 -0.6382294 -0.26401624 -0.43733758 -0.99267983 0.6039361 -0.797928 0.9477201
-0.17434077 -0.89078 -0.017633252 0.37415677 0.5196471 0.50210536 -0.42225915 -0.47278103
-0.32330033 -0.21268639 -0.33215335 -0.06724591 0.8287414 -0.5519085 0.7759261 -0.029130379
0.12870777 0.8365692 0.19209291 -0.44189987 -0.65046984 0.80042887 -0.6690274 -0.21356872
0.2131796 0.47255936 0.31242415 -0.8662589 -0.18441883 0.91538435 -0.15843208 0.22131076
0.4128975 0.30540237 0.21546675 0.08830178 0.19676076 -0.41561633 -0.46505105 0.7888829
0.71317697 0.2563778 0.7200783 0.95596737 0.46380594 -0.43477044 -0.09487755 0.97150815
-0.10040681 -0.7207143 -0.10818194 0.18022154 0.19355604 -0.75518084 -0.7774597 -0.8848519
0.5433725 -0.006843542 -0.5060418 0.20429076 0.09859584 -0.78794014 0.69563735 0.53511703
0.92054677 0.51085234 -0.10306922 0.13846463 -0.86479497 0.68263733 0.2116297 0.6743418
0.9797792 -0.20635457 -0.0602483 -0.58246833 -0.21771765 0.5348958 -0.008827341 -0.8904195
0.9979516 0.8856303 0.056704354 -0.41542712 0.68394226 -0.52064896 0.6076157 0.07754458
0.33017787 -0.5274952 -0.79095554 0.11052614 -0.09115627 -0.78285974 -0.19796057 0.25416088
-0.48250392 -0.51238126 -0.5467208 -0.32993433 -0.10348552 -0.7708533 0.13950318 0.8498601
0.6372201 -0.20482785 0.6514308 0.6035328 0.83239985 0.011215236 -0.4114528 -0.8175024
-0.12704907 -0.10720864 -0.8115813 -0.22239062 -0.2109586 -0.6845682 0.159136 -0.3976614
-0.38414663 -0.29420966 0.7980839 0.28333285 -0.45381615 0.4454988 -0.86656433 0.9233862
0.48593545 -0.753805 -0.3546969 -0.24786596 -0.9937757 0.32723635 0.81115854 -0.41935834
-0.83947754 -0.6580165 0.1754407 0.82935166 0.46807295 -0.0077880104 -0.15565212 -0.3057318
0.6618018 -0.4280948 -0.67178416 -0.9038688 -0.3532484 0.43193716 0.12730494 -0.79140633
0.26562643 0.88648105 -0.41636324 -0.16501325 -0.056291323 -0.8862816 0.72561115 0.19023342
-0.69637847 0.020722298 -0.7443164 0.41831803 0.1622034 -0.5330281 0.55331767 0.088167705

1.weight f4 [256]
00000000: 99a4 7f3f 5725 803f 63bb 7f3f 5ab2 7f3f
00000010: dd14 803f 2987 7f3f 7a29 803f 7323 803f
00000020: 7b73 7f3f fffc 7f3f 67b2 7f3f 9cdd 7f3f
00000030: f609 803f 84fc 7f3f 7ae5 7f3f 2595 7f3f
00000040: 0c31 803f 6e0c 803f 4c19 803f e1d5 7f3f
00000050: bb29 803f d4dd 7f3f f295 7f3f 6a9d 7f3f
00000060: 36d3 7f3f 62fe 7f3f a908 803f ab20 803f
00000070: 46d6 7f3f 785d 7f3f 2019 803f 1d0f 803f
00000080: 931b 803f 5c7d 803f e0a8 7f3f 1e15 803f
00000090: 3625 803f 41f2 7f3f 4753 803f e119 803f
000000a0: edec 7f3f e7f6 7f3f bdeb 7f3f ba2a 803f
000000b0: af24 803f ebe6 7f3f d408 803f a219 803f
000000c0: ce66 7f3f 0626 803f 86ad 7f3f ea36 803f
000000d0: ea04 803f 82e8 7f3f 33fe 7f3f 2360 7f3f
000000e0: ea00 803f 21ed 7f3f e5dc 7f3f ccfd 7f3f
000000f0: 33d3 7f3f 491f 803f d604 803f 0b30 7f3f
00000100: 34ce 7f3f f000 803f 4f2f 803f 94a5 7f3f
00000110: bf0a 803f c421 803f fcdd 7f3f 5bc0 7f3f
00000120: de13 803f 48af 7f3f 19fb 7f3f 24b5 7f3f
00000130: 68e4 7f3f b9ab 7f3f c313 803f 60fb 7f3f
00000140: 71da 7f3f f029 803f 541e 803f 53d6 7f3f
00000150: 4ff7 7f3f 7bb7 7f3f 385d 803f 3a2b 803f
00000160: 7d8c 7f3f d745 803f 80f0 7f3f cacc 7f3f
00000170: 54bf 7f3f 7dda 7f3f 4d1f 803f 4696 7f3f
00000180: 5dd3 7f3f e6e8 7f3f 9b08 803f a32b 803f
00000190: c7c7 7f3f 0ffb 7f3f d320 803f c32e 803f
000001a0: 53c3 7f3f cded 7f3f 1d21 803f 2893 7f3f
000001b0: a757 7f3f e1a7 7f3f d6bf 7f3f 3492 7f3f
000001c0: c222 803f 861c 803f 924d 803f b6c3 7f3f
000001d0: 788a 7f3f 86c9 7f3f 95cb 7f3f b718 803f
000001e0: d1c9 7f3f bf0b 803f 0e12 803f 261c 803f
000001f0: 30d9 7f3f a128 803f 6401 803f 34d1 7f3f
00000200: dd9d 7f3f 10ed 7f3f 40e9 7f3f b9ef 7f3f
00000210: cd83 7f3f b0e1 7f3f efb9 7f3f cd05 803f
00000220: 24e7 7f3f 8bf3 7f3f 6de4 7f3f 5a1e 803f
00000230: fe40 803f 11cf 7f3f bf47 7f3f cd1d 803f
00000240: 8686 7f3f c603 803f 8d13 803f a21c 803f
00000250: 0b8b 7f3f af1c 803f bc05 803f a8f1 7f3f
00000260: 9fd4 7f3f 583e 7f3f ef22 803f ffdc 7f3f
00000270: 4332 803f ed21 803f 6039 803f 18d8 7f3f
00000280: 84d8 7f3f c90d 803f c2d9 7f3f 4c82 7f3f
00000290: 34d9 7f3f 08b8 7f3f ac6a 7f3f 62f2 7f3f
000002a0: 1003 803f 3011 803f 74fb 7f3f 822b 803f
000002b0: c2f5 7f3f 1fec 7f3f 53f9 7f3f e3d7 7f3f
000002c0: 59eb 7f3f aa2d 803f 1e2b 803f d92a 803f
000002d0: 9e76 7f3f 5092 7f3f 40e3 7f3f 4511 803f
000002e0: 0557 803f ac01 803f ef04 803f 9607 803f
000002f0: 4a8e 7f3f 5f2f 803f d9eb 7f3f 89c6 7f3f
00000300: ebf4 7f3f 3899 7f3f 0d34 803f 540d 803f
00000310: e4cd 7f3f ccd1 7f3f 6117 803f 5747 803f
00000320: b304 803f f922 803f 2d2b 803f 5d37 7f3f
00000330: 5646 803f c689 7f3f 1afb 7f3f 4b14 803f
00000340: 5e8c 7f3f ed89 7f3f 303e 803f c59d 7f3f
00000350: 2521 803f 3a12 803f 821a 803f 19fa 7f3f
00000360: f739 803f efa1 7f3f 1c90 7f3f 34cc 7f3f
00000370: 05ab 7f3f 89f8 7f3f 5c22 803f 64bb 7f3f
00000380: 95e7 7f3f 3419 803f 1bd9 7f3f dad9 7f3f
00000390: acc8 7f3f 18e9 7f3f 3e0a 803f ea0f 803f
000003a0: f253 803f e9e8 7f3f abb2 7f3f 77f0 7f3f
000003b0: eaee 7f3f 75ca 7f3f afa4 7f3f 7a33 803f
000003c0: 9f0c 803f c8de 7f3f e1f9 7f3f 36c0 7f3f
000003d0: 8b09 803f 7a23 803f 722c 803f 3500 803f
000003e0: ea21 803f bb00 803f 02af 7f3f 501e 803f
000003f0: a1e4 7f3f 1b1a 803f 0e0a 803f 5323 803f
0.9986053 1.0011395 0.99895304 0.9988152 1.0006367 0.99815613 1.0012658 1.0010818
0.99785584 0.99995416 0.99881595 0.99947524 1.000304 0.99994683 0.9995953 0.9983695
1.0014968 1.0003793 1.000772 0.9993573 1.0012735 0.9994786 0.99838173 0.9984957
0.9993166 0.9999753 1.0002643 1.000997 0.9993633 0.99751997 1.0007668 1.0004612
1.0008415 1.0038257 0.9986706 1.0006444 1.0011356 0.99979025 1.0025414 1.0007898
0.99970895 0.9998612 0.99969083 1.0013039 1.0011195 0.9996173 1.0002694 1.0007823
0.9976624 1.0011604 0.9987415 1.0016758 1.00015 0.99964154 0.9999725 0.9975607
1.0000279 0.99971205 0.99946433 0.9999664 0.9993164 1.0009547 1.0001476 0.9968268
0.99924016 1.0000286 1.0014437 0.9986203 1.000328 1.0010304 0.99948096 0.99902886
1.0006063 0.9987683 0.9999252 0.99885774 0.99957895 0.998714 1.0006031 0.9999294
0.9994269 1.0012798 1.0009255 0.9993641 0.9998674 0.99889344 1.0028448 1.0013192
0.99823743 1.0021313 0.9997635 0.9992186 0.9990132 0.9994276 1.0009552 0.99838674
0.9993189 0.9996475 1.0002626 1.0013317 0.9991421 0.9999246 1.0010017 1.001427
0.99907416 0.9997223 1.0010105 0.9983392 0.9974312 0.9986554 0.99902093 0.99832463
1.0010607 1.0008705 1.0023673 0.99908006 0.9982066 0.99916875 0.99920017 1.0007542
0.9991732 1.0003585 1.000551 1.000859 0.99940777 1.0012399 1.0000424 0.99928594
0.99850255 0.99971104 0.99965286 0.9997516 0.9981049 0.99953747 0.9989309 1.000177
0.9996207 0.9998099 0.99957925 1.0009263 1.0019834 0.99925333 0.9971885 1.0009094
0.9981464 1.0001152 1.0005966 1.0008738 0.9982154 1.0008754 1.000175 0.99978113
0.9993381 0.99704504 1.0010661 0.9994659 1.0015339 1.0010353 1.001751 0.9993911
0.9993975 1.0004207 0.9994165 0.9980819 0.999408 0.99890184 0.99772143 0.9997922
1.0000935 1.0005245 0.9999306 1.0013278 0.9998437 0.9996967 0.99989814 0.9993879
0.9996849 1.0013936 1.0013158 1.0013076 0.9979037 0.9983263 0.9995613 1.000527
1.0026556 1.000051 1.0001506 1.0002315 0.9982649 1.0014457 0.9996925 0.99912316
0.9998309 0.9984317 1.0015885 1.0004067 0.9992354 0.999295 1.0007135 1.0021771
1.0001434 1.0010673 1.0013176 0.9969385 1.0021465 0.998196 0.99992526 1.0006193
0.9982356 0.99819833 1.0018978 0.9985011 1.0010115 1.0005562 1.000809 0.99990994
1.001769 0.99856466 0.9982927 0.99920964 0.9987033 0.9998861 1.0010486 0.9989531
0.9996274 1.0007691 0.9994065 0.9994179 0.99915576 0.9996505 1.0003126 1.0004857
1.0025618 0.9996477 0.99882 0.99976295 0.9997393 0.999183 0.9986066 1.0015709
1.0003852 0.9994931 0.9999066 0.99902666 1.0002912 1.0010827 1.0013564 1.0000063
1.001035 1.0000223 0.99876416 1.0009251 0.99958235 1.0007967 1.0003068 1.001078

1.bias f4 [256]
00000000: ca19 aa3a b850 e43a bdfa 9cba b201 ea3a
00000010: 2799 e3ba 39ef d13a eb79 a439 13e9 71ba
00000020: 2a8f 5139 505c 40bb 2bf5 a1ba ad34 07bb
00000030: 8712 283b 0bc3 a7b8 72de d13a dac5 8739
00000040: a61b 88ba fc62 2cb9 6949 2abb 7d95 cbb9
00000050: e5e7 013a c36a 50b8 f162 d939 6a0e e63a
00000060: ea10 7ab9 27a3 00ba c831 023b 1f35 8839
00000070: 9383 abbb d29d 47ba 9a11 8c3a cbdd 3cb9
00000080: 0893 b5ba abd8 72b9 2c15 9cba c541 203a
00000090: a9f8 1bba d0ba 24ba d9ed 2b3b 3c38 ca39
000000a0: ea4b 113a 46d3 d33a 4b5f d1ba 5aa8 193b
000000b0: ac46 abba 04d5 caba 2fef 5b39 e7f0 4b3a
000000c0: e918 61ba 97c9 3bba 1a6b 86bb 6a55 263b
000000d0: 7fa0 6739 79cc efba 072f 1aba 2feb cb3a
000000e0: 886c 6a3a 3e4f ddba c765 6d39 45e6 8f3a
000000f0: e78f bdba d649 8b3a 1473 8339 4b48 ab39
00000100: 35e8 90ba 58e4 1a3b 8d39 133b 109d f73a
00000110: edfd 8c3a 2335 b63a eb8c ec39 2ba2 85ba
00000120: 8f0b e5ba 1f8d e43a 267e 12bb d586 28b8
00000130: 013c d3ba da65 74b8 5a46 01bb e938 4c3a
00000140: 27ad 09bb 358b 063b 6061 ab3a 7635 aaba
00000150: 8eaf 71ba 1535 a33a 257e 483b b27d 1b3b
00000160: 4a42 8ab9 049d 7839 e4c0 deba 245d 1cbb
00000170: 4c72 d939 c285 7cba b5cf e1b9 f3b4 2dbb
00000180: 7985 c03a d7b3 4fbb 233b 47bb 4950 6fba
00000190: 0f8a 58bb c27a 8b3a 081a bf3a aa7d 123b
000001a0: f1ae 44ba 8216 3138 7fed a5b9 c3bc ea3a
000001b0: b16d ddba 8011 183a 7b51 ae39 93c8 fd39
000001c0: 545d b93a 2042 353b 8498 ee3a 8d62 963a
000001d0: d684 1e3b 6499 b33a eb84 3fbb 0bee 6839
000001e0: d140 01bb 33aa 943a 7ecf 3b3b 11eb 3c3a
000001f0: 5272 b5ba 9394 cc3a 41eb a139 96a5 19bb
00000200: 0bfe 153a 530f eeb9 1b59 c6ba d888 4fba
00000210: 92d9 d5ba e23c f937 0603 49ba 63a3 05ba
00000220: d2ce abba cf99 733a 59d2 d1b9 890d 88ba
00000230: dfa3 cd3a 92c9 11ba c4c7 4abb 8e13 2a3a
00000240: 5461 6aba c318 b83a 4d96 1537 9e1f 083a
00000250: 76a2 50ba f1ff b43a f438 6739 6247 663a
00000260: c06a 2837 39c6 8c35 3405 6139 e79a 35bb
00000270: 649d 4c3b dfc3 3cb8 c8cb ac3a 4959 f53a
00000280: 3aad 1cbb e545 65ba 42f2 b9ba a05c 0c3b
00000290: b4d7 1cbb 62a2 a4ba 65fe 5c3a 5937 23ba
000002a0: 2b07 82ba b03b a93a dcd7 a73a 4e42 f6ba
000002b0: c8dd 55ba eb88 01bb b71d 403a 857d b9ba
000002c0: 8cf0 ba3a a709 d6ba 477a be3a de77 8a39
000002d0: d8f1 92ba f9d9 96ba 778f 1e3a f904 1e3b
000002e0: f918 363b 9a16 8aba d1ff 8937 b85e d8ba
000002f0: ead4 4eba 5d41 993a 01a4 9cba a02e b8ba
00000300: c719 d5b6 405a d6ba 093e cbba 3016 4bba
00000310: 72a4 ff3a de0a b039 7d51 7d3a c2c3 9aba
00000320: 0321 59b9 9058 b039 0b51 4239 b623 d33a
00000330: 2348 283b 2927 dc3a 726a dfb9 743e 3e3b
00000340: 8e09 65ba 1bb0 4639 31c3 85bb fbf3 fcb9
00000350: b3b7 3139 dfd4 033b cf93 75ba c8f1 113b
00000360: b025 28ba 5780 63ba d703 ab3a f06c 84ba
00000370: dac4 f138 6c8a d1ba a1d5 4eb8 168f 053a
00000380: 085c 02bb 8d72 453a b69d dd3a 874c 34ba
00000390: 883a 073b 997c b5ba a333 4eba 1363 8c3b
000003a0: a800 21bb 0a95 0c3b e063 99ba 6a65 ac36
000003b0: b6fb 2cbb ab7a 4dba e826 ef38 1432 b63a
000003c0: 5f7a 383b 2c8b e7ba 8d94 373a 4946 92ba
000003d0: abc1 26bb 083e 013a a798 e5ba 9d80 b83a
000003e0: 74e8 29bb 7eb3 aab9 579d fdba 4d14 aeba
000003f0: 93bf 6b37 2e9a 8cba 2b00 c33a 4b43 9d39
0.0012977656 0.0017419076 -0.0011976581 0.0017853288 -0.0017364369 0.0016016728 0.00031371354 -0.0009228151
0.00019985126 -0.0029351898 -0.0012356391 -0.0020630762 0.0025645809 -7.99951e-05 0.0016011728 0.00025896617
-0.0010384216 -0.00016440073 -0.0025983697 -0.00038830555 0.00049555145 -4.9690494e-05 0.00041463182 0.0017551903
-0.00023848159 -0.0004907124 0.0019866098 0.0002597952 -0.0052341907 -0.00076147646 0.0010686398 -0.00018011701
-0.0013853023 -0.00023159634 -0.0011908165 0.0006113316 -0.0005949834 -0.0006283941 0.0026234298 0.0003857034
0.0005542623 0.0016160987 -0.0015973834 0.0023446293 -0.0013067327 -0.001547486 0.0002097457 0.00077797327
-0.0008586781 -0.0007163523 -0.004102123 0.00253805 0.00022089666 -0.001829519 -0.00058816414 0.0015557761
0.0008942564 -0.0016884578 0.00022639996 0.001097866 -0.0014462442 0.0010626863 0.00025072007 0.00032669524
-0.0011055531 0.0023634639 0.0022464723 0.0018891413 0.0010756828 0.0013901334 0.0004511842 -0.0010195425
-0.0017474758 0.0017437077 -0.0022353022 -4.0179893e-05 -0.0016115905 -5.826899e-05 -0.001972577 0.00077904627
-0.0021007748 0.0020529751 0.0013075285 -0.0012985903 -0.000921958 0.0012451733 0.0030592766 0.0023726043
-0.000263708 0.00023709616 -0.0016994742 -0.0023859227 0.00041474623 -0.00096329686 -0.00043070098 -0.002650556
0.0014688215 -0.0031692886 -0.0030400238 -0.000912909 -0.0033041274 0.0010641443 0.0014579901 0.0022352734
-0.0007502875 4.222105e-05 -0.000316482 0.0017909039 -0.0016893653 0.00058009475 0.00033248574 0.0004840536
0.0014142194 0.0027657822 0.0018203412 0.0011473462 0.0024188063 0.001370233 -0.0029223512 0.00022213922
-0.0019722471 0.0011342227 0.002865761 0.00072066585 -0.0013843274 0.0015608243 0.0003088359 -0.0023444644
0.0005721754 -0.00045406315 -0.0015132757 -0.00079168146 -0.0016315451 2.9711464e-05 -0.0007667992 -0.0005097894
-0.0013107902 0.00092926336 -0.00040020308 -0.001038001 0.0015689096 -0.00055613474 -0.0030941823 0.0006487899
-0.00089408946 0.0014045466 8.916087e-06 0.00051926996 -0.0007958779 0.0013809187 0.00022051093 0.00087844406
1.0038435e-05 1.0488503e-06 0.0002145961 -0.0027710737 0.0031221742 -4.5005112e-05 0.001318329 0.0018718626
-0.0023906962 -0.0008746072 -0.0014186578 0.0021417513 -0.002393228 -0.0012560601 0.0008430242 -0.0006226204
-0.0009920349 0.0012911465 0.001280542 -0.0018788071 -0.0008158353 -0.0019765447 0.00073286466 -0.0014151788
0.0014262362 -0.0016329781 0.0014532291 0.0002641072 -0.0011210991 -0.0011509053 0.00060485996 0.002411185
0.002778588 -0.00105353 1.6450796e-05 -0.001650772 -0.0007890003 0.0011692453 -0.0011950732 -0.0014051981
-6.3508955e-06 -0.0016353801 -0.0015506159 -0.00077471416 0.0019503965 0.00033577433 0.0009663327 -0.0011807608
-0.0002070703 0.0003363532 0.00018531473 0.0016108665 0.0025677762 0.0016796339 -0.00042613182 0.0029028924
-0.00087370805 0.00018948356 -0.0040821065 -0.00048246965 0.00016948469 0.0020115895 -0.00093680335 0.0022269357
-0.0006414307 -0.0008678487 0.0013047409 -0.0010103267 0.00011528442 -0.0015986688 -4.9313185e-05 0.0005094869
-0.001989128 0.0007532023 0.0016907963 -0.00068778585 0.0020634253 -0.0013846337 -0.0007865971 0.0042842715
-0.0024567042 0.002145114 -0.0011702739 5.1378056e-06 -0.0026395149 -0.00078384083 0.00011403655 0.0013900422
0.002814911 -0.0017665378 0.0007003032 -0.0011159863 -0.0025445025 0.0004930203 -0.0017516807 0.0014076416
-0.0025925906 -0.0003255866 -0.0019349259 -0.0013281197 1.4051696e-05 -0.0010727101 0.0014877369 0.0002999551

1.running_mean f4 [256]
00000000: acfc 8e3f 98c8 803f 2d4a 44bf c5aa 1abe
00000010: dd03 87bf 5066 a7be 9727 aebc 1b14 d93d
00000020: 8634 a9be 6406 48bf ddf9 9a3f 72ee 743e
00000030: 8fc1 bcbd 6a3a 783f db27 91be f063 b63e
00000040: 6bc2 a0be fda2 9a3f 71f7 903d 04a9 56bf
00000050: cee2 0bbf 6552 cbbe c818 25bf 3e03 a5be
00000060: 2fab c2be 6f12 7b3e 14d9 a23f ed0a b13e
00000070: 63c9 893f ff02 59bf d83f babd c3df 1cbf
00000080: 6272 c23e e972 4bbe 8732 49bf 49ab 203d
00000090: 2d0a 72be f1e9 64be e742 4dbf 49f3 5ebf
000000a0: c83f 4ebe 4d58 2f3f 446d 393f 820f a63d
000000b0: d097 443d c296 b43e e9a7 cb3e 91ba 0abf
000000c0: 7195 7cbf e80a e53e c57d 49bf cd87 433f
000000d0: 13f2 0abf 9911 92bf 63e1 1fbe 9073 c2be
000000e0: 32cb 8cbe b031 3cbf 193b c73e bded 2e3f
000000f0: 0d0a 9f3f ceaa 283e 8dce 04be c7d9 9d3e
00000100: a4e9 833f 35ef 973e 73fd 8d3f 00f2 e8be
00000110: 14c4 0abf 1a83 413d 4a67 40bf df48 1b3f
00000120: 1447 223f 27a3 9cbd d3ab 0dbf b2f1 2b3f
00000130: bfc6 523f f4e5 96be f547 253e 56a4 0ebf
00000140: 772e 833f fa61 15bf e75a 11bf 6f2e 4abf
00000150: 2003 58bf dc64 b13e 3927 92bf ba10 1d3f
00000160: 6aab 8c3d 632b 27bf 6b3c 81be c1d9 3c3f
00000170: 9f76 2c3f cd42 ce3e dcb9 82be 106e bfbe
00000180: 6b0c a9be fe91 d3bd 655b 19bf de6d a7be
00000190: b549 253f 8b9f b4be 557b 8c3f 4ae5 063d
000001a0: 89f8 643e 5024 663f 3fc2 313e 2113 4dbf
000001b0: 51be 4abf 4e47 823f d5aa 75bf 337f 17bf
000001c0: bff9 4c3e dbb9 ae3e 7c9a 053f 131e 76bf
000001d0: e9c5 f7be 0789 053f 4a68 3c3e 4892 2a3e
000001e0: 85b0 043f a59a e0bc 43ae ca3e 846f 9f3e
000001f0: b121 4b3d eefc 51bf 63a4 98be 38f3 803f
00000200: c122 223f f0b5 a13e 6ab3 483f 1748 4a3f
00000210: 73b6 9e3d 34f3 e7be 9170 943e 5897 903f
00000220: 097e f93d fbf8 b1be de3e f1be 5fa4 a43e
00000230: d536 96bd 53d7 e9be 6129 8bbf ba63 5ebf
00000240: dc20 fb3e 0d4c 7ebe f8d0 02bf b828 6fbd
00000250: b58e ec3d 67b3 68bf 8db9 2d3f 8fed 103f
00000260: 1a8c 3b3f 6ef2 6f3e 471d 393e 16b9 d03d
00000270: 263a 91bf fdb6 4f3f e1ae d33e ea5b 5d3f
00000280: 7368 b13f 5b23 15bf f602 e93d f376 29bf
00000290: 880d 9ebd 068e 0b3f 879e bcbe 0d9b 09bf
000002a0: 1eb9 293f f250 a33f 5dd8 8bbe fa93 27bf
000002b0: 856b 253f 0181 3fbe c206 c53e e82f e3bd
000002c0: 351d 6f3e 9df3 44bf a60d 10bf b8b7 983e
000002d0: 7a99 f53d 8fd8 72bf 1a6f 943c d284 df3c
000002e0: bb2f 48bf 976f ddbe a147 44bf cfa0 adbd
000002f0: 4076 14be b9fb 7abf 17e3 0f3e 7017 8a3f
00000300: a2f8 4f3f 667c 94be ed54 913e a7b6 b13e
00000310: 65ed 6c3f 9441 a7be 9900 47bf 01de 66bf
00000320: 346d 2e3e 230a 803e 8b86 3ebf 01f3 0dbf
00000330: 1f1f 653d e654 55bf 96f9 d43e 319f 20be
00000340: 2250 00be 60ba bf3d e627 223f 09c2 083f
00000350: 64fb 0dbf d5a5 143f c0df 3fbf b015 423f
00000360: 3ef2 bf3e e8e5 6ebf 4fff 29bf 50fc 24bf
00000370: 3d38 1bbf 65c0 2e3f eec1 813f bfd8 37be
00000380: 6a83 7fbf 71eb 20bf ae57 60bd 7070 7f3f
00000390: 5df4 5a3f 621f 133e 2c4c fe3d e679 08bf
000003a0: 1307 923e 2f74 ffbd 16bf 46bf 2040 16bf
000003b0: 5e0d f4be e089 d53e f67a 1e3d 742c 74bf
000003c0: 85d0 253f dfd1 7f3f 7bb8 01be 39b6 48bd
000003d0: a0f4 73be 29a2 4dbf 4b7c 263f c7f7 b33e
000003e0: 2b0c 61bf d0e0 88be 4f08 45bf f3b5 d33e
000003f0: 5286 0f3f 0d92 67be ecb8 563f 0fcc 8c3d
1.1170859 1.0061216 -0.76675683 -0.15104206 -1.0548054 -0.32695246 -0.021259112 0.10599538
-0.33047885 -0.7813475 1.2107502 0.23919085 -0.09216606 0.9696413 -0.2835072 0.3562312
-0.3139833 1.208099 0.07078446 -0.8385165 -0.5464295 -0.397113 -0.6449094 -0.32229036
-0.38021228 0.2451875 1.2722497 0.34578648 1.0764583 -0.84770197 -0.090942085 -0.61278933
0.37977892 -0.19868053 -0.78592724 0.03922585 -0.23636694 -0.22354867 -0.8018021 -0.87089974
-0.20141518 0.6849411 0.7243235 0.08108427 0.047996342 0.3527127 0.39776543 -0.5419093
-0.9866553 0.44734883 -0.78707534 0.7637909 -0.54275626 -1.141162 -0.15613322 -0.37978792
-0.27498776 -0.7351332 0.38912275 0.6833151 1.2424942 0.16471407 -0.12969418 0.30830213
1.0305676 0.29674688 1.1092972 -0.4549713 -0.5420544 0.04724417 -0.75157607 0.6065807
0.63389707 -0.07648306 -0.5534031 0.6716567 0.8233451 -0.29472315 0.1614073 -0.55719507
1.0248555 -0.58352625 -0.5677933 -0.789771 -0.8437977 0.34647262 -1.141822 0.6135365
0.06868632 -0.6530058 -0.25241408 0.73769766 0.673685 0.4028534 -0.25532424 -0.3738866
-0.33017287 -0.1033058 -0.5990508 -0.3270101 0.64565593 -0.35277972 1.0975138 0.03293351
0.22360434 0.8989916 0.17359255 -0.80107313 -0.7919665 1.017801 -0.95963794 -0.59178466
0.20017146 0.3412617 0.5218885 -0.9613964 -0.4839318 0.5216221 0.18399158 0.16657364
0.5183185 -0.02741749 0.39586076 0.31139767 0.049592678 -0.82026565 -0.29812917 1.0074224
0.6333428 0.3158412 0.78398764 0.7901625 0.07749643 -0.45302737 0.2899213 1.1296186
0.121822424 -0.3476027 -0.47118276 0.32156655 -0.07334677 -0.45672092 -1.0872003 -0.8687092
0.49048507 -0.24833699 -0.5110011 -0.05838844 0.11550657 -0.90898746 0.67861253 0.56612486
0.73260653 0.23432323 0.18077575 0.10191552 -1.134587 0.8113859 0.4134436 0.86468375
1.386 -0.58257073 0.11377518 -0.6619713 -0.07717425 0.54513586 -0.36839697 -0.53752214
0.6629809 1.2759078 -0.2731351 -0.6546017 0.64617187 -0.18701555 0.38481718 -0.11093122
0.23350985 -0.76934224 -0.56270826 0.29827666 0.11992164 -0.9486169 0.018119384 0.027285013
-0.7819783 -0.432492 -0.766718 -0.084779374 -0.14498234 -0.9804035 0.14051472 1.0788403
0.8123876 -0.29001158 0.28385106 0.34709665 0.92549735 -0.3266722 -0.77735287 -0.901825
0.17033845 0.25007734 -0.74424046 -0.5544892 0.055937883 -0.8333267 0.4159667 -0.15685727
-0.12530568 0.0936172 0.6334213 0.53421074 -0.55461717 0.5806554 -0.7495079 0.7581434
0.37489504 -0.9331956 -0.66405195 -0.644475 -0.6063269 0.6826232 1.0137308 -0.17953776
-0.99809897 -0.62859255 -0.054771118 0.9978094 0.8552912 0.1436744 0.124168724 -0.53311
0.28521022 -0.12473332 -0.77635324 -0.58691597 -0.47666448 0.41706753 0.038691483 -0.9538033
0.647713 0.9992961 -0.1266803 -0.049001906 -0.23823786 -0.8032556 0.65033406 0.35149977
-0.8790919 -0.26734018 -0.769658 0.41349754 0.5606433 -0.22614308 0.8387592 0.068748586

1.running_var f4 [256]
00000000: c6c5 f23a 743e a53a f3c8 2439 5b34 6639
00000010: f06e 343b e86b d437 8bcb 283b 9feb f33b
00000020: bdd1 6d3b 20f4 853b c7e3 203c fe98 d13b
00000030: e78a 583b ee2d 7d3b c5ee 033a 3d6c 5e3a
00000040: d05a ff3a a4f0 f83b 401b 9337 c74c ae39
00000050: c437 353b 7079 5f3a b607 2f3b 7aa3 af39
00000060: 2be4 943b bb98 083c b573 123c 3a76 4835
00000070: 1be6 c33a d37e 1f3b 0ce6 7f3b ac74 263b
00000080: d813 1539 5621 3c3a 12f7 e23a b95e f639
00000090: 8381 1f3c e453 0e39 907c fd39 256a 0d3c
000000a0: c1c4 3a39 96f4 8b39 09c6 863a 38a6 033b
000000b0: 20e2 c239 16b2 c538 433f 923b 7e9a 913b
000000c0: a627 653a 64e5 283c c6fd 3238 1544 ce38
000000d0: d205 1f3c f705 213c 98d7 3039 f0c7 bc38
000000e0: 3bd3 b33a 1ae5 4d3b 5e59 d73b b744 7938
000000f0: c2d7 273c d29f 333a c239 db3a b51a ef39
00000100: c785 1e3c c09e a139 6178 8a3b 7c85 3339
00000110: 7aa8 fc3a 9ba7 753b 7921 5f3a 5f10 5e35
00000120: f2ad 213b 6f3b 6f38 4dc9 203a 322d 033b
00000130: 87d3 5c39 eeec ac3b 5591 853a 099f c23b
00000140: a915 f738 2ed7 4039 80fe b83b 2c03 f93b
00000150: 73aa b13a 89f9 843b f42f ed3b 96f7 df3b
00000160: eaf2 6c3b 24c2 623b a305 5d3b 1987 043c
00000170: 9925 be3a 8f40 1e3a 303a df3a b3dc 1c3a
00000180: 77bd 4336 dab7 3f3a f8dd 8e3b 1d5e 873b
00000190: 2171 063b a006 1f3b d565 cf3b c861 7739
000001a0: a983 103a 6cc5 7939 e94b af37 cb61 013c
000001b0: 8672 a03a 8b86 3d3b 5458 a93b cf71 0f3c
000001c0: 7225 2e37 244b 8a3a 3ff1 2f3b cf2b 113a
000001d0: b6f7 b33b 0d7d 1b3c 1d1c eb3b 4cf7 4039
000001e0: c2b2 323a 5b39 de3b b693 023b 4b96 473b
000001f0: d6b7 ad3a d929 243c dca7 df3a 9e9a 3f3b
00000200: f964 cc39 7ec5 6239 4d0a 8339 7982 dc3a
00000210: 31a1 153c 0db7 ab37 587c 143c d28b c83a
00000220: 6d03 463b 9492 0b3c 0b1f 043c 571f a03a
00000230: 2edf 8e3b e1a6 b23b 6a52 c03b c3c7 8337
00000240: c29c 3339 06d6 693b 6627 d135 fb5e 8a3b
00000250: dacf 9237 70c9 6a3a 7838 9537 ddaf 7738
00000260: 2aac 0d3b 085d 993b 4d9c a13b 717c ab38
00000270: 05fc 913b 25f0 843a df5e 233b 0446 113b
00000280: 717d 253c fae0 0d3c 40fb f23a 34bb ca39
00000290: 296b 9e3a b659 d536 e6a7 013c 42be f93b
000002a0: 8014 e13b 6db1 183c 9f2c da3b 3188 653b
000002b0: 2e50 b638 ee33 df3b 4cfe 463b 9572 0e3b
000002c0: 05d0 153a 5c6a 6a3b 05f5 503b 0988 0d3b
000002d0: 73bc 323b 7275 dc3a 2f56 3b3b 3951 4e3b
000002e0: a2dc b33b bbdd cc39 810f 423b 2809 713b
000002f0: 79e0 dd38 c027 303b 8219 7b33 2674 523b
00000300: 2109 f63a 5cf8 e839 8a7f 073c c8db 833b
00000310: ee0b 0b3a 8f0d e53b fb49 063c 1ce2 e339
00000320: 7654 b13b bafe ff3b 8343 9139 ca1f dd3b
00000330: c9d4 8e3b 918f b13a 8947 843b dc95 683b
00000340: 6e58 863b 60c7 163c 1198 d93a 0863 7c3b
00000350: 8ef1 223a b3a0 923a c62a 5c3a d307 db3a
00000360: 48e3 453a 3f38 013b d5d8 bf3b b5b7 1d3c
00000370: 0590 163c 1746 fd3b 4980 243b 2db0 663b
00000380: a5de c93a 4951 5e38 0e73 543b 21ba e33a
00000390: 0f4a 163c 90d8 b73a 0804 9d3b bb53 4f3b
000003a0: 093a 0e3c 1285 b83b 8a52 2f3a ab53 c93b
000003b0: cb50 743a 9372 6137 8c6f fc39 678a d33a
000003c0: 1367 123c f458 4c3a 7348 a83b 0514 583a
000003d0: a7c9 043b 313c dd39 db0d b639 169d d03a
000003e0: 5cf2 053b 5e5e a63b df2f 2538 fe4e c235
000003f0: 622f 1f3c 22dc bc3b 5982 a33b c36a c037
0.0018522076 0.0012607113 0.00015715118 0.00021954013 0.0027531944 2.5322617e-05 0.0025756087 0.0074438597
0.0036288344 0.00408794 0.009819931 0.006396412 0.0033041777 0.0038632113 0.0005032833 0.00084847567
0.001948202 0.007597046 1.7536455e-05 0.0003324507 0.0027651647 0.00085248705 0.0026707477 0.000335004
0.0045438013 0.008337195 0.0089387195 7.467785e-07 0.0014945896 0.0024337068 0.003904703 0.0025399132
0.0001421714 0.00071765983 0.0017316064 0.0004699135 0.009735468 0.00013573427 0.00048348727 0.008631264
0.00017811639 0.00026694377 0.0010282408 0.0020088088 0.0003717104 9.426863e-05 0.004463108 0.0044434657
0.0008741565 0.010308597 4.2674852e-05 9.835527e-05 0.0097059775 0.009828082 0.00016864983 9.00178e-05
0.0013719568 0.0031417073 0.0065719327 5.9430222e-05 0.010244312 0.0006852123 0.0016725587 0.0004560553
0.00967545 0.0003082659 0.004225776 0.00017120497 0.0019276284 0.0037483934 0.0008511763 8.272527e-07
0.002467033 5.7037392e-05 0.0006133512 0.0020015952 0.00021059635 0.0052772677 0.0010190407 0.0059393686
0.00011781912 0.00018390708 0.005645573 0.007599255 0.0013554826 0.004058067 0.0072383825 0.0068349345
0.003615553 0.003460058 0.0033725284 0.00808885 0.0014507055 0.00060368417 0.0017030891 0.00059838145
2.9167547e-06 0.0007313468 0.004359957 0.004131092 0.0020514207 0.0024265423 0.006329278 0.00023592182
0.0005512783 0.00023820036 2.0896974e-05 0.007896851 0.0012241162 0.0028919305 0.0051680002 0.008755161
1.0379927e-05 0.0010550958 0.0026846675 0.0005537839 0.005492176 0.009490264 0.007174982 0.00018402672
0.0006816798 0.0067817396 0.0019924468 0.0030454572 0.001325364 0.010019743 0.0017063576 0.0029236446
0.00038985143 0.00021626611 0.00024993942 0.0016823552 0.009132669 2.0470028e-05 0.009062849 0.0015300459
0.0030214444 0.008518834 0.008064042 0.0012216371 0.004360101 0.0054520224 0.0058691995 1.5709438e-05
0.00017129167 0.0035680546 1.558318e-06 0.0042227483 1.7501345e-05 0.0008956408 1.778848e-05 5.9053174e-05
0.002161751 0.0046802796 0.0049319626 8.1770944e-05 0.004455092 0.001014237 0.0024928374 0.0022166977
0.010100708 0.008659596 0.0018538013 0.0003866792 0.001208638 6.3583384e-06 0.007913565 0.0076215575
0.006868899 0.009319645 0.0066581513 0.0035023803 8.693371e-05 0.0068116104 0.0030363975 0.0021735777
0.0005714896 0.0035768962 0.0031884324 0.0021595976 0.002727297 0.0016819669 0.0028585305 0.0031481518
0.005488948 0.00039075114 0.0029611292 0.003677914 0.000105799125 0.0026879162 5.846369e-08 0.0032112687
0.0018771031 0.0004443553 0.008270154 0.0040240027 0.0005304207 0.0069901417 0.008196349 0.0004346528
0.00541168 0.007812348 0.00027706855 0.0067481743 0.004358862 0.0013546814 0.004036848 0.0035489714
0.004099897 0.009202808 0.0016601105 0.0038511176 0.0006215804 0.0011186808 0.0008398708 0.0016710706
0.0007548821 0.0019717363 0.005854706 0.009626319 0.00918961 0.0077293026 0.0025100878 0.0035200224
0.0015401436 5.3004627e-05 0.003241721 0.0017374196 0.00917293 0.0014026333 0.0047917403 0.00316356
0.008680829 0.0056310976 0.00066880195 0.006144007 0.00093199004 1.34377215e-05 0.00048148294 0.001613927
0.008935708 0.00077952375 0.0051355897 0.0008242729 0.0020261796 0.0004219725 0.00034724068 0.0015915956
0.0020438647 0.0050771674 3.938365e-05 1.4477116e-06 0.009715887 0.0057635466 0.004989904 2.2937898e-05

3.weight f4 [128, 256]
00000000: 179c d0bc 1ffe 943c c23e 20bd aef4 2ebc
00000010: f7fd 283d bc53 19bd 9594 3abd 9cce 093d
00000020: a1d7 673d 65cd 4fbd 900a 7eb8 893b 42bd
00000030: 7563 5ebd 8d61 0ebd d918 ee3b fb8d 70bb
00000040: abc2 67bd 91ac fbbc 8dd7 70bd b494 513d
00000050: b9f8 d53c ecb3 303d fd39 44bd cccb 533c
00000060: b1a9 ef3c 9a90 81bd 274e 2a3d 5b97 b33c
00000070: 80c0 e2bb ca59 f33c 67a1 3dbd 207c 11bd
00000080: 6afc de3c 96b3 e13c 24ad 25bd 538d d5bb
00000090: 0dd7 19bd 422c 5abc 321e 353c 335f 773d
000000a0: d722 66bd f5e2 30bd a2af ce3c c2b3 a9bc
000000b0: c310 ee3c d1f5 f83c 34e7 543d 20c3 23bd
000000c0: 21f3 64bd fafb 683a 3116 293c 1f76 d23c
000000d0: afff 803d 5e0e 2bbd 03e2 3e3d 5ba4 44bd
000000e0: 13d7 11bd 8201 d1bc 09f3 3fbd c084 093d
000000f0: 2d80 7abd e5fb 303d ee14 6e3d 0a99 3f3d
00000100: 35d2 a1bb 9a7b 703d 1b4f 13bd 9638 853c
00000110: 2f86 333d aee3 2a3c 78f4 f3bc 51db 5b3d
00000120: 9523 17bc 790c 29bd 8ade 173d a194 e33c
00000130: 2d8b 10bd edc4 58bd 038c 553d 3402 af3c
00000140: 3739 f6bb d87c 143d ff01 43bb 317c cdbc
00000150: dd6d ae3c e1af 323d c04d 6c3d 241a 673d
00000160: b096 6b3d 9c3a 41bd 81f7 6abd caae 6fbd
00000170: 686d 11ba 5ea7 573d 9671 2cbd 49f0 333c
00000180: fd44 2cbd 5653 343d 0009 a13c c43f 59bd
00000190: b942 6bbd f230 473d 7550 263d 38ca 263d
000001a0: eb13 86bc 6d0e 16bd 190b 043c 5f8b 003d
000001b0: 444b 92bc b3c9 fb3c eacd 28bd 57bb 71bd
000001c0: a8ee 733d c9f7 a4bb dc00 7cbd 8c31 363c
000001d0: 392e 943b 27df 01bd cfab 16bc 4704 7d3b
000001e0: a188 d43c 9507 dc3c 9d1f 533c 80b0 05bb
000001f0: e3d2 6bbd 1478 723d b214 493d d8a1 923c
00000200: d33e 1b3c fbb1 1d3d 5618 8bbb 072d 4ebd
00000210: 5120 a13c f05e 3b3c 81d3 763d 01fd 8d3c
00000220: 76b8 953b 3ead 503d 1f5e 783d d4aa 87bc
00000230: b5f2 71bd d467 d4bb 3b4a 2bbd c009 15bb
00000240: 8e7c 4e3c 8d69 e53c 4066 fcbc ed9d f03c
00000250: 28cf 0cbd 3a5d 31bd 2dcd 4abc f531 59bd
00000260: ca1e 4cbd 9d39 c1bc 54ad b83c 6769 34bd
00000270: 9a5d 063d 1ac7 8d3b ed60 4fbd f44a 053c
00000280: 529d ff3c e136 113c 296a 60bd d43d 1fbc
00000290: d716 e93c 473c 83bd 5672 0fbd 4abf 5e3c
000002a0: 97a9 5abd 1336 c93c 0f57 37bc 86fd 2dbc
000002b0: 692b 5a3d 85e8 c63b 6c82 a23c d954 093d
000002c0: b89c 00bc 27d8 07bd 44c4 3cbd e1f5 64bd
000002d0: af42 39bd d22c c93c 08f0 47bd dbbf fc3c
000002e0: e99e a8bc 3640 593c 539a 42bc 6ab4 093c
000002f0: 2f53 76bd beae 183d 74a7 53bc 7c0f d93b
00000300: 0a4e 04bd 4b49 343d b81c 6e3d 7018 26bd
00000310: 9f1e e4ba bd45 44bd fe43 843c e1dd 7bbc
00000320: 6cf9 abbc aa90 04bd 3bbe a8bc 49cd dbbb
00000330: af84 e5bc dba3 8b3b 6063 2c3c e17c c9bc
00000340: 3709 e0bb e36d 21ba 6bc2 24bc df67 163d
00000350: 7068 803d 3072 0a3d 2971 eb3c 76de 9b3c
00000360: ce6a 8cbc 0978 7c3d 6d97 463d 63df bfbc
00000370: 17e1 dabc 302f d5bc bda3 193b ab0e 02bc
00000380: d94a 513d a391 11bd 571a e53b 4b43 68bd
00000390: 83a4 e83c e082 083d d231 3b3d 74e3 ba3c
000003a0: 41c7 b13c 4a62 02bd 6fd0 5d3d 1352 c53c
000003b0: 9288 3dbd 36ac 3bbd 8d2a dfbc b7de 6dbd
000003c0: 4428 68bc 1c9a ddbc 63b5 00bc b5d6 9c3b
000003d0: df92 d03c 1e12 2eba e814 bcbb 6fe5 fcbc
000003e0: 3f8b 4abd 22c3 dfbb dba4 e7bc 4796 ac3b
000003f0: 6667 6f3d 13c8 2d3d 2be5 813c 1c8a 253d
-0.025465054 0.01818758 -0.03912235 -0.010678453 0.041257825 -0.03743337 -0.045551855 0.033644304
0.056602124 -0.05073299 -6.0568156e-05 -0.04742006 -0.05429407 -0.034761 0.0072661457 -0.003670572
-0.056582134 -0.030721935 -0.058799315 0.051167205 0.026119577 0.043140337 -0.047906864 0.012927007
0.02925572 -0.06326409 0.041578438 0.021922758 -0.0069199204 0.0297059 -0.046296503 -0.035518765
0.02721997 0.027551454 -0.040448323 -0.0065170913 -0.037558604 -0.013316216 0.011054562 0.060393523
-0.05618557 -0.043185193 0.025230233 -0.020715598 0.029060727 0.030390652 0.051978305 -0.039981008
-0.05589593 0.0008887645 0.010320232 0.02569109 0.06298768 -0.04176175 0.04660226 -0.048008304
-0.0356055 -0.025513414 -0.046862636 0.033573866 -0.061157394 0.043208975 0.05812543 0.04677681
-0.0049383887 0.058711626 -0.035964113 0.016262334 0.04382914 0.01043026 -0.029779658 0.053675953
-0.009224792 -0.04127166 0.037077464 0.027780833 -0.03528898 -0.052922178 0.05213548 0.021363355
-0.0075141448 0.036251873 -0.0029755828 -0.025083633 0.021292621 0.043624762 0.057691336 0.056421414
0.057516754 -0.047175035 -0.057364944 -0.0585163 -0.0005547614 0.05264985 -0.04210051 0.010982581
-0.04205798 0.044024788 0.019657612 -0.053039327 -0.05743668 0.048630662 0.040604074 0.040720195
-0.01636692 -0.03663485 0.0080592865 0.031382915 -0.017858155 0.030735826 -0.041212 -0.05901655
0.059553772 -0.005034421 -0.061524257 0.011120211 0.0045221117 -0.031706955 -0.009196236 0.0038607286
0.025944056 0.026859084 0.012885955 -0.0020399392 -0.057574164 0.059196547 0.049092002 0.017899439
0.009475428 0.038499814 -0.0042448444 -0.05033591 0.01966873 0.011436209 0.0602603 0.017332556
0.0045691086 0.050946467 0.060636636 -0.01656095 -0.059069354 -0.006482104 -0.04181884 -0.0022741407
0.012602938 0.028004432 -0.030810475 0.02937218 -0.034377247 -0.0433018 -0.012378019 -0.05302616
-0.04983405 -0.023587042 0.022543587 -0.044045832 0.03280411 0.0043267133 -0.050629545 0.008135546
0.031202946 0.008863182 -0.054788742 -0.009719331 0.028453274 -0.06407981 -0.03502115 0.013595412
-0.05338439 0.024561917 -0.01119019 -0.010619527 0.053264055 0.006070199 0.01983758 0.033528183
-0.007849865 -0.033165123 -0.04608561 -0.05589855 -0.04522961 0.024557505 -0.048812896 0.030853203
-0.020583587 0.013259938 -0.011877614 0.0084048305 -0.060137924 0.037276022 -0.012918342 0.0066241603
-0.032300986 0.04401521 0.058132857 -0.04055065 -0.0017404145 -0.04791807 0.016145702 -0.015372724
-0.020992957 -0.032364525 -0.020598521 -0.0067078215 -0.02801737 0.0042614765 0.01052174 -0.02459568
-0.006837036 -0.0006158037 -0.0100561185 0.036720153 0.0626992 0.033800304 0.028740482 0.019026976
-0.017140772 0.061637912 0.048484255 -0.023421949 -0.02671866 -0.026023477 0.0023443543 -0.007938067
0.05109677 -0.03553928 0.0069916653 -0.0567048 0.028398758 0.033327937 0.04570181 0.022813536
0.021701457 -0.031832017 0.054153856 0.024086988 -0.04627282 -0.04581853 -0.02724197 -0.058073726
-0.014169756 -0.027051024 -0.007855746 0.0047863373 0.025460659 -0.0006640273 -0.005739797 -0.030871121
-0.0494492 -0.0068286816 -0.028276851 0.005266938 0.058448218 0.042427134 0.015856346 0.040414914

3.bias f4 [128]
00000000: fe8c 133d 4fd4 063c e299 5a3d 6639 71bd
00000010: f329 443d 7a34 02bd d6e8 e6bc 9f48 b73b
00000020: fbe4 e23c 2109 69bd da97 f7bc 2a7d 62bb
00000030: 64d1 fcbb 502f 49bd adac a43c 9ff2 02bc
00000040: 19d1 b2bc 7275 95bc 67ec 513c 182b a6bc
00000050: 858f 6b3d 3f8e e4bc c813 67bc 5928 4f3d
00000060: 69d2 ebbc 8574 7f3d a007 99bc b24c 993b
00000070: d55d 04bd f6f7 d53c 53b3 51bd dc84 63bc
00000080: d48f f83c d42e 49bd 01b6 04bc 7535 4f3d
00000090: ef78 d7bc d1c5 1cbd e5dc c53c 16f0 56bd
000000a0: b712 863c 1adb ab3c 4e0a 0e3d ebf8 bbbc
000000b0: bf9c efbb 041d 21bd ce20 81bc 1001 d33c
000000c0: 5b16 1a3d 407c 523d 5ee4 7dbd 0616 35bd
000000d0: 5c1b 3d3d 1837 7dbc d718 dfbb 7f69 8c3c
000000e0: eed6 fe3b dd2b 6ebd 81a4 3d3d 9866 74bc
000000f0: 938c 923c 63b6 3abd ff4c 28bd a499 733c
00000100: 617a 4abd 2419 d33c 8c3d 593d d9a9 bbbc
00000110: 92bb 563d cc49 c1bc 4e73 71bc cbe7 573d
00000120: 1b31 3c3d ec7e 63bd 1fdf 3dbd 7fc4 17bb
00000130: 9c6e 6c3c 9fbd 673d 52ed a83c 9fa8 cb3c
00000140: 067f 433d 5eb5 11bd 16a2 19bd 6a59 c43c
00000150: 3797 efbb 9053 093a d991 f13c 3034 f6bc
00000160: c644 11bd 8515 42bd 415a 763d 0c5c 6bbc
00000170: c771 013c ba50 e63c d9f6 ad3b 7d1a bf3b
00000180: 5d3c 523d d305 96bc 6e47 58bd 3f32 2c3c
00000190: 9be7 3d3d 91c6 e4bc 0eab b93c ccad 59bb
000001a0: b93d b53c 297c d0bb 9e93 423d c420 153c
000001b0: 2cf2 9c3a 9ce1 923c a896 193d 92c4 013c
000001c0: 8f10 863c 595d 7ebd 158f 073d d421 74bd
000001d0: 17ca 8cbb f058 0bbd 8e52 813d 8fbd 013d
000001e0: 7b8b 713d 9a4c 4d3d 0f0c 30bd d23b 6eb9
000001f0: 931a a2bc a5df 313c d1d9 13bd 08b4 da3c
0.036023133 0.008229329 0.05336941 -0.05889263 0.04789157 -0.031788327 -0.028187197 0.005593374
0.027697077 -0.05689347 -0.030223776 -0.0034559467 -0.007715391 -0.049117386 0.02010187 -0.007992416
-0.021828221 -0.018244479 0.01281271 -0.02028422 0.057509918 -0.02789986 -0.014103837 0.050575588
-0.028786855 0.06236698 -0.018680394 0.0046783322 -0.032316048 0.026119214 -0.051196408 -0.013886657
0.03034202 -0.049116924 -0.008100034 0.05058809 -0.026302783 -0.03827459 0.024153182 -0.052475058
0.016366346 0.0209785 0.034677796 -0.022945842 -0.0073123868 -0.039334312 -0.015762713 0.025757343
0.037618976 0.051388025 -0.061985366 -0.044210456 0.04616867 -0.01545503 -0.006808381 0.017140148
0.0077770865 -0.0581473 0.04629946 -0.014917038 0.017889297 -0.045584094 -0.041089054 0.014868174
-0.049433116 0.025768824 0.05303721 -0.022908138 0.052424975 -0.02359476 -0.014736963 0.05271129
0.045945268 -0.055540964 -0.046355363 -0.0023157892 0.014430668 0.05657732 0.020620976 0.024860678
0.04772856 -0.035573356 -0.037508093 0.023968417 -0.0073117274 0.0005238587 0.02948849 -0.030054182
-0.035465978 -0.047383804 0.060144667 -0.014365207 0.007900662 0.028114665 0.0053089675 0.005832015
0.0513271 -0.018313324 -0.052802496 0.0105100265 0.046363454 -0.027926715 0.022664573 -0.0033215163
0.022124158 -0.0063624573 0.04750406 0.00910205 0.0011974028 0.017929845 0.037497193 0.007920401
0.016365318 -0.062100742 0.033095438 -0.059602574 -0.004296552 -0.034020364 0.06314574 0.031674918
0.05897091 0.05012188 -0.04298025 -0.00022719734 -0.019788062 0.010856544 -0.036096398 0.026697174

4.weight f4 [128]
00000000: 014e 7f3f 7cc3 7f3f 16bd 7f3f f16b 803f
00000010: 390f 803f 3e1a 803f ec3c 803f 569c 7f3f
00000020: 0e2a 803f f0a9 7f3f d5d1 7f3f e5bc 7f3f
00000030: 7d15 803f b70a 803f 9713 803f 1dcc 7f3f
00000040: 9844 803f 0136 803f 30d7 7f3f 9d16 803f
00000050: 872f 803f ecf4 7e3f 937e 7f3f abeb 7f3f
00000060: cee2 7f3f 03be 7f3f d8dc 7f3f f551 7f3f
00000070: 581e 803f bd04 803f 5fe3 7f3f da1f 803f
00000080: e3f3 7f3f bf61 803f e0db 7e3f e71d 803f
00000090: 6190 7f3f 6921 7f3f 56f6 7f3f aafb 7f3f
000000a0: 29a2 7f3f d6f0 7f3f de0f 803f e84c 803f
000000b0: 298a 7f3f 960c 803f be2b 803f cc26 7f3f
000000c0: 9b3a 7f3f d734 7f3f d572 803f b959 7f3f
000000d0: deb2 7f3f e21c 803f ee7d 803f 374a 803f
000000e0: 78c7 7f3f bea1 7f3f bf09 803f f5eb 7f3f
000000f0: 20dd 7f3f a10c 803f 859b 7f3f 70e4 7f3f
00000100: 8a32 803f d228 803f 7137 803f 9cd7 7f3f
00000110: 9717 803f 6699 7f3f 82ce 7f3f 1643 803f
00000120: b2fa 7f3f 50e8 7f3f 46ef 7f3f 7c24 803f
00000130: 09d2 7f3f 461b 803f b6fa 7f3f dbbd 7f3f
00000140: d6c2 803f 974c 803f 2408 803f 6a7e 7f3f
00000150: a23a 7f3f 1842 803f 0b31 803f 63e4 7f3f
00000160: bc34 803f 52e6 7f3f ea98 7f3f 48cf 7f3f
00000170: d28e 7f3f f6d7 7f3f be1b 803f 2015 803f
00000180: b730 803f 1133 803f 14e8 7f3f 291a 803f
00000190: dde4 7f3f ab89 7f3f 58a3 7f3f 1c4d 803f
000001a0: 42e7 7f3f d6c7 7f3f c43e 803f f0b4 7f3f
000001b0: 58ce 7f3f e3ef 7f3f 2bb5 7f3f 144e 7f3f
000001c0: 804e 803f 8107 7f3f d41e 803f 7dd0 7f3f
000001d0: abe7 7f3f da27 803f 9cef 7f3f 3d01 803f
000001e0: cac5 7f3f 35db 7f3f 5891 7f3f 58c6 7f3f
000001f0: e2f7 7f3f e089 803f f5bc 7f3f fad4 7f3f
0.997284 0.9990766 0.998979 1.0032941 1.0004646 1.0008008 1.0018592 0.99847925
1.0012834 0.9986868 0.99929553 0.99897605 1.0006558 1.000327 1.0005978 0.9992083
1.0020933 1.0016481 0.99937725 1.0006901 1.0014504 0.9959247 0.9980251 0.99968976
0.9995545 0.9989931 0.99946356 0.9973443 1.000926 1.0001446 0.99956316 1.000972
0.99981517 1.002983 0.9955425 1.0009125 0.9982968 0.99660355 0.99985254 0.99993384
0.9985681 0.9997686 1.0004842 1.002347 0.9982019 1.0003841 1.0013349 0.99668574
0.996988 0.9969 1.0035044 0.9974628 0.99882305 1.0008814 1.0038431 1.0022649
0.9991374 0.99856174 1.0002974 0.99969417 0.99946785 1.0003854 0.9984668 0.9995794
1.0015423 1.0012457 1.0016919 0.9993837 1.0007199 0.9984344 0.9992448 1.0020473
0.99991906 0.99963856 0.9997448 1.0011134 0.99929863 1.0008323 0.9999193 0.9989907
1.0059459 1.0023373 1.0002484 0.9980227 0.9969884 1.002017 1.0014967 0.99957865
1.0016093 0.99960816 0.99842703 0.9992566 0.998273 0.99938905 1.0008466 1.0006447
1.0014867 1.0015584 0.999635 1.0007983 0.9995859 0.9981944 0.9985862 1.0023532
0.99962246 0.999143 1.0019155 0.99885464 0.9992423 0.99975413 0.99885815 0.9972851
1.0023956 0.99620825 1.0009408 0.999275 0.9996287 1.0012162 0.9997499 1.0000378
0.9991118 0.9994386 0.9983115 0.99912024 0.99987614 1.0042076 0.998977 0.9993435
